datasets/mnist/partition_noniid-#label_major_classes_num_1_clients_10_dir_alpha_None_augement_data_percent_per_class_0.005_augement_data_with_zeros_0_seed_42_special_data_None/models/batch_size_256_com_round_25_epochs_1_lr_0.1_sample_ratio_0.9_personalization_steps_50_model_nanomlp/client_5.pt (torch, 65887 bytes, 4 tensors)

weight f4 [20, 784]
-0.0002673864 0.0191587 -0.029394465 -0.026283538 -0.013755515 0.009577049 -0.0007076137 0.028317487
-0.0031694302 0.009450449 -0.0107933255 -0.007020192 -0.034126043 -0.023653103 -0.014706779 0.0013236307
0.014119115 0.021429386 -0.024212183 -0.015552245 0.012972042 0.029656714 -0.0073500066 0.026725428
-0.0057565486 0.003779075 0.032338437 -0.033131085 -0.0224835 -0.009041617 -0.013921428 0.030857172
-0.023149274 -0.016442241 -0.024986405 -0.033495005 -0.020868333 0.030679636 0.015460013 0.016373254
0.000940341 -0.019212145 0.005604393 -0.03337509 -0.026080951 -0.018624382 0.022377606 0.020479811
-0.016679699 -0.0015880659 0.022737067 0.03550476 0.014174367 0.004824745 0.02394594 -0.021028655
0.0066551436 -0.027689483 -0.024753083 -0.018449415 0.016159305 0.01435607 -0.021209856 0.010622971
0.018994106 -0.00635231 -0.0026576975 0.0038420423 0.018587522 0.029337814 -0.035133574 -0.021387199
0.0044160476 0.020523258 0.02069492 0.022444405 0.001071101 -0.035262454 0.0020583277 -0.022410952
-0.033300653 0.031733416 0.027155707 -0.035626 0.006684718 -0.006016429 -0.0058769793 -0.016344294
0.013744473 -0.020998616 0.013584529 0.017828856 0.02414119 0.011652145 -0.037918013 -0.024056807
0.017859872 0.0012245975 -0.037039787 -0.0340123 0.011875039 -0.0010000999 -0.044444695 -0.03952285
-0.05603689 -0.013831827 -0.032577302 -0.0297777 -0.0025439546 0.0052862195 -0.014674931 0.02119206
-0.02173354 0.032406606 0.024482243 -0.030156555 -0.008640596 0.0029229114 0.008392593 0.01277531
0.021696616 0.0143952025 0.0003336131 0.04176229 -0.0010661309 0.012578639 0.020784073 -0.0016871226
-0.01545891 -0.047321714 -0.03256368 -0.016462892 -0.04397815 -0.015214494 0.017604426 -0.007976275
-0.000700674 -0.0033745877 0.0070858933 0.022621276 0.03383022 0.02268057 0.033940718 -0.0019962592
-0.030336259 -0.012356041 0.032674443 0.01386225 0.0037198437 0.0020750926 0.0063614943 0.02669509
0.064037435 0.10000565 0.093860455 0.024209306 0.055178244 -0.01904709 -0.009084487 -0.015092501
-0.00746491 -0.014000089 -0.040255528 -0.038644463 -0.011240816 -0.0020041077 -0.016680604 0.013375319
-0.032144945 -0.0024093771 0.031595957 -0.012296009 0.037326332 0.021086056 -0.015005249 0.05122354
0.03445455 0.031244969 0.0852511 0.045113537 0.09023139 0.086135894 0.112565085 0.08139958
0.06788253 0.050083444 0.015095195 0.012969081 -0.0106652165 0.025311569 0.02350394 0.019224018
-0.030928332 -0.00046561402 -0.025432812 -0.019443573 -0.020797934 0.01250249 -0.02082815 0.0037874205
0.011919803 0.038654823 -0.0012597545 0.014959397 0.028750863 0.071825236 0.040418297 0.09153747
0.088879175 0.08996423 0.09124272 0.07971272 0.06993225 0.049876705 0.051571347 0.05013603
0.0154473465 0.011090343 0.03852591 -0.024550598 -0.0005191577 0.036989197 0.01332574 0.0010827631
-0.030917875 0.01810505 -0.023371287 -0.0031928893 0.0024090153 0.016068375 0.030494437 0.070972696
0.04541605 0.06289924 0.056653492 0.016020862 0.067110375 0.04339974 0.07198233 0.10821479
0.10263601 0.11102843 0.06487907 0.06171702 0.06914116 0.008869018 0.05104726 -0.015256641
0.008986694 -0.0006900809 -0.017322712 0.0049093445 0.029559648 -0.009664454 -0.018506775 -0.0039393557
00000000: ff2f 8cb9 b5f2 9c3c a9cc f0bc 9350 d7bc
00000010: d05e 61bc 0ee9 1c3c 277f 39ba 13fa e73c
00000020: 37b6 4fbb 0ed6 1a3c 7dd6 30bc a409 e6bb
00000030: c0c7 0bbd 27c4 c1bc b4f4 70bc ad7d ad3a
00000040: dc53 673c ae8c af3c a158 c6bc d8ce 7ebc
00000050: b088 543c a3f2 f23c 53d8 f0bb 49ef da3c
00000060: 6ea1 bcbb 5caa 773b 4f75 043d 76b4 07bd
00000070: 512f b8bc 4a23 14bc b316 64bc 2ec8 fc3c
00000080: 8ca3 bdbc e1b1 86bc 4ab0 ccbc 0f32 09bd
00000090: 11f4 aabc dc53 fb3c ff4b 7d3c 3421 863c
000000a0: 3781 763a ca62 9dbc 0ea5 b73b 52b4 08bd
000000b0: b8a7 d5bc 2992 98bc 3e51 b73c 47c5 a73c
000000c0: dda3 88bc a626 d0ba 1643 ba3c 706d 113d
000000d0: 9b3b 683c e518 9e3b 472a c43c 4944 acbc
000000e0: 6413 da3b 0ed5 e2bc fac6 cabc 3a23 97bc
000000f0: 8560 843c b935 6b3c 4bc0 adbc f80b 2e3c
00000100: 8799 9b3c 0a27 d0bb c42c 2ebb c6ca 7b3b
00000110: dc44 983c db55 f03c 39e8 0fbd 3534 afbc
00000120: 7eb4 903b 6420 a83c 6588 a93c 54dd b73c
00000130: 3064 8c3a 5d6f 10bd 02e5 063b 2c97 b7bc
00000140: 4466 08bd e6fa 013d a575 de3c 92ec 11bd
00000150: 7b0b db3b 7725 c5bb ad93 c0bb 78e4 85bc
00000160: 8030 613c 4a05 acbc a591 5e3c d20d 923c
00000170: bfc3 c53c a3e8 3e3c eb4f 1bbd c812 c5bc
00000180: de4e 923c ac82 a03a 08b7 17bd 7b50 0bbd
00000190: 868f 423c c915 83ba a40b 36bd b6e2 21bd
000001a0: f086 65bd e39e 62bc c76f 05bd 5df0 f3bc
000001b0: 7ab8 26bb 0638 ad3b 1f6f 70bc f99a ad3c
000001c0: 890a b2bc cabc 043d fc8e c83c e10a f7bc
000001d0: 4991 0dbc 518e 3f3b 1681 093c 894f 513c
000001e0: 1abd b13c dbd9 6b3c cbe8 ae39 ef0e 2b3d
000001f0: 6bbd 8bba a316 4e3c 5c43 aa3c 7122 ddba
00000200: 5e47 7dbc 6ad4 41bd 7e61 05bd 30dd 86bc
00000210: 6f22 34bd 3746 79bc 2837 903c ecae 02bc
00000220: 70ad 37ba 3028 5dbb c830 e83b 4150 b93c
00000230: 8f91 0a3d 9acc b93c 6c05 0b3d acd3 02bb
00000240: bf83 f8bc fe70 4abc a3d5 053d 7e1e 633c
00000250: 9fc8 733b 47fe 073b 1574 d03b a9af da3c
00000260: 0f26 833d c3cf cc3d e939 c03d 9852 c63c
00000270: 9502 623d a508 9cbc 1ad7 14bc 8a46 77bc
00000280: 349c f4bb a160 65bc fbe2 24bd a849 1ebd
00000290: 662b 38bc 5957 03bb c3a5 88bc 2724 5b3c
000002a0: 6baa 03bd a4e6 1dbb c36a 013d 3375 49bc
000002b0: 7fe3 183d aabc ac3c 93d8 75bc c6cf 513d
000002c0: 3720 0d3d 73f5 ff3c 2198 ae3d f9c8 383d
000002d0: 3ccb b83d 0468 b03d 8688 e63d d3b4 a63d
000002e0: ff05 8b3d 4c24 4d3d d651 773c 457c 543c
000002f0: 29bd 2ebc 355a cf3c 568b c03c b07b 9d3c
00000300: 6a5d fdbc a81d f4b9 7958 d0bc 2148 9fbc
00000310: 6e60 aabc 3ed7 4c3c cc9f aabc 5f36 783b
00000320: 474b 433c 8554 1e3d 591e a5ba 4218 753c
00000330: ee86 eb3c 1c19 933d a88d 253d ff77 bb3d
00000340: 4906 b63d 2b3f b83d 77dd ba3d 6c40 a33d
00000350: a438 8f3d 844b 4c3d 7a3c 533d 705b 4d3d
00000360: de16 7d3c 45b4 353c 58cd 1d3d 561e c9bc
00000370: 1518 08ba fc81 173d 3454 5a3c 80eb 8d3a
00000380: 7c47 fdbc 0b51 943c 2475 bfbc cb3f 51bb
00000390: 92e0 1d3b d3a1 833c 78cf f93c 225a 913d
000003a0: 2e06 3a3d 51d1 803d 7e0d 683d 2f3e 833c
000003b0: 2a71 893d edc3 313d 796b 933d b79f dd3d
000003c0: d432 d23d e062 e33d 51df 843d fcca 7c3d
000003d0: e199 8d3d 5c4f 113c ef16 513d fef6 79bc
000003e0: ed3c 133c 8ce6 34ba 5ce8 8dbc 91de a03b
000003f0: 1327 f23c a857 1ebc 859b 97bc b615 81bb

bias f4 [20]
0.19133075 0.089232646 0.0761734 0.09463977 0.13472459 0.12388083 0.15756579 0.11026483
0.099779576 0.12161729 0.102140754 0.13748494 0.0081187645 0.12503521 -0.0061338055 0.106135786
0.059002403 0.073367886 0.10270242 0.13342696
00000000: 35ec 433e 9bbf b63d cd00 9c3d 7fd2 c13d
00000010: 3ef5 093e 3cb5 fd3d ed58 213e 87d2 e13d
00000020: 3c59 cc3d 7c12 f93d 2c2f d13d dac8 0c3e
00000030: 9104 053c 3b09 003e 17fe c8bb b85d d93d
00000040: 81ac 713d e741 963d a555 d23d 14a1 083e

weight f4 [10, 20]
-0.32918218 0.14973377 0.24395233 0.16343093 -0.24335885 -0.40498677 -0.010576502 -0.32547638
0.5048072 -0.3442397 -0.35194802 0.4481907 -0.089034766 -0.1298717 0.5025642 -0.2977366
0.23385058 -0.1575974 -0.15211026 0.26815355 0.5192061 -0.31673065 0.042280693 0.15157712
-0.0933841 -0.26979443 0.6842148 0.26227972 -0.37695548 0.3428236 0.21199115 -0.42714474
0.030539958 -0.3215243 -0.29737025 -0.37356037 -0.117595494 -0.10065559 -0.10351231 0.13222006
0.040528994 0.3327613 -0.1113433 0.23100434 -0.16118617 -0.32666662 -0.277606 -0.07224364
-0.076631956 0.49787632 0.47073027 0.07807671 0.06754799 0.09858279 -0.07743568 -0.35132217
0.283769 -0.24056955 -0.14001498 -0.11062654 0.5916872 -0.28891137 -0.19589323 0.40326592
-0.33882758 0.18628307 -0.27556816 -0.13080047 -0.0890678 -0.1367278 -0.23496501 0.40480313
0.14881466 -0.12108076 -0.26236117 -0.014262066 0.35938594 -0.29655927 -0.09813501 -0.2455604
-0.52611566 0.24242784 -0.11870356 -0.04262463 0.26435325 0.34461334 -0.15735129 -0.11116167
0.25577778 0.11774144 -0.0761732 0.071477175 0.025323734 -0.27308244 -0.16905604 0.01883769
-0.08600818 0.2548374 0.5098664 -0.040857553 0.10833144 0.16959687 -0.22527418 0.3995209
0.10621563 -0.19386221 -0.11408508 0.08170798 0.09956419 -0.27838978 -0.2882178 0.34150204
0.11560293 0.45805907 -0.16390637 -0.01925197 -0.14677452 -0.28403386 0.4875887 0.39570123
-0.57437503 -0.10288756 0.2976958 0.3860324 0.1675184 -0.067109026 -0.0850533 -0.16579692
-0.3055476 0.34777486 0.1653888 -0.2834248 0.098751724 0.569688 0.13677222 -0.11322801
-0.061326154 0.2605348 -0.08756948 -0.28516498 0.24980986 -0.118538134 -0.1490963 -0.25370258
0.45125973 0.10919116 -0.16315837 0.34388003 0.21724926 0.10495494 -0.09467249 0.2518046
0.03513765 -0.48284727 0.16679482 0.12331851 -0.06969251 0.33773923 -0.4204187 -0.2510172
0.39298967 0.009477879 0.18120149 0.10659717 -0.3325453 -0.14838731 -0.15378599 0.26251563
-0.13923378 -0.13312116 -0.18111002 -0.0293673 -0.100690834 0.014036241 0.26418707 0.012993778
-0.152852 0.11298792 0.29495913 0.009845142 0.010814111 -0.20707873 0.41327095 -0.40306157
0.39052743 0.01657972 0.29064748 -0.11536127 -0.042867184 -0.14751136 -0.33057058 -0.061574765
-0.14965996 -0.18496473 -0.09276578 0.55051625 -0.14559123 0.0289389 0.13781571 0.030914558
00000000: 918a a8be cf53 193e a4ce 793e 705a 273e
00000010: 1033 79be 6d5a cfbe 1149 2dbc d7a4 a6be
00000020: 0b3b 013f 3040 b0be 8832 b4be 4079 e53e
00000030: dc57 b6bd 16fd 04be 0ca8 003f ee70 98be
00000040: 8776 6f3e 3661 21be cbc2 1bbe 6c4b 893e
00000050: b1ea 043f 852a a2be 852e 2d3d 0837 1b3e
00000060: 2a40 bfbd 7f22 8abe b328 2f3f 8749 863e
00000070: 4f00 c1be 9386 af3e 3514 593e b7b2 dabe
00000080: ef2e fa3c d59e a4be ea40 98be 4e43 bfbe
00000090: e8d5 f0bd 8524 cebd 43fe d3bd b264 073e
000000a0: bb01 263d b05f aa3e f507 e4bd 678c 6c3e
000000b0: fd0d 25be d940 a7be 6022 8ebe 79f4 93bd
000000c0: 37f1 9cbd a5e9 fe3e 8f03 f13e afe6 9f3d
000000d0: 9a56 8a3d c6e5 c93d 9996 9ebd 80e0 b3be
000000e0: 2c4a 913e dd57 76be 1660 0fbe 2b90 e2bd
000000f0: d078 173f 31ec 93be 3c98 48be df78 ce3e
00000100: cf7a adbe fdc0 3e3e 4517 8dbe 8ff0 05be
00000110: 2e69 b6bd 5f02 0cbe ab9a 70be 5b42 cf3e
00000120: df62 183e 31f9 f7bd 3454 86be 71ab 69bc
00000130: 6f01 b83e 9ed6 97be 02fb c8bd 2f74 7bbe
00000140: 84af 06bf 013f 783e da1a f3bd 2a97 2ebd
00000150: 4f59 873e 2971 b03e b220 21be bba8 e3bd
00000160: 4ef5 823e 6d22 f13d b200 9cbd a062 923d
00000170: b873 cf3c 76d1 8bbe 071d 2dbe 8051 9a3c
00000180: 0f25 b0bd 0c7a 823e 9b86 023f 405a 27bd
00000190: e0dc dd3d cdaa 2d3e 46ae 66be 018e cc3e
000001a0: 9587 d93d d183 46be 70a5 e9bd 8356 a73d
000001b0: 4fe8 cb3d 1b89 8ebe 4991 93be 5bd9 ae3e
000001c0: 3bc1 ec3d b886 ea3e 12d7 27be 4fb6 9dbc
000001d0: 0f4c 16be e36c 91be 3aa5 f93e 5a99 ca3e
000001e0: 3e0a 13bf b7b6 d2bd 956b 983e 0aa6 c53e
000001f0: f289 2b3e 7570 89bd 6d30 aebd abc6 29be
00000200: bc70 9cbe 8c0f b23e ae5b 293e 0e1d 91be
00000210: 583e ca3d 13d7 113f 040e 0c3e 16e4 e7bd
00000220: 2231 7bbd d164 853e a157 b3bd 2501 92be
00000230: 28ce 7f3e 1fc4 f2bd b3ac 18be 4ee5 81be
00000240: 840b e73e 9d9f df3d fd12 27be 0b11 b03e
00000250: 9776 5e3e 9ef2 d63d a7e3 c1bd 88ec 803e
00000260: 7fec 0f3d c237 f7be 43cc 2a3e 6a8e fc3d
00000270: f2ba 8ebd 28ec ac3e 1f41 d7be 5485 80be
00000280: f135 c93e 1b49 1b3c e28c 393e 9e4f da3d
00000290: 6143 aabe d8f2 17be 137a 1dbe 7368 863e
000002a0: 4d93 0ebe ea50 08be e874 39be b193 f0bc
000002b0: ff36 cebd 43f8 653c 8743 873e dbe3 543c
000002c0: 3c85 1cbe 3666 e73d e204 973e 854d 213c
000002d0: ab2d 313c 720c 54be 4098 d33e 165e cebe
000002e0: 36f3 c73e 31d2 873c bfcf 943e 8842 ecbd
000002f0: 8095 2fbd 380d 17be 8c40 a9be d235 7cbd
00000300: 7640 19be 6567 3dbe fcfb bdbd a2ee 0c3f
00000310: de15 15be 4611 ed3c 901f 0d3e 8740 fd3c

bias f4 [10]
-0.17963308 -0.06596592 0.13860036 -0.018992534 0.08616275 -0.07610549 -0.08783863 -0.19464748
-0.13264966 0.1418022
00000000: bcf1 37be 2419 87bd 41ed 0d3e 3b96 9bbc
00000010: 1976 b03d 32dd 9bbd bde4 b3bd ab51 47be
00000020: 50d5 07be 9934 113e
