datasets/mnist/partition_noniid-#label_major_classes_num_1_clients_10_dir_alpha_None_augement_data_percent_per_class_0.005_augement_data_with_zeros_0_seed_42_special_data_None/models/batch_size_256_com_round_25_epochs_1_lr_0.1_sample_ratio_0.9_personalization_steps_50_model_nanomlp/client_3.pt (torch, 65887 bytes, 4 tensors)

weight f4 [20, 784]
000000 ff 2f 8c b9 b5 f2 9c 3c a9 cc f0 bc 93 50 d7 bc
       -0.0002673864 0.0191587 -0.029394465 -0.026283538
000010 d0 5e 61 bc 0e e9 1c 3c 27 7f 39 ba 13 fa e7 3c
       -0.013755515 0.009577049 -0.0007076137 0.028317487
000020 37 b6 4f bb 0e d6 1a 3c 7d d6 30 bc a4 09 e6 bb
       -0.0031694302 0.009450449 -0.0107933255 -0.007020192
000030 c0 c7 0b bd 27 c4 c1 bc b4 f4 70 bc ad 7d ad 3a
       -0.034126043 -0.023653103 -0.014706779 0.0013236307
000040 dc 53 67 3c ae 8c af 3c a1 58 c6 bc d8 ce 7e bc
       0.014119115 0.021429386 -0.024212183 -0.015552245
000050 b0 88 54 3c a3 f2 f2 3c 53 d8 f0 bb 49 ef da 3c
       0.012972042 0.029656714 -0.0073500066 0.026725428
000060 6e a1 bc bb 5c aa 77 3b 4f 75 04 3d 76 b4 07 bd
       -0.0057565486 0.003779075 0.032338437 -0.033131085
000070 51 2f b8 bc 4a 23 14 bc b3 16 64 bc 2e c8 fc 3c
       -0.0224835 -0.009041617 -0.013921428 0.030857172
000080 8c a3 bd bc e1 b1 86 bc 4a b0 cc bc 0f 32 09 bd
       -0.023149274 -0.016442241 -0.024986405 -0.033495005
000090 11 f4 aa bc dc 53 fb 3c 29 4a 7d 3c 10 16 86 3c
       -0.020868333 0.030679636 0.015459576 0.016367942
0000a0 06 33 75 3a ca 62 9d bc 0e a5 b7 3b 52 b4 08 bd
       0.00093536114 -0.019212145 0.005604393 -0.03337509
0000b0 b8 a7 d5 bc 29 92 98 bc 3e 51 b7 3c 47 c5 a7 3c
       -0.026080951 -0.018624382 0.022377606 0.020479811
0000c0 dd a3 88 bc a6 26 d0 ba 16 43 ba 3c 70 6d 11 3d
       -0.016679699 -0.0015880659 0.022737067 0.03550476
0000d0 9b 3b 68 3c e5 18 9e 3b 47 2a c4 3c 49 44 ac bc
       0.014174367 0.004824745 0.02394594 -0.021028655
0000e0 64 13 da 3b 0e d5 e2 bc fa c6 ca bc 3a 23 97 bc
       0.0066551436 -0.027689483 -0.024753083 -0.018449415
0000f0 85 60 84 3c b9 35 6b 3c 4b c0 ad bc f8 0b 2e 3c
       0.016159305 0.01435607 -0.021209856 0.010622971
000100 87 99 9b 3c b6 26 d0 bb 96 1d 2e bb 2e d0 7b 3b
       0.018994106 -0.006352271 -0.0026567928 0.0038423645
000110 d4 4f 98 3c 22 6d f0 3c 1c d7 0f bd a0 1a af bc
       0.018592753 0.029348914 -0.035117254 -0.021375
000120 f4 2d 91 3b 33 3c a8 3c 45 88 a9 3c 44 d0 b7 3c
       0.004430527 0.020536518 0.020694861 0.022438176
000130 be ad 8b 3a 28 76 10 bd f9 9f 06 3b d6 98 b7 bc
       0.0010656638 -0.035268933 0.0020542128 -0.022411745
000140 44 66 08 bd e6 fa 01 3d a5 75 de 3c 92 ec 11 bd
       -0.033300653 0.031733416 0.027155707 -0.035626
000150 7b 0b db 3b 77 25 c5 bb ad 93 c0 bb e4 e4 85 bc
       0.006684718 -0.006016429 -0.0058769793 -0.016344495
000160 c8 24 61 3c be e0 ab bc c2 e7 5e 3c e7 65 92 3c
       0.0137416795 -0.020981189 0.01360506 0.017870856
000170 70 5e c6 3c da ca 40 3c 2d 84 1a bd 88 82 c2 bc
       0.024214953 0.011767114 -0.03772371 -0.023743883
000180 bf c5 95 3c 9e 63 e2 3a 89 4e 15 bd a3 f8 08 bd
       0.01828277 0.001727212 -0.03645185 -0.033440243
000190 b1 3a 4a 3c 82 69 35 ba 64 59 35 bd cd 8e 21 bd
       0.012343095 -0.0006920324 -0.044274703 -0.039442826
0001a0 2e 65 65 bd 6c 77 62 bc b9 84 05 bd c4 19 f4 bc
       -0.056004696 -0.013822418 -0.032597277 -0.029797442
0001b0 72 82 27 bb d8 27 ad 3b f3 6f 70 bc f9 9a ad 3c
       -0.002555993 0.0052842908 -0.014675128 0.02119206
0001c0 89 0a b2 bc d6 bc 04 3d b4 8f c8 3c 70 03 f7 bc
       -0.02173354 0.03240665 0.024482585 -0.030153006
0001d0 19 43 0d bc c5 bb 45 3b 28 72 0c 3c 37 b2 56 3c
       -0.008621954 0.0030171734 0.008572139 0.013104013
0001e0 05 7c b6 3c fb 78 7a 3c a7 69 d1 3a 83 d9 31 3d
       0.022275934 0.015287633 0.0015976921 0.043420326
0001f0 1c ba 78 3a b1 ad 72 3c 45 a8 bd 3c bd 95 27 3a
       0.00094881817 0.014811919 0.023151526 0.0006392857
000200 5f a1 5b bc 28 ee 3a bd 02 f5 ff bc c6 7b 7e bc
       -0.013405173 -0.04563728 -0.031244759 -0.01553244
000210 ce ad 31 bd 8a 1e 73 bc 71 fe 91 3c f6 c2 01 bc
       -0.043378644 -0.014838824 0.017821522 -0.0079200175
000220 9d 0a 37 ba 65 34 5d bb bb 41 e8 3b 09 52 b9 3c
       -0.00069824775 -0.0033753153 0.007087914 0.022622125
000230 8f 91 0a 3d 9a cc b9 3c 72 06 0b 3d 7e 2f 01 bb
       0.03383022 0.02268057 0.033941694 -0.0019712145
000240 68 ac f7 bc c2 9e 45 bc 19 14 08 3d dd 59 72 3c
       -0.030233577 -0.012061777 0.03322229 0.014791933
000250 b9 c3 a8 3b c7 ed 85 3b 32 43 14 3c ef ba f6 3c
       0.005150285 0.004087183 0.009049224 0.030118434
000260 80 6b 8b 3d 27 0f d6 3d 27 02 ca 3d 5b 18 ee 3c
       0.068076134 0.10452109 0.09863692 0.029064348
000270 c2 ac 74 3d 02 9a 77 bc ed 8a bc bb 33 6d 4b bc
       0.059735067 -0.015112402 -0.005753866 -0.012416172
000280 c4 1b b5 bb 1d a1 51 bc 31 4a 22 bd a5 31 1d bd
       -0.0055269916 -0.01279476 -0.039621536 -0.038377423
000290 f0 3d 37 bc c9 26 03 bb 73 ae 88 bc aa 21 5b 3c
       -0.011184201 -0.0020012131 -0.016684746 0.013374725
0002a0 6b aa 03 bd ca e5 1d bb 9e 70 01 3d 42 38 48 bc
       -0.032144945 -0.0024093264 0.03160154 -0.012220444
0002b0 20 d9 19 3d 13 f8 b0 3c 9a ed 65 bc 58 f5 57 3d
       0.037560582 0.021602666 -0.014033699 0.052724212
0002c0 c0 f2 15 3d 4e f3 0b 3d cd 43 b6 3d 9e b1 4b 3d
       0.036608458 0.03416758 0.08899651 0.049729936
0002d0 61 cb c3 3d 05 bd bc 3d b3 ba f3 3d 75 2b b4 3d
       0.09560276 0.0921574 0.119008444 0.08797351
0002e0 42 c4 97 3d 7e a1 63 3d 94 69 a2 3c ac 2e 8a 3c
       0.0741048 0.055573933 0.019825734 0.016867958
0002f0 f0 39 fe bb 69 4c de 3c ab 65 c8 3c 19 cb a0 3c
       -0.0077583715 0.027136045 0.024462542 0.019628095
000300 5b 8e fc bc 52 c0 01 ba 26 89 d0 bc 8b 4f 9f bc
       -0.0308296 -0.00049496174 -0.025456022 -0.019447109
000310 6e 60 aa bc 78 dd 4c 3c c2 8f aa bc b4 76 7f 3b
       -0.020797934 0.012503974 -0.020820502 0.0038980665
000320 b2 43 49 3c c0 44 21 3d 0e c7 da b8 38 74 88 3c
       0.012284206 0.039372206 -0.00010432127 0.01665698
000330 76 8f fe 3c dc 6c 99 3d a3 5b 35 3d 64 05 c5 3d
       0.031074267 0.074914664 0.044276845 0.09620169
000340 42 cf c0 3d ff 10 c4 3d 16 71 c7 3d 40 29 b0 3d
       0.09414531 0.09573554 0.09738366 0.08601618
000350 c7 7d 9b 3d 43 83 62 3d d2 ce 66 3d f5 f6 5d 3d
       0.075923495 0.055300962 0.056349583 0.054190595
000360 1e 72 97 3c 54 45 55 3c e6 00 22 3d 5d ff c5 bc
       0.018487033 0.013017017 0.039551638 -0.024169618
000370 4b 35 f2 b9 eb 34 17 3d 3f b8 59 3c 8c ab 8d 3a
       -0.00046197543 0.0369157 0.013288557 0.0010808571
000380 7c 47 fd bc a0 53 94 3c c7 62 bf bc 6d 8c 48 bb
       -0.030917875 0.018106282 -0.02336253 -0.0030601278
000390 c3 14 3b 3b cf d5 89 3c 46 79 01 3d ca 85 94 3d
       0.002854631 0.016825585 0.031609796 0.07252081
0003a0 5e 69 42 3d 06 35 86 3d 4e 58 75 3d bf f6 a1 3c
       0.047463767 0.06553082 0.059898667 0.019770978
0003b0 59 ed 91 3d cd 91 44 3d 87 78 9d 3d d2 0a e8 3d
       0.071253486 0.04799061 0.076890044 0.11330189
0003c0 54 4d dc 3d 6b e3 ec 3d 2a 7f 8d 3d 04 b6 85 3d
       0.10756937 0.11566814 0.0690902 0.06528857
0003d0 d2 3c 93 3d ce 60 2f 3c 51 00 55 3d 8c dd 74 bc
       0.07189335 0.010704232 0.052002255 -0.014945399
0003e0 bc 82 13 3c 3e b7 48 ba 34 49 8e bc be c4 a0 3b
       0.0090033375 -0.00076567 -0.01736889 0.004906266
0003f0 13 27 f2 3c 2f 52 1e bc 34 82 97 bc 4f 72 79 bb
       0.029559648 -0.009663149 -0.018494703 -0.0038062518

bias f4 [20]
000000 ca ad 4e 3e c0 f3 a1 3d 7a 5c a6 3d a7 da bf 3d
       0.20183483 0.0790782 0.08123107 0.093678765
000010 7b 64 01 3e 24 69 09 3e 4e ab 1f 3e c3 93 d6 3d
       0.12635987 0.13419014 0.15592691 0.10477402
000020 04 f0 c5 3d e6 49 00 3e c3 55 d4 3d ac b0 0d 3e
       0.0966492 0.1252819 0.1036792 0.13836926
000030 0b 8e 05 3c c3 03 e1 3d 73 75 98 bb f6 15 dc 3d
       0.008151541 0.109870456 -0.004652673 0.10746376
000040 05 93 93 3d a2 47 9c 3d 91 37 b6 3d 98 28 f0 3d
       0.07205776 0.076308504 0.08897317 0.11726493

weight f4 [10, 20]
000000 5b 72 a6 be 02 98 1c 3e 54 68 7c 3e 8d a0 2b 3e
       -0.3250912 0.15292361 0.24649173 0.16760464
000010 f7 dc 76 be f4 c1 ce be 0a 11 1f bc 3d b3 a5 be
       -0.24107729 -0.4038235 -0.009708652 -0.3236331
000020 36 5b 02 3f 57 0f b0 be 4b 0d b4 be 2f 30 e8 3e
       0.50920427 -0.34386703 -0.35166392 0.4534926
000030 d6 bb b5 bd be 55 fe bd 36 87 01 3f a4 c2 96 be
       -0.088737175 -0.12418698 0.5059694 -0.29445374
000040 bf 58 70 3e 3f 5f 20 be 51 76 16 be b5 c3 8b 3e
       0.23471354 -0.15661334 -0.14693572 0.2729775
000050 f8 77 04 3f 36 d9 a1 be 16 21 2c 3d 6b 45 1b 3e
       0.5174556 -0.3161103 0.04202374 0.151632
000060 02 63 bf bd e8 9a 8a be 8c 2e 2f 3f ea 57 86 3e
       -0.09345056 -0.2707131 0.684304 0.26238948
000070 8a e7 c0 be 5c 5a af 3e 30 e3 58 3e 79 f3 da be
       -0.3767665 0.34248626 0.21180415 -0.4276388
000080 e4 dc f8 3c 75 42 a4 be da 20 98 be 64 ca bf be
       0.030378766 -0.32081953 -0.29712564 -0.374591
000090 ff 6c f2 bd 5b 40 ce bd b3 29 d3 bd c3 4c 08 3e
       -0.118371956 -0.100708686 -0.10310688 0.13310532
0000a0 91 da 13 3d ab c3 aa 3e eb af e4 bd 13 a2 6a 3e
       0.036097113 0.33352408 -0.11166366 0.22913389
0000b0 8e 11 24 be e1 f2 a7 be 54 b8 8d be e5 e1 92 bd
       -0.16022322 -0.3280249 -0.27679694 -0.07171992
0000c0 36 99 9d bd 58 59 fe 3e 88 67 f0 3e 45 4a 9b 3d
       -0.07695238 0.4967754 0.46953988 0.07582525
0000d0 72 99 88 3d 8a a1 cb 3d 10 08 9f bd 52 11 b4 be
       0.06669892 0.099429205 -0.0776521 -0.35169464
0000e0 89 87 8f 3e d0 e2 75 be ea 7a 0d be ce 2c df bd
       0.28033093 -0.24012303 -0.13816419 -0.10897218
0000f0 fe fb 2e 3f ff 30 88 be b5 6d 2d be b8 67 ec 3e
       0.6835326 -0.2659988 -0.16936381 0.4617288
000100 f8 76 a5 be 3e b5 5e 3e 3b 11 88 be 20 78 e2 bd
       -0.32317328 0.21748826 -0.26575646 -0.11058068
000110 a8 5a 5c bd 9e 20 ee bd 57 73 5e be d8 3c ef 3e
       -0.053797394 -0.11627315 -0.21723686 0.46726108
000120 b7 f4 22 3e d8 99 93 bd f9 ad 73 be 5e 1b c6 3c
       0.15913664 -0.07207078 -0.23796834 0.024182972
000130 01 fb ca 3e 9a 0c 93 be e8 14 7a bd 32 a7 5e be
       0.39644626 -0.28720552 -0.061055094 -0.21743467
000140 a5 d1 05 bf 93 ef 7b 3e 58 fa ed bd cd 52 20 bd
       -0.5227302 0.24603109 -0.11620015 -0.039141465
000150 eb 35 89 3e ee a5 b1 3e ff c1 1f be 34 cc df bd
       0.2679895 0.34696907 -0.15601347 -0.109276205
000160 5d 38 85 3e da 7f f3 3d 9e 1e 9a bd 96 a4 9b 3d
       0.26019564 0.1188962 -0.07525371 0.07599752
000170 34 df d1 3c 61 49 89 be d3 87 2a be 3d d9 b9 3c
       0.025619127 -0.26813796 -0.16653375 0.022686595
000180 ca a5 ae bd f3 69 83 3e 01 f7 03 3f 5d 66 15 bd
       -0.085277155 0.2566677 0.51548773 -0.036474574
000190 1c d9 9b 3c 0a bc 05 3e b8 47 85 be a5 61 a7 3e
       0.019024424 0.13060012 -0.2603128 0.32691684
0001a0 3e 94 a0 3d 69 29 66 be d6 b9 03 be 26 ed 61 3d
       0.07840775 -0.22476734 -0.1286386 0.055157803
0001b0 db 5a 42 3d b1 04 98 be 26 f9 9b be fe b9 87 3e
       0.047449928 -0.2969108 -0.30463523 0.26509088
0001c0 be bb d8 3d 5f f8 c2 3e e3 db 4d be 77 57 88 bd
       0.10582684 0.38080117 -0.20103411 -0.066573076
0001d0 55 14 36 be 91 c8 98 be 84 01 d9 3e 5c 8a af 3e
       -0.17781194 -0.2984052 0.4238397 0.34285247
0001e0 cf a5 12 bf bb e1 ce bd 2c 42 99 3e 3d 17 c7 3e
       -0.57284254 -0.101016484 0.29933298 0.38884917
0001f0 49 b3 2c 3e 21 ac 87 bd fb 1a ad bd 5c 27 29 be
       0.16865267 -0.06624628 -0.08452412 -0.1651892
000200 a0 b6 9b be a5 aa b2 3e b8 80 2a 3e e8 3a 90 be
       -0.3041277 0.34895816 0.16650665 -0.28169942
000210 39 ea ca 3d fa ce 12 3f aa 81 0d 3e cd 3e e5 bd
       0.09907956 0.5734707 0.13818994 -0.11193619
000220 8d 32 78 bd 54 d3 85 3e b1 29 ae bd e1 17 91 be
       -0.060595084 0.26137793 -0.08504046 -0.2833853
000230 9a b6 79 3e b5 cf f3 bd 71 30 1a be 94 63 82 be
       0.24386063 -0.11904851 -0.15057541 -0.25466597
000240 05 51 e6 3e 1f 7f da 3d b2 ae 27 be 6c 44 af 3e
       0.44983688 0.10668778 -0.16375235 0.3423189
000250 3a 28 5d 3e 85 0b d3 3d 86 85 c4 bd c9 6f 7f 3e
       0.21597376 0.103049316 -0.0959578 0.24944986
000260 55 ad 0e 3d 69 4a f7 be 18 08 2a 3e c1 36 f6 3d
       0.03483327 -0.48298958 0.1660465 0.12022162
000270 b5 a0 92 bd e4 59 ac 3e d1 8f d7 be 20 6e 80 be
       -0.07159559 0.3366233 -0.4210191 -0.2508402
000280 c8 26 c9 3e 69 15 63 3c ea f7 3b 3e 6a db e3 3d
       0.392874 0.013860085 0.1835629 0.11125834
000290 d5 b2 a8 be d8 a7 18 be 33 3d 1c be 69 7a 87 3e
       -0.32948938 -0.14907777 -0.1525772 0.2646058
0002a0 9e b9 09 be b3 2c 09 be 64 15 3a be be 3e cd bc
       -0.13449714 -0.13395958 -0.18172222 -0.025054332
0002b0 89 8b ce bd 7c 6c bc 3c bc 5e 89 3e a4 a7 7b 3c
       -0.10085208 0.023000948 0.2683009 0.015359793
0002c0 a6 85 1e be bb cd e9 3d cb fe 9a 3e bb ea 8d 3c
       -0.1548067 0.11416193 0.30272517 0.017323842
0002d0 c7 a5 3c 3c d2 d4 51 be 0e 60 d4 3e 15 74 cd be
       0.011514134 -0.20491341 0.41479534 -0.40127626
0002e0 5c 44 c9 3e f8 48 8e 3c 7f 10 95 3e a4 8e ea bd
       0.39309967 0.017368779 0.29114148 -0.11452988
0002f0 a8 26 22 bd 78 86 17 be 5d 6f a9 be 03 22 6f bd
       -0.039587647 -0.1479739 -0.33092776 -0.058382045
000300 14 3e 19 be b8 db 39 be 93 e5 b9 bd 26 98 0d 3f
       -0.14965087 -0.18150222 -0.09076991 0.55310285
000310 1d 5e 15 be cb 82 f4 3c dc 23 11 3e 7e 21 0d 3d
       -0.14586683 0.029847523 0.14173836 0.03445577

bias f4 [10]
000000 4b c8 35 be 9b 39 87 bd 08 03 0e 3e 7b b7 6a 3b
       -0.17752187 -0.06602784 0.13868344 0.003581493
000010 68 00 b5 3d 8c 55 db bd 5b 89 b1 bd f5 2b 48 be
       0.08837968 -0.10709676 -0.086687766 -0.19548018
000020 d1 67 05 be 1c 9e 12 3e
       -0.13027884 0.14318126
