datasets/mnist/partition_noniid-#label_major_classes_num_1_clients_10_dir_alpha_None_augement_data_percent_per_class_0.005_augement_data_with_zeros_0_seed_42_special_data_None/models/batch_size_256_com_round_25_epochs_1_lr_0.1_sample_ratio_0.9_personalization_steps_50_model_nanomlp/global.pt (torch, 65887 bytes, 4 tensors)

weight f4 [20, 784]
0	0xb98c2fff	-0.0002673864
1	0x3c9cf2b5	0.0191587
2	0xbcf0cca9	-0.029394465
3	0xbcd75093	-0.026283538
4	0xbc615ed0	-0.013755515
5	0x3c1ce90e	0.009577049
6	0xba397f27	-0.0007076137
7	0x3ce7fa13	0.028317487
8	0xbb4fb637	-0.0031694302
9	0x3c1ad60e	0.009450449
10	0xbc30d67d	-0.0107933255
11	0xbbe609a4	-0.007020192
12	0xbd0bc7c0	-0.034126043
13	0xbcc1c427	-0.023653103
14	0xbc70f4b4	-0.014706779
15	0x3aad7dad	0.0013236307
16	0x3c6753dc	0.014119115
17	0x3caf8cae	0.021429386
18	0xbcc658a1	-0.024212183
19	0xbc7eced8	-0.015552245
20	0x3c5488b0	0.012972042
21	0x3cf2f2a3	0.029656714
22	0xbbf0d853	-0.0073500066
23	0x3cdaef49	0.026725428
24	0xbbbca16e	-0.0057565486
25	0x3b77aa5c	0.003779075
26	0x3d04754f	0.032338437
27	0xbd07b476	-0.033131085
28	0xbcb82f51	-0.0224835
29	0xbc14234a	-0.009041617
30	0xbc6416b3	-0.013921428
31	0x3cfcc82e	0.030857172
32	0xbcbda38c	-0.023149274
33	0xbc86b1e1	-0.016442241
34	0xbcccb04a	-0.024986405
35	0xbd09320f	-0.033495005
36	0xbcaaf411	-0.020868333
37	0x3cfb53dc	0.030679636
38	0x3c7d4bff	0.015460013
39	0x3c862134	0.016373254
40	0x3a768137	0.000940341
41	0xbc9d62ca	-0.019212145
42	0x3bb7a50e	0.005604393
43	0xbd08b452	-0.03337509
44	0xbcd5a7b8	-0.026080951
45	0xbc989229	-0.018624382
46	0x3cb7513e	0.022377606
47	0x3ca7c547	0.020479811
48	0xbc88a3dd	-0.016679699
49	0xbad026a6	-0.0015880659
50	0x3cba4316	0.022737067
51	0x3d116d70	0.03550476
52	0x3c683b9b	0.014174367
53	0x3b9e18e5	0.004824745
54	0x3cc42a47	0.02394594
55	0xbcac4449	-0.021028655
56	0x3bda1364	0.0066551436
57	0xbce2d50e	-0.027689483
58	0xbccac6fa	-0.024753083
59	0xbc97233a	-0.018449415
60	0x3c846085	0.016159305
61	0x3c6b35b9	0.01435607
62	0xbcadc04b	-0.021209856
63	0x3c2e0bf8	0.010622971
64	0x3c9b9987	0.018994106
65	0xbbd026b6	-0.006352271
66	0xbb2e0b1d	-0.0026556917
67	0x3b7bdf74	0.003843275
68	0x3c984510	0.018587619
69	0x3cf05a5f	0.029339967
70	0xbd0fe5bd	-0.035131205
71	0xbcaf344b	-0.02138724
72	0x3b9082eb	0.004410138
73	0x3ca811a4	0.020516224
74	0x3ca97371	0.02068493
75	0x3cb7cae5	0.022435615
76	0x3a8bd7b7	0.0010669146
77	0xbd107491	-0.035267416
78	0x3b069ff9	0.0020542128
79	0xbcb798d6	-0.022411745
80	0xbd086644	-0.033300653
81	0x3d01fae6	0.031733416
82	0x3cde75a5	0.027155707
83	0xbd11ec92	-0.035626
84	0x3bdb0b7b	0.006684718
85	0xbbc52577	-0.006016429
86	0xbbc093ad	-0.0058769793
87	0xbc85e4e4	-0.016344495
88	0x3c612430	0.013741538
89	0xbcac054a	-0.020998616
90	0x3c5e91a5	0.013584529
91	0x3c920dd2	0.017828856
92	0x3cc5c760	0.024142921
93	0x3c3ef868	0.011655904
94	0xbd1b4e6d	-0.03791659
95	0xbcc51bed	-0.024061168
96	0x3c921b93	0.017835414
97	0x3a9b229f	0.0011835879
98	0xbd17f591	-0.037099425
99	0xbd0bacfd	-0.03410052
100	0x3c40a936	0.011759093
101	0xba974b6b	-0.0011542862
102	0xbd36bda9	-0.044614468
103	0xbd227fb1	-0.039672557
104	0xbd65fe5c	-0.05615078
105	0xbc634ce3	-0.013873312
106	0xbd058e7b	-0.032606583
107	0xbcf419c4	-0.029797442
108	0xbb278272	-0.002555993
109	0x3bad27d8	0.0052842908
110	0xbc706ff3	-0.014675128
111	0x3cad9af9	0.02119206
112	0xbcb20a89	-0.02173354
113	0x3d04bcca	0.032406606
114	0x3cc88efc	0.024482243
115	0xbcf70b9f	-0.030156909
116	0xbc0d9149	-0.008640596
117	0x3b3f995a	0.0029235692
118	0x3c099117	0.0083964085
119	0x3c5155c7	0.012776799
120	0x3cb1d748	0.0217091
121	0x3c6c369f	0.01441732
122	0x39c508f9	0.00037581453
123	0x3d2b54b9	0.041828845
124	0xba7d0ae2	-0.0009652806
125	0x3c4fd6e8	0.012685515
126	0x3cab3878	0.02090095
127	0xbacf5b20	-0.0015820004
128	0xbc7becda	-0.015376294
129	0xbd417994	-0.047235087
130	0xbd0531a2	-0.032518037
131	0xbc866e8b	-0.016410133
132	0xbd33e101	-0.043915752
133	0xbc77af3e	-0.015117465
134	0x3c910404	0.01770211
135	0xbc01f39e	-0.007931618
136	0xba37135b	-0.000698378
137	0xbb5d44ca	-0.0033762925
138	0x3be8270a	0.007084732
139	0x3cb95041	0.022621276
140	0x3d0a918f	0.03383022
141	0x3cb9cc9a	0.02268057
142	0x3d0b056c	0.033940718
143	0xbb03025d	-0.0019990422
144	0xbcf88207	-0.03033544
145	0xbc4a7266	-0.012356376
146	0x3d05e995	0.032693464
147	0x3c63e16f	0.013908728
148	0x3b7a04ac	0.0038149757
149	0x3b129e03	0.0022372014
150	0x3bda35f4	0.0066592637
151	0x3cde7dba	0.02715956
152	0x3d847006	0.06466679
153	0x3dce5e32	0.1007656
154	0x3dc1ea7b	0.09468552
155	0x3ccd20ba	0.02504002
156	0x3d654985	0.055978317
157	0xbc95655b	-0.018236807
158	0xbc07f555	-0.008298238
159	0xbc6b6142	-0.01436645
160	0xbbdf8ab2	-0.0068219537
161	0xbc5d1626	-0.01349405
162	0xbd2378f0	-0.039910257
163	0xbd1d8162	-0.038453467
164	0xbc374b6d	-0.0111874165
165	0xbb0366ec	-0.002005036
166	0xbc88b02c	-0.016685568
167	0x3c5b21aa	0.013374725
168	0xbd03aa6b	-0.032144945
169	0xbb1de6a4	-0.0024093771
170	0x3d016bce	0.03159695
171	0xbc497533	-0.012296009
172	0x3d18e51c	0.03732787
173	0x3cacc099	0.021087931
174	0xbc75197d	-0.01495969
175	0x3d5240cc	0.051331326
176	0x3d0de075	0.034637887
177	0x3d0155e3	0.03157605
178	0x3dafc097	0.085816555
179	0x3d3c5113	0.045975756
180	0x3dbb0a5d	0.09132836
181	0x3db30a4e	0.087422
182	0x3de954ea	0.11393149
183	0x3da97db3	0.08275928
184	0x3d8d9018	0.06912249
185	0x3d51f5b8	0.051259726
186	0x3c850536	0.016237836
187	0x3c664b88	0.014056094
188	0xbc20338d	-0.009777916
189	0x3cd4a077	0.025955422
190	0x3cc4252c	0.023943506
191	0x3c9f943b	0.019479861
192	0xbcfcc93c	-0.030857675
193	0xba0222c6	-0.0004964288
194	0xbcd08960	-0.02545613
195	0xbc9f4f8b	-0.019447109
196	0xbcaa606e	-0.020797934
197	0x3c4ccff2	0.01250075
198	0xbcaa9e6d	-0.020827496
199	0x3b78365f	0.0037874205
200	0x3c434aa9	0.011919656
201	0x3d1e615b	0.038667064
202	0xba9e7c2b	-0.0012091448
203	0x3c775ab1	0.015097306
204	0x3ced6f3a	0.028983701
205	0x3d93ffc6	0.07226519
206	0x3d2860ed	0.04110806
207	0x3dbd7472	0.09250726
208	0x3db84eb4	0.089993864
209	0x3dbab234	0.09116021
210	0x3dbd4875	0.09242336
211	0x3da58d90	0.080836415
212	0x3d9158dd	0.070970275
213	0x3d502a26	0.050821446
214	0x3d56ee98	0.052473634
215	0x3d50cda4	0.050977364
216	0x3c838fc9	0.016059773
217	0x3c3d337a	0.0115479175
218	0x3d1f28a9	0.038857136
219	0xbcc7a95b	-0.024372747
220	0xb9fd61a4	-0.00048328668
221	0x3d173790	0.036918223
222	0x3c59bc2f	0.013289495
223	0x3a8dab8c	0.0010808571
224	0xbcfd477c	-0.030917875
225	0x3c94510b	0.01810505
226	0xbcbf7524	-0.023371287
227	0xbb5143b9	-0.0031931235
228	0x3b1db3d1	0.0024063478
229	0x3c83b8f7	0.016079409
230	0x3cfa2443	0.030534869
231	0x3d919c3c	0.071098775
232	0x3d3afe9f	0.04565298
233	0x3d81ac48	0.06331688
234	0x3d6a965b	0.057272296
235	0x3c89b79f	0.01681119
236	0x3d8b2198	0.06793517
237	0x3d352362	0.044223197
238	0x3d94f3d3	0.07273068
239	0x3ddeec25	0.10884885
240	0x3dd33298	0.10312384
241	0x3de438a3	0.11143615
242	0x3d85b9c6	0.06529574
243	0x3d7e4a54	0.062082604
244	0x3d8e3526	0.06943731
245	0x3c150122	0.009094508
246	0x3d51ba76	0.051203214
247	0xbc77e490	-0.015130177
248	0x3c138c0e	0.00900556
249	0xba482c5c	-0.00076360046
250	0xbc8e4638	-0.017367467
251	0x3ba0c4be	0.004906266
252	0x3cf22713	0.029559648
253	0xbc1e57a8	-0.009664454
254	0xbc979bd7	-0.018506927
255	0xbb812878	-0.003941592

bias f4 [20]
0	0x3e4559d0	0.19272542
1	0x3dad96c5	0.08476023
2	0x3dac6db4	0.08419362
3	0x3db508ea	0.08839591
4	0x3e05aa6e	0.13053295
5	0x3e02e405	0.12782295
6	0x3e225110	0.15851235
7	0x3ddd64c4	0.10810235
8	0x3dc8337b	0.09775444
9	0x3e027ef7	0.12743746
10	0x3dd99f26	0.10626058
11	0x3e079494	0.13240272
12	0x3bbef40e	0.0058274334
13	0x3de5955c	0.11210129
14	0xb9a5d8f4	-0.00031632895
15	0x3dd9d6a0	0.106366396
16	0x3d84b6fc	0.06480214
17	0x3da30c7a	0.07961364
18	0x3dbccf71	0.09219254
19	0x3dfa7f4d	0.12231312

weight f4 [10, 20]
0	0xbea46487	-0.32107946
1	0x3e1de0bf	0.15417765
2	0x3e7dd4b6	0.24788174
3	0x3e2f08fc	0.17093271
4	0xbe764a51	-0.24051787
5	0xbece2f7e	-0.4027061
6	0xbc1c3846	-0.009534901
7	0xbea56355	-0.32302347
8	0x3f02ec88	0.5114217
9	0xbeafa4ab	-0.3430532
10	0xbeb3a72f	-0.35088488
11	0x3eea02eb	0.4570535
12	0xbdb45faf	-0.08807313
13	0xbdf90f19	-0.12161083
14	0x3f01fbdd	0.5077494
15	0xbe962004	-0.293213
16	0x3e72c61f	0.2370839
17	0xbe200c03	-0.15629582
18	0xbe154474	-0.14576894
19	0x3e8c7d4a	0.27439338
20	0x3f05d559	0.5227867
21	0xbea172a8	-0.31532788
22	0x3d3127ed	0.043250967
23	0x3e1dada9	0.15398277
24	0xbdbe11be	-0.09280728
25	0xbe89ce6c	-0.269153
26	0x3f2f87b4	0.6856644
27	0x3e871f4a	0.2639106
28	0xbec0633e	-0.37575716
29	0x3eb0455c	0.34427917
30	0x3e5a9526	0.21345958
31	0xbed9e2b3	-0.4255577
32	0x3cfc23be	0.030778762
33	0xbea382a2	-0.31935602
34	0xbe97d147	-0.29651853
35	0xbebee8be	-0.37286943
36	0xbdef3bd8	-0.11681336
37	0xbdcd43f5	-0.100227274
38	0xbdd045da	-0.10169573
39	0x3e096526	0.13417491
40	0x3d45381c	0.048149213
41	0x3eacc089	0.33740643
42	0xbddce8e8	-0.10786611
43	0x3e74ab63	0.23893504
44	0xbe22bb67	-0.15891801
45	0xbea62df1	-0.32456926
46	0xbe8d202b	-0.27563605
47	0xbd8e760d	-0.0695611
48	0xbd943ea1	-0.07238508
49	0x3f006c1d	0.5016497
50	0x3ef2de69	0.4743531
51	0x3dabd4ac	0.08390173
52	0x3d8ca9c9	0.068683214
53	0x3ddb2969	0.10701258
54	0xbd973910	-0.07383931
55	0xbeb29f1f	-0.34887025
56	0x3e92fd7c	0.28709018
57	0xbe74ca8c	-0.2390539
58	0xbe0a4737	-0.13503729
59	0xbdd8c500	-0.1058445
60	0x3f1c0ca7	0.60956806
61	0xbe90e787	-0.2830164
62	0xbe430ae5	-0.19047125
63	0x3ed5a3e8	0.41726613
64	0xbeabb949	-0.335398
65	0x3e43b626	0.19112453
66	0xbe8c3aa4	-0.2738849
67	0xbe015cc5	-0.12633045
68	0xbda3c182	-0.07995893
69	0xbe0a2752	-0.13491562
70	0xbe6ee533	-0.2332962
71	0x3ed70ca7	0.4200184
72	0x3e1a6042	0.15075782
73	0xbddab7be	-0.10679577
74	0xbe82d6ff	-0.25554654
75	0xbbc30f8a	-0.00595278
76	0x3ebb240d	0.36550942
77	0xbe971806	-0.29510516
78	0xbdb2c33a	-0.08728643
79	0xbe72048f	-0.23634551
80	0xbf056a5f	-0.52115434
81	0x3e7c51ac	0.2464053
82	0xbdeccd3e	-0.11562584
83	0xbd1cf4bd	-0.038319338
84	0x3e897185	0.2684442
85	0x3eb20080	0.34766006
86	0xbe1f98d3	-0.15585642
87	0xbddf123b	-0.10892149
88	0x3e858b60	0.26082897
89	0x3df44af7	0.11928361
90	0xbd998e2f	-0.074978225
91	0x3d9ddb02	0.07707788
92	0x3cd315e8	0.025767282
93	0xbe88e32d	-0.2673582
94	0xbe2a1e28	-0.16613066
95	0x3cc1a4e3	0.023638194
96	0xbdad6900	-0.08467293
97	0x3e8389f0	0.25691175
98	0x3f0422eb	0.5161578
99	0xbd13a57c	-0.03604649
100	0x3d1973ed	0.03746407
101	0x3e09f5ea	0.13472715
102	0xbe82c48d	-0.2554058
103	0x3eae26cf	0.34013984
104	0x3da528f5	0.080644526
105	0xbe5f17f0	-0.21786475
106	0xbe029a12	-0.12754086
107	0x3d6db75a	0.058036186
108	0x3d5dcfc7	0.05415323
109	0xbe96807c	-0.293949
110	0xbe9ab8f0	-0.3021922
111	0x3e8ea592	0.27860695
112	0x3ddde037	0.10833781
113	0x3ec870b6	0.39148492
114	0xbe499eee	-0.19689533
115	0xbd7223ca	-0.059116162
116	0xbe2d63b7	-0.1693257
117	0xbe981a39	-0.29707506
118	0x3edd2fd3	0.4320055
119	0x3eb25229	0.34828308
120	0xbf124862	-0.571417
121	0xbdcdd5ad	-0.10050521
122	0x3e998e41	0.29991344
123	0x3ec7b849	0.39007786
124	0x3e2d23b2	0.16908148
125	0xbd86839a	-0.0656807
126	0xbdacc021	-0.08435083
127	0xbe28dab5	-0.1648968
128	0xbe9b6d1a	-0.30356675
129	0x3eb30acc	0.34969175
130	0x3e2b2160	0.1671195
131	0xbe8fb60d	-0.2806858
132	0x3dcb7b3d	0.09935615
133	0x3f131d1a	0.5746628
134	0x3e0df6c5	0.13863666
135	0xbde415de	-0.11136983
136	0xbd74f497	-0.05980357
137	0x3e85f6a4	0.26164734
138	0xbdad2a00	-0.084552765
139	0xbe90e377	-0.28298542
140	0x3e811e22	0.25218302
141	0xbdf049fb	-0.11732861
142	0xbe179f6a	-0.14806905
143	0xbe810ebe	-0.2520656
144	0x3ee7b230	0.45253134
145	0x3de1b728	0.110212624
146	0xbe2676e2	-0.16256288
147	0x3eb09376	0.34487504
148	0x3e6059cd	0.21909256
149	0x3dd7ccea	0.10537131
150	0xbdc134c5	-0.09433893
151	0x3e8213b1	0.25405648
152	0x3d10a60c	0.035314605
153	0xbef63fcd	-0.4809555
154	0x3e2bfa0b	0.16794603
155	0x3dffff44	0.1249986
156	0xbd8d9b80	-0.06914425
157	0x3ead3b70	0.3383441
158	0xbed635d6	-0.4183795
159	0xbe7f3891	-0.24923922
160	0x3ed2524c	0.41078413
161	0x3c8d858a	0.01727559
162	0x3e40a124	0.1881147
163	0x3df7016c	0.12060818
164	0xbea7786b	-0.3270906
165	0xbe122fef	-0.14276098
166	0xbe1a3edd	-0.15063043
167	0x3e897d34	0.26853335
168	0xbe03e5c7	-0.12880622
169	0xbe058d81	-0.1304226
170	0xbe3703b8	-0.17872512
171	0xbc6b9154	-0.014377911
172	0xbdcb3900	-0.09922981
173	0x3cf48516	0.029848617
174	0x3e8b3170	0.27186155
175	0x3cbc7602	0.02300549
176	0xbe17c052	-0.14819458
177	0x3decf3f4	0.11569968
178	0x3e9e4dfa	0.30918866
179	0x3cb0ff40	0.021606088
180	0x3c866db8	0.01640974
181	0xbe50db96	-0.20396265
182	0x3ed52e2d	0.41636792
183	0xbecc8d93	-0.39951763
184	0x3eca0962	0.39460284
185	0x3ca08d2c	0.019598566
186	0x3e958264	0.29201043
187	0xbde795fb	-0.113079034
188	0xbd1b59ea	-0.037927546
189	0xbe1646a3	-0.14675383
190	0xbea8fe14	-0.33006346
191	0xbd645aec	-0.055750772
192	0xbe18f1bf	-0.14935969
193	0xbe38418a	-0.17993751
194	0xbdb7fe2b	-0.089840256
195	0x3f0e5991	0.5560542
196	0xbe14087c	-0.14456362
197	0x3cfc1fad	0.030776823
198	0x3e134a3c	0.14383787
199	0x3d11dd57	0.035611477

bias f4 [10]
0	0xbe34a9f4	-0.17642957
1	0xbd84ea1b	-0.064899646
2	0x3e110c9f	0.14164971
3	0xbc5eebff	-0.013606071
4	0x3db5e1fb	0.08880993
5	0xbdd267ce	-0.102737054
6	0xbdb0a67e	-0.08625506
7	0xbe4659a6	-0.19370136
8	0xbe01752d	-0.12642355
9	0x3e13ca00	0.14432526
