datasets/mnist/partition_noniid-#label_major_classes_num_2_clients_10_dir_alpha_None_seed_42/models/batch_size_256_com_round_50_epochs_5_lr_0.1_sample_ratio_0.9_personalization_steps_25/client_7.pt (torch, 175631 bytes, 8 tensors)

weight f4 [50, 784]
00000000: ff2f 8cb9 b5f2 9c3c a9cc f0bc 9350 d7bc
00000010: d05e 61bc 0ee9 1c3c 277f 39ba 13fa e73c
00000020: 37b6 4fbb 0ed6 1a3c 7dd6 30bc a409 e6bb
00000030: 098e 0bbd 04e3 c0bc e831 71bc 3c69 ad3a
00000040: dc53 673c ae8c af3c a158 c6bc d8ce 7ebc
00000050: b088 543c a3f2 f23c 53d8 f0bb 49ef da3c
00000060: 6ea1 bcbb 5caa 773b 4f75 043d 76b4 07bd
00000070: 512f b8bc 4a23 14bc b316 64bc 2ec8 fc3c
00000080: 70a3 bdbc 59a6 86bc 3e29 cbbc 7ef2 07bd
00000090: 3d50 a6bc ef03 003d 35b3 883c 2057 9b3c
000000a0: f313 8a3b 2532 8cbc acc6 cc3b b4c6 03bd
000000b0: c707 d9bc 3025 97bc 545b bf3c d841 bb3c
000000c0: 0845 5cbc a58a dbb9 0bc8 bb3c f09e 113d
000000d0: 9b3b 683c e518 9e3b 472a c43c 4944 acbc
000000e0: 6413 da3b 0ed5 e2bc dfc6 cabc 8062 97bc
000000f0: 91bc 843c e82b 6c3c f6ef a9bc 0451 493c
00000100: e2af b53c ceb5 aa39 8338 263c 874a 903c
00000110: 1853 0b3d fc09 2e3d a35e 89bc b35a 11bb
00000120: 08da cc3c 6c62 2c3d 22cc 3a3d 42af 333d
00000130: 144a 813c e5f9 d5bc a904 ce3b 0505 a7bc
00000140: bf16 06bd 8302 023d a575 de3c 92ec 11bd
00000150: 7b0b db3b 7725 c5bb a093 c0bb b18f 86bc
00000160: a0cd 603c 84dc abbc 1923 843c 1c58 ad3c
00000170: 54fc c63c 782f 613c f29a 0dbd b65f b7bc
00000180: 3fe4 913c 6654 3b3c 211e b9bc 2e67 0bbc
00000190: 5d3d 3c3d 5127 e83c a3ed 99ba f2c7 ef3b
000001a0: faa9 86bc 2e04 943c 44c1 8cbc 6c9a c0bc
000001b0: 89ce 83ba 60db b33b 057e 6fbc f99a ad3c
000001c0: 890a b2bc 3cbc 043d 6a80 c83c 2ea7 f6bc
000001d0: 595f 10bc 97f9 f43a 6879 053c 2182 1c3c
000001e0: 5504 133c 102c 79bb 943b cebc bb25 7ab9
000001f0: 9dfd 2ebd 831c b3bc 3ad6 77bc bc94 72bc
00000200: 1fd2 1ebc 5451 bfbc e8a4 80ba 2590 d43c
00000210: 3423 d73b fa2a e23c d45b 273d d87a 3c3b
00000220: 7a71 d53a febd 3fbb c71a f13b df25 bb3c
00000230: 8f91 0a3d 9acc b93c e6f2 0a3d 0198 30bb
00000240: 5a54 04bd 89c3 86bc b648 cd3c e5e7 91bb
00000250: 0ff7 babc 0f88 1fbd 514d 48bd 8d64 2dbd
00000260: e05d 42bc ec4d a63c 2bb0 b83c 7616 f5bc
00000270: bd6d ce3c 5dfd aabc 308d 993a dd92 8c3b
00000280: 24dc 933c 018c 6c3c 8229 99bc 67c1 b0bc
00000290: c332 54bb 0e70 e93a a226 7cbc 3e4d 5f3c
000002a0: 6baa 03bd 8cf6 1dbb 81ce f63c 74b9 8dbc
000002b0: 16a2 ea3c 34eb b23b 32a0 2ebd 4895 e93b
000002c0: bd21 a0bc 487f 25bd b72b 0e3c ec11 34bd
000002d0: 6d3c 00bc f183 59bc 765d ef3c 3341 e33b
000002e0: c55e 95ba e44a 9bbb edf8 3ebc ff8f 8ebb
000002f0: 9ac9 b2bc 4ff5 b83c f851 f73c 71d2 b53c
00000300: 086b bcbc af8e 4d3b 2443 bebc 0450 95bc
00000310: bf7b aabc 64ff 473c 6e77 b4bc 2ff8 aabb
00000320: 4e88 babb fe2c 223c d374 2ebd 1e37 1dbd
00000330: e92b 3ebd dd8d ee39 f0fa d5bc 8229 6b3c
00000340: e1ad 4f3a 42ef 97ba b85f 6cbb 6502 acbc
00000350: 281d 91bc 6d8b ecbc 9cfb 82bc 1de1 15bc
00000360: 6d52 28bd d320 d4bc 26a6 543c 9d26 22bd
00000370: 19ab 7abb ab99 0e3d bf78 543c 9bad ff3a
00000380: 7dbe fdbc 8be9 903c c69d d1bc a59a 5ebc
00000390: 1d4b 9ebc 5567 8cbc f392 24bc c969 943c
000003a0: 3067 c2bc d67c 053c 3eea d03b 22fa 0dbd
000003b0: baba 1b3b cb4f 09bd 70cd a7bc 57ed 38bc
000003c0: 432e c0bc fd74 92bc d07e 7abd 9928 23bd
000003d0: 04dc 83bc 983d 7fbd ead7 1fbb 16f4 3fbd
000003e0: 0957 f9bb 8d86 0ebc 34b5 9fbc 5f76 963b
000003f0: 18ee f13c 401c 2bbc dc79 b0bc 08ec 83bc
-0.0002673864 0.0191587 -0.029394465 -0.026283538 -0.013755515 0.009577049 -0.0007076137 0.028317487
-0.0031694302 0.009450449 -0.0107933255 -0.007020192 -0.034071002 -0.02354575 -0.014721371 0.0013230215
0.014119115 0.021429386 -0.024212183 -0.015552245 0.012972042 0.029656714 -0.0073500066 0.026725428
-0.0057565486 0.003779075 0.032338437 -0.033131085 -0.0224835 -0.009041617 -0.013921428 0.030857172
-0.023149222 -0.016436743 -0.02479994 -0.033190243 -0.020301932 0.03125375 0.016687015 0.018962443
0.004213804 -0.017113755 0.0062492695 -0.03217192 -0.026492966 -0.01845035 0.023358978 0.022858545
-0.013444193 -0.00041874233 0.022922536 0.035551965 0.014174367 0.004824745 0.02394594 -0.021028655
0.0066551436 -0.027689483 -0.024753032 -0.018479586 0.016203197 0.014414765 -0.020744305 0.012287382
0.022178594 0.00032560382 0.010145309 0.017613662 0.03401479 0.04248999 -0.01676876 -0.0022179305
0.02500631 0.04208605 0.045604832 0.04386831 0.015782394 -0.026120136 0.0062871766 -0.020388136
-0.032736536 0.031740677 0.027155707 -0.035626 0.006684718 -0.006016429 -0.0058769733 -0.01642594
0.0137209 -0.020979173 0.016130017 0.021160178 0.024290241 0.013744228 -0.034571595 -0.022384506
0.017809032 0.011433696 -0.022597374 -0.008508487 0.045956958 0.02833906 -0.0011743795 0.0073175365
-0.016438473 0.0180684 -0.017182 -0.023511134 -0.0010056059 0.005488798 -0.014617448 0.02119206
-0.02173354 0.032406077 0.024475295 -0.030109014 -0.008811795 0.0018690106 0.008146621 0.0095525095
0.008973201 -0.0038020648 -0.025174893 -0.00023855914 -0.042722333 -0.021864181 -0.015126759 -0.014805969
-0.009693651 -0.02335421 -0.0009814771 0.02594764 0.006565476 0.027608383 0.04085906 0.0028759744
0.0016284429 -0.0029257531 0.0073579284 0.022845207 0.03383022 0.02268057 0.033923052 -0.002694607
-0.032307006 -0.01645066 0.025059085 -0.004452693 -0.022822885 -0.038948115 -0.04890186 -0.04233222
-0.011863202 0.020300828 0.022544941 -0.029917937 0.025198812 -0.020872766 0.0011715051 0.0042899684
0.018049307 0.014437676 -0.01869655 -0.021576596 -0.003237889 0.0017809884 -0.01539007 0.013629256
-0.032144945 -0.0024103252 0.030127766 -0.017300345 0.028641742 0.0054601673 -0.042633243 0.0071283914
-0.019547338 -0.040404588 0.008677415 -0.043962404 -0.007826907 -0.013276086 0.02921937 0.0069352626
-0.0011396041 -0.0047391523 -0.011656028 -0.0043506618 -0.021824647 0.02257791 0.030190453 0.022195073
-0.023000255 0.0031365564 -0.023225375 -0.018226631 -0.02081096 0.012206886 -0.022029605 -0.005217574
-0.0056925183 0.009898422 -0.04259188 -0.038382642 -0.046428595 0.00045500594 -0.026120633 0.014353158
0.00079223333 -0.001159169 -0.0036067795 -0.020997236 -0.017714098 -0.028875077 -0.015989117 -0.0091479095
-0.041094232 -0.025894558 0.012979066 -0.039587606 -0.0038248955 0.034814518 0.012968241 0.0019506695
-0.030974621 0.017689487 -0.025587928 -0.013586675 -0.019322926 -0.017139116 -0.010044801 0.018116849
-0.023730844 0.008147439 0.00637558 -0.034662373 0.002376242 -0.033523362 -0.020483702 -0.011287055
-0.02345956 -0.01787805 -0.061156094 -0.03983364 -0.016096123 -0.0623146 -0.002439017 -0.046863638
-0.0076092524 -0.008699072 -0.019495584 0.0045917477 0.029532477 -0.010443747 -0.021542482 -0.01610376

bias f4 [50]
00000000: cdd0 76bc 6049 cbbc 3767 e73d 1d0f cb3c
00000010: d488 fa3d 2fe9 763d 2795 ab3d d37f 6dbd
00000020: 61e7 6f3d 9ee6 d13d 348d ae3d ef1c df3b
00000030: 8145 b63d cc09 c43d 3bd2 ed3c 3b43 e03c
00000040: e151 ed3b 00e6 493d 24c0 5e3c e6cc 6d3d
00000050: a881 a73d 11b7 183b fea5 23bd f8c4 883d
00000060: 2d2a fe3b c4b6 a63d a06a 09bc 2df5 283e
00000070: 6d2a 633d 5c38 883d d439 f0bb db2b cd3d
00000080: 1cb9 aa3b 5a87 0c3e d8ee c03b d918 3dbd
00000090: 534e b5bc aabb f63d 0051 023d e6df d93d
000000a0: 1a0e 5e3d 936a e63d f646 273d 5224 103d
000000b0: 9390 dfbb 88bb 523d 86d2 a2bc 3a9f 11bd
000000c0: bb49 dd3c 4869 ce3d
-0.01506443 -0.024815261 0.112989835 0.02478748 0.12233129 0.060280975 0.08378058 -0.05798323
0.05857027 0.10249065 0.08523026 0.006808869 0.088999756 0.09572181 0.02903091 0.027375808
0.0072424267 0.04929161 0.013595615 0.058056735 0.08179027 0.0023302475 -0.039953224 0.06678194
0.0077564926 0.081403285 -0.008387238 0.16499777 0.055460382 0.06651375 -0.0073311124 0.100181304
0.005210055 0.13723508 0.0058878474 -0.046166275 -0.022132074 0.12047513 0.03181553 0.10638408
0.054212667 0.11250796 0.040839158 0.035190888 -0.0068226545 0.051448375 -0.019875776 -0.03555224
0.027012696 0.100786746

weight f4 [50, 50]
00000000: ec6e d1bb d3cd 9ebd b373 febc b9fd 8abb
00000010: 0e31 0abe 0136 02be 79fc ad3d dd57 0fbe
00000020: db92 0b3e eeca 513e d0d0 1abe 702d 7cbc
00000030: 930f 203c 1ccb a33c a376 203e 901f 723d
00000040: 6184 023d 5b4c 0b3e 3a62 fe3d 75e7 a33d
00000050: dfd1 0dbe 3644 b43d 2899 f0bd 1fc3 bfbd
00000060: 501a 313d d5fa 9d3d ee2b 00bd 6642 5c3e
00000070: 03e1 90bd 59e2 0dbe b3c7 833c 6e13 543e
00000080: c0c2 a43b 03eb de3d 01fe a63c fa45 053d
00000090: 2ad9 f83d c885 943c 3d93 c23d d549 803e
000000a0: a6fd e7bc 0533 41be 38c9 debb 2209 373e
000000b0: 5487 893e 28a2 9b3c 3d75 033e c730 a5bd
000000c0: 4744 50bd 1429 373d 5b57 e7bd 38db c43d
000000d0: 8f52 12be ce4a 0c3d 1856 0abe 0fd2 7d3d
000000e0: 020b e4bd a9e2 983d f168 c53d 525c 8f3d
000000f0: a396 8fbc 952b 10bd 74fb 44bc 4c79 1e3e
00000100: df76 053d a514 a43d 9e0e 49bd e33a 343e
00000110: 0a72 a93d 2f14 b63d 8c63 6a3c 57cb 71bc
00000120: c686 063e bf20 0ebd 7963 f33d 423f 1abd
00000130: e733 1abd e4b2 0d3e 8261 f8bd ac09 a6bc
00000140: 581f 80bd 1d8e 97bd 8735 b23d a730 72bd
00000150: ceda 2e3c 0ce2 cdbd cf6a 26bd e898 0e3c
00000160: e3cf e73c 937a 8d3d 8a10 47be ed1d 283d
00000170: 074d 253e fcc1 d83c a218 01be 0de1 a03b
00000180: a480 d43d a36c 89bd 76f7 bebd a63d 85bd
00000190: 090a 8c3d 0b4b d7bd 61ff 03be 7e4e 20bd
000001a0: e727 1f3d 52a4 243d fbf0 c8bc be2f 833d
000001b0: 7da9 0ebe 080f 813c ab98 3b3d 1d79 0c3e
000001c0: 0a75 07be 9b78 d83d f4a5 ddbd a191 e6bd
000001d0: a465 743d 1f17 6dbd 89ca 6ebd 3ab2 163e
000001e0: 962a d5bd 54b1 0d3e a41c c3bd f75b 5bbc
000001f0: 3492 c4bb ef19 bfbd 8904 be3d 5f88 0c3e
00000200: 1be7 85bd a332 003e 97c8 e93d c63f 0bbe
00000210: 5c67 ad3d 48eb 3b3d 1fe6 9ebc 8f74 dcbc
00000220: a6fd b2bd da9e 47bb d68b dcbd c8ab b8bd
00000230: f332 563d a892 2b3d 2a43 213e a060 d1bd
00000240: d957 e9bd 0290 dc3d 828b 87bd b76a 053e
00000250: e491 87bc bdf3 183e 3fd1 eabd 3cf4 c93d
00000260: 9e41 183e a18a a0bd cb82 1e3c 9337 14bd
00000270: 0e1d 283d c3ae b2bc 27fc 88bd f38b 9fbb
00000280: 6239 703c 2159 093e 198f 0bbe f6bf 65bd
00000290: 95ac eabd 1f08 523d bea1 913d 4993 9a3c
000002a0: e17a d2bd 1f00 01bc 35ce 9fbd 5864 f7bd
000002b0: 8430 cf3c e8f2 bdbc 8ed4 023e f108 3f3d
000002c0: d88f a1bd cc73 05bd 0739 a7bd 4770 87bd
000002d0: b6a4 593d d5bb d13d 5fd2 293d 967c 06be
000002e0: 8d9f ea3d 12c4 23be 829a 043e f738 f4bd
000002f0: 500e a5bd 6938 73bd 3e2b 30bd 2c2f 183e
00000300: a876 b33d 6bef 253d 4deb 0cbe 4b87 be3d
00000310: d8b3 41bc 846e c8bd 9b3e 4d3c 08d3 ecbd
00000320: af4b 913d 32eb 8c3d 402d 123d fe74 063e
00000330: a10d da3d 000e f63d 8d41 6b3d f5f2 ff3d
00000340: a032 63bd 54e9 193e 45d3 0d3e 0da2 a33c
00000350: 12ff 1e3e 089a f33c bf45 1bbe 170e 1abe
00000360: 3a01 5ebb b730 b63d 8296 0c3d ff17 833c
00000370: be9e 2bbe a332 c9bd 87df 0ebd bb1c 1d3c
00000380: 781f 17be 9cbe 8a3d 50ac d23d 64fa bcbd
00000390: 0703 c73d a6dc 5bbe 2bf9 c73d 8152 cdbd
000003a0: f63b 8d3d 74aa 1dbe 826e 9abd dd42 dbbd
000003b0: 5e5d 80bd 1812 953e 774b a5bc 0193 39be
000003c0: 8e13 7f3e 5f64 3d3e 2ad3 d0bc cf78 9ebd
000003d0: e21e 0cbd a98d a43d 4dc4 94bd 2b45 21bd
000003e0: a084 76bc fc76 edbd 9e33 aabd 9e3b e53d
000003f0: d66b 0d3d 0036 aa3c b503 22be 0462 45bd
-0.0063913967 -0.077541016 -0.031061029 -0.004241672 -0.13495275 -0.12715913 0.08495421 -0.13998361
0.1363024 0.20487568 -0.15118718 -0.0153916925 0.009769338 0.019994311 0.15670256 0.05911213
0.031864528 0.13603346 0.12421079 0.08003131 -0.1384959 0.08802073 -0.11747962 -0.09363388
0.043237984 0.07713858 -0.031291895 0.21509704 -0.070741676 -0.13855876 0.016086435 0.20710537
0.005028099 0.10884669 0.02038479 0.032537438 0.12150796 0.018130198 0.0950074 0.2505633
-0.028319191 -0.18867119 -0.0067988895 0.17874578 0.2686106 0.01899822 0.12837692 -0.08065944
-0.050846364 0.04471691 -0.112959586 0.09612125 -0.14289306 0.034251027 -0.13509405 0.061967906
-0.11134912 0.07465107 0.096391566 0.070000306 -0.017527884 -0.035197813 -0.012022842 0.15475959
0.032584067 0.0801175 -0.049086206 0.17600589 0.08273704 0.088905685 0.01430596 -0.014757953
0.1313735 -0.034699198 0.11884207 -0.037657984 -0.037647154 0.13837773 -0.12127973 -0.020268284
-0.06255978 -0.07400153 0.08701616 -0.05912843 0.010672284 -0.10052881 -0.040629204 0.008703448
0.02829737 0.06908145 -0.19439903 0.041044164 0.16142665 0.026459686 -0.12607053 0.0049096406
0.10376099 -0.06710174 -0.09324543 -0.06505899 0.068378516 -0.1051236 -0.12890388 -0.039137356
0.038856413 0.04019577 -0.024528971 0.064055905 -0.13931842 0.015754238 0.045799892 0.13718076
-0.1322824 0.10569879 -0.10822669 -0.11258245 0.059667245 -0.057883378 -0.05829862 0.14716426
-0.10408513 0.13837177 -0.09526947 -0.013388625 -0.005998874 -0.09331118 0.09278209 0.13723896
-0.065382205 0.12519316 0.114152126 -0.13598546 0.0846698 0.04587868 -0.01939684 -0.026911048
-0.08739786 -0.0030459673 -0.10768859 -0.0901714 0.052294683 0.04188791 0.15748277 -0.10223508
-0.11393709 0.10769655 -0.06618406 0.1302899 -0.016549058 0.14936729 -0.11465692 0.09861037
0.14868781 -0.07838941 0.009674738 -0.036185812 0.041043334 -0.021811849 -0.06688719 -0.004868978
0.014662119 0.13412906 -0.13628806 -0.05609127 -0.11458699 0.051277276 0.07110928 0.01886906
-0.102773435 -0.007873564 -0.07803003 -0.12079686 0.025291689 -0.023187116 0.12776396 0.046639387
-0.07888764 -0.032581136 -0.08165174 -0.06613212 0.053135596 0.10240904 0.04146039 -0.13133463
0.11456213 -0.15992764 0.12949565 -0.11924928 -0.080593705 -0.05937997 -0.04300999 0.14861745
0.08762866 0.04051153 -0.13761635 0.09303149 -0.011822663 -0.09786704 0.012527133 -0.115636885
0.070945136 0.068807974 0.035687685 0.13130566 0.10647131 0.12014389 0.05743556 0.12497512
-0.0554682 0.15030414 0.13850124 0.019974733 0.15526989 0.029736534 -0.15163325 -0.15044437
-0.0033875243 0.0889601 0.034323223 0.016002653 -0.16759774 -0.09824111 -0.03488114 0.009589369
-0.14758098 0.06774637 0.10286772 -0.09227446 0.09717374 -0.2147089 0.09764322 -0.10025502
0.06896202 -0.15397054 -0.07540609 -0.107061125 -0.062678084 0.29115367 -0.020177586 -0.18122484
0.24909803 0.1849532 -0.025491316 -0.07737886 -0.03420914 0.08034832 -0.07264004 -0.039372604
-0.015046269 -0.1159496 -0.083106264 0.11193012 0.03452667 0.020777702 -0.15821727 -0.048189178

bias f4 [50]
00000000: f2d6 7e3e 4960 523d ab99 133d 77eb 453d
00000010: e268 653e 38b8 0a3e b59c 3e3e c75e cc3d
00000020: a031 613d aaf9 b53d a882 1f3e e15b cb3e
00000030: f7c5 b53e ab9a 3d3d a859 edbd 22d8 8fbd
00000040: b650 3a3e 6226 583e 12cd 2a3e 96b1 10be
00000050: 7b9b c9bc 8c75 db3d 1838 a33e 40ef d73c
00000060: fc8b c03e 930f 6f3e 9275 493d 45ab 483e
00000070: 85bb 353e a202 3c3e cc3b aa3e d7d5 67bd
00000080: b1ae 113f b2a3 0dbe 68e9 2a3e b1be 823e
00000090: aef7 12ba 4e60 4e3c 1bda a4bd d407 513d
000000a0: 235b d13e e989 9d3e f5ea bb3e 1ac8 153e
000000b0: 8697 7b3e 2fae 893e ee67 273e 8bbe 8c3e
000000c0: b8c7 a1bd 45a9 233d
0.24886683 0.051361356 0.03603522 0.04832026 0.22403291 0.13546836 0.18614466 0.09979015
0.054978967 0.0888551 0.15577185 0.39718536 0.35502598 0.04629008 -0.11589366 -0.07023646
0.18194851 0.21108392 0.1667979 -0.14130244 -0.024610272 0.1071578 0.31878734 0.0263592
0.376068 0.23345785 0.04918439 0.19596584 0.17747314 0.1836038 0.33248746 -0.056600418
0.5690718 -0.13831976 0.166906 0.2553611 -0.0005606365 0.012596203 -0.08049413 0.051032856
0.40889844 0.3076928 0.36702695 0.14627114 0.2456952 0.26890704 0.1634824 0.27489123
-0.078994215 0.03995635

weight f4 [20, 50]
00000000: a34f 2a3d fd23 1abe d0c2 15be 255d 023e
00000010: b7fd 033e dced 413d f58f f53d b03f 833e
00000020: b4a5 a33b a607 403e d914 9fbe 4df2 963d
00000030: 4863 b43d 14c2 cfbd 8507 09be c2f9 713d
00000040: 2a0b 573e dd2d c53e 10d5 2c3e a093 043e
00000050: 8aba b53e 67fa 5fbd 6ebc 7a3e 7d3c 32be
00000060: 4499 033e bc98 7abd 12cd 1f3e 3f82 dcbc
00000070: 41b4 63be 1a64 55bd d380 79be 5743 173d
00000080: f219 283f 6b95 1bbd afad 833c 13b2 473d
00000090: c844 98bd a72b 933d 58c1 fcbc a4fc 17be
000000a0: 3fde 513e 5f77 50be 7cf7 e3bc 64be 05be
000000b0: 8ca2 1a3c 5e97 25be 375d babd 4348 e93d
000000c0: 3735 af3c 19c2 4abd 82bd 4cbe 88ca 0e3d
000000d0: caf2 65bd 29c2 a4bc e847 1cbe f45d 74be
000000e0: 08d4 843e b8c7 33bd ee41 2e3e 1cb2 bcbd
000000f0: bea0 d73d f2ac 26bd 99dd 633e 7eb3 35bd
00000100: 0373 b33d 1acb 1f3c c7b6 183e 21d0 35be
00000110: c465 2b3e 2d82 f53b 32ff 31bb c2d1 f13d
00000120: 2efc 373d ee70 b3bc 9063 84be 999c c93d
00000130: 50da 413e 6a64 0b3e 431f 893d 0bfe 92bc
00000140: f5cd 6c3c a237 273d 5d05 d63e bb77 983b
00000150: 538f 81be 3cca 8d3d 1f12 2f3d 12f4 a83a
00000160: a227 b23d 07d6 01be e821 543e 793a 94be
00000170: 4d22 aa3d 0d19 8e3d 1e0c 82ba 4adb 913d
00000180: be44 4a3e 9251 603e ccd9 d9bc fda5 8ebd
00000190: f0c7 993d 4e38 793d 31e4 32bd 6b59 d4bd
000001a0: 382b 10be 2534 50bd 47d7 5fbd 25b1 e03d
000001b0: e4ea 033e e95a f53d 0de4 4f3d e98d 383e
000001c0: 2e9d ff3d c5bb 103e 3a09 7ebd 1dcc dfbd
000001d0: 253a 993d dcff b53e 6661 f83c e504 85bd
000001e0: 67aa 41bd ba4a 853d 776d e2bd 243c 20bb
000001f0: e9a0 01be f21a f23d e75a a3bd e9b4 303e
00000200: a85e 8b3d 6aab ff3b 25c4 ddbd c75b bdbd
00000210: 8f73 003d 4a96 57bd 4a3d 3c3e d234 1ebe
00000220: af23 d8bd 78e9 8e3d a709 3a3e 15df 22bd
00000230: 6066 283d 7865 76bd 13b9 b9bd 5d9c 2fb9
00000240: 37cc cfbc 7d89 cb3d 16da 96bd 1b1c 6c3c
00000250: 71fa ad3d 5c77 0d3c 4a87 0b3c b4d5 e83d
00000260: 4968 b7bd 6918 debd d72b ee39 931f bdbd
00000270: 9991 a0bd 5308 9dbd 5902 8bbd 712f 8d3d
00000280: 98e8 543d 6eb5 b13d 1dd5 4fbd cab1 c93b
00000290: f847 9abd eceb 60bd 1c01 7e3c f37b f63a
000002a0: 30c6 37bd 3329 973d 865d c23d 8483 a2bc
000002b0: 22f9 b23c 8d6a c1bd cad8 71bc 4a3a 82bd
000002c0: b9e7 d4bd 8372 88bd 8fa8 0abe 8ef0 8dbd
000002d0: 5ae3 04bd 3a93 1bbd 83d7 bfbd 7d42 9e3d
000002e0: b2b5 d5bd 4c40 a03d fcb8 02bd 6b39 8cbd
000002f0: c15f 193d 145e 15bc 742a 08be bb6c 9ebd
00000300: 5c73 24bd 9daa dc3d 37bb ef3b 2e35 be3d
00000310: c33d 883d 723c f4bd 9092 5abc 4db1 ddbd
00000320: 6db7 9b3e 925e 85bc 4081 11be a60c 8abc
00000330: c3ec 7f3c 1a79 893e 6680 0fbd 839c 1fbe
00000340: 5e48 023e 5627 4d3e 8e09 b03e 9484 61be
00000350: bded 283e 4939 a5bd 44aa 8c3d 5745 cc3d
00000360: 8894 64bd f49a 7abd 2e84 76bd 5eba b9bd
00000370: 25ac 293e 25ed 12bc 9c8e a63e ee9f 7b3e
00000380: e45a bdbd b949 2d3e 488d 27b8 7ca4 15be
00000390: 744e 903d 4f09 263e b283 c03d 97a0 803c
000003a0: 6344 be3e a12c bc3d 0c4d 41be 5dca 3fbe
000003b0: f45c 16bd 6bb5 1cbd 23bf b8bc 1772 d3bd
000003c0: 08c2 af3d f24b 753e 4022 cb3d e0b3 073e
000003d0: a90e b2bd c79e 0f3e 502c 633e 913b 443e
000003e0: 9bea 963d 370d f23b 63f5 b43e c37f 563d
000003f0: 7546 023d 28ff e83d 1088 663e 32ce af3c
0.041579854 -0.15052791 -0.14625096 0.12730844 0.12889753 0.04734598 0.11990348 0.25634527
0.0049941186 0.18752918 -0.31070593 0.07370434 0.08807999 -0.10144439 -0.13381775 0.05907608
0.21000353 0.38511553 0.16878152 0.1294694 0.3549388 -0.05468216 0.24485943 -0.17405887
0.12851435 -0.061180815 0.15605572 -0.026917575 -0.2223673 -0.052097417 -0.24365549 0.036929455
0.6566459 -0.037984293 0.01607403 0.04875381 -0.07434994 0.071860604 -0.030853912 -0.14842469
0.20494936 -0.20358036 -0.02782797 -0.1306091 0.009438168 -0.16171023 -0.090998106 0.11390736
0.02138768 -0.049501512 -0.19994166 0.034861118 -0.056139745 -0.020112114 -0.15261805 -0.23863965
0.25943017 -0.04389164 0.17017338 -0.09213659 0.10528706 -0.040692277 0.22252502 -0.04436063
0.08762171 0.009753013 0.14913474 -0.17755176 0.1673804 0.007492325 -0.0027160165 0.11807586
0.04491823 -0.021904435 -0.2585721 0.09844322 0.18930936 0.13612524 0.06695416 -0.017943403
0.014453401 0.04082454 0.41800967 0.004652945 -0.2530466 0.06923339 0.04274189 0.0012890121
0.086989656 -0.12679301 0.20716059 -0.2895086 0.083073236 0.06938372 -0.0009921824 0.07121904
0.19752786 0.21906117 -0.026593111 -0.069652535 0.07508838 0.060844712 -0.04367465 -0.103686176
-0.14078987 -0.05083098 -0.054648664 0.10971288 0.12882572 0.1198023 0.050754596 0.18022884
0.124811515 0.14134128 -0.062020518 -0.109276034 0.07481793 0.35546768 0.03031988 -0.06495074
-0.04728165 0.065083936 -0.11056035 -0.002444991 -0.12659039 0.11821546 -0.079763226 0.17256512
0.068051636 0.0078024166 -0.10828427 -0.09246021 0.031360205 -0.05263356 0.18382755 -0.15449837
-0.10553681 0.069781244 0.18167745 -0.03976353 0.041113257 -0.060155362 -0.09068503 -0.0001674755
-0.025365932 0.09938333 -0.07365815 0.014410998 0.084950335 0.0086344145 0.008516142 0.11368886
-0.08955438 -0.108444996 0.0004542756 -0.09234538 -0.078402705 -0.07667603 -0.06787557 0.06893814
0.05197963 0.08677183 -0.05074035 0.0061552273 -0.07533258 -0.054912493 0.015503194 0.001880525
-0.04486674 0.07380905 0.094904944 -0.019838102 0.021847311 -0.09444151 -0.014761159 -0.06358774
-0.1039576 -0.066624664 -0.13540863 -0.06930648 -0.03244338 -0.037982203 -0.093672775 0.077275254
-0.10435046 0.07824764 -0.031914696 -0.06846889 0.037444834 -0.009116668 -0.13297445 -0.077355824
-0.040149078 0.107747294 0.007316019 0.09287487 0.06652405 -0.119255915 -0.013340607 -0.10824833
0.3041338 -0.016280446 -0.14209461 -0.016851734 0.015620413 0.26850206 -0.03503456 -0.15587048
0.12722918 0.20034537 0.3438229 -0.22023231 0.1649694 -0.08067567 0.06868413 0.09974163
-0.055805713 -0.06118293 -0.06018465 -0.0906875 0.16569574 -0.0089676725 0.32530677 0.24572727
-0.09245852 0.16922654 -3.994748e-05 -0.14613527 0.07046214 0.16214488 0.09400119 0.015701575
0.3716155 0.091882 -0.18877047 -0.18729539 -0.03670974 -0.03825895 -0.022552079 -0.10324495
0.085819304 0.23954752 0.09918642 0.1325221 -0.086942025 0.14025412 0.22184873 0.19163348
0.07368966 0.0073868292 0.35343465 0.052367937 0.031805474 0.11376792 0.22512841 0.021460626

bias f4 [20]
00000000: adcf 103f 00b2 a83e 411b 773d 0b74 ffbd
00000010: 684b f03d dfa9 bc3e f15b 733e 0690 f53e
00000020: 6132 6f3e 6311 b13e 1a06 2f3e bfdc 053e
00000030: 0fae dcbd 4167 a03e 8b10 12be 7317 bd3e
00000040: 0988 6dbd 32a6 0dbd 3301 b23e 9dc1 f43e
0.5656689 0.32948303 0.060328726 -0.12473305 0.117331326 0.3684835 0.23765542 0.47961444
0.23359062 0.34583578 0.17092171 0.13072489 -0.107753865 0.31328776 -0.14264123 0.36931953
-0.05799106 -0.034582324 0.3476654 0.47803965

weight f4 [10, 20]
00000000: 7ada 263e 5768 c1be 9163 f13e 4ab0 d83d
00000010: 7572 7d3d 6513 7fbe 6523 3fbe bbc4 cabd
00000020: b20c 1f3f 4d56 6fbe e421 adbd 93eb 033d
00000030: d5e1 b2bd 4e8a c83d 9338 5fbe f2a5 623d
00000040: bd8f 493e 7b6e fd3d 49e6 b4be 7744 363d
00000050: 3d19 10bf 1daf b63e 314c 5dbc 9a73 97bd
00000060: 026e 433e 018b b7be 31b6 4abe bba9 003f
00000070: 4cf9 41be 7901 9d3c 4e83 063f 1103 a73d
00000080: c902 20be 1b74 a0bd d0ad 8b3d 77d1 1abf
00000090: f57e 7abe 0706 3c3e abad 113e 6719 003f
000000a0: bb79 383e 07b5 1b3f a228 c23d 7fc2 bebd
000000b0: b6d0 da3e d4e7 e13e 0a66 613d 2e36 1f3b
000000c0: dfb3 1abe 1381 57be edc1 6ebd f703 34be
000000d0: 0e1c 2ebe 902f 43be 6074 33be 21e9 233e
000000e0: d94f 74be 95ce 263e fd07 52be ed34 ddbe
000000f0: bc6b 87bd af8e 60bd 98d6 0abe 5eac 3e3e
00000100: b5d5 2e3e 304a 11bf 4bd5 16be fca1 3dbd
00000110: a449 ee3e 4512 683c e3e5 a53e ad15 483f
00000120: c0fc acbd 3f38 9ebe 2133 b9bd 23a6 103d
00000130: e466 3fbe a29b 34be f76b 79bd fb24 3f3d
00000140: 0b92 a9be bf0a 64be 4ad7 b5bc 4009 f43d
00000150: b905 acbe e758 12bf 74b4 013f a969 0e3f
00000160: bb1d 99bd 5514 d13e 1fc5 8cbe abd1 89be
00000170: d9a9 64be e7cd e23d 6d7e be3c bb02 843f
00000180: cdb0 78be 15b0 f83d 7089 9cbc 7b3a dbbe
00000190: 42a6 293f 8c45 963e d049 ce3d a106 353e
000001a0: 5ec8 b7be 40d0 47be c518 94be 8030 7d3e
000001b0: 289a db3d 945d 63be feed 61bd 587c 00be
000001c0: 7e86 8a3d f344 c4be c27b 0d3e 7f6a 84be
000001d0: 01ff 903e e7ce d9bd 29d2 16be b8e1 073e
000001e0: 0a7c c7bd 090e b03d 0985 5e3d bb2c 13be
000001f0: 6cea d4be ba4a 763e 4448 dfbe f0ea 443f
00000200: 0779 ca3e 367e d43e ead3 c9be 1c47 12bf
00000210: 5723 9d3d acc5 c9be 1c55 073e b66b 18bf
00000220: 438c aa3e bcc1 b6bd e67d d9be 6ada c0be
00000230: ade9 06bf 67dd 9fbe f091 52be 255b c4bc
00000240: 3a97 2e3f fbb0 cf3e 7c05 073e e5ce 21bf
00000250: 8e7a bdbe 851c 4e3e 1fc6 983d 7322 a43d
00000260: a1f2 b13d d8fe 1e3f d876 533e a645 17be
00000270: 0687 103c a117 0fbe 094b 153f 0857 d7bc
00000280: 738a 02be 3275 07be 2511 e4bd 009a f9bd
00000290: 1c12 d03e 22a7 2e3f a02d 6ebe 10ba 94be
000002a0: c6ce 05bc bcb1 d43d 51d9 27be b86f 203e
000002b0: bd30 1f3e f9bc 83be 587e 0dbc c899 06bf
000002c0: b5cd c33e 79ef 87bd d128 08bc 962e a8be
000002d0: 71d8 953e c1dd 4d3e 93ed 8a3e 9741 f1bd
000002e0: 9158 89be 203c 42bf 0275 083f 30e4 abbe
000002f0: 8e9f 76be 934e f6bd 4ba9 cabd 4f93 a6be
00000300: 9405 a0bd af71 4abd 1837 3ebd cf28 833f
00000310: f7cd 1bbe d3e2 9bbe 6f51 3c3d 51fc c83e
0.1629428 -0.37774917 0.47146276 0.105804995 0.061876733 -0.24909742 -0.18665846 -0.099008046
0.62128747 -0.23372765 -0.0845373 0.032207083 -0.0873448 0.097920045 -0.21798925 0.05533404
0.19683738 0.12374588 -0.35331944 0.044498887 -0.5628851 0.35680476 -0.013506935 -0.07395096
0.19084933 -0.3584824 -0.19796063 0.5025899 -0.18942755 0.019165741 0.52544105 0.08154882
-0.15626062 -0.07834645 0.068202615 -0.6047587 -0.24462493 0.18361674 0.14226405 0.5003876
0.18015186 0.608231 0.09480406 -0.09314441 0.4273736 0.44122183 0.055028953 0.0024293768
-0.15107678 -0.21045332 -0.05829041 -0.17579637 -0.1700289 -0.19061112 -0.17524862 0.160069
-0.23858584 0.16289742 -0.2051086 -0.43204442 -0.066123456 -0.054823574 -0.13558424 0.1862044
0.1707371 -0.56753826 -0.14729802 -0.04629706 0.46540558 0.014164512 0.32401952 0.78158075
-0.08446646 -0.30902287 -0.09042955 0.03531469 -0.18691593 -0.17637494 -0.06089398 0.046666127
-0.33119234 -0.22269724 -0.022197384 0.11915827 -0.33598116 -0.57166904 0.50665975 0.55629975
-0.07476374 0.40835825 -0.2749414 -0.26917776 -0.22330417 0.11074429 0.023253644 1.0313333
-0.24286194 0.1214296 -0.019108504 -0.42818055 0.66269314 0.29349935 0.10072672 0.1767831
-0.35895056 -0.19513035 -0.28925148 0.24725533 0.10722762 -0.22203666 -0.055158608 -0.12547433
0.067639336 -0.38333854 0.13816741 -0.258625 0.28319553 -0.106351666 -0.14728607 0.13269699
-0.097404554 0.08596427 0.05432609 -0.14372532 -0.415851 0.24051943 -0.43609822 0.76920986
0.39545462 0.4150254 -0.3941949 -0.57139754 0.07672756 -0.39408624 0.1321606 -0.59539354
0.33310136 -0.08923671 -0.42478865 -0.37666637 -0.5270031 -0.31223604 -0.20563483 -0.023969242
0.68199503 0.40564713 0.13185686 -0.6320632 -0.37007564 0.20128067 0.074596636 0.08014383
0.08688856 0.6210761 0.20650804 -0.14772663 0.008821255 -0.13973857 0.5831762 -0.026286617
-0.12748127 -0.132283 -0.111360826 -0.12187576 0.40638816 0.68223774 -0.23259592 -0.29048204
-0.008166974 0.10385463 -0.16391493 0.15667617 0.15545936 -0.25730112 -0.00863608 -0.525784
0.3824288 -0.06637473 -0.008310513 -0.32848042 0.29266694 0.20104124 0.2713438 -0.117800884
-0.26825383 -0.75872993 0.5330354 -0.3357253 -0.24084303 -0.120267056 -0.09895571 -0.32534263
-0.07813564 -0.049424823 -0.04643926 1.0246829 -0.15215288 -0.3044649 0.0459761 0.39255002

bias f4 [10]
00000000: 8576 53be 88fd 4f3c f85c d1bc 12ab 80be
00000010: 165e 8e3d 999b 823c dfdb 9c3e a699 163d
00000020: f198 513d 1564 cd3e
-0.2065068 0.012694724 -0.025557026 -0.25130516 0.06951539 0.015943335 0.30636498 0.036767624
0.051171247 0.4011542
