datasets/mnist/partition_noniid-#label_major_classes_num_2_clients_10_dir_alpha_None_seed_42/models/batch_size_256_com_round_50_epochs_5_lr_0.1_sample_ratio_0.9_personalization_steps_25/client_8.pt (torch, 175631 bytes, 8 tensors)

weight f4 [50, 784]
00000000: ff2f 8cb9 b5f2 9c3c a9cc f0bc 9350 d7bc
00000010: d05e 61bc 0ee9 1c3c 277f 39ba 13fa e73c
00000020: 37b6 4fbb 0ed6 1a3c 7dd6 30bc a409 e6bb
00000030: 098e 0bbd 04e3 c0bc e831 71bc 3c69 ad3a
00000040: dc53 673c ae8c af3c a158 c6bc d8ce 7ebc
00000050: b088 543c a3f2 f23c 53d8 f0bb 49ef da3c
00000060: 6ea1 bcbb 5caa 773b 4f75 043d 76b4 07bd
00000070: 512f b8bc 4a23 14bc b316 64bc 2ec8 fc3c
00000080: 70a3 bdbc 59a6 86bc 3e29 cbbc 7ef2 07bd
00000090: 4350 a6bc ec03 003d 16b3 883c 9656 9b3c
000000a0: 6613 8a3b 5432 8cbc 29c6 cc3b cdc6 03bd
000000b0: 2408 d9bc 9e25 97bc f059 bf3c f040 bb3c
000000c0: 2645 5cbc 2c8b dbb9 0bc8 bb3c f09e 113d
000000d0: 9b3b 683c e518 9e3b 472a c43c 4944 acbc
000000e0: 6413 da3b 0ed5 e2bc dfc6 cabc 8062 97bc
000000f0: 91bc 843c e82b 6c3c f6ef a9bc f750 493c
00000100: c4af b53c 1ea9 aa39 f835 263c af46 903c
00000110: 2f51 0b3d 6307 2e3d 1e64 89bc 6e74 11bb
00000120: bed6 cc3c d65f 2c3d 9bc9 3a3d b9ad 333d
00000130: 1146 813c 29fd d5bc f000 ce3b 8105 a7bc
00000140: dc16 06bd 8302 023d a575 de3c 92ec 11bd
00000150: 7b0b db3b 7725 c5bb a293 c0bb b18f 86bc
00000160: a0cd 603c 84dc abbc 1923 843c 1058 ad3c
00000170: 16fc c63c 9827 613c 93a1 0dbd 8a6c b7bc
00000180: 78d7 913c d818 3b3c e04c b9bc 02d1 0bbc
00000190: 7b23 3c3d a1e9 e73c 64db 9cba 425a ef3b
000001a0: 43c1 86bc 21f3 933c c7ca 8cbc fea0 c0bc
000001b0: e52c 84ba 47d8 b33b 057e 6fbc f99a ad3c
000001c0: 890a b2bc 3cbc 043d 6a80 c83c 2ea7 f6bc
000001d0: 595f 10bc 97f9 f43a 2778 053c 5c7c 1c3c
000001e0: dded 123c ccd2 79bb bf4f cebc f301 82b9
000001f0: fd03 2fbd 4130 b3bc 2f56 78bc 12ae 73bc
00000200: 4474 20bc 864d c0bc 0747 90ba 59bd d33c
00000210: 0093 d43b c5c7 e13c b43a 273d 234d 3b3b
00000220: d785 d43a 27c9 3fbb c313 f13b 4024 bb3c
00000230: 8f91 0a3d 9acc b93c e6f2 0a3d 0198 30bb
00000240: 5a54 04bd d3c3 86bc 3d43 cd3c 3c16 92bb
00000250: 4302 bbbc 288e 1fbd 424a 48bd a050 2dbd
00000260: 2686 41bc 79d8 a63c 231b b93c 74d7 f4bc
00000270: 1769 ce3c c623 abbc fd0c 963a ad27 8b3b
00000280: 3376 933c 08fd 6b3c 0e56 99bc fae5 b0bc
00000290: e2fa 54bb 69f7 e83a 8634 7cbc 6149 5f3c
000002a0: 6baa 03bd 8cf6 1dbb 81ce f63c 74b9 8dbc
000002b0: a3a1 ea3c 0be1 b23b c0a6 2ebd 743e e93b
000002c0: 7f37 a0bc f17c 25bd 8ba7 0e3c 24c3 33bd
000002d0: afc5 fdbb ef54 58bc 0f2e f03c e5ec e73b
000002e0: 96e9 82ba ed4f 96bb 01eb 3cbc a4cc 8bbb
000002f0: 6463 b2bc ad3a b93c 726c f73c 03e3 b53c
00000300: c55c bcbc b2d4 4d3b 7642 bebc d051 95bc
00000310: bf7b aabc 64ff 473c 6e77 b4bc 2ff8 aabb
00000320: 6893 babb 1621 223c 4d81 2ebd a44b 1dbd
00000330: da32 3ebd 20fb f839 656a d5bc f4b8 6c3c
00000340: a199 603a 7e74 8fba ed25 65bb 96c6 aabc
00000350: 00a7 8fbc 76e4 eabc 9f62 81bc 7c65 13bc
00000360: 39d1 27bd f154 d3bc 68ab 553c 7efa 21bd
00000370: 3abd 78bb e5a1 0e3d 1472 543c 87a3 ff3a
00000380: 7dbe fdbc 8be9 903c c69d d1bc f798 5ebc
00000390: 1f4c 9ebc f370 8cbc 18da 24bc 793e 943c
000003a0: 2a7b c2bc 0f22 063c 03b9 d33b 0098 0dbd
000003b0: 3ba3 1f3b 351f 09bd f136 a7bc 4d5b 37bc
000003c0: c91c bfbc 2634 91bc 68d0 79bd a289 22bd
000003d0: 72bf 82bc e3cb 7ebd 25ad 1abb 27bc 3fbd
000003e0: 3269 f8bb c477 0ebc c3b8 9fbc c574 963b
000003f0: 18ee f13c 401c 2bbc e879 b0bc 90ea 83bc
-0.0002673864 0.0191587 -0.029394465 -0.026283538 -0.013755515 0.009577049 -0.0007076137 0.028317487
-0.0031694302 0.009450449 -0.0107933255 -0.007020192 -0.034071002 -0.02354575 -0.014721371 0.0013230215
0.014119115 0.021429386 -0.024212183 -0.015552245 0.012972042 0.029656714 -0.0073500066 0.026725428
-0.0057565486 0.003779075 0.032338437 -0.033131085 -0.0224835 -0.009041617 -0.013921428 0.030857172
-0.023149222 -0.016436743 -0.02479994 -0.033190243 -0.020301944 0.03125374 0.016686957 0.018962186
0.0042137383 -0.017113842 0.0062492085 -0.032172013 -0.02649314 -0.018450554 0.023358315 0.022858113
-0.013444221 -0.00041874626 0.022922536 0.035551965 0.014174367 0.004824745 0.02394594 -0.021028655
0.0066551436 -0.027689483 -0.024753032 -0.018479586 0.016203197 0.014414765 -0.020744305 0.01228737
0.022178538 0.0003255093 0.010144703 0.01761183 0.03401297 0.042487513 -0.016771372 -0.0022194642
0.02500474 0.042083584 0.045602422 0.043866847 0.01578048 -0.026121693 0.006286733 -0.020388367
-0.032736644 0.031740677 0.027155707 -0.035626 0.006684718 -0.006016429 -0.005876974 -0.01642594
0.0137209 -0.020979173 0.016130017 0.021160156 0.024290126 0.01374235 -0.034577917 -0.022390623
0.017802939 0.011419497 -0.022619665 -0.008533718 0.045932274 0.028309645 -0.0011967239 0.0073044607
-0.016449576 0.018060269 -0.017186536 -0.023514267 -0.001008418 0.0054884288 -0.014617448 0.02119206
-0.02173354 0.032406077 0.024475295 -0.030109014 -0.008811795 0.0018690106 0.008146322 0.009551134
0.008967844 -0.003812003 -0.02518451 -0.00024796985 -0.042728413 -0.021873595 -0.0151572665 -0.014873045
-0.009793345 -0.023474466 -0.0011007496 0.025847124 0.0064872503 0.027561078 0.040827468 0.0028579913
0.0016214204 -0.0029264183 0.007357092 0.022844434 0.03383022 0.02268057 0.033923052 -0.002694607
-0.032307006 -0.016450798 0.025056476 -0.004458217 -0.022828227 -0.03895393 -0.048898943 -0.042313218
-0.011811769 0.020366894 0.022595948 -0.029887892 0.025196595 -0.020891082 0.0011447963 0.004246673
0.018000698 0.014403589 -0.018717792 -0.021594036 -0.003249817 0.0017773929 -0.015393382 0.013628335
-0.032144945 -0.0024103252 0.030127766 -0.017300345 0.028641528 0.005458956 -0.042639494 0.0071180407
-0.019557713 -0.040402357 0.008706938 -0.043887272 -0.007744513 -0.0132038435 0.029318837 0.0070778006
-0.0009987827 -0.0045871646 -0.011530639 -0.0042663384 -0.021775909 0.022610987 0.030203078 0.022202974
-0.022993455 0.0031407294 -0.02322505 -0.018227488 -0.02081096 0.012206886 -0.022029605 -0.005217574
-0.0056938417 0.009895584 -0.04260378 -0.038402215 -0.046435215 0.0004748935 -0.02605171 0.014448393
0.00085678144 -0.0010944752 -0.0034965232 -0.020846646 -0.017535686 -0.028673392 -0.015794097 -0.008996364
-0.040971015 -0.02579734 0.013041355 -0.03954553 -0.0037954585 0.034822363 0.0129666515 0.0019503691
-0.030974621 0.017689487 -0.025587928 -0.013586274 -0.019323407 -0.017143702 -0.010061763 0.018096196
-0.02374037 0.008186831 0.006461264 -0.034568787 0.0024358768 -0.033477027 -0.02041194 -0.011191201
-0.023329156 -0.017725062 -0.060989767 -0.039682038 -0.015960429 -0.06220616 -0.0023601737 -0.046810295
-0.0075808996 -0.008695547 -0.019497281 0.0045915567 0.029532477 -0.010443747 -0.021542504 -0.016103059

bias f4 [50]
00000000: 38a2 75bc f02f d0bc de41 e83d 2124 e63c
00000010: c6a6 fc3d 59be 753d cc28 ac3d bf4c 78bd
00000020: 58c7 753d cba3 d03d 5360 ac3d 7d0d e23b
00000030: 03ea ba3d ce2f c33d 6bea e83c ec95 de3c
00000040: aa58 063c aac6 473d 5e49 5c3c 1c2d 823d
00000050: 034e a63d ff25 193b 0294 28bd b480 873d
00000060: 0dfa 053c 109d a73d 7610 a2bb 1b47 2c3e
00000070: d002 613d ec27 813d 7361 12bc 1cd9 cc3d
00000080: fb20 16bb 044a 093e c15d 6a3b 34cb 47bd
00000090: a4ee b5bc bb8f 003e 91ad 063d c1c1 d73d
000000a0: fdf2 6e3d 2813 ea3d 1a4e 223d a057 283d
000000b0: d56a a5ba d379 6d3d 4ed0 a2bc 4587 11bd
000000c0: 4b32 d03c 06ee cc3d
-0.014992289 -0.025413483 0.11340688 0.0280934 0.12336497 0.059995983 0.08406219 -0.060620066
0.060004562 0.10187491 0.0841681 0.0068985806 0.091266654 0.095306024 0.028432092 0.027171098
0.00819985 0.048773445 0.0134452265 0.0635626 0.08120348 0.0023368595 -0.041156776 0.06616345
0.0081772925 0.08184254 -0.00494581 0.16824 0.054934323 0.063064426 -0.0089343665 0.10002348
-0.0022907841 0.13407141 0.0035761448 -0.048777774 -0.02220852 0.12554829 0.03288037 0.105350025
0.0583372 0.11429435 0.039625265 0.04109919 -0.0012620339 0.05797751 -0.019874718 -0.035529394
0.025414607 0.10006337

weight f4 [50, 50]
00000000: f842 a3bb 9c6e 9bbd 0aee f5bc e1bd 25ba
00000010: ead9 05be 9b4d 01be 1ddd ae3d fdc4 0dbe
00000020: eecb 0c3e 4913 543e f830 1abe e311 7cbc
00000030: b691 363c 0224 a93c 84cb 203e e79b 7a3d
00000040: 2cc9 043d 1320 0b3e 403c fe3d 2f95 af3d
00000050: c9dc 0cbe 6944 b43d 447a efbd 0bdd bebd
00000060: 1008 373d 0252 9f3d 9e0b dcbc 65b1 5d3e
00000070: 8449 8fbd 05fc 0bbe a91d 863c 5c85 543e
00000080: 8737 083c f05f df3d 3582 a83c e93e 0a3d
00000090: 2dd7 f83d 8013 d33c 8fa5 cd3d 4622 803e
000000a0: 5e64 aebc 4e15 3bbe 5eea c9bb b73e 3c3e
000000b0: 0f62 8b3e 066f ba3c 0676 033e b02a a5bd
000000c0: 373e 4abd 8d3e 363d 785d e7bd 53a6 c43d
000000d0: bf65 12be 28da 0b3d b15a 0abe f883 7d3d
000000e0: d208 e4bd 61fe 983d 5e50 c53d 086c 8f3d
000000f0: dd6b 8fbc ea2d 10bd cdf3 45bc f57c 1e3e
00000100: 2059 053d 2db4 a33d 9c24 49bd b23c 343e
00000110: 247d a93d eb88 b53d 13e3 683c 6ccb 71bc
00000120: 1c7f 063e 5236 0ebd 28f6 f23d 6d3b 1abd
00000130: 3600 1bbd cf81 0d3e 5082 f8bd 7073 a6bc
00000140: 3230 80bd 74c9 97bd 94a5 b13d 0e6e 72bd
00000150: 3491 2b3c 1735 cebd 2467 26bd 2f56 0c3c
00000160: f61a e63c 0169 8d3d d532 47be cac1 273d
00000170: 6d56 253e a3cf d43c 8495 01be 67bf 963b
00000180: 9d80 d43d c86b 89bd 74fe bebd 4346 85bd
00000190: 365e 8b3d aeda d7bd 522d 04be c87b 22bd
000001a0: d121 1c3d 83fd 233d 668f c9bc 2c57 823d
000001b0: a7ef 0ebe d887 773c 31d2 3a3d d378 0c3e
000001c0: e6bf 07be 5027 d83d efc1 ddbd b006 e7bd
000001d0: cc08 743d 0a21 6dbd adcf 6ebd 8da8 153e
000001e0: 587b d5bd 53b1 0d3e 3d59 c3bd cabb 5cbc
000001f0: 90fc cabb ce46 bfbd 8e9c bc3d 7e30 0c3e
00000200: b00a 86bd d98d ff3d dc94 e93d f348 0bbe
00000210: 2444 ac3d ed55 3b3d 7aa4 9fbc f564 debc
00000220: 7d02 b3bd cd48 96bb ca97 debd a8b4 b8bd
00000230: 3ba9 4f3d 301c 283d 8a0c 213e e2c8 d2bd
00000240: 691f eabd d55e db3d b08b 87bd fc69 053e
00000250: aa96 88bc 3af4 183e 46cd eabd 7c0e ca3d
00000260: 8a4a 183e ba27 a0bd f0dd 203c 9415 14bd
00000270: e029 283d d0a3 b2bc 44f8 88bd 6d83 9fbb
00000280: 5f39 703c 5659 093e eb86 0bbe f6bc 65bd
00000290: 4a9b eabd e92e 533d 97b3 913d ee91 9a3c
000002a0: 7d7c d2bd 4d3d fcbb 32be 9fbd 5864 f7bd
000002b0: c637 cf3c 3cd5 bdbc 34f3 023e f663 3f3d
000002c0: 8c3a a1bd 71dd 04bd 4513 a7bd e259 87bd
000002d0: efaf 593d 8626 d23d 1bc3 2a3d ad78 06be
000002e0: 62cf ea3d 8fad 23be a39b 043e 6be6 f3bd
000002f0: c0a8 a4bd b62e 73bd 2deb 2fbd 6894 183e
00000300: fb76 b33d 437e 273d 6785 0cbe 2fe3 be3d
00000310: d8b3 41bc 816e c8bd 71b3 4f3c d9d2 ecbd
00000320: ac9a 923d e0ca 8f3d 2bf6 143d 78b3 083e
00000330: 2245 de3d c1a1 f73d 83d4 6b3d 992d 003e
00000340: 7ccb 60bd c17f 1a3e 24ea 0d3e cbb2 a33c
00000350: 14fa 1f3e f6ab f43c 4a0a 1bbe 4c65 18be
00000360: 1042 47bb 103b b63d dd8c 0c3d 19aa a03c
00000370: 0ac8 2abe 4832 c9bd b9cd 0dbd 3b02 223c
00000380: 3045 15be 5999 8b3d 1d3a d93d 509c b9bd
00000390: b952 c83d 9d87 5abe e6ba c83d dc0f ccbd
000003a0: 2341 933d ce19 1dbe 3728 98bd 6148 d7bd
000003b0: 6e48 80bd c30b 973e 5f6d 8bbc b86d 39be
000003c0: 579e 813e 1721 413e 96cf d0bc 2294 94bd
000003d0: be86 f3bc dd0a ab3d 50c3 94bd 0946 21bd
000003e0: 98f2 66bc 4a6a edbd 927f a9bd 2a92 e53d
000003f0: e91c 0e3d c0ea ae3c 7b14 21be 0c6d 45bd
-0.0049823485 -0.075894564 -0.030020732 -0.00063225447 -0.13071409 -0.1262726 0.08538268 -0.13844676
0.13749668 0.20710482 -0.15057743 -0.015385124 0.011143139 0.020647053 0.15702635 0.061183836
0.032418415 0.13586454 0.124138355 0.085733764 -0.13756098 0.08802111 -0.11693242 -0.09319504
0.044685423 0.077793136 -0.026861008 0.21649702 -0.06996444 -0.13670357 0.016371565 0.20753998
0.00831402 0.109069705 0.0205699 0.033751402 0.121504165 0.025766134 0.100413434 0.2502615
-0.021288093 -0.18269846 -0.006161972 0.18383299 0.2722325 0.022758018 0.12837991 -0.080647826
-0.04937574 0.044493247 -0.112971246 0.09602036 -0.14296626 0.034143597 -0.13511159 0.061893433
-0.11134495 0.07470394 0.096344694 0.07003027 -0.017507488 -0.035200037 -0.012082052 0.15477355
0.0325557 0.0799335 -0.04910718 0.17601278 0.08275822 0.08864006 0.014214295 -0.014757972
0.13134426 -0.034719773 0.11863357 -0.03765433 -0.037841998 0.1381905 -0.1213423 -0.020318717
-0.062591925 -0.07411471 0.0867416 -0.059186988 0.010471631 -0.1006872 -0.040625706 0.00856547
0.028089028 0.069047935 -0.19452985 0.040956296 0.1614625 0.025977915 -0.12654692 0.0046004537
0.103760935 -0.06710011 -0.09325877 -0.06507542 0.06805079 -0.10539757 -0.12907913 -0.03966883
0.038118187 0.04003669 -0.02460451 0.06364283 -0.13958608 0.015108071 0.04561061 0.13717966
-0.13256797 0.10554373 -0.108280055 -0.112805724 0.0595787 -0.057892837 -0.058303524 0.14615078
-0.104239166 0.13837175 -0.09538505 -0.013472507 -0.0061946586 -0.09339677 0.09209548 0.13690373
-0.06545007 0.12478227 0.11405346 -0.13602047 0.08411434 0.045736242 -0.019487608 -0.02714775
-0.08740709 -0.0045863152 -0.10868795 -0.090188324 0.0506985 0.041042507 0.1572744 -0.102922216
-0.11431772 0.10711447 -0.0661844 0.13028711 -0.016673405 0.14936915 -0.11464934 0.09866044
0.14872184 -0.07820077 0.009818539 -0.03615339 0.04105556 -0.021806628 -0.06687978 -0.004867962
0.014662116 0.13412985 -0.13625686 -0.05608841 -0.114554 0.05155841 0.07114332 0.018868413
-0.102776505 -0.0076977373 -0.07799949 -0.12079686 0.02529515 -0.023172967 0.12788087 0.04672619
-0.07872495 -0.032437745 -0.08157972 -0.06608941 0.0531463 0.10261254 0.041689973 -0.13131972
0.114653364 -0.15984176 0.12949996 -0.11909183 -0.08039999 -0.05937072 -0.04294889 0.14900362
0.08762928 0.040891897 -0.13722764 0.093206756 -0.011822663 -0.09786702 0.0126770595 -0.115636535
0.071584076 0.07021117 0.036367577 0.13349712 0.1085303 0.12091399 0.057575714 0.12517394
-0.054881558 0.15087797 0.13858849 0.019982716 0.15622741 0.029867154 -0.15140644 -0.14882392
-0.0030404367 0.08897984 0.034314025 0.019612359 -0.16677871 -0.098240435 -0.03462002 0.009888227
-0.14577174 0.06816358 0.10606787 -0.09063017 0.09781403 -0.21340795 0.09801273 -0.099639624
0.07190158 -0.15341875 -0.074295454 -0.10511852 -0.06263815 0.2950116 -0.017019926 -0.1810826
0.25316116 0.18860279 -0.02548961 -0.072548166 -0.029727336 0.083516814 -0.072638154 -0.03937343
-0.014095925 -0.11592539 -0.08276285 0.11209519 0.03469554 0.021352172 -0.15730469 -0.0481997

bias f4 [50]
00000000: 991f 823e 6223 513d b970 0f3d 1df4 463d
00000010: 1566 693e f840 0b3e 0364 3d3e 5ad9 cc3d
00000020: 4b05 5c3d 9034 be3d 3999 1f3e 158e c73e
00000030: cbbd b33e 0437 393d f8e7 e9bd aed9 8fbd
00000040: 92c4 373e 0d46 583e fa05 263e a2b3 10be
00000050: e66f a5bc 13ca e03d b7a0 a63e 0e46 083d
00000060: 0368 c13e 5a6c 6d3e 8496 403d 7750 493e
00000070: ccc0 343e 25fb 3b3e 7ea3 a93e 6627 6cbd
00000080: 842d 123f b2a3 0dbe f855 273e 17f6 813e
00000090: e077 2aba 549b 4e3c 1ec1 a5bd 804d 4f3d
000000a0: ea0d d03e b33c 9d3e b8cb ba3e a18e 173e
000000b0: ea2e 7b3e da40 8a3e d8cf 2a3e b078 8b3e
000000c0: a2ca 9dbd 7667 223d
0.25414732 0.051059134 0.03501961 0.04857265 0.22792847 0.13599002 0.18495183 0.10002394
0.053715985 0.09287369 0.15585794 0.38975587 0.35105738 0.045218483 -0.11421198 -0.07023941
0.1794608 0.21120472 0.16213217 -0.14131024 -0.020194959 0.109760426 0.3254449 0.033269934
0.37774667 0.23185864 0.047018543 0.19659601 0.17651671 0.18357523 0.33132547 -0.05765476
0.571007 -0.13831976 0.16341388 0.25383064 -0.0006502848 0.012610275 -0.08093475 0.05061102
0.40635616 0.30710372 0.3648355 0.14800502 0.24529615 0.27002603 0.16680849 0.27240515
-0.07704665 0.03964945

weight f4 [20, 50]
00000000: 1d85 253d 753a 1abe 5804 16be 6f51 023e
00000010: cbf3 003e 3895 3f3d 24b1 f23d d6b0 813e
00000020: 529c a13b e049 3d3e 09fd 9ebe bd74 943d
00000030: 120d b43d b884 d1bd ccd6 09be 12f8 713d
00000040: 67d9 553e c40c c33e 7e08 2c3e 2793 043e
00000050: c622 b33e dfa2 65bd 1d51 763e 7e94 34be
00000060: 7802 013e d433 7fbd 16ec 1e3e 3614 ffbc
00000070: 92af 63be c575 55bd 6b23 79be 3531 153d
00000080: 9172 263f 6b95 1bbd e7c9 773c b188 423d
00000090: ca3f 98bd a524 933d e869 01bd d2f6 17be
000000a0: 95eb 503e fa3b 50be 9069 e4bc 2e02 06be
000000b0: 8744 1c3c 18a7 25be fa31 c2bd 5c4c e83d
000000c0: 4e63 a23c 1f7f 4abd 5e36 50be 2c70 0d3d
000000d0: 6ba0 68bd fa17 a5bc 0ab1 21be a1d8 76be
000000e0: bb91 833e e8d9 45bd a3e5 2d3e d4e0 c6bd
000000f0: 4411 d53d ec41 2fbd 1146 623e 9ff6 3bbd
00000100: 3c19 b03d 81c1 1f3c 1fe2 163e d47b 3cbe
00000110: 95cb 293e 5667 f53b 05b1 34bc 9733 ec3d
00000120: 4771 153d 7a8a d7bc fce1 86be 530e c33d
00000130: 962b 403e e532 033e cf20 873d 81f8 93bc
00000140: fdce 6b3c ad79 243d 4701 d03e bb77 983b
00000150: 1c8e 82be 7c1b 873d daf0 2e3d 7cb8 a63a
00000160: 16f5 af3d f001 02be e85a 513e cf8b 94be
00000170: 7703 a83d 6fd2 8b3d 516f 8aba efe6 8e3d
00000180: 5571 423e 1fd4 5e3e db20 f3bc 2229 8fbd
00000190: 32b6 963d 3cbd 783d a50a 34bd dd73 d4bd
000001a0: d5db 12be df60 54bd d39e 64bd b682 db3d
000001b0: 7fcc 033e b818 f03d f98d 4e3d 2560 373e
000001c0: e395 fe3d 8ee9 0f3e 2272 80bd a2cc dfbd
000001d0: c929 973d ee10 b43e b55d f23c 8005 85bd
000001e0: bbfc 52bd dab4 823d 475d eabd eefa 93bb
000001f0: 5921 04be 2c90 ef3d ddd3 a4bd a9c2 2c3e
00000200: a4c9 8a3d b26a fc3b c48c ddbd 1635 bebd
00000210: 302b d13c 4a96 57bd 761b 3b3e 71a4 1fbe
00000220: 6023 d8bd 9ae4 8e3d e062 393e a21e 23bd
00000230: 18c6 233d cd3c 77bd a491 babd 450f 1bba
00000240: 7095 cfbc 385a ca3d 9ed8 9dbd 731a 613c
00000250: 2c31 ab3d 471c 0c3c 4a87 0b3c b4d5 e83d
00000260: 4968 b7bd 6918 debd d72b ee39 931f bdbd
00000270: 9991 a0bd 5308 9dbd 5902 8bbd 712f 8d3d
00000280: 98e8 543d 6eb5 b13d 1dd5 4fbd cab1 c93b
00000290: f847 9abd eceb 60bd 1c01 7e3c f37b f63a
000002a0: 30c6 37bd 3329 973d 865d c23d 8483 a2bc
000002b0: 22f9 b23c 8d6a c1bd cad8 71bc 4a3a 82bd
000002c0: b9e7 d4bd 8372 88bd 8fa8 0abe 8ef0 8dbd
000002d0: 5ae3 04bd 3a93 1bbd 83d7 bfbd 7d42 9e3d
000002e0: b2b5 d5bd 4c40 a03d fcb8 02bd 6b39 8cbd
000002f0: c15f 193d 145e 15bc 742a 08be bb6c 9ebd
00000300: 5c73 24bd 9daa dc3d 37bb ef3b 2e35 be3d
00000310: c33d 883d 723c f4bd 9092 5abc 4db1 ddbd
00000320: e097 9c3e 9352 83bc e491 10be 0c95 89bc
00000330: 1390 b43c fde3 893e 52eb 04bd 9b61 1abe
00000340: 5b88 023e 59de 503e 355b b03e a9c2 5fbe
00000350: 6d0c 293e c1cf a0bd 75f3 8e3d 4846 cc3d
00000360: 3a0f 5fbd 470c 64bd f6cb 70bd 7fb9 b9bd
00000370: 87ef 303e 3674 f3bb 8209 aa3e 3cc7 7e3e
00000380: 33f4 afbd 737a 303e 2ad2 bf3a 7085 0cbe
00000390: 3634 913d 4e16 263e a6e7 bf3d e511 873c
000003a0: e73d c23e a12c bc3d 663f 40be 50a7 3abe
000003b0: f345 16bd 3ba7 1cbd c783 b1bc 8c44 d2bd
000003c0: 8c27 b83d 0b03 753e 8cc4 cb3d 6c78 083e
000003d0: 101b b2bd 9f08 103e fd70 6a3e 5e56 453e
000003e0: abae 9c3d d52d fb3b 049a b73e 7dc2 573d
000003f0: 427a 063d 1f51 e93d 3dd6 6e3e 4b09 ce3c
0.04041015 -0.15061362 -0.14650095 0.12726377 0.12593 0.046773165 0.11850193 0.25330228
0.004931965 0.18485212 -0.31052426 0.072488286 0.087915555 -0.10230392 -0.13460845 0.05907447
0.20883714 0.38095677 0.16800115 0.12946759 0.34987468 -0.05606353 0.2405438 -0.1763477
0.12598598 -0.062305287 0.15519747 -0.031137567 -0.22234944 -0.052114267 -0.24329917 0.03642388
0.65018564 -0.037984293 0.015123821 0.04749364 -0.07434042 0.07184724 -0.03159514 -0.14840248
0.20402367 -0.20335379 -0.027882367 -0.13086769 0.009537823 -0.16177022 -0.094821885 0.113426894
0.019822743 -0.04943764 -0.2033324 0.034530804 -0.05679361 -0.020153034 -0.15790191 -0.24106075
0.2569712 -0.048303515 0.1698213 -0.09710851 0.10403684 -0.042787477 0.2209704 -0.045889493
0.08598563 0.009750725 0.14734696 -0.18406612 0.16581567 0.0074891252 -0.011028533 0.115332775
0.036484983 -0.026311148 -0.26344287 0.095242165 0.18766627 0.12812383 0.065980546 -0.018062832
0.014392612 0.0401551 0.40625975 0.004652945 -0.25499046 0.06597039 0.042710163 0.0012719776
0.08591668 -0.12696052 0.20444834 -0.29012915 0.08203786 0.068272464 -0.0010561739 0.06977641
0.18988545 0.21760605 -0.029678753 -0.06990267 0.0735897 0.060727343 -0.043955464 -0.10373662
-0.14341672 -0.051850196 -0.05581553 0.107182905 0.12870978 0.11723465 0.050428364 0.1790777
0.124309324 0.14053938 -0.06271769 -0.109277025 0.07381017 0.35169166 0.029585699 -0.0649519
-0.051510554 0.06382151 -0.114435725 -0.004515997 -0.12903346 0.116974205 -0.08048222 0.16871132
0.06776741 0.0077031488 -0.108178645 -0.09287469 0.025533289 -0.05263356 0.18272194 -0.15590073
-0.10553622 0.06977196 0.18104124 -0.039824136 0.03998384 -0.06036072 -0.0910981 -0.0005915056
-0.025339812 0.09880489 -0.07707332 0.013739216 0.08358988 0.008551664 0.008516142 0.11368886
-0.08955438 -0.108444996 0.0004542756 -0.09234538 -0.078402705 -0.07667603 -0.06787557 0.06893814
0.05197963 0.08677183 -0.05074035 0.0061552273 -0.07533258 -0.054912493 0.015503194 0.001880525
-0.04486674 0.07380905 0.094904944 -0.019838102 0.021847311 -0.09444151 -0.014761159 -0.06358774
-0.1039576 -0.066624664 -0.13540863 -0.06930648 -0.03244338 -0.037982203 -0.093672775 0.077275254
-0.10435046 0.07824764 -0.031914696 -0.06846889 0.037444834 -0.009116668 -0.13297445 -0.077355824
-0.040149078 0.107747294 0.007316019 0.09287487 0.06652405 -0.119255915 -0.013340607 -0.10824833
0.3058462 -0.016030585 -0.14118153 -0.016794704 0.022041356 0.26931754 -0.03245098 -0.15076296
0.12747328 0.20397319 0.34444585 -0.218516 0.16508646 -0.07852126 0.069800295 0.099743426
-0.05445788 -0.05567577 -0.058788262 -0.09068584 0.17278872 -0.007429625 0.3321038 0.2488069
-0.08591499 0.1723421 0.0014634777 -0.13722777 0.070900366 0.16219446 0.09370355 0.016488025
0.37937853 0.091882 -0.18774185 -0.18227887 -0.036687803 -0.03824542 -0.021669282 -0.102669805
0.08991918 0.23926942 0.09949598 0.13327187 -0.08696568 0.14065789 0.22894664 0.19271228
0.07650503 0.0076653757 0.35859692 0.052675713 0.032831438 0.11392426 0.23323913 0.025150916

bias f4 [20]
00000000: 9a3e 103f ff3b a63e e5db 6d3d 0b74 ffbd
00000010: 68ad f83d 9785 c03e c55a 723e 3ae4 f23e
00000020: 3c38 6e3e 965a b13e e3a7 2d3e 4b65 0a3e
00000030: bdad dcbd f495 9f3e 9010 12be 0502 bb3e
00000040: 63b1 58bd 14fd 11bd 0c94 b23e 85da f33e
0.5634552 0.32467648 0.058071036 -0.12473305 0.121424496 0.3760192 0.23667438 0.47439748
0.23263639 0.34639424 0.16958575 0.13515203 -0.107753254 0.31169093 -0.1426413 0.36524978
-0.052903544 -0.035641745 0.34878576 0.47627655

weight f4 [10, 20]
00000000: 24a6 203e 030d c2be 618b f03e 4ab0 d83d
00000010: d5f9 6f3d 98f0 81be 4951 3fbe 56cb ccbd
00000020: b131 1e3f e78e 6fbe da09 afbd a899 de3c
00000030: d5e1 b2bd 7ed3 c73d 9338 5fbe 4d88 5d3d
00000040: ef46 473e 7d78 fa3d 7634 b5be 3352 303d
00000050: 6953 10bf 774b b63e badc 61bc 9a73 97bd
00000060: 8645 423e e541 b8be ded5 4abe 3d56 003f
00000070: 5364 42be a952 993c 6252 063f e297 a43d
00000080: c902 20be 350c a1bd d1ad 8b3d 9be0 1abf
00000090: 25fc 7abe f9ab 3b3e 0d03 113e ffc6 ff3e
000000a0: 3dc3 213e ddbb 193f a381 b83d 7fc2 bebd
000000b0: 67cc d23e 3626 d63e 7e7a 5c3d 006f 92bb
000000c0: 3723 25be eb51 59be a628 80bd 4a9c 47be
000000d0: 0e1c 2ebe 343c 44be 6074 33be a3df 1e3e
000000e0: 91e9 7cbe 4644 203e d3b7 55be 9d83 dfbe
000000f0: 85fd 8fbd 574b 65bd 3c03 0cbe 5eac 3e3e
00000100: 9a07 2c3e 6a2a 12bf e416 17be 0feb 40bd
00000110: 6030 ed3e 2bb0 643c 9b6a a53e 5f20 473f
00000120: c0fc acbd a964 9ebe 2033 b9bd 6f93 0b3d
00000130: 11b3 40be 20b3 35be c856 7cbd 08bb 393d
00000140: e789 a9be 5803 64be 83a5 b5bc 4009 f43d
00000150: bee5 abbe ba35 12bf 47ca 013f 1ba3 0e3f
00000160: 59ca 98bd 3664 d13e 9cbb 8cbe 98bd 89be
00000170: d9a9 64be 79ca e33d 6d7e be3c 7d13 843f
00000180: 2571 78be 1ca9 f83d d9bb 99bc 5e33 dbbe
00000190: eb70 273f def0 943e 987b ca3d a106 353e
000001a0: 021e babe 0ae8 4fbe 0c26 94be ded4 793e
000001b0: 0f46 d23d 8d13 64be 0dd6 67bd 6aa3 07be
000001c0: 7e86 8a3d d158 c4be c27b 0d3e d6cf 84be
000001d0: 0bfb 8e3e 108d debd 947d 17be 861f 063e
000001e0: 6420 dbbd 30d1 a83d 2dc8 5a3d bb2c 13be
000001f0: b425 d7be d334 683e f678 dfbe 5d71 413f
00000200: bf1f c73e 8d6e d13e e08b cabe 6c16 14bf
00000210: 4223 9d3d d7f9 c9be 1c55 073e 0f99 18bf
00000220: 7b7e a63e fbee babd c3f5 d9be 3138 c1be
00000230: 2218 08bf 77a3 a0be 956c 54be 255b c4bc
00000240: 5819 2d3f a4fd cc3e 2b04 053e 5723 22bf
00000250: 5d93 bebe d736 4d3e 8746 943d b3a2 983d
00000260: a1f2 b13d 3939 1e3f d876 533e 4a94 1bbe
00000270: 4d90 fd3b 4347 10be c467 143f 13b0 f0bc
00000280: 28f1 91bd c2e6 e8bd c207 cbbd 009a f9bd
00000290: daf5 e23e 95bb 3d3f 8d9c 6abe b9c2 86be
000002a0: 9132 ac3c a227 e83d 7cf3 1bbe 26ed 513e
000002b0: c830 1f3e 5a7d 81be 587e 0dbc 8378 03bf
000002c0: b4a9 d03e b310 53bd 0be6 b53a cb73 a1be
000002d0: 3cc6 953e dccc 4d3e 5dfd 8a3e 9741 f1bd
000002e0: e520 89be bc3e 42bf ba8c 083f aaea abbe
000002f0: 4ea5 76be 2b23 f6bd 5d23 cabd a56e a6be
00000300: 9405 a0bd 7899 47bd 1837 3ebd 813b 833f
00000310: 50da 1bbe c5ec 9bbe 5198 3e3d e434 c93e
0.15688378 -0.37900552 0.46981338 0.105804995 0.058587868 -0.2537887 -0.18683352 -0.09999721
0.61794573 -0.23394357 -0.08546801 0.027172878 -0.0873448 0.09757136 -0.21798925 0.054085065
0.19460653 0.122300126 -0.35391587 0.04304714 -0.56377274 0.3560445 -0.0137855355 -0.07395096
0.18971834 -0.35987774 -0.19808146 0.5013159 -0.18983583 0.018716173 0.52469456 0.08036782
-0.15626062 -0.078636564 0.06820262 -0.6049897 -0.24510248 0.18327321 0.1416132 0.4995651
0.15797134 0.6005228 0.09009101 -0.09314441 0.41171572 0.41826028 0.053827755 -0.0044687986
-0.16126715 -0.21222655 -0.06257753 -0.19493213 -0.1700289 -0.1916359 -0.17524862 0.15514998
-0.24698474 0.15651044 -0.20870905 -0.436551 -0.07030777 -0.055980053 -0.13673109 0.1862044
0.16799775 -0.5709597 -0.14754826 -0.04709917 0.4632597 0.013958017 0.32307896 0.7778377
-0.08446646 -0.30936173 -0.090429544 0.03407615 -0.18818308 -0.17744112 -0.0616062 0.045344383
-0.33113024 -0.222669 -0.022173649 0.11915827 -0.33573717 -0.5711323 0.50699276 0.5571763
-0.0746047 0.40896767 -0.27486885 -0.2690246 -0.22330417 0.11122603 0.023253644 1.0318447
-0.24261911 0.1214163 -0.01876633 -0.42812628 0.65406674 0.29090017 0.09886855 0.1767831
-0.3635102 -0.2030336 -0.28935277 0.24397609 0.10267269 -0.22273083 -0.05660062 -0.13245931
0.067639336 -0.38349012 0.13816741 -0.25939816 0.27925906 -0.10866749 -0.14793998 0.13097963
-0.106995374 0.08243024 0.05341356 -0.14372532 -0.42020953 0.22676401 -0.43646973 0.75563604
0.38891408 0.40904656 -0.3955984 -0.57846713 0.076727405 -0.39448425 0.1321606 -0.5960855
0.32518372 -0.09127613 -0.42570314 -0.37738183 -0.53161824 -0.31374714 -0.20744546 -0.023969242
0.67616796 0.40037262 0.12989871 -0.63335174 -0.37221804 0.20040451 0.072400145 0.074529074
0.08688856 0.61806065 0.20650804 -0.15193287 0.0077381493 -0.14089684 0.57970834 -0.029380834
-0.07126075 -0.113721386 -0.09913589 -0.12187576 0.44328195 0.7411435 -0.22911282 -0.26320437
0.021020206 0.11335684 -0.152296 0.20500621 0.15545952 -0.25290948 -0.00863608 -0.5135576
0.40754473 -0.051529597 0.0013877762 -0.31533656 0.29252803 0.20097679 0.27146426 -0.117800884
-0.2678291 -0.75876975 0.5333973 -0.33577472 -0.24086496 -0.120184265 -0.09870026 -0.3250629
-0.07813564 -0.048730344 -0.04643926 1.0252534 -0.15219998 -0.30454078 0.04653198 0.39298165

bias f4 [10]
00000000: 58b2 54be fd18 493c 9bc6 fbbc be25 81be
00000010: dfbf 8e3d f215 673c 7c53 9b3e 8f62 0f3d
00000020: d4a4 853d 346c cd3e
-0.20771158 0.012274024 -0.03073435 -0.25224108 0.0697019 0.014104353 0.3033713 0.035006102
0.06525579 0.40121615
