datasets/mnist/partition_noniid-#label_major_classes_num_5_clients_10_dir_alpha_None_augement_data_percent_per_class_0_seed_42/models/batch_size_256_com_round_50_epochs_3_sample_ratio_0.9_personalization_steps_15/client_0.pt (torch, 175631 bytes, 8 tensors)

weight f4 [50, 784]
0	0xb98c2fff	-0.0002673864
1	0x3c9cf2b5	0.0191587
2	0xbcf0cca9	-0.029394465
3	0xbcd75093	-0.026283538
4	0xbc615ed0	-0.013755515
5	0x3c1ce90e	0.009577049
6	0xba397f27	-0.0007076137
7	0x3ce7fa13	0.028317487
8	0xbb4fb637	-0.0031694302
9	0x3c1ad60e	0.009450449
10	0xbc30d67d	-0.0107933255
11	0xbbe609a4	-0.007020192
12	0xbd0bc453	-0.034122776
13	0xbcc1dbde	-0.023664411
14	0xbc714a8c	-0.014727246
15	0x3aad6106	0.0013227768
16	0x3c6753dc	0.014119115
17	0x3caf8cae	0.021429386
18	0xbcc658a1	-0.024212183
19	0xbc7eced8	-0.015552245
20	0x3c5488b0	0.012972042
21	0x3cf2f2a3	0.029656714
22	0xbbf0d853	-0.0073500066
23	0x3cdaef49	0.026725428
24	0xbbbca16e	-0.0057565486
25	0x3b77aa5c	0.003779075
26	0x3d04754f	0.032338437
27	0xbd07b476	-0.033131085
28	0xbcb82f51	-0.0224835
29	0xbc14234a	-0.009041617
30	0xbc6416b3	-0.013921428
31	0x3cfcc82e	0.030857172
32	0xbcbda38c	-0.023149274
33	0xbc86ae3b	-0.016440501
34	0xbccddf2b	-0.025130829
35	0xbd0b85ba	-0.03406308
36	0xbcb08ad6	-0.021550577
37	0x3cec1259	0.028817343
38	0x3c59ea8d	0.01330055
39	0x3c4f5352	0.012654142
40	0xbc0c8726	-0.008577144
41	0xbcb94f4d	-0.022620821
42	0x3b42d102	0.002972663
43	0xbd1dd212	-0.038530417
44	0xbd029817	-0.031883325
45	0xbca64b7f	-0.020299671
46	0x3cb39ff5	0.02192686
47	0x3c8c7968	0.017147735
48	0xbc94dd10	-0.018171817
49	0xbac47a6b	-0.0014990097
50	0x3cbaf89a	0.02282362
51	0x3d116cfe	0.035504334
52	0x3c683b9b	0.014174367
53	0x3b9e18e5	0.004824745
54	0x3cc42a47	0.02394594
55	0xbcac4449	-0.021028655
56	0x3bda1364	0.0066551436
57	0xbce2d50e	-0.027689483
58	0xbccac703	-0.0247531
59	0xbc97363e	-0.018458482
60	0x3c84558f	0.016154079
61	0x3c6b5110	0.0143625885
62	0xbcb031d0	-0.021508127
63	0x3c16ea12	0.00921108
64	0x3c859e8e	0.016310956
65	0xbc18bb03	-0.009321931
66	0xbc1d1d33	-0.009589481
67	0xbbe4fbf9	-0.0069880453
68	0x3b518e2b	0.0031975608
69	0x3c73fc50	0.014891699
70	0xbd4dda2b	-0.05025689
71	0xbd08f936	-0.03344079
72	0xbadb6403	-0.001673818
73	0x3cb57471	0.02215025
74	0x3cc3a1ce	0.023880865
75	0x3ce4bc0e	0.027921703
76	0x3b9ba04e	0.0047493344
77	0xbd0c1d51	-0.034207646
78	0x3a67e559	0.0008846126
79	0xbcba22b7	-0.022721631
80	0xbd0b6a96	-0.034037195
81	0x3cff3fcb	0.031158349
82	0x3cde75a5	0.027155707
83	0xbd11ec92	-0.035626
84	0x3bdb0b7b	0.006684718
85	0xbbc52577	-0.006016429
86	0xbbc09407	-0.0058770212
87	0xbc8649de	-0.016392644
88	0x3c5cb2e7	0.013470388
89	0xbcae0d30	-0.021246523
90	0x3c47b9b5	0.012190272
91	0x3c6810fd	0.014164207
92	0x3c739450	0.014866903
93	0x3a5796a5	0.0008224047
94	0xbd536562	-0.051610358
95	0xbd493f71	-0.049132768
96	0xbcd4068a	-0.025882024
97	0xbd3fdd8b	-0.04684214
98	0xbd8f615a	-0.0700099
99	0xbd7d695a	-0.06186805
100	0xb934869a	-0.0001721628
101	0x3b050b35	0.002030087
102	0xbd0373f0	-0.03209299
103	0xbcbb5746	-0.022868764
104	0xbd318163	-0.043336283
105	0xba9dfd46	-0.0012053631
106	0xbcb0f715	-0.021602193
107	0xbcb2774b	-0.021785399
108	0xbb02eaf6	-0.0019976473
109	0x3b9a29be	0.004704683
110	0xbc6fa156	-0.014625868
111	0x3cad9af9	0.02119206
112	0xbcb20a89	-0.02173354
113	0x3d04bc3c	0.032406077
114	0x3cc87e44	0.02447427
115	0xbcf6ea1a	-0.030140925
116	0xbc0cc956	-0.008592924
117	0x3b0835c5	0.0020784002
118	0x3bc5fc97	0.006042074
119	0x3b6f4e13	0.0036515042
120	0x3b6a9d0d	0.0035799176
121	0xbc32e773	-0.01091944
122	0xbd1975e0	-0.03746593
123	0xbc9afbc3	-0.018918877
124	0xbdb009ef	-0.08595645
125	0xbdb6644e	-0.0890585
126	0xbdb43cac	-0.08800635
127	0xbdbd9ab0	-0.0925802
128	0xbd9675e5	-0.07346705
129	0xbd944ae8	-0.0724085
130	0xbd11b4ca	-0.035572805
131	0xbab0b497	-0.0013481554
132	0xbc796581	-0.015221954
133	0x3cc94e0d	0.02457335
134	0x3d70e8b1	0.05881566
135	0x3cbf7e59	0.023375677
136	0x3c3d8bdc	0.01156899
137	0xbabab270	-0.0014243852
138	0x3bff3711	0.007788547
139	0x3cb9ef33	0.022697067
140	0x3d0a918f	0.03383022
141	0x3cb9cc9a	0.02268057
142	0x3d0ad0ce	0.033890538
143	0xbb5010b0	-0.0031748228
144	0xbd07ce5a	-0.033155777
145	0xbc4096a9	-0.01175467
146	0x3d1f5d0c	0.038907096
147	0x3c2fd220	0.01073125
148	0x3b5ce405	0.0033705246
149	0x3beae282	0.007168115
150	0xbbef178e	-0.007296509
151	0xbcb33584	-0.021876104
152	0xbcc9dec4	-0.024642356
153	0xbd505126	-0.05085864
154	0xbd224e5b	-0.039625507
155	0xbdaa9e10	-0.08330929
156	0xbcd27b8b	-0.025693676
157	0xbd55f9b0	-0.052240074
158	0xbc916250	-0.017747074
159	0xbb979f54	-0.0046271477
160	0x3ccf4b1b	0.025304368
161	0x3d0ce4b3	0.034397792
162	0x3ccbe43b	0.024889102
163	0x3cd274a9	0.025690394
164	0x3caf7fbd	0.021423215
165	0x3bfd5316	0.007730852
166	0xbc8bb666	-0.017054748
167	0x3c5ca4c2	0.013467016
168	0xbd03aa6b	-0.032144945
169	0xbb1f002a	-0.0024261572
170	0x3d004cd7	0.03132328
171	0xbc807c17	-0.01568417
172	0x3d0b3e3d	0.033994902
173	0x3d020385	0.031741638
174	0xbb6119c9	-0.0034347645
175	0x3d5ad148	0.053422242
176	0x3ce95279	0.028481709
177	0x3c89eb75	0.016835907
178	0x3d119b48	0.03554848
179	0xbccc3939	-0.02492963
180	0x3b18957b	0.0023282457
181	0xbd156b83	-0.036479484
182	0xbd1c2184	-0.0381179
183	0xbdaedd25	-0.08538274
184	0xbd1ec2f4	-0.03876014
185	0x3cc52f6c	0.024070464
186	0xbb1569c2	-0.0022798632
187	0x3cad42b1	0.021149965
188	0x3ca8ace0	0.020590246
189	0x3dbf021a	0.09326573
190	0x3dca445b	0.09876319
191	0x3d958fc6	0.07302813
192	0xbb414889	-0.0029492697
193	0x3b4e9b19	0.003152555
194	0xbcb7aeda	-0.022422243
195	0xbca161d9	-0.019699978
196	0xbcaa7a16	-0.020810168
197	0x3c416199	0.011803054
198	0xbcb0a336	-0.0215622
199	0x3a449d78	0.00075002713
200	0x3b347625	0.002753624
201	0x3d317f05	0.043334026
202	0xbbb3db9a	-0.005488825
203	0xbcc6a095	-0.024246493
204	0xbcac7199	-0.021050261
205	0x3d3b5705	0.045737285
206	0xbabbcd34	-0.0014328123
207	0x3d1af946	0.037835382
208	0x3be9651e	0.00712265
209	0xbd3378e3	-0.04381646
210	0xbdf9622c	-0.12176928
211	0xbe328915	-0.17435105
212	0xbdff52b1	-0.12466944
213	0xbd67abbb	-0.05656026
214	0x3c2127c7	0.009836144
215	0x3cf92a9e	0.03041583
216	0xbb5619af	-0.0032669117
217	0x3cc4ee73	0.024039483
218	0x3dc4b8fa	0.09605594
219	0x3cc45bdf	0.023969589
220	0x3c3d49e9	0.011553266
221	0x3cc4eb98	0.024038121
222	0x3c7dd204	0.015491966
223	0x3a285763	0.0006421713
224	0xbd015e0e	-0.03158384
225	0x3c882692	0.016619954
226	0xbcd23407	-0.025659574
227	0xbc363548	-0.011121102
228	0xbbd95e4f	-0.006633557
229	0x3c9a5f12	0.018844161
230	0x3c788d92	0.015170472
231	0x3c7b298e	0.015329732
232	0xbbbd18b3	-0.0057707666
233	0x3d5cdd11	0.053921763
234	0x3d094723	0.033515107
235	0xbd1720a6	-0.03689637
236	0xbcd37f3e	-0.02581751
237	0xbdf94803	-0.12171938
238	0xbe466a5e	-0.19376513
239	0xbe4c6703	-0.19961171
240	0xbe10bc18	-0.14134252
241	0x3ab9c48d	0.0014172957
242	0x3c2b610d	0.01046015
243	0x3c42537a	0.011860723
244	0x3c4a4419	0.012345337
245	0xbcbdfc4c	-0.023191594
246	0x3da01cac	0.07817969
247	0x3b00888f	0.0019612645
248	0xbc18525f	-0.009296983
249	0xbcda1233	-0.026620006
250	0xbcb3cab5	-0.021947244
251	0x3b40e3d2	0.0029432666
252	0x3cf2041f	0.02954298
253	0xbc453502	-0.012036564
254	0xbcbf1325	-0.023324559
255	0xbc938dca	-0.018011946

bias f4 [50]
0	0x3cc646a1	0.0242036
1	0xbd81b4e7	-0.063333325
2	0xbd2e9e2c	-0.042631313
3	0xbe108a67	-0.14115296
4	0x3d3be3e9	0.04587165
5	0xbdc0ea81	-0.09419728
6	0x3d133d6f	0.03594726
7	0x3d5a5ea6	0.05331292
8	0x3d5d96c6	0.054098867
9	0x3df161c3	0.11786225
10	0x3e2d36d0	0.1691544
11	0x3d9bd575	0.07609073
12	0x3c90459f	0.017611323
13	0x3de80d7d	0.11330698
14	0x3d098f23	0.03358377
15	0x3e1f1e36	0.15538868
16	0xbd29feb9	-0.041502688
17	0x3d8574d6	0.06516425
18	0x3ddb7515	0.10715691
19	0xbe30f0c0	-0.17279339
20	0xbdc51859	-0.096237846
21	0x3b845a71	0.004039102
22	0x3d8d6112	0.0690328
23	0x3dab794a	0.083727434
24	0x3d4c018d	0.049806166
25	0x3dd88d47	0.105738215
26	0x3c6754f1	0.014119373
27	0x3e3ce559	0.18446864
28	0x3cdf75ec	0.02727791
29	0x3db78c82	0.089623466
30	0x3c7d7ccf	0.015471651
31	0x3e3fae03	0.18718724
32	0x3e5b5ad5	0.21421368
33	0x3d900f20	0.07034135
34	0xbcdaa9e1	-0.026692333
35	0xbd98d8c8	-0.07463223
36	0x3d2a1681	0.041525368
37	0x3d406971	0.046975557
38	0x3df85362	0.12125279
39	0x3e20b3da	0.15693608
40	0x3d4286a3	0.04749168
41	0xbe21f716	-0.15816912
42	0x3dfdfa7e	0.12401293
43	0x3c1f61e6	0.009727931
44	0x3cc058d5	0.023479858
45	0x3d2d322b	0.042284172
46	0xbc6af66b	-0.014340977
47	0xbd2cad42	-0.04215742
48	0x3d97dfa0	0.074157
49	0x3e8a5387	0.2701685

weight f4 [50, 50]
0	0x3e7b091f	0.24515198
1	0xbc253d0c	-0.0100853555
2	0xbdaabef4	-0.08337203
3	0x3dab2ec7	0.083585314
4	0xbe027d38	-0.1274308
5	0xbde68fa9	-0.1125787
6	0x3d0fe67a	0.03513191
7	0xbdfa0246	-0.12207465
8	0x3e174da7	0.14775716
9	0x3ecab38b	0.39590105
10	0xbda074ff	-0.07834815
11	0x3d413b91	0.047175948
12	0x3ce5f4b9	0.028070794
13	0x3e14c96d	0.14529963
14	0x3e4bd5d5	0.19905789
15	0x3d95de85	0.07317833
16	0x3d8d4b98	0.06899184
17	0x3e47626d	0.1947114
18	0x3e16b2ed	0.14716692
19	0x3dd7f1a1	0.10544134
20	0xbe509180	-0.20368004
21	0x3db8aff5	0.09017936
22	0xbe345f9d	-0.17614599
23	0xbe07cea5	-0.13262422
24	0x3c91fc97	0.01782064
25	0x3d6e6ba1	0.05820811
26	0x3dcf0a76	0.10109417
27	0x3e654dc6	0.2239295
28	0xbd8a6081	-0.06756688
29	0xbe9b1f2c	-0.3029722
30	0xbdbe0a1f	-0.09279274
31	0x3de174e8	0.11008626
32	0x3c96f9de	0.018429693
33	0x3cdf6b5b	0.02727287
34	0x3cd6f09c	0.026237778
35	0x3d195f80	0.03744459
36	0x3dfca965	0.12336997
37	0x3deb2173	0.11480989
38	0x3e1d0f48	0.1533786
39	0x3e514d5b	0.20439665
40	0xbd8cb5f9	-0.06870646
41	0xbe0e12b6	-0.13874325
42	0x3d3240fd	0.04351901
43	0x3e913ab7	0.28365108
44	0x3e6ff377	0.23432718
45	0x3c63a202	0.013893606
46	0x3e0b8441	0.1362467
47	0xbdb14a80	-0.08656788
48	0x3c3f32d2	0.011669831
49	0xbd08db2c	-0.033412144
50	0xbd4b2946	-0.04959991
51	0x3d90d18b	0.07071217
52	0xbe212450	-0.15736508
53	0xbc8a293e	-0.016865369
54	0xbe004402	-0.12525943
55	0x3d165f4e	0.036711983
56	0xbde44cda	-0.11147471
57	0x3e000386	0.12501344
58	0x3e1deffa	0.15423575
59	0x3e0196ed	0.1265523
60	0x3c7ab028	0.015300788
61	0xbd2ff900	-0.042962074
62	0x3bd172c1	0.0063918536
63	0x3e389f77	0.18029581
64	0x3db79d84	0.089655906
65	0x3ce2f30a	0.02770378
66	0xbcfca4a7	-0.030840231
67	0x3e1fad78	0.15593517
68	0x3c3bf33c	0.011471566
69	0x3da538d4	0.0806748
70	0x3d49c0e9	0.04925624
71	0xbc81af1e	-0.015830573
72	0x3dc3af6f	0.09554946
73	0xbd6d282d	-0.057899643
74	0x3dbe66b5	0.092969336
75	0xbd611c27	-0.05495849
76	0x3cb799e1	0.022412242
77	0x3d3fddad	0.046842266
78	0xbe1bd811	-0.15219142
79	0xbd0457c9	-0.03231028
80	0xbe1e6b13	-0.15470533
81	0xbd9f16fa	-0.07768054
82	0x3d25644b	0.04037885
83	0xbd3e6c3c	-0.04648994
84	0x3d1e9a3a	0.0387213
85	0xbda5644f	-0.08075773
86	0xbd0dff0d	-0.034667064
87	0xbb5ae906	-0.0033403053
88	0x3d8c4665	0.06849364
89	0x3dfe23fb	0.124092065
90	0xbe0cd932	-0.13754728
91	0x3d5bb926	0.05364337
92	0x3e060cdd	0.13090844
93	0x3d0f6ab6	0.035013877
94	0xbe11037c	-0.14161485
95	0x3d5dfd48	0.054196626
96	0x3ddac27b	0.106816255
97	0xbd854fcc	-0.06509361
98	0xbdce9dc6	-0.10088687
99	0xbdd4f548	-0.10398346
100	0x3d8d7e2d	0.06908832
101	0xbdd8f9da	-0.105945304
102	0xbe341bcb	-0.17588727
103	0xbdec05b9	-0.11524529
104	0x3d857505	0.0651646
105	0xbabd977e	-0.0014464704
106	0xbc874e86	-0.016516935
107	0x3d8e65ad	0.06952987
108	0xbd2fc29e	-0.04291021
109	0x3d433d4a	0.04766587
110	0x3e014ed9	0.12627734
111	0x3e263157	0.16229759
112	0xbe15024b	-0.14551656
113	0x3e3b33a9	0.18281426
114	0xbe1807f4	-0.14846784
115	0xbdb682c6	-0.08911662
116	0x3d461f06	0.04836943
117	0xbdc3e85f	-0.09565806
118	0xbda550c9	-0.08072049
119	0x3dbe7e5b	0.09301444
120	0xbdb3c21c	-0.08777258
121	0x3e11a602	0.14223483
122	0xbda8e5e1	-0.08246971
123	0xbccd1a11	-0.025036843
124	0x3b0100de	0.0019684355
125	0xbdaf70e3	-0.08566453
126	0x3e40bcc4	0.18822008
127	0x3d00e79b	0.031470876
128	0xbdbbb2fe	-0.091649994
129	0x3e3143fd	0.17311092
130	0x3dbfa4ed	0.09357629
131	0xbe0dbdb2	-0.13841894
132	0x3d8c51cb	0.06851538
133	0x3b8c0b6f	0.004273824
134	0xbd591f2e	-0.05300825
135	0xbd3d7c84	-0.046261325
136	0xbdbe6021	-0.09295679
137	0xbce451dc	-0.027871065
138	0xbd18cc34	-0.03730412
139	0xbdc3b844	-0.0955663
140	0x3d812de4	0.06307581
141	0xbd1de9fd	-0.038553227
142	0x3e2ed56d	0.17073603
143	0xbdcc04ff	-0.099618904
144	0xbe0a1250	-0.13483548
145	0x3e4fbf13	0.20287733
146	0xbd4a25f9	-0.04935262
147	0x3e06856e	0.13136837
148	0x3d3483e9	0.04407111
149	0x3e058d74	0.13042241
150	0xbde7b301	-0.11313439
151	0x3dba6662	0.09101559
152	0x3df56212	0.11981596
153	0xbdc43fb1	-0.09582461
154	0xbd223467	-0.039600756
155	0xbd32fe11	-0.043699328
156	0x3cc1986c	0.02363225
157	0xbc1b8e4e	-0.009494377
158	0xbd878e4e	-0.06618939
159	0x3d0a6a7a	0.03379295
160	0x3c897529	0.0167795
161	0x3e0c273f	0.13686846
162	0xbe0c9bdf	-0.13731335
163	0xbd31a29f	-0.04336798
164	0xbde15c4f	-0.110039346
165	0x3d82e973	0.06392183
166	0x3d79b58f	0.060964163
167	0x3d2c8a9f	0.042124387
168	0xbd9c4f53	-0.076323174
169	0xbd55c4e1	-0.05218971
170	0xbdb6d3f0	-0.089271426
171	0xbdf754d9	-0.1207673
172	0x3d613c59	0.054989193
173	0xbc902bbb	-0.017598977
174	0x3e01cdd6	0.12676176
175	0x3d719277	0.05897757
176	0xbda3efd7	-0.0800473
177	0xbd313cde	-0.043270938
178	0xbda01b2b	-0.07817682
179	0xbd5071a4	-0.050889626
180	0x3d81f96b	0.06346401
181	0x3da5dce3	0.080987714
182	0x3d443d50	0.047910035
183	0xbdd0937f	-0.10184383
184	0x3de3008f	0.11084091
185	0xbe36d2c8	-0.17853844
186	0x3e119836	0.1421822
187	0xbdd168b1	-0.102250464
188	0xbd9474d8	-0.07248849
189	0xbd635db9	-0.055509303
190	0xbd4354f5	-0.047688443
191	0x3daed461	0.08536602
192	0x3df63490	0.12021744
193	0x3d2928c6	0.04129865
194	0xbe0b31e3	-0.13593249
195	0x3dbe8479	0.09302611
196	0xbc376705	-0.011193995
197	0xbdc79ff4	-0.097473055
198	0xbb590ffd	-0.0033121102
199	0xbdd759b0	-0.105151534
200	0x3c896659	0.016772436
201	0x3d9553c8	0.07291371
202	0x3d93deec	0.07220253
203	0x3e189692	0.14901188
204	0x3d9c5197	0.076327495
205	0x3e95ed12	0.29282433
206	0xbdd91830	-0.106003165
207	0xbcf22b0c	-0.029561542
208	0xbcc0d740	-0.02354014
209	0x3de37de6	0.111079976
210	0xbdf525ef	-0.11970126
211	0xbda9ecfd	-0.08297155
212	0x3de5cf61	0.11221195
213	0x3cbec082	0.023285154
214	0xbe29bb64	-0.1657539
215	0xbe09d657	-0.1346067
216	0xbcc05e23	-0.023482388
217	0x3e0948af	0.13406633
218	0x3c5856e0	0.013204306
219	0x3cdcd8d6	0.026958864
220	0xbe531c55	-0.20616277
221	0xbddc8346	-0.10767226
222	0xbc038d34	-0.008029271
223	0x3baf0fea	0.0053424733
224	0xbe225e4b	-0.15856282
225	0xbbe4551e	-0.0069681546
226	0x3d57d0bb	0.052689295
227	0xbde7d1f3	-0.113193415
228	0x3de85960	0.11345172
229	0xbe3f0c95	-0.18657143
230	0x3e80f472	0.25186497
231	0xbe6320fa	-0.22180548
232	0x3cfbd405	0.030740747
233	0xbe25628d	-0.16150875
234	0xbdfc776a	-0.12327464
235	0xbe1c759a	-0.15279236
236	0xbdd8ee78	-0.10592359
237	0x3d4047a0	0.046943307
238	0xbdb2f5a1	-0.08738256
239	0xbe464816	-0.19363436
240	0x3e44e370	0.19227386
241	0x3e7cd2b4	0.24689752
242	0xbda09bc8	-0.07842213
243	0xbdce887c	-0.10084626
244	0xbd353251	-0.04423744
245	0x3de0a7b1	0.109694846
246	0xbda8be5d	-0.08239434
247	0xbd47624f	-0.04867774
248	0xbb28c341	-0.0025751146
249	0xbd8238ae	-0.06358467
250	0x3d9908b4	0.07472363
251	0x3dec2d18	0.115320385
252	0x3d918296	0.071049854
253	0x3defa7c7	0.11701923
254	0xbdbd3751	-0.092390664
255	0xbd067894	-0.032829836

bias f4 [50]
0	0x3e82e4be	0.2556514
1	0x3d5aecd6	0.05344852
2	0xbae5c3d7	-0.0017529678
3	0x3d2d563d	0.04231857
4	0x3e7c711b	0.24652521
5	0x3d1433da	0.036182262
6	0x3d8c4b1d	0.06850264
7	0x3d5ee7f5	0.05442043
8	0x3d21b369	0.03947774
9	0xbd336ccf	-0.04380494
10	0x3d811be8	0.06304151
11	0x3ec55a0b	0.3854526
12	0x3e7f9bef	0.24961828
13	0x3ca72264	0.02040214
14	0xbe03cbf2	-0.12870768
15	0x3dd1dda4	0.10247353
16	0x3e2fc58f	0.17165206
17	0x3e489335	0.19587405
18	0x3deb6148	0.11493164
19	0xbe14ea7f	-0.14542578
20	0xbda32003	-0.0796509
21	0x3ca7068c	0.020388864
22	0x3eceaccd	0.40366212
23	0xb94995f2	-0.00019224713
24	0x3e4b9321	0.19880344
25	0x3e57ff94	0.21093589
26	0xbd6f95db	-0.058492523
27	0x3df54280	0.119755745
28	0x3e5516d2	0.20809487
29	0x3e1c2ef2	0.15252283
30	0x3e3bff14	0.18359023
31	0xbd65547e	-0.05598878
32	0x3ea8f0f7	0.32996342
33	0xbe0e4970	-0.13895202
34	0x3e111511	0.14168192
35	0x3e5d12c9	0.21589197
36	0xbccab79b	-0.024745753
37	0x3dce24f3	0.10065641
38	0xbdd4db80	-0.10393429
39	0x3da7130c	0.0815793
40	0x3e24d088	0.16095173
41	0x3e7122db	0.23548453
42	0x3ebad5de	0.36491293
43	0x3e442925	0.1915632
44	0x3e4bd479	0.1990527
45	0x3e81cf8b	0.25353655
46	0x3e679638	0.22615898
47	0x3e22e109	0.15906157
48	0xbc7e1085	-0.015506868
49	0x3d730742	0.059333093

weight f4 [20, 50]
0	0x3e33b2f2	0.17548731
1	0xbe14039e	-0.14454505
2	0xbe2418ea	-0.16025129
3	0x3e0e61cb	0.13904493
4	0x3d7b5cbe	0.061367743
5	0x3ed4d7dd	0.4157094
6	0x3d9c4ccb	0.076318346
7	0x3db1afc7	0.08676105
8	0x3d952d5a	0.07284041
9	0x3ec7ff38	0.39061904
10	0x3c107748	0.008817501
11	0x3e0e0f57	0.13873039
12	0x3daf5674	0.085614115
13	0xbe04d94e	-0.1297352
14	0xbdf37bae	-0.118888244
15	0x3e1cb6d6	0.15304121
16	0x3e128ceb	0.14311568
17	0x3eb2683e	0.34845155
18	0x3e36bb1c	0.17844814
19	0x3e04f0e3	0.12982516
20	0x3e98a598	0.29813838
21	0x3cd5008d	0.02600124
22	0xbd106e1c	-0.03526126
23	0xbda8d7d6	-0.082442924
24	0x3e53a87f	0.20669745
25	0xbe9c3f57	-0.30517074
26	0x3d6174cc	0.055043027
27	0xbdeb528a	-0.114903525
28	0x3d6d332e	0.057910137
29	0xbd7e5e2d	-0.06210153
30	0xbb48b689	-0.0030626378
31	0x3d2e1af7	0.042506184
32	0x3ea1d256	0.31605786
33	0xbd1d9688	-0.038473636
34	0x3e975577	0.29557392
35	0xbd5085fd	-0.05090903
36	0xbc4038ce	-0.011732293
37	0x3df65ecd	0.120298006
38	0x3ca2c3ef	0.019868819
39	0xbd8ca74a	-0.06867845
40	0x3e89351b	0.2679833
41	0xbd5c6c64	-0.053814307
42	0xbb5bb2e1	-0.0033523368
43	0xbec19575	-0.3780934
44	0x3e8b0a46	0.27156276
45	0xbd7d9283	-0.061907303
46	0xbf0bfaf1	-0.5467978
47	0xbbe0d0d6	-0.0068608327
48	0xbb4e4aae	-0.0031477618
49	0xbd919df9	-0.07110209
50	0xbe6d5b74	-0.23179418
51	0x3dde20fe	0.108461365
52	0xba9b980c	-0.0011870875
53	0xbd3990f0	-0.04530424
54	0xbc05ce5d	-0.008166877
55	0xbe897942	-0.26850325
56	0x3e51fc84	0.20506483
57	0x3e0a7a59	0.13523234
58	0x3e3c682a	0.1839911
59	0xbe2cd79f	-0.16879128
60	0x3b838293	0.0040133684
61	0xbbfe473b	-0.007759956
62	0x3dc27fe7	0.09497052
63	0x3e1e9b1c	0.15488857
64	0x3d57503a	0.052566744
65	0xbd7acaab	-0.061228435
66	0x3e88e7c8	0.26739335
67	0xbd9eb9f0	-0.077503085
68	0x3d2e8660	0.04260862
69	0x3bd55e46	0.0065114824
70	0xbe3ca387	-0.18421756
71	0x3dd78905	0.10524181
72	0xbe86d82f	-0.2633681
73	0xbc817fd9	-0.015808033
74	0xbe00c609	-0.12575544
75	0x3d54b6ff	0.05193233
76	0x3d0d3873	0.034477662
77	0x3eee0299	0.46486357
78	0x3dc5120b	0.09622582
79	0x3cb5961c	0.022166304
80	0x3ca34199	0.01992874
81	0x3d3d6703	0.046240818
82	0xbc02d438	-0.007985167
83	0x3b9d0f23	0.004793064
84	0xbe1c186a	-0.15243688
85	0x3ebb1f59	0.36547354
86	0x3da3d717	0.080000095
87	0xbc35e2c1	-0.011101426
88	0x3dae4c91	0.08510698
89	0x3da608cc	0.081071466
90	0x3e226c8a	0.15861717
91	0xbe92c13d	-0.28663054
92	0x3d875e69	0.06609804
93	0xbb79345a	-0.0038025589
94	0xbbf4d944	-0.007472189
95	0x3e88015e	0.26563543
96	0x3d841d90	0.06450951
97	0x3ebb445c	0.36575592
98	0xbd31a313	-0.04336841
99	0xbd6427e9	-0.055702124
100	0x3d5c8913	0.05384166
101	0x3db26f6d	0.08712659
102	0xbd1283cd	-0.035770226
103	0xbd3bcc11	-0.04584891
104	0xbe15f9bf	-0.14646052
105	0xbe100c0c	-0.14067096
106	0xbde3d7be	-0.11125134
107	0x3e3dee4a	0.18547931
108	0x3e10838d	0.14112683
109	0x3d31b838	0.043388575
110	0x3cdb0cf4	0.026739575
111	0x3ea03dc8	0.31297135
112	0x3d4032ab	0.04692332
113	0x3e0a1201	0.1348343
114	0xbd804bf6	-0.062644884
115	0xbe2d7ed6	-0.16942915
116	0x3e1615f3	0.1465681
117	0x3eb75617	0.3580787
118	0x3d24e214	0.040254667
119	0xbd84e1ef	-0.06488406
120	0xbb3af067	-0.0028524639
121	0x3dd8ea3b	0.10591551
122	0xbe8657c9	-0.2623885
123	0x3d3a9d01	0.045559887
124	0xbdd4547f	-0.10367679
125	0x3ddfa597	0.10920256
126	0xbdd25766	-0.10270576
127	0x3e96944b	0.29410014
128	0x3da7c704	0.08192256
129	0x3cc40ef5	0.023932913
130	0xbe348e2d	-0.17632361
131	0xbdf2a0b7	-0.1184706
132	0xbe2edcc9	-0.1707641
133	0xbd56c4e8	-0.05243388
134	0x3e90b5c5	0.2826368
135	0xbdc28821	-0.09498621
136	0xbdc2eebb	-0.095181905
137	0x3c77072d	0.015077394
138	0x3e6d0571	0.23146607
139	0xbca693a7	-0.020334078
140	0x3c624e2b	0.013812582
141	0xbd454ba3	-0.048167836
142	0x3cd0d744	0.025493272
143	0x3d347e51	0.044065777
144	0xbe229344	-0.1587649
145	0x3df9ca05	0.12196735
146	0xbdf1cf5c	-0.11807129
147	0xbc1ecbd7	-0.009692154
148	0x3d3df205	0.046373386
149	0x3c85ac76	0.016317587
150	0x3bc19b6e	0.0059084212
151	0x3de565ea	0.11201079
152	0xbdb97085	-0.090546645
153	0xbdde18d8	-0.10844582
154	0xbb0aca95	-0.0021177877
155	0xbdbd88ba	-0.09254594
156	0xbda12ee3	-0.07870271
157	0xbd9d281a	-0.076736644
158	0xbd8aefac	-0.06783995
159	0x3d8d2a68	0.06892854
160	0x3d54cb52	0.051951714
161	0x3db0479b	0.08607408
162	0xbd536776	-0.05161234
163	0x3bc56b1e	0.0060247323
164	0xbd9a4f07	-0.075346045
165	0xbd65a184	-0.056062236
166	0x3c7a8862	0.015291305
167	0x3b170b32	0.0023047444
168	0xbd376742	-0.04477621
169	0x3d97223d	0.07379577
170	0x3dc0b68f	0.0940982
171	0xbca5a678	-0.02022098
172	0x3c78de14	0.015189666
173	0xbdc16700	-0.09443474
174	0xbc72942a	-0.014805833
175	0xbd8a863a	-0.06763883
176	0xbdd53379	-0.10410208
177	0xbd8b28e0	-0.06794906
178	0xbe0b07a2	-0.1357713
179	0xbd8df18d	-0.06930838
180	0xbd058985	-0.032601852
181	0xbd1b94a0	-0.037983537
182	0xbdc2d0ca	-0.095124796
183	0x3d9e428e	0.07727538
184	0xbdd522bb	-0.10407015
185	0x3d9541a6	0.07287912
186	0xbd02b600	-0.03191185
187	0xbd8c468c	-0.06849393
188	0x3d19538b	0.03743319
189	0xbc1fda1b	-0.00975659
190	0xbe0859e9	-0.13315548
191	0xbda23c43	-0.0792165
192	0xbd243d1a	-0.040097333
193	0x3dd7d9fc	0.10539624
194	0x3bf028f4	0.0073291007
195	0x3dbe3d62	0.092890516
196	0x3d799a85	0.060938377
197	0xbdf4615e	-0.11932634
198	0xbc779d00	-0.015113115
199	0xbdde5fd9	-0.10858125
200	0x3d7a8c70	0.061169088
201	0xbd8499a2	-0.06474616
202	0xbe038526	-0.12843761
203	0xbcdb93e2	-0.026803914
204	0x3e3bdfd0	0.18347096
205	0x3c44e54b	0.012017558
206	0xbe1b9009	-0.15191664
207	0xbe495bab	-0.19663875
208	0x3db72e6a	0.089444
209	0xbd2d1f10	-0.04226595
210	0x3e1b9a63	0.15195613
211	0xbe4ceab9	-0.20011415
212	0x3e7187e7	0.23586999
213	0xbdfc8279	-0.12329573
214	0x3c8a15a4	0.016856022
215	0x3e874d5e	0.26426214
216	0xbe007b91	-0.12547137
217	0xbea82ae5	-0.32845226
218	0x3c9d7c15	0.019224206
219	0xbdb63b7e	-0.08898066
220	0x3da9db37	0.08293765
221	0xbd91e3e7	-0.07123547
222	0x3f1b552a	0.60676825
223	0x3e397134	0.1810959
224	0x3b81747d	0.003950654
225	0x3df04275	0.11731426
226	0xbd53a747	-0.0516732
227	0xbec4030c	-0.38283575
228	0xbda7a375	-0.08185474
229	0x3e1be9ed	0.15225954
230	0x3dd65d21	0.10466982
231	0x3cf74f40	0.030189157
232	0x3ed0c434	0.4077469
233	0x3dbbc802	0.09169008
234	0xbe8f8a3b	-0.2803515
235	0xbe6075d8	-0.21919954
236	0x3c8428fb	0.016132822
237	0x3d230584	0.039800182
238	0xbd7f7c97	-0.062374678
239	0xbe2d5d16	-0.1693004
240	0xbc953e8a	-0.018218298
241	0x3dffdfe9	0.12493879
242	0x3db55b5b	0.08855315
243	0x3e4173c2	0.18891814
244	0xbe51413e	-0.20435044
245	0x3ce72da9	0.028220015
246	0x3ea20120	0.31641483
247	0x3d3bd585	0.045857925
248	0x3d6134ea	0.054982103
249	0xbd40b75a	-0.047049858
250	0x3d5219d9	0.05129418
251	0x3ddffcd6	0.109368965
252	0x3d690902	0.056893356
253	0x3de5d8c1	0.11222983
254	0x3e898491	0.26858953
255	0xbe6ce9f7	-0.23136126

bias f4 [20]
0	0x3ecb5f55	0.3972117
1	0x3e815e12	0.25267082
2	0x3e05a904	0.13052756
3	0xbe021c8f	-0.12706207
4	0x3e820721	0.25396064
5	0x3ed5d7fc	0.41766346
6	0x3e353c15	0.176987
7	0x3eded8d4	0.43524802
8	0x3f0789fc	0.5294492
9	0x3ecce63a	0.400194
10	0x3ea3c32a	0.31984836
11	0x3eba1401	0.36343387
12	0xbdddbd20	-0.10827088
13	0x3e5b1ce0	0.21397734
14	0xbe05d6bd	-0.13070197
15	0x3e81d8e5	0.2536079
16	0xbdd3f195	-0.103488125
17	0xbd16da3d	-0.036829222
18	0x3eb5c0d7	0.35498688
19	0x3ec2958a	0.38004714

weight f4 [10, 20]
0	0x3f2c1f06	0.6723484
1	0xbf0db390	-0.55352116
2	0x3ed46972	0.41486698
3	0x3dd8ad04	0.10579875
4	0xbdf96e92	-0.12179293
5	0xbe8638e7	-0.26215288
6	0xbe7ab12b	-0.24481647
7	0xbe6e59b5	-0.23276408
8	0x3ec56a3b	0.3855761
9	0xbeb43554	-0.35196936
10	0xbf201a89	-0.6254049
11	0xbeffd693	-0.49968395
12	0xbdb32029	-0.087463684
13	0xbe9f2a80	-0.31087112
14	0xbe5aeff2	-0.21380594
15	0x3ec53abc	0.38521373
16	0x3f77d466	0.9680847
17	0x3e0c65fb	0.13710777
18	0xbeb8aaf7	-0.36067936
19	0xbf14046d	-0.57819253
20	0xbf587100	-0.84547424
21	0x3e02f6d9	0.12789477
22	0xbea9f773	-0.331966
23	0xbd977a5b	-0.07396384
24	0x3ef06c6d	0.46957722
25	0xbea07fbf	-0.31347463
26	0xbe520efd	-0.2051353
27	0x3f068938	0.5255313
28	0xbec8a096	-0.39185017
29	0x3f1d298b	0.61391515
30	0x3e2febc7	0.17179786
31	0x3e0cb5aa	0.13741174
32	0xbe20036e	-0.15626308
33	0xbd79bf46	-0.06097343
34	0x3d891ff1	0.066955455
35	0xbf0aeac3	-0.5426447
36	0xbf0d7fd6	-0.5527319
37	0x3e3055ed	0.17220278
38	0x3ee3e700	0.44512177
39	0x3ec4981a	0.38397294
40	0xbd92de2a	-0.07171281
41	0x3f17feb3	0.59373015
42	0x3e4a52f3	0.19758205
43	0xbdbd9ea0	-0.09258771
44	0xbe180778	-0.14846599
45	0xbddc50e9	-0.1075762
46	0x3d91b3c6	0.07114367
47	0x3ea8a9df	0.329421
48	0x3eb3f008	0.35144067
49	0x3e3a61c0	0.18201351
50	0xbd36360d	-0.04448514
51	0xbddd6db2	-0.10811938
52	0xbe2e13af	-0.16999696
53	0x3f14802d	0.5800808
54	0xbe340689	-0.17580618
55	0xbf477c4a	-0.77924025
56	0x3efd4d73	0.49473152
57	0xbe620df9	-0.22075643
58	0xbe6cf691	-0.23140933
59	0xbedd9e1b	-0.43284687
60	0x3eaac321	0.33351997
61	0x3e7ef473	0.24897937
62	0x3e29e134	0.16589814
63	0x3e3ea9f1	0.18619515
64	0x3db8b8e7	0.09019642
65	0xbf04f732	-0.5193969
66	0xbe352bd3	-0.17692499
67	0xbeccf600	-0.40031433
68	0x3e9ed292	0.31020027
69	0xbf2fda0a	-0.68692076
70	0x3efa7349	0.4891608
71	0x3f158738	0.5840945
72	0xbdacfcae	-0.08446632
73	0xbd12b717	-0.03581914
74	0xbda88909	-0.082292624
75	0xbf15b56c	-0.5847995
76	0xbd88d357	-0.06680935
77	0xbe23bc6e	-0.15989849
78	0x3dbe9d72	0.09307374
79	0x3f2f2c84	0.684273
80	0xbf521a68	-0.8207154
81	0xbe0cfc0c	-0.13768023
82	0xbdb5cb9f	-0.08876728
83	0x3df203db	0.118171416
84	0x3f47d9ef	0.78066915
85	0x3df4944e	0.119423494
86	0x3f6b271c	0.9185655
87	0xbeda3f44	-0.42626393
88	0xbf00bf38	-0.50291777
89	0x3e8a93f5	0.27066007
90	0x3e6a8da1	0.2290559
91	0xbea7fefe	-0.3281173
92	0xbe64aa02	-0.22330478
93	0x3e9048fa	0.28180677
94	0x3c376cd1	0.011195377
95	0x3f0ddf3a	0.5541874
96	0xbe93de7d	-0.28880683
97	0x3db06c1c	0.0861437
98	0x3e05db0c	0.13071841
99	0xbc434093	-0.011917251
100	0x3ea6bf9e	0.32568067
101	0xbdf64553	-0.12024941
102	0x3f331212	0.6994945
103	0x3e353f8f	0.17700027
104	0xbee5ae52	-0.44859558
105	0xbef7ae17	-0.48375008
106	0xbd46a0ed	-0.048493315
107	0x3dd809e9	0.10548765
108	0x3edbe5cc	0.4294876
109	0xbebf5bb6	-0.37374657
110	0x3eb0f20f	0.34559676
111	0xbe388b16	-0.18021807
112	0x3d8a86ec	0.067640156
113	0xbf2b35a1	-0.66878706
114	0x3e0f5ea6	0.1400095
115	0x3f3ef483	0.74591845
116	0xbda8a7d6	-0.08235137
117	0xbd945a77	-0.07243817
118	0xbf37deda	-0.7182442
119	0x3ed67f83	0.4189416
120	0xbeffa624	-0.49931443
121	0x3f300744	0.68761086
122	0xbde52680	-0.11188984
123	0xbe13bc77	-0.14427362
124	0xbef7c50b	-0.4839252
125	0x3f1639e6	0.58682096
126	0xbe400622	-0.1875234
127	0x3f303f2a	0.6884638
128	0xbedc8e59	-0.43077353
129	0x3e53d978	0.20688426
130	0xbe7ca86a	-0.2467362
131	0xbf035c52	-0.51312745
132	0x3d9d2640	0.07673311
133	0xbf2ad3ee	-0.6672963
134	0x3e01cb8b	0.12675302
135	0x3e5d6168	0.21619189
136	0x3f0e5195	0.55593234
137	0x3dfae49b	0.12250634
138	0xbf1059aa	-0.56386817
139	0xbe5081a0	-0.20361948
140	0x3e70c752	0.23513535
141	0xbe739e74	-0.23790914
142	0xbea063c9	-0.3132613
143	0xbcc477ac	-0.023982845
144	0xbe763276	-0.24042687
145	0xbf0c1510	-0.5471964
146	0xbe71b438	-0.23603904
147	0x3d6ddad4	0.05807002
148	0xbf370c66	-0.71503294
149	0x3c95597c	0.018231146
150	0xbdc052b4	-0.09390774
151	0xbf2d2efb	-0.6764981
152	0x3db1ca86	0.086812064
153	0x3f66cb2c	0.90153766
154	0x3e5b1679	0.21395291
155	0x3ea3e341	0.32009318
156	0xbe17fbfa	-0.14842215
157	0xbdc23e82	-0.09484579
158	0x3f2ddba8	0.67913294
159	0xbe6696a8	-0.22518408
160	0xbd6d546b	-0.057941835
161	0x3e1b2b8a	0.15153328
162	0xbd7a955d	-0.0611776
163	0xbdf910b2	-0.121613875
164	0xbdf7defa	-0.12103076
165	0x3e9ec0ac	0.31006372
166	0xbee6bec3	-0.45067415
167	0x3f0db49a	0.553537
168	0x3f1d3629	0.61410767
169	0x3f002d4d	0.50069124
170	0x3e51188b	0.20419519
171	0x3f5d4d39	0.8644596
172	0x3e1f2cf2	0.15544489
173	0xbedeada8	-0.43491864
174	0xbc721fa3	-0.014778051
175	0xbf23d12f	-0.63991064
176	0xbe615391	-0.22004534
177	0xbd4972e4	-0.049181834
178	0xbe9567ef	-0.29180858
179	0xbe57c671	-0.21071793
180	0x3ea1320e	0.314835
181	0xbea1185c	-0.31463897
182	0xbd87fb69	-0.066397496
183	0xbdf0257e	-0.11725901
184	0x3f48b286	0.78397405
185	0x3e928a49	0.28621128
186	0x3e97dd8f	0.29661223
187	0xbf06e74b	-0.52696675
188	0x3f013984	0.50478387
189	0xbb900bd5	-0.0043959417
190	0xbf229cf2	-0.6352073
191	0x3ec4ff33	0.38475952
192	0xbd9faa6c	-0.07796177
193	0xbed5950b	-0.41715273
194	0xbd2ea268	-0.04263535
195	0x3effb501	0.49942783
196	0xbf0534d1	-0.52033716
197	0xbe58c5fd	-0.21169277
198	0x3ebdba58	0.37056231
199	0xbe996155	-0.2995707

bias f4 [10]
0	0xbf16a82f	-0.5885038
1	0x3e23f51b	0.16011469
2	0x3d465c43	0.04842783
3	0xbf09346f	-0.5359563
4	0x3d767d72	0.060178228
5	0x3ed402bc	0.41408336
6	0xbd5312b0	-0.051531494
7	0xbe024047	-0.12719832
8	0x3f1e1e1c	0.61764693
9	0x3ed37220	0.41298008
