datasets/mnist/partition_noniid-#label_major_classes_num_5_clients_10_dir_alpha_None_augement_data_percent_per_class_0_seed_42/models/batch_size_256_com_round_50_epochs_3_sample_ratio_0.9_personalization_steps_15/client_5.pt (torch, 175631 bytes, 8 tensors)

weight f4 [50, 784]
-0.0002673864 0.0191587 -0.029394465 -0.026283538 -0.013755515 0.009577049 -0.0007076137 0.028317487
-0.0031694302 0.009450449 -0.0107933255 -0.007020192 -0.034122776 -0.023664411 -0.014727246 0.0013227768
0.014119115 0.021429386 -0.024212183 -0.015552245 0.012972042 0.029656714 -0.0073500066 0.026725428
-0.0057565486 0.003779075 0.032338437 -0.033131085 -0.0224835 -0.009041617 -0.013921428 0.030857172
-0.023149274 -0.016440501 -0.025130829 -0.03406308 -0.021550577 0.028817343 0.01330055 0.012654142
-0.008577144 -0.022620821 0.002972663 -0.03853046 -0.0318837 -0.020299872 0.02192686 0.017147735
-0.018171817 -0.0014990097 0.02282362 0.035504334 0.014174367 0.004824745 0.02394594 -0.021028655
0.0066551436 -0.027689483 -0.0247531 -0.018458482 0.016154079 0.0143625885 -0.021508127 0.00921108
0.016310956 -0.009321931 -0.009589481 -0.00698805 0.0031975554 0.014891695 -0.05025691 -0.033440873
-0.0016743239 0.022149835 0.023880817 0.027921703 0.0047493344 -0.034207646 0.0008846126 -0.022721631
-0.034037195 0.031158349 0.027155707 -0.035626 0.006684718 -0.006016429 -0.0058770212 -0.016392644
0.013470388 -0.0212466 0.012190169 0.0141641805 0.014866903 0.0008224279 -0.051610272 -0.04913267
-0.02588234 -0.046845034 -0.07001035 -0.06187013 -0.00017419881 0.0020290723 -0.032093555 -0.02286925
-0.04333781 -0.0012081509 -0.021604605 -0.021786574 -0.0019977542 0.004704683 -0.014625868 0.02119206
-0.02173354 0.032406077 0.02447427 -0.030140925 -0.008592906 0.002078545 0.006041881 0.0036509417
0.00357905 -0.010920052 -0.037469584 -0.018926254 -0.08596582 -0.08906358 -0.08800567 -0.0925781
-0.0734669 -0.072408795 -0.035571493 -0.0013490568 -0.015224786 0.02457242 0.05881667 0.023375219
0.011568372 -0.0014245756 0.007788547 0.022697067 0.03383022 0.02268057 0.033890538 -0.0031748228
-0.03315602 -0.011754997 0.038905486 0.01072767 0.0033629215 0.0071603293 -0.007309484 -0.02188996
-0.02465589 -0.050863255 -0.039627083 -0.083316766 -0.025699455 -0.052249197 -0.017755935 -0.00463112
0.025303885 0.034394972 0.024885785 0.025686784 0.02142127 0.0077295625 -0.017054748 0.013467016
-0.032144945 -0.0024261572 0.031323206 -0.015684174 0.033992343 0.031737447 -0.0034423573 0.05341021
0.028468836 0.01681552 0.03551751 -0.024970053 0.002282089 -0.03650255 -0.038142145 -0.08540263
-0.03878373 0.024038848 -0.002310677 0.021125427 0.020575972 0.09325199 0.098746575 0.07301871
-0.002952608 0.0031499546 -0.022422908 -0.019700427 -0.020810168 0.011803054 -0.021562528 0.0007499893
0.002747591 0.043322463 -0.0055034994 -0.024264356 -0.02107694 0.045701172 -0.0014888133 0.037777748
0.007075051 -0.04385669 -0.12181641 -0.17440118 -0.12472432 -0.05660605 0.009792091 0.030371364
-0.003301799 0.024011895 0.09603582 0.023955513 0.011544045 0.024029627 0.015491227 0.000642001
-0.03158311 0.016619954 -0.025659906 -0.011121235 -0.006641365 0.01883417 0.015157231 0.015316494
-0.0057944166 0.053877704 0.033449497 -0.036959793 -0.025862407 -0.1217661 -0.19382481 -0.1996717
-0.14140552 0.001357002 0.010412002 0.011801107 0.012290549 -0.02322501 0.07815673 0.0019389385
-0.009309732 -0.026623668 -0.021947255 0.0029432666 0.02954298 -0.012036564 -0.023324806 -0.018012024
00000000: ff2f 8cb9 b5f2 9c3c a9cc f0bc 9350 d7bc
00000010: d05e 61bc 0ee9 1c3c 277f 39ba 13fa e73c
00000020: 37b6 4fbb 0ed6 1a3c 7dd6 30bc a409 e6bb
00000030: 53c4 0bbd dedb c1bc 8c4a 71bc 0661 ad3a
00000040: dc53 673c ae8c af3c a158 c6bc d8ce 7ebc
00000050: b088 543c a3f2 f23c 53d8 f0bb 49ef da3c
00000060: 6ea1 bcbb 5caa 773b 4f75 043d 76b4 07bd
00000070: 512f b8bc 4a23 14bc b316 64bc 2ec8 fc3c
00000080: 8ca3 bdbc 3bae 86bc 2bdf cdbc ba85 0bbd
00000090: d68a b0bc 5912 ec3c 8dea 593c 5253 4f3c
000000a0: 2687 0cbc 4d4f b9bc 02d1 423b 1ed2 1dbd
000000b0: 7c98 02bd eb4b a6bc f59f b33c 6879 8c3c
000000c0: 10dd 94bc 6b7a c4ba 9af8 ba3c fe6c 113d
000000d0: 9b3b 683c e518 9e3b 472a c43c 4944 acbc
000000e0: 6413 da3b 0ed5 e2bc 03c7 cabc 3e36 97bc
000000f0: 8f55 843c 1051 6b3c d031 b0bc 12ea 163c
00000100: 8e9e 853c 03bb 18bc 331d 1dbc 03fc e4bb
00000110: 148e 513b 4cfc 733c 31da 4dbd 4cf9 08bd
00000120: fd74 dbba 9273 b53c b4a1 c33c 0ebc e43c
00000130: 4ea0 9b3b 511d 0cbd 59e5 673a b722 babc
00000140: 966a 0bbd cb3f ff3c a575 de3c 92ec 11bd
00000150: 7b0b db3b 7725 c5bb 0794 c0bb de49 86bc
00000160: e7b2 5c3c 5a0d aebc 46b9 473c e110 683c
00000170: 5094 733c 3498 573a 4b65 53bd 573f 49bd
00000180: 3307 d4bc 94e0 3fbd 9661 8fbd 896b 7dbd
00000190: 23a9 36b9 2ffa 043b 8874 03bd 4b58 bbbc
000001a0: fd82 31bd d15a 9eba 24fc b0bc c279 b2bc
000001b0: c1ec 02bb be29 9a3b 56a1 6fbc f99a ad3c
000001c0: 890a b2bc 3cbc 043d 447e c83c 1aea f6bc
000001d0: 43c9 0cbc 3338 083b f9fa c53b a344 6f3b
000001e0: 7f8e 6a3b 05ea 32bc b579 19bd 3b0b 9bbc
000001f0: d90e b0bd f766 b6bd 513c b4bd 9699 bdbd
00000200: d075 96bd 104b 94bd 6ab3 11bd d6d2 b0ba
00000210: 6171 79bc 1a4c c93c c0e9 703d 637d bf3c
00000220: 4589 3d3c d3b8 baba 1137 ff3b 33ef b93c
00000230: 8f91 0a3d 9acc b93c ced0 0a3d b010 50bb
00000240: 9bce 07bd 0898 40bc 5c5b 1f3d 1cc3 2f3c
00000250: 7664 5c3b 32a1 ea3b 6584 efbb 9352 b3bc
00000260: 26fb c9bc fd55 50bd 0250 22bd fba1 aabd
00000270: aa87 d2bc 4103 56bd e574 91bc a6c0 97bb
00000280: 184a cf3c bee1 0c3d 46dd cb3c 176d d23c
00000290: a97b af3c 4548 fd3b 66b6 8bbc c2a4 5c3c
000002a0: 6baa 03bd 2a00 1fbb c34c 003d 197c 80bc
000002b0: 8e3b 0b3d 20ff 013d 2c99 61bb aac4 5a3d
000002c0: 7a37 e93c b4c0 893c cf7a 113d ff8d ccbc
000002d0: 1a8f 153b b383 15bd f03a 1cbd 93e7 aebd
000002e0: b0db 1ebd 1eed c43c ba6e 17bb 3b0f ad3c
000002f0: f18e a83c e6fa be3d a53b ca3d d58a 953d
00000300: 8b80 41bb 786f 4e3b 3fb0 b7bc ca62 a1bc
00000310: 167a aabc 9961 413c e6a3 b0bc ee9a 443a
00000320: ed10 343b e572 313d b356 b4bb 0bc6 c6bc
00000330: 8ca9 acbc 2731 3b3d 4924 c3ba d7bc 1a3d
00000340: d4d5 e73b 13a3 33bd e27a f9bd 3996 32be
00000350: 776f ffbd bfdb 67bd 026f 203c 5ecd f83c
00000360: ff62 58bb 98b4 c43c 6eae c43d 5a3e c43c
00000370: 3c23 3d3c c8d9 c43c eace 7d3c f54b 283a
00000380: 4b5d 01bd 9226 883c b934 d2bc d735 36bc
00000390: cf9f d9bb 1e4a 9a3c 0956 783c 08f2 7a3c
000003a0: 17df bdbb deae 5c3d 5702 093d 2763 17bd
000003b0: 66dd d3bc 8160 f9bd 037a 46be bd76 4cbe
000003c0: 9ccc 10be 6edd b13a 1a97 2a3c 6e59 413c
000003d0: 4d5e 493c 6042 bebc a310 a03d fb23 fe3a
000003e0: d987 18bc e119 dabc bbca b3bc d2e3 403b
000003f0: 1f04 f23c 0235 45bc aa13 bfbc f48d 93bc

bias f4 [50]
0.02401388 -0.063318916 -0.042820945 -0.14099316 0.046134386 -0.09463097 0.036103506 0.053810034
0.053951193 0.11778527 0.16927594 0.07640596 0.017433474 0.11321611 0.03361868 0.15570351
-0.041612122 0.064992495 0.10732958 -0.17295381 -0.09660782 0.0039686644 0.069382936 0.083548635
0.04973371 0.105755135 0.014560413 0.18430851 0.027304899 0.08929795 0.0153672155 0.18752092
0.21467967 0.06995862 -0.026636569 -0.07461299 0.04145063 0.047309652 0.12147833 0.15634649
0.047058772 -0.15803254 0.12412328 0.009780502 0.02332845 0.042457562 -0.014350389 -0.04203596
0.07442328 0.2699043
00000000: c2b8 c43c 59ad 81bd 0465 2fbd 8360 10be
00000010: 69f7 3c3d e2cd c1bd 45e1 133d e967 5c3d
00000020: edfb 5c3d 6739 f13d ac56 2d3e ba7a 9c3d
00000030: a5d0 8e3c d9dd e73d beb3 093d be70 1f3e
00000040: 7971 2abd c91a 853d 9ccf db3d ce1a 31be
00000050: 52da c5bd 920b 823b a418 8e3d 8c1b ab3d
00000060: 93b5 4b3d 2696 d83d cc8e 6e3c 5fbb 3c3e
00000070: 86ae df3c d8e1 b63d c6c6 7b3c 7c05 403e
00000080: fdd4 5b3e 7746 8f3d ef34 dabc b2ce 98bd
00000090: 23c8 293d c4c7 413d a1c9 f83d 4b19 203e
000000a0: b3c0 403d 48d3 21be 5934 fe3d 663e 203c
000000b0: 4e1b bf3c fbe7 2d3d e51d 6bbc e62d 2cbd
000000c0: 3c6b 983d e530 8a3e

weight f4 [50, 50]
0.24506675 -0.009898601 -0.08333586 0.08362756 -0.12747447 -0.11245487 0.03532996 -0.12210011
0.14765126 0.3958953 -0.078333244 0.047351323 0.02809352 0.1452012 0.19905943 0.073326506
0.06901426 0.19468614 0.14724487 0.10543014 -0.20348617 0.09017612 -0.1761978 -0.13260573
0.017878212 0.05825156 0.101523906 0.22390167 -0.06746959 -0.30290174 -0.09266999 0.11031376
0.018618776 0.027296761 0.026451534 0.03757429 0.12348234 0.11478141 0.15359135 0.20443042
-0.068519086 -0.13821593 0.043480486 0.28368416 0.23433197 0.013796527 0.13624899 -0.086574934
0.012020442 -0.03340293 -0.04962134 0.07071437 -0.15734938 -0.01681638 -0.12524924 0.036770105
-0.11144878 0.12509203 0.15421672 0.126543 0.015329497 -0.042942166 0.006397263 0.18028468
0.08970418 0.027737176 -0.030819608 0.1559861 0.011482043 0.0806851 0.049328424 -0.015827773
0.095577724 -0.057852358 0.09296531 -0.054949813 0.02241065 0.046821613 -0.15213992 -0.032266475
-0.15470098 -0.07765014 0.040390372 -0.046412613 0.03872559 -0.08074976 -0.034652676 -0.0033262004
0.06850325 0.12410069 -0.13754302 0.053812087 0.13091263 0.035019185 -0.14161891 0.054233335
0.10682595 -0.06508764 -0.100864485 -0.103981726 0.06908196 -0.10593217 -0.175875 -0.11527127
0.065185525 -0.0014200804 -0.016491294 0.06952077 -0.04288255 0.047659438 0.12623806 0.16230293
-0.14551148 0.18283673 -0.14846297 -0.08908666 0.048372004 -0.09563032 -0.08073043 0.093000755
-0.08769996 0.14223565 -0.08247204 -0.025041815 0.0019777615 -0.085658535 0.18819122 0.03145129
-0.091643564 0.17313792 0.09358665 -0.13842845 0.06852534 0.004280685 -0.05299032 -0.04624653
-0.09293654 -0.027871352 -0.03733209 -0.095563225 0.06305913 -0.038518563 0.17073804 -0.09962112
-0.13483448 0.2029623 -0.049352698 0.13136736 0.044071045 0.13044034 -0.11312861 0.091032535
0.11982441 -0.09582247 -0.039590064 -0.04367079 0.023651067 -0.0094900755 -0.0661851 0.033804584
0.016785096 0.13688402 -0.1373098 -0.04336282 -0.11002687 0.06394353 0.060967565 0.04213278
-0.07631869 -0.052180853 -0.08924799 -0.12076718 0.054990206 -0.017594945 0.12677862 0.058983684
-0.08003255 -0.043260716 -0.07816563 -0.050881606 0.06348618 0.08100597 0.047932472 -0.101839714
0.11086947 -0.17852226 0.14220777 -0.10224949 -0.07247995 -0.055501014 -0.0476731 0.08542174
0.12022232 0.041302886 -0.13593008 0.093047276 -0.011193086 -0.09747177 -0.003292838 -0.105144516
0.016859045 0.07272406 0.07226763 0.14913797 0.076291375 0.29280856 -0.10617622 -0.029485893
-0.023524994 0.111054756 -0.11967182 -0.08313753 0.1121927 0.023311637 -0.16576393 -0.13476346
-0.023423824 0.13417086 0.013209779 0.026966926 -0.20635314 -0.107668385 -0.007996978 0.00553198
-0.15861577 -0.007009531 0.05225109 -0.11308885 0.11352936 -0.18655334 0.2517291 -0.22180618
0.030521255 -0.16133685 -0.12349623 -0.1528625 -0.106084995 0.047029726 -0.08751665 -0.19353947
0.19203545 0.24668892 -0.07843335 -0.100802936 -0.044190116 0.10954092 -0.08237576 -0.048638236
-0.0028661431 -0.06357056 0.07470956 0.11543628 0.071008146 0.1170595 -0.09243136 -0.032748323
00000000: c7f2 7a3e be2d 22bc feab aabd ed44 ab3d
00000010: ab88 02be bd4e e6bd 26b6 103d 9f0f fabd
00000020: e431 173e cab2 ca3e 2e6d a0bd 76f3 413d
00000030: 6224 e63c a0af 143e 3cd6 4b3e 352c 963d
00000040: 5957 8d3d ce5b 473e 5cc7 163e c2eb d73d
00000050: ae5e 50be 42ae b83d 326d 34be ccc9 07be
00000060: 5475 923c 3099 6e3d c4eb cf3d 7b46 653e
00000070: 7f2d 8abd f015 9bbe c4c9 bdbd 2eec e13d
00000080: 6786 983c 759d df3c e3b0 d83c 80e7 193d
00000090: 4fe4 fc3d 8412 eb3d 0d47 1d3e 3556 513e
000000a0: bc53 8cbd 7a88 0dbe 9818 323d 0d3f 913e
000000b0: b8f4 6f3e d40a 623c db84 0b3e 334e b1bd
000000c0: 63f1 443c 83d1 08bd bf3f 4bbd b2d2 903d
000000d0: 3220 21be 81c2 89bc 5641 00be 409c 163d
000000e0: 423f e4bd 2018 003e fdea 1d3e 7d94 013e
000000f0: 9228 7b3c 20e4 2fbd 22a0 d13b 8c9c 383e
00000100: d3b6 b73d 1339 e33c 6779 fcbc d2ba 1f3e
00000110: 2e1f 3c3c 3b3e a53d 9a0c 4a3d 3fa9 81bc
00000120: 41be c33d 98f6 6cbd 9964 be3d 0e13 61bd
00000130: 8a96 b73c 05c8 3f3d 91ca 1bbe da29 04bd
00000140: ef69 1ebe 0907 9fbd 6070 253d 271b 3ebd
00000150: b99e 1e3d 2160 a5bd f7ef 0dbd 62fc 59bb
00000160: 6f4b 8c3d 8128 fe3d 14d8 0cbe 106a 5c3d
00000170: f60d 063e 4770 0f3d 8c04 11be c623 5e3d
00000180: 90c7 da3d ab4c 85bd 0a92 cebd 5ff4 d4bd
00000190: d87a 8d3d f7f2 d8bd 9318 34be 5813 ecbd
000001a0: fd7f 853d fe21 baba c018 87bc e860 8e3d
000001b0: 9da5 2fbd 8b36 433d 8d44 013e bd32 263e
000001c0: f600 15be 8d39 3b3e ad06 18be 1173 b6bd
000001d0: b921 463d d4d9 c3bd ff55 a5bd 2e77 be3d
000001e0: 099c b3bd 39a6 113e 1ae7 a8bd 7e24 cdbc
000001f0: 559d 013b be6d afbd 33b5 403e 11d3 003d
00000200: 9faf bbbd 114b 313e 5caa bf3d 30c0 0dbe
00000210: 0357 8c3d fd44 8c3b 610c 59bd 006d 3dbd
00000220: 8355 bebd 7652 e4bc 89e9 18bd a7b6 c3bd
00000230: 2525 813d a4c5 1dbd f4d5 2e3e 2806 ccbd
00000240: 0d12 0abe 59d5 4f3e 0e26 4abd 2a85 063e
00000250: d783 343d 2792 053e f9af e7bd 446f ba3d
00000260: 8066 f53d 923e c4bd 3129 22bd 24e0 32bd
00000270: e2bf c13c 437c 1bbc 0e8c 87bd ad76 0a3d
00000280: e680 893c 532b 0c3e f19a 0cbe 369d 31bd
00000290: c555 e1bd d3f4 823d 20b9 793d 6c93 2c3d
000002a0: f94c 9cbd 97bb 55bd a6c7 b6bd c954 f7bd
000002b0: 693d 613d 4623 90bc 41d2 013e e098 713d
000002c0: 1be8 a3bd 2632 31bd 4d15 a0bd 3b69 50bd
000002d0: 0b05 823d 75e6 a53d d754 443d 5791 d0bd
000002e0: 880f e33d 8ace 36be ea9e 113e 2e68 d1bd
000002f0: 5e70 94bd 0855 63bd de44 43bd 98f1 ae3d
00000300: 1f37 f63d 372d 293d 4131 0bbe 928f be3d
00000310: 3563 37bc 489f c7bd a8cc 57bb 0256 d7bd
00000320: fb1b 8a3c 5af0 943d 0d01 943d a0b7 183e
00000330: a73e 9c3d 01eb 953e eb72 d9bd 668c f1bc
00000340: 7db7 c0bc ad70 e33d 8016 f5bd 0244 aabd
00000350: 49c5 e53d 0cf8 be3c 05be 29be 6fff 09be
00000360: 52e3 bfbc 1664 093e d46d 583c bee9 dc3c
00000370: 3d4e 53be 3e81 dcbd c205 03bc 9d45 b53b
00000380: 2c6c 22be 35b0 e5bb 3d05 563d 219b e7bd
00000390: 1582 e83d d707 3fbe a3e2 803e 2921 63be
000003a0: b607 fa3c 7d35 25be 97eb fcbd fd87 1cbe
000003b0: 1743 d9bd 3ea2 403d ee3b b3bd 362f 46be
000003c0: f1a4 443e 059c 7c3e aaa1 a0bd c571 cebd
000003d0: b200 35bd fd56 e03d 9fb4 a8bd e338 47bd
000003e0: e7d5 3bbb 4831 82bd 5301 993d db69 ec3d
000003f0: b86c 913d e4bc ef3d a74c bdbd 1b23 06bd

bias f4 [50]
0.2558689 0.05351815 -0.0017343195 0.04235703 0.24643685 0.036306977 0.06862657 0.05483116
0.03956647 -0.043918516 0.062449586 0.385857 0.24954586 0.020653503 -0.12865922 0.10219619
0.1718976 0.19628777 0.11501889 -0.14542721 -0.079659775 0.020415014 0.40329295 -0.00029031292
0.19881165 0.21089362 -0.05843388 0.120623544 0.20727791 0.15244855 0.18344903 -0.055964146
0.32968906 -0.13895133 0.142193 0.21637578 -0.024736943 0.10070522 -0.10382062 0.08156712
0.16112639 0.23546414 0.3645324 0.19134995 0.19883603 0.25332847 0.22576328 0.15903844
-0.015581894 0.05934228
00000000: 4001 833e d935 5b3d 1b52 e3ba 917e 2d3d
00000010: f159 7c3e a0b6 143d 168c 8c3d a396 603d
00000020: 7310 223d e7e3 33bd 23cb 7f3d 0c8f c53e
00000030: f388 7f3e 8931 a93c 3ebf 03be 3c4c d13d
00000040: ed05 303e a9ff 483e 068f eb3d dfea 14be
00000050: aa24 a3bd 633d a73c 6a7c ce3e 2435 98b9
00000060: 4895 4b3e 7ff4 573e 5d58 6fbd 7a09 f73d
00000070: a940 543e 791b 1c3e 10da 3b3e a93a 65bd
00000080: 01cd a83e 4249 0ebe 0b9b 113e 9d91 5d3e
00000090: 21a5 cabc 8a3e ce3d e89f d4bd aa0c a73d
000000a0: 51fe 243e 831d 713e fea3 ba3e 3ef1 433e
000000b0: ac9b 4b3e 45b4 813e 7d2e 673e f9da 223e
000000c0: 334b 7fbc e410 733d

weight f4 [20, 50]
0.17568871 -0.14451733 -0.16020058 0.1390787 0.061367683 0.41579685 0.076324254 0.08678012
0.072775505 0.39057174 0.008809028 0.13889919 0.08574177 -0.1298431 -0.11890522 0.15307012
0.14319852 0.3484429 0.17853773 0.12982476 0.29812858 0.026038745 -0.03511152 -0.08242055
0.20668538 -0.30509174 0.055054933 -0.1147533 0.057671845 -0.062108114 -0.0029776224 0.04251385
0.31610477 -0.03847404 0.29571375 -0.05080242 -0.011733888 0.120286286 0.019889105 -0.0686258
0.26790375 -0.053672653 -0.00328014 -0.37801492 0.27149218 -0.06206017 -0.54652923 -0.007042922
-0.0030361444 -0.071083054 -0.23175581 0.108543955 -0.0011805131 -0.045342494 -0.008099317 -0.26844266
0.20515463 0.13529852 0.18425237 -0.16881602 0.004111475 -0.008029788 0.094991475 0.15509127
0.052623976 -0.061262526 0.2673561 -0.0775915 0.042468593 0.0065124417 -0.18426019 0.1052006
-0.2633154 -0.015785413 -0.12572284 0.05200236 0.03446588 0.46488136 0.09647982 0.02216743
0.019974086 0.046264 -0.008062449 0.0047932095 -0.15266995 0.365573 0.08000701 -0.011098257
0.08508899 0.08111211 0.15888615 -0.28658527 0.06585278 -0.0037450427 -0.007275955 0.2658766
0.064414576 0.3659682 -0.04342277 -0.055650536 0.054040942 0.087178454 -0.035658542 -0.045737416
-0.14620504 -0.14052138 -0.111031316 0.1857007 0.14124727 0.04363213 0.026910698 0.31370673
0.047016427 0.1349926 -0.06260896 -0.16926359 0.14683236 0.35873944 0.04060818 -0.06488271
-0.0026108995 0.105950534 -0.2622233 0.045637626 -0.10357466 0.109353356 -0.10265638 0.29478836
0.082213774 0.023953581 -0.17629105 -0.118428536 -0.17038056 -0.05243387 0.28309202 -0.094615415
-0.095181406 0.015205284 0.2314987 -0.020264836 0.013959154 -0.0480884 0.026175385 0.04418392
-0.15858084 0.1221271 -0.117653266 -0.009557658 0.046635758 0.016360382 0.0059083295 0.11201075
-0.09054665 -0.10844582 -0.0021177952 -0.092545986 -0.07870272 -0.076736644 -0.067839965 0.06892854
0.051951714 0.086074054 -0.05161241 0.0060247323 -0.075346045 -0.056062248 0.015291276 0.0023047307
-0.044776224 0.07379577 0.09409819 -0.02022098 0.015189588 -0.09443474 -0.014805833 -0.067638904
-0.10410208 -0.067949094 -0.1357713 -0.06930838 -0.032601878 -0.037983537 -0.0951248 0.07727538
-0.10407015 0.072879024 -0.03191185 -0.06849393 0.03743319 -0.009756625 -0.13315548 -0.079216555
-0.040097333 0.105396144 0.0073291007 0.092890516 0.060938273 -0.11932634 -0.015113139 -0.10858126
0.060985763 -0.06482271 -0.12848096 -0.026843287 0.18337992 0.011918295 -0.15195313 -0.19667026
0.0893639 -0.04235576 0.15186372 -0.20038828 0.23574483 -0.12333905 0.01685267 0.26416746
-0.12555473 -0.32865754 0.01910663 -0.0889813 0.0828555 -0.07124682 0.6066039 0.18105988
0.0039130505 0.11717127 -0.05170101 -0.38299227 -0.08198244 0.1522509 0.104613885 0.030183775
0.40757394 0.09169025 -0.28049406 -0.21938792 0.01612841 0.03975381 -0.0623774 -0.16935976
-0.018269109 0.124814674 0.08829819 0.18876971 -0.2044131 0.028152198 0.31622452 0.0457972
0.05490161 -0.047100622 0.051180128 0.109351486 0.05681632 0.112165056 0.26849332 -0.23137909
00000000: bee7 333e 5afc 13be 9f0b 24be a66a 0e3e
00000010: ae5c 7b3d 53e3 d43e e44f 9c3d c7b9 b13d
00000020: 530b 953d 05f9 c73e be53 103c 973b 0e3e
00000030: 6299 af3d 97f5 04be 9484 f3bd 6abe 1c3e
00000040: a2a2 123e 1c67 b23e 98d2 363e c8f0 043e
00000050: 4fa4 983e 354f d53c 19d1 0fbd 1bcc a8bd
00000060: 55a5 533e fc34 9cbe 4881 613d c703 ebbd
00000070: 5039 6c3d 1465 7ebd 3724 43bb 0123 2e3d
00000080: 7cd8 a13e f496 1dbd cb67 973e 3316 50bd
00000090: 7e3f 40bc a858 f63d 7aee a23c af8b 8cbd
000000a0: ae2a 893e dbd7 5bbd 9ef7 56bb 2c8b c1be
000000b0: 0601 8b3e ce32 7ebd 57e9 0bbf 50c8 e6bb
000000c0: 0dfa 46bb fe93 91bd 6551 6dbe 4b4c de3d
000000d0: 72bb 9aba 0db9 39bd ffb2 04bc 5171 89be
000000e0: 0e14 523e b28b 0a3e a7ac 3c3e 1bde 2cbe
000000f0: 8db9 863b 5f8f 03bc e48a c23d 3fd0 1e3e
00000100: 3d8c 573d 6aee 7abd e6e2 883e 4be8 9ebd
00000110: 8cf3 2d3d 5266 d53b b4ae 3cbe 6a73 d73d
00000120: 47d1 86be 6950 81bc 7dbd 00be 6d00 553d
00000130: 182c 0d3d ee04 ee3e 3697 c53d 7898 b53c
00000140: b2a0 a33c 527f 3d3d 5d18 04bc 5b10 9d3b
00000150: 8355 1cbe 622c bb3e b7da a33d 77d5 35bc
00000160: 2343 ae3d 1b1e a63d 0db3 223e 4ebb 92be
00000170: d3dd 863d 646f 75bb 226b eebb fa20 883e
00000180: caeb 833d 2f60 bb3e 13dc 31bd d1f1 63bd
00000190: 095a 5d3d 9e8a b23d b10e 12bd 2857 3bbd
000001a0: c6b6 15be d6e4 0fbe 6364 e3bd 5328 3e3e
000001b0: 20a3 103e 9bb7 323d d373 dc3c 2b9e a03e
000001c0: 4c94 403d 803b 0a3e 2039 80bd 6f53 2dbe
000001d0: 395b 163e b2ac b73e c354 263d 3ae1 84bd
000001e0: a01b 2bbb 98fc d83d 2242 86be 85ee 3a3d
000001f0: f41e d4bd a7f4 df3d 823d d2bd 80ee 963e
00000200: b25f a83d 4d3a c43c a485 34be a98a f2bd
00000210: 3e78 2ebe e6c4 56bd 70f1 903e bac5 c1bd
00000220: 78ee c2bd 951f 793c ff0d 6d3e 7102 a6bc
00000230: efb4 643c 58f8 44bd c36d d63c 33fa 343d
00000240: 0463 22be c61d fa3d 32f4 f0bd b997 1cbc
00000250: 2305 3f3d 3506 863c a99a c13b e465 e53d
00000260: 8670 b9bd d818 debd b5ca 0abb c088 bdbd
00000270: e42e a1bd 1a28 9dbd aeef 8abd 682a 8d3d
00000280: 52cb 543d 9847 b03d 8967 53bd 1e6b c53b
00000290: 074f 9abd 87a1 65bd 4388 7a3c f70a 173b
000002a0: 4667 37bd 3d22 973d 8db6 c03d 78a6 a5bc
000002b0: c0dd 783c 0067 c1bd 2a94 72bc 4486 8abd
000002c0: 7933 d5bd e528 8bbd a207 0bbe 8df1 8dbd
000002d0: 8c89 05bd a094 1bbd cbd0 c2bd 8e42 9e3d
000002e0: bb22 d5bd 9941 953d 00b6 02bd 8c46 8cbd
000002f0: 8b53 193d 40da 1fbc e959 08be 4a3c a2bd
00000300: 1a3d 24bd efd9 d73d f428 f03b 623d be3d
00000310: 699a 793d 5e61 f4bd 199d 77bc da5f debd
00000320: 35cc 793d c5c1 84bd 8390 03be 74e6 dbbc
00000330: f2c7 3b3e f444 433c 9a99 1bbe ee63 49be
00000340: 6c04 b73d 3c7d 2dbd 2a82 1b3e 9632 4dbe
00000350: 1867 713e 2f99 fcbd 9c0e 8a3c f540 873e
00000360: 6b91 00be cd45 a8be 8285 9c3c d43b b6bd
00000370: 25b0 a93d dae9 91bd 654a 1b3f c367 393e
00000380: 0c39 803b 7ef7 ef3d 70c4 53bd 9017 c4be
00000390: 69e6 a7bd a9e7 1b3e ce3f d63d f743 f73c
000003a0: 88ad d03e 19c8 bb3d eb9c 8fbe 3aa7 60be
000003b0: ba1f 843c e4d4 223d 727f 7fbd a56c 2dbe
000003c0: 19a9 95bc d69e ff3d aed5 b43d d94c 413e
000003d0: ab51 51be 709f e63c 2ee8 a13e d895 3b3d
000003e0: 83e0 603d 95ec 40bd 41a2 513d acf3 df3d
000003f0: 3bb8 683d cbb6 e53d f577 893e a4ee 6cbe

bias f4 [20]
0.39729774 0.25271475 0.13103805 -0.12706211 0.2537252 0.41750085 0.17685969 0.43557867
0.5297703 0.40026325 0.3195664 0.3628421 -0.1082709 0.21409279 -0.1306997 0.25423014
-0.10317814 -0.036930285 0.35455683 0.37962475
00000000: 9c6a cb3e d463 813e d72e 063e 921c 02be
00000010: 45e8 813e acc2 d53e b51a 353e 2b04 df3e
00000020: 079f 073f 4eef cc3e 359e a33e 71c6 b93e
00000030: 22bd ddbd 243b 5b3e 24d6 05be 742a 823e
00000040: 104f d3bd 3644 17bd 7988 b53e 2d5e c23e

weight f4 [10, 20]
0.6723346 -0.55353564 0.4149385 0.10579875 -0.12183336 -0.26225564 -0.24483164 -0.23277205
0.38553855 -0.35202384 -0.6253982 -0.49977294 -0.08746369 -0.31095165 -0.21380594 0.38518822
0.96811587 0.13708182 -0.36074504 -0.57819456 -0.84548545 0.12778641 -0.332 -0.07396384
0.46959105 -0.31348744 -0.20513009 0.5254363 -0.39185223 0.61386496 0.1717077 0.13740402
-0.15626308 -0.06109533 0.066955455 -0.5426371 -0.5528024 0.17218882 0.44508052 0.3838972
-0.070843846 0.5951467 0.19825342 -0.09258771 -0.14836979 -0.107143 0.07131863 0.33045062
0.35226342 0.1825225 -0.043224547 -0.10739608 -0.16999696 0.58218616 -0.17580618 -0.7788948
0.4960106 -0.22064191 -0.23062158 -0.43194902 0.33176792 0.24799329 0.16493747 0.18619515
0.089931004 -0.5196419 -0.17702433 -0.40101647 0.30838212 -0.6872066 0.48726818 0.5819799
-0.08446632 -0.037115894 -0.082293406 -0.58561057 -0.067393556 -0.15993148 0.09216 0.6822842
-0.82080686 -0.13778813 -0.088810936 0.11817141 0.7801728 0.11910746 0.9180342 -0.42647803
-0.5030337 0.270299 0.22887886 -0.32831457 -0.22330478 0.28139654 0.011195377 0.55339175
-0.28896487 0.08600104 0.13027498 -0.0120169325 0.3270432 -0.119685516 0.70046663 0.17700027
-0.44842947 -0.4831796 -0.04841131 0.10652059 0.43134964 -0.37346435 0.34691668 -0.17825334
0.067640156 -0.668676 0.1400102 0.7475998 -0.08194013 -0.072315335 -0.71790636 0.42049974
-0.4994029 0.6873474 -0.11205902 -0.14427362 -0.4839143 0.58668077 -0.18751828 0.68816555
-0.4308986 0.20682073 -0.2468988 -0.51318717 0.07673311 -0.6673972 0.12675302 0.21600214
0.55559176 0.1224572 -0.5638837 -0.20373076 0.23500925 -0.23807813 -0.31333804 -0.023982845
-0.24038734 -0.547197 -0.2360084 0.057954505 -0.7150887 0.01819813 -0.094033614 -0.6765184
0.086812064 0.90122515 0.21395291 0.32013878 -0.14860298 -0.09484196 0.6790202 -0.2252826
-0.058153797 0.15121344 -0.06154041 -0.121613875 -0.1209909 0.30972722 -0.45066795 0.5528718
0.61357546 0.5005288 0.20400907 0.8641112 0.15544489 -0.43503454 -0.014777972 -0.64054525
-0.22044317 -0.04923528 -0.29175523 -0.2108408 0.314898 -0.31465062 -0.06646556 -0.117259
0.7844099 0.2863615 0.29695392 -0.52693146 0.50478595 -0.004176652 -0.63515997 0.38490885
-0.07796177 -0.4169303 -0.04263535 0.49980435 -0.52032655 -0.21161586 0.37097594 -0.29952767
00000000: 1f1e 2c3f 83b4 0dbf d272 d43e 04ad d83d
00000010: c583 f9bd 5f46 86be 25b5 7abe cc5b 6ebe
00000020: 4f65 c53e 783c b4be 191a 20bf 3de2 ffbe
00000030: 2a20 b3bd 0e35 9fbe f2ef 5abe 6437 c53e
00000040: 71d6 773f 2d5f 0c3e 93b3 b8be 8f04 14bf
00000050: bc71 58bf 71da 023e e7fb a9be 5b7a 97bd
00000060: 3d6e f03e 6d81 a0be 9f0d 52be fe82 063f
00000070: dba0 c8be 4126 1d3f 25d4 2f3e a4b3 0c3e
00000080: 6e03 20be 193f 7abd f11f 893d 44ea 0abf
00000090: 7584 0dbf 4452 303e 98e1 e33e 2c8e c43e
000000a0: 9416 91bd 895b 183f f202 4b3e a09e bdbd
000000b0: 40ee 17be ca6d dbbd 800f 923d d330 a93e
000000c0: df5b b43e 2ee7 3a3e 390c 31bd 7af2 dbbd
000000d0: af13 2ebe 270a 153f 8906 34be a665 47bf
000000e0: 1af5 fd3e f4ef 61be 1028 6cbe 6c28 ddbe
000000f0: 7cdd a93e f4f1 7d3e 5ee5 283e f1a9 3e3e
00000100: bf2d b83d 4007 05bf de45 35be 0852 cdbe
00000110: 43e4 9d3e c6ec 2fbf 377b f93e a2fc 143f
00000120: aefc acbd d606 18bd 7289 a8bd 93ea 15bf
00000130: a205 8abd 14c5 23be 62be bc3d 2daa 2e3f
00000140: 6620 52bf 5518 0dbe 82e2 b5bd da03 f23d
00000150: 68b9 473f 9dee f33d 4a04 6b3f 545b dabe
00000160: d1c6 00bf a164 8a3e 385f 6a3e d918 a8be
00000170: 02aa 64be 3513 903e d16c 373c 15ab 0d3f
00000180: 34f3 93be 5021 b03d ce66 053e abe2 44bc
00000190: 3572 a73e ae1d f5bd c851 333f 8f3f 353e
000001a0: 8c98 e5be 5163 f7be f04a 46bd 7827 da3d
000001b0: dcd9 dc3e b836 bfbe 109f b13e 0b88 36be
000001c0: ec86 8a3d 5a2e 2bbf d55e 0f3e b362 3f3f
000001d0: 3ad0 a7bd 101a 94bd b6c8 37bf be4b d73e
000001e0: bdb1 ffbe 00f6 2f3f 337f e5bd 77bc 13be
000001f0: 9dc3 f7be b630 163f cb04 40be 9e2b 303f
00000200: be9e dcbe d0c8 533e 0ad3 7cbe 3c60 03bf
00000210: 4026 9d3d 8bda 2abf 8bcb 013e aa2f 5d3e
00000220: 433b 0e3f d7ca fa3d af5a 10bf cc9e 50be
00000230: 44a6 703e c1ca 73be d86d a0be ac77 c4bc
00000240: 1928 76be 1a15 0cbf 30ac 71be b461 6d3d
00000250: 0e10 37bf 3f14 953c b294 c0bd 4f30 2dbf
00000260: 86ca b13d b1b6 663f 7916 5b3e 3be9 a33e
00000270: 612b 18be 803c c2bd 45d4 2d3f 7bb0 66be
00000280: ad32 6ebd b2d7 1a3e cc11 7cbd b210 f9bd
00000290: 14ca f7bd 9194 9e3e f3bd e6be 0289 0d3f
000002a0: 4813 1d3f a822 003f c1e7 503e 6436 5d3f
000002b0: f22c 1f3e d9bc debe 4f1f 72bc c6fa 23bf
000002c0: dbbb 61be efaa 49bd f160 95be a7e6 57be
000002d0: 503a a13e e319 a1be 181f 88bd 7d25 f0bd
000002e0: 16cf 483f f99d 923e 580a 983e fbe4 06bf
000002f0: a739 013f 4cdc 88bb d899 22bf c612 c53e
00000300: 6caa 9fbd e377 d5be 68a2 2ebd 5be6 ff3e
00000310: 1f34 05bf d4b1 58be 8ff0 bd3e b15b 99be

bias f4 [10]
-0.5885294 0.16009197 0.049009256 -0.53670967 0.059945107 0.41475365 -0.051627185 -0.12725338
0.6174575 0.4131033
00000000: dda9 16bf 26ef 233e eebd 483d ce65 09bf
00000010: 0089 753d 975a d43e 0777 53bd b64e 02be
00000020: b211 1e3f 4782 d33e
