datasets/mnist/partition_noniid-#label_major_classes_num_1_clients_10_dir_alpha_None_augement_data_percent_per_class_0.005_augement_data_with_zeros_250_seed_42/models/batch_size_256_com_round_25_epochs_5_lr_0.1_sample_ratio_0.9_personalization_steps_25_model_tinymlp/client_6.pt (torch, 70415 bytes, 8 tensors)

weight f4 [20, 784]
0	0xb98c2fff	-0.0002673864
1	0x3c9cf2b5	0.0191587
2	0xbcf0cca9	-0.029394465
3	0xbcd75093	-0.026283538
4	0xbc615ed0	-0.013755515
5	0x3c1ce90e	0.009577049
6	0xba397f27	-0.0007076137
7	0x3ce7fa13	0.028317487
8	0xbb4fb637	-0.0031694302
9	0x3c1ad60e	0.009450449
10	0xbc30d67d	-0.0107933255
11	0xbbe609a4	-0.007020192
12	0xbd0b9891	-0.034081046
13	0xbcc0ca1f	-0.023533879
14	0xbc7093e6	-0.014683699
15	0x3aad9def	0.001324592
16	0x3c6753dc	0.014119115
17	0x3caf8cae	0.021429386
18	0xbcc658a1	-0.024212183
19	0xbc7eced8	-0.015552245
20	0x3c5488b0	0.012972042
21	0x3cf2f2a3	0.029656714
22	0xbbf0d853	-0.0073500066
23	0x3cdaef49	0.026725428
24	0xbbbca16e	-0.0057565486
25	0x3b77aa5c	0.003779075
26	0x3d04754f	0.032338437
27	0xbd07b476	-0.033131085
28	0xbcb82f51	-0.0224835
29	0xbc14234a	-0.009041617
30	0xbc6416b3	-0.013921428
31	0x3cfcc82e	0.030857172
32	0xbcbda298	-0.02314882
33	0xbc86f313	-0.016473329
34	0xbcd111cb	-0.02552118
35	0xbd0b7d6e	-0.034055166
36	0xbca6934e	-0.020333912
37	0x3d0024a4	0.031284943
38	0x3c856f5d	0.016288454
39	0x3c96b674	0.018397547
40	0x3b4b8af7	0.0031058171
41	0xbc9e650e	-0.019335296
42	0x3b76149f	0.0037548912
43	0xbd0aa5e8	-0.033849627
44	0xbcd33d85	-0.02578617
45	0xbc962a71	-0.018330785
46	0x3cbc9e2e	0.023024645
47	0x3caf5b02	0.0214057
48	0xbc8059ff	-0.015667913
49	0xbb7e138d	-0.0038768977
50	0x3cb135d9	0.021632122
51	0x3d118752	0.035529442
52	0x3c683b9b	0.014174367
53	0x3b9e18e5	0.004824745
54	0x3cc42a47	0.02394594
55	0xbcac4449	-0.021028655
56	0x3bda1364	0.0066551436
57	0xbce2d50e	-0.027689483
58	0xbccac66a	-0.024752814
59	0xbc97083d	-0.018436546
60	0x3c8495d7	0.01618473
61	0x3c6491af	0.013950749
62	0xbcb1836e	-0.021669116
63	0x3c184207	0.009293086
64	0x3cb0f51a	0.021601249
65	0x3b6390ba	0.0034723715
66	0x3c3f2883	0.011667374
67	0x3c99ca32	0.018773172
68	0x3d056ba1	0.032573346
69	0x3d54641f	0.051853295
70	0xbc36d14f	-0.0111583015
71	0x39ea3970	0.00044674752
72	0x3cd752d9	0.026284622
73	0x3d1e69fb	0.03867529
74	0x3d159cdc	0.036526546
75	0x3d1da6cb	0.038489144
76	0x3c41f65e	0.011838524
77	0xbce74b6c	-0.028234206
78	0x3b3ed9f2	0.0029121605
79	0xbcb29631	-0.021800132
80	0xbd079e4d	-0.03310995
81	0x3d0212e8	0.03175631
82	0x3cde75a5	0.027155707
83	0xbd11ec92	-0.035626
84	0x3bdb0b7b	0.006684718
85	0xbbc52577	-0.006016429
86	0xbbc08c78	-0.00587612
87	0xbc84fb61	-0.016233148
88	0x3c690e75	0.014224638
89	0xbca6bf58	-0.020354912
90	0x3c723ebd	0.014785466
91	0x3c8b5953	0.017010367
92	0x3ce017ee	0.02735516
93	0x3c7eacaf	0.015544101
94	0xbd045c52	-0.032314606
95	0xbcb83a64	-0.02248878
96	0x3c5806a6	0.013185179
97	0x3bbda7e8	0.0057878383
98	0xbd3357eb	-0.043785017
99	0xbd0d99ea	-0.034570612
100	0x3cb82352	0.02247778
101	0x3cc3b18f	0.023888377
102	0x3acbf699	0.0015561163
103	0x3cbe15f4	0.023203827
104	0x3b7a6c03	0.0038211353
105	0x3d02be65	0.031919856
106	0xbb89a084	-0.004200043
107	0xbc9ab94e	-0.018887188
108	0x3b127bf7	0.002235172
109	0x3bc174d1	0.005903818
110	0xbc6ea821	-0.014566452
111	0x3cad9af9	0.02119206
112	0xbcb20a89	-0.02173354
113	0x3d04bc74	0.032406285
114	0x3cc88c97	0.024481101
115	0xbcf6b94d	-0.030117655
116	0xbc007811	-0.007841126
117	0x3ba0637d	0.0048946724
118	0x3bea1c02	0.007144452
119	0xbb2c2dff	-0.0026272533
120	0x3b081e37	0.0020769963
121	0xbc1d0008	-0.009582527
122	0xbc9e5a78	-0.019330248
123	0xbc8571d3	-0.016289627
124	0xbd7ccd6e	-0.06171935
125	0xbd1af35f	-0.037829753
126	0xbb5241b9	-0.003208263
127	0xbd0f994d	-0.03505831
128	0xbc92b2fa	-0.017907608
129	0xbd55b936	-0.052178584
130	0xbcca6e76	-0.024710875
131	0x3c7b07b2	0.015321659
132	0x3aa11b52	0.0012291467
133	0x3cf9988a	0.030468244
134	0x3d7031ae	0.05864113
135	0x3cbca457	0.023027582
136	0x3c86b0a6	0.016441654
137	0x3ae0abae	0.0017141008
138	0x3bf8b46b	0.007589867
139	0x3cbbe7c2	0.02293766
140	0x3d0a918f	0.03383022
141	0x3cb9cc9a	0.02268057
142	0x3d0afbdc	0.033931598
143	0xbb32e5fb	-0.0027297724
144	0xbcf9e62a	-0.030505259
145	0xbc82e933	-0.015980339
146	0x3c9e81ea	0.019349057
147	0xbd00d269	-0.031450663
148	0xbd743af7	-0.059626546
149	0xbd5564d2	-0.052098103
150	0xbd611b94	-0.05495794
151	0xbd98d834	-0.074631125
152	0xbd45ba4f	-0.04827338
153	0x3b018c67	0.0019767524
154	0x3cdb7841	0.02679074
155	0xbd4cac0e	-0.04996877
156	0x3b57df88	0.0032939631
157	0xbd13f834	-0.036125377
158	0xbca17d1e	-0.01971298
159	0x3c1a517d	0.009418842
160	0x3c4c9fce	0.012489272
161	0x3c91d0e7	0.017799808
162	0xbc5745fc	-0.013139244
163	0x3c1204c2	0.008912267
164	0x3c878819	0.016544389
165	0x3b82fa5e	0.0039971313
166	0xbc79f1b3	-0.0152553795
167	0x3c63d2e5	0.013905262
168	0xbd03aa6b	-0.032144945
169	0xbb1decf2	-0.002409753
170	0x3d00e63a	0.03146956
171	0xbc88ade6	-0.016684484
172	0x3cf415dd	0.029795581
173	0xbacdee64	-0.0015711305
174	0xbd83fad3	-0.06444325
175	0xbbffe08e	-0.0078087514
176	0xbce91ba7	-0.028455568
177	0xbc031bc2	-0.008002223
178	0x3cebd6c5	0.028788934
179	0xbd21e48d	-0.039524604
180	0xbd1b6576	-0.037938558
181	0xbcd0f153	-0.025505697
182	0x3bcbc018	0.0062179677
183	0x3ae4c61e	0.0017454063
184	0x3b9d7004	0.004804613
185	0x3cd7c6ea	0.026339967
186	0xbb9030f4	-0.004400367
187	0x3be5c3ab	0.007011851
188	0x3c6d542a	0.014485398
189	0x3ce0ff4e	0.027465489
190	0x3cfa1b5c	0.030530624
191	0x3d45e2fc	0.048312172
192	0xbc326540	-0.010888398
193	0x3bb456c7	0.0055035087
194	0xbccaae2b	-0.024741253
195	0xbc9ec610	-0.019381553
196	0xbcaa7e72	-0.020812247
197	0x3c44adfb	0.012004371
198	0xbcac36aa	-0.02102216
199	0xbc055368	-0.008137561
200	0xbbee6b4a	-0.0072759734
201	0xbb574917	-0.0032849961
202	0xbda3bb6d	-0.07994733
203	0xbd460011	-0.048339907
204	0xbc981c43	-0.018568164
205	0x3c4b9012	0.012424486
206	0xbce4a680	-0.027911425
207	0xb981bf8a	-0.00024747505
208	0xbce7526a	-0.02823754
209	0xbccddc43	-0.025129443
210	0xbcc0f9e0	-0.02355665
211	0x3c616f34	0.013759423
212	0x3d42239f	0.047397252
213	0xbb37b630	-0.0028032176
214	0xbcd9d1ab	-0.026589235
215	0xbc6a6ecd	-0.0143086435
216	0xbc86ed91	-0.016470702
217	0xbc9f5ac7	-0.019452466
218	0x3cfc5b77	0.030805333
219	0xbba59828	-0.005053539
220	0x3cca6b3f	0.024709342
221	0x3d514b56	0.051097237
222	0x3c4b8b41	0.012423337
223	0x3a8d6102	0.0010786357
224	0xbd00333e	-0.03129887
225	0x3c8ed668	0.017436221
226	0xbcdf732d	-0.0272766
227	0xbc8eb571	-0.017420502
228	0xbcc252c1	-0.0237211
229	0xbd31b13c	-0.043381914
230	0xbd45d530	-0.048299015
231	0x3b880090	0.0041504577
232	0xbc7a13f6	-0.015263548
233	0xbc90b5c2	-0.017664794
234	0xbc4436c3	-0.011975947
235	0xbd4e8039	-0.05041525
236	0xbcee8554	-0.02911631
237	0xbd25764d	-0.040396024
238	0xbd1d8023	-0.03845228
239	0xbc5c403a	-0.013443047
240	0xbb784345	-0.0037881893
241	0xbafb73d3	-0.0019184299
242	0xbca55bdd	-0.020185405
243	0xbbe0691d	-0.006848468
244	0x3ce4fa0a	0.02795126
245	0xbd2937fb	-0.041313153
246	0xb9762c0a	-0.00023476794
247	0xbc488962	-0.012239786
248	0x3d1171a1	0.035508756
249	0x3c28dc98	0.0103065
250	0xbca0d23b	-0.019631496
251	0x3ba9e7eb	0.0051851175
252	0x3cf1e318	0.029527232
253	0xbc38616c	-0.011253696
254	0xbce4c280	-0.027924776
255	0xbcb85e99	-0.022506045

bias f4 [20]
0	0x3ec5c0ab	0.38623556
1	0x3de69015	0.1125795
2	0x3e0c7556	0.13716635
3	0x3e33f46b	0.17573707
4	0x3e29a202	0.16565707
5	0x3e39d6ec	0.18148392
6	0x3dc6e148	0.09710938
7	0x3df01f83	0.117247604
8	0x3ec12d31	0.3772979
9	0x3b16b73b	0.0022997397
10	0xbd612235	-0.054964263
11	0x3edf3fc0	0.43603325
12	0x3cbeb9f6	0.023282032
13	0x3ddb8743	0.107191585
14	0x3d8e274c	0.06941089
15	0x3d15c0d7	0.03656086
16	0x3df3d723	0.119062684
17	0x3dec8c5d	0.1155021
18	0x3eb5f67b	0.35539612
19	0x3e62d89d	0.22152944

weight f4 [20, 20]
0	0x3d536a3f	0.051614996
1	0x3e280b55	0.16410573
2	0x3e43b0df	0.1911044
3	0x3e44dd71	0.19225098
4	0xbd223efb	-0.039610844
5	0xbe76b98a	-0.24094215
6	0x3daeec14	0.08541122
7	0xbe806de2	-0.25083834
8	0x3f01746f	0.5056829
9	0xbe107f7b	-0.1411113
10	0xbe474b3b	-0.19462292
11	0x3ee333b7	0.44375393
12	0x3d08de5d	0.033415187
13	0xbe46c6ff	-0.19411848
14	0x3e6de5a1	0.23232128
15	0xbd5d849a	-0.054081537
16	0x3dac83f6	0.08423607
17	0x3b55982c	0.0032591922
18	0x3d4b8f25	0.04969706
19	0x3e3a99bf	0.18222712
20	0x3e3897ea	0.180267
21	0xbe056a0d	-0.13028736
22	0x3d6fe5ac	0.05856864
23	0x3e027bb4	0.12742501
24	0x3d8c3625	0.06846265
25	0xbe4e1626	-0.20125636
26	0x3e53650e	0.20644018
27	0x3d77e98c	0.060525462
28	0xbe1670b8	-0.14691436
29	0x3e22bd5b	0.15892546
30	0xbc43c427	-0.011948622
31	0xbe38d7f9	-0.18051137
32	0x3d331f15	0.043730814
33	0xbe39f1b6	-0.18158612
34	0xbdf2a566	-0.118479535
35	0xbdfa94e5	-0.12235431
36	0xbd38a68b	-0.045080703
37	0x3b9f3391	0.004858442
38	0xbc0fd853	-0.008779603
39	0x3d5a20c4	0.053253904
40	0x3e1d5e69	0.15368046
41	0x3e043f51	0.12914778
42	0xbd6785f2	-0.056524225
43	0x3e6a9a24	0.22910362
44	0xbe14d271	-0.14533402
45	0xbe10554c	-0.14095038
46	0xbd9a31f9	-0.07529063
47	0xbc53c99f	-0.012926488
48	0xbcc857ee	-0.02445599
49	0x3e888d7e	0.2667045
50	0x3dcf8823	0.10133388
51	0x3e0e52f3	0.1389883
52	0x3d0b69dc	0.034036502
53	0x3d1bb7e2	0.03801716
54	0x3c4c037f	0.012452005
55	0xbe86f6c6	-0.26360148
56	0x3e408ce9	0.18803753
57	0xbe53f3a6	-0.20698413
58	0x3d77c6e6	0.06049242
59	0x3c1e6ddb	0.009669746
60	0x3e71f9dd	0.23630472
61	0xbe58b879	-0.2116412
62	0xbd7ee689	-0.062231574
63	0x3e3c08e4	0.18362767
64	0xbe54b206	-0.20771036
65	0x3daece46	0.08535437
66	0xbe3c8839	-0.1841134
67	0xbd8666bd	-0.065625645
68	0xbd8635ae	-0.06553207
69	0x3d3cf57b	0.046132546
70	0xbdd4e634	-0.1039547
71	0x3e5648fe	0.20926282
72	0x3da5cede	0.080960974
73	0xbdf23779	-0.11826987
74	0xbddfde3c	-0.1093106
75	0xbd2e4315	-0.042544443
76	0x3e194228	0.14966643
77	0xbe1adc27	-0.15123044
78	0xbda95421	-0.082679994
79	0xbe3771e8	-0.17914546
80	0xbda33faf	-0.07971131
81	0x3ebedc4d	0.3727745
82	0xbd49c3b4	-0.049258903
83	0x3ee282df	0.44240472
84	0x3e485c35	0.19566424
85	0x3c636503	0.013879064
86	0xbe69466c	-0.2278077
87	0xbe358600	-0.17726898
88	0x3f53c025	0.82715064
89	0x3cb75173	0.022377705
90	0xbdb2d71d	-0.08732436
91	0x3f1b8b7a	0.607597
92	0x3e6cf573	0.23140506
93	0xbe1c6fbe	-0.15277001
94	0x3ce2bb63	0.027677244
95	0xbe5279b8	-0.20554245
96	0x3d6969c5	0.056985635
97	0x3df479a6	0.11937265
98	0x3eb99002	0.36242682
99	0x3e157d8c	0.14598674
100	0x3e1634ed	0.14668627
101	0x3e4440e3	0.19165377
102	0xbe0109d9	-0.12601413
103	0x3eaaf432	0.3338943
104	0x3ed30b8c	0.41219747
105	0xbe3772dd	-0.1791491
106	0xbdfc2451	-0.12311614
107	0x3cf3f15f	0.02977818
108	0x3e081772	0.13290194
109	0xbe03c1d1	-0.12866904
110	0xbdc0da5a	-0.09416647
111	0x3e97efb9	0.2967508
112	0x3dd76138	0.1051659
113	0x3ec18dc8	0.37803483
114	0xbe8c5ec1	-0.27416041
115	0x3d681902	0.056664474
116	0xbe659199	-0.22418822
117	0xbe93205c	-0.28735626
118	0x3ed98d28	0.42490506
119	0x3eb2a7f9	0.34893778
120	0xbe339d4f	-0.17540477
121	0xbdf31473	-0.11869135
122	0x3e47c600	0.19509125
123	0x3e747f88	0.23876774
124	0x3e710b37	0.23539434
125	0xbd88f3a5	-0.066870965
126	0xbd121732	-0.035666652
127	0xbcd6bd15	-0.026213208
128	0xbe15f854	-0.14645511
129	0x3e2aed45	0.16692074
130	0x3d4f0e71	0.05055088
131	0xbd93c72b	-0.07215723
132	0x3e075a77	0.13218103
133	0x3e097653	0.13424043
134	0x3c93f45d	0.018060857
135	0x3e72b265	0.23700865
136	0xbd933c49	-0.07189233
137	0x3e11b6b0	0.14229846
138	0xbc8bd641	-0.017069938
139	0xbe5d5027	-0.21612607
140	0x3f1a0d6e	0.6017674
141	0x3e2b1649	0.1670772
142	0x3e1ece55	0.15508397
143	0x3e269a87	0.16269885
144	0x3e39629a	0.1810402
145	0x3e809a1d	0.2511758
146	0xbe3fa049	-0.18713488
147	0x3e924d21	0.2857447
148	0x3ee333de	0.4437551
149	0x3f208f89	0.6271902
150	0x3e92e82d	0.2869276
151	0x3f524f84	0.8215258
152	0x3deb6c58	0.11495274
153	0xbe784be4	-0.242477
154	0x3f11b19c	0.56911635
155	0xbe6abdcd	-0.22923966
156	0x3e44bbb8	0.19212234
157	0x3f0adbec	0.54241824
158	0xbea90f33	-0.3301941
159	0xbe85a577	-0.26102802
160	0x3f2d2bf3	0.67645186
161	0x3cb305b8	0.021853313
162	0x3ec1d81b	0.37860188
163	0x3da59d4e	0.08086644
164	0xbe9a0d1f	-0.30088136
165	0x3ea1c607	0.31596395
166	0xbb915b5e	-0.0044359406
167	0x3f0039cd	0.50088197
168	0x3dafe4b7	0.08588546
169	0xbe39e604	-0.1815415
170	0xbecb2d51	-0.3968301
171	0x3d5e3e4c	0.05425863
172	0xbe9c0f7f	-0.30480573
173	0x3dd8d712	0.105878964
174	0x3e985cb8	0.2975824
175	0x3de45cbd	0.11150501
176	0x3e05a618	0.13051641
177	0x3f009767	0.5023102
178	0x3f00cba9	0.5031076
179	0x3cfc0489	0.030763881
180	0x3d1b6444	0.037937418
181	0xbe7eaffd	-0.24871822
182	0x3e89e50a	0.26932555
183	0xbe537261	-0.20649101
184	0x3f0d65a6	0.5523323
185	0xbddc4e45	-0.10757116
186	0x3e982088	0.2971232
187	0xbcb82004	-0.022476204
188	0xbead767a	-0.33879453
189	0xbd6eb5f9	-0.05827901
190	0xbe2df060	-0.16986227
191	0xbe209f23	-0.15685706
192	0xbe13f8f1	-0.14450432
193	0x3ca68dc6	0.020331275
194	0xbd769a22	-0.060205586
195	0x3f2a2b38	0.66472197
196	0xbe10dea4	-0.1414743
197	0xbe57e3a7	-0.21082936
198	0x3e077d39	0.13231362
199	0x3df3fbd8	0.1191327
200	0xbe561efa	-0.20910254
201	0xbe161ed0	-0.14660192
202	0x3eb72d69	0.35776833
203	0xbd2f3086	-0.042770885
204	0x3e860494	0.26175368
205	0xbe546133	-0.20740204
206	0xbdb09ccb	-0.08623656
207	0xbe390dc7	-0.18071662
208	0x3e372618	0.17885625
209	0x3eac5fa7	0.33666727
210	0x3ec0d66f	0.376636
211	0x3e61f58c	0.22066325
212	0xbd99002b	-0.07470735
213	0x3e7dc05b	0.24780409
214	0x3e597afe	0.21238324
215	0xbd29479c	-0.041328058
216	0xbe82e47a	-0.2556494
217	0xbe4026c6	-0.18764791
218	0x3ecfe898	0.40607142
219	0x3e5ff4dc	0.2187075
220	0x3e4d894c	0.20071906
221	0xbdf577eb	-0.11985763
222	0x3e77af03	0.24187855
223	0xbe079581	-0.13240625
224	0xbe68fb43	-0.22752099
225	0x3ede7adb	0.43453106
226	0x3db42f7d	0.0879812
227	0x3e8b948c	0.2726177
228	0x3e18d5c4	0.14925295
229	0x3bf5a912	0.0074969614
230	0xbeb8f0dd	-0.36121264
231	0xbe9178b1	-0.28412393
232	0xbe8af543	-0.27140245
233	0xbe1e9cf2	-0.15489557
234	0x3c8f8c97	0.017523093
235	0x3eaf4f3d	0.34240142
236	0x3e81271c	0.2522515
237	0x3f095504	0.5364535
238	0x3e9659e8	0.29365468
239	0xbd3d9c9b	-0.04629193
240	0xbd41cf13	-0.047316622
241	0xbacfcfd6	-0.0015854787
242	0x3e753ea9	0.23949684
243	0xbdeca4f8	-0.11554903
244	0xbe6407b1	-0.22268559
245	0xbcc63c44	-0.024198659
246	0x3e689819	0.2271427
247	0x3e1c3800	0.15255737
248	0xbdd2cf78	-0.10293478
249	0x3df92d87	0.12166887
250	0xbb8c9a96	-0.004290889
251	0x3e415fe3	0.18884234
252	0xbcb15c4f	-0.021650461
253	0xbe0ba0ba	-0.13635531
254	0x3e7bc570	0.24587035
255	0xbe47fd2b	-0.1953017

bias f4 [20]
0	0x3e28979a	0.16464081
1	0x3cc3d5a4	0.023905583
2	0xbe121d37	-0.14268957
3	0x3bf488f0	0.0074626133
4	0x3e2073d7	0.1566919
5	0x3ea3bd0d	0.31980172
6	0xbdb14398	-0.086554706
7	0x3e85aebf	0.26109883
8	0xbd448521	-0.047978524
9	0x3e3d9e56	0.18517432
10	0x3dd307c2	0.10304214
11	0x3dbff143	0.09372189
12	0xbdf95a07	-0.121753745
13	0xbe1eb85d	-0.15500017
14	0x3ede28fc	0.43390644
15	0x3db090fa	0.08621402
16	0xbc9b0e18	-0.018927619
17	0x3e7b2678	0.24526393
18	0x3e272d42	0.16325858
19	0x3e91d516	0.28482884

weight f4 [20, 20]
0	0xbd90ee3e	-0.07076691
1	0x3d881032	0.06643714
2	0xbe4c1373	-0.19929294
3	0x3df4ecc1	0.1195922
4	0xbe003e8b	-0.12523858
5	0xbe29fd0d	-0.16600437
6	0xbc880aeb	-0.016606769
7	0xbe0f5f23	-0.14001136
8	0xbdc6102b	-0.096710525
9	0xbdde68da	-0.108598426
10	0x3d31be4f	0.043394383
11	0xbd47cc70	-0.04877895
12	0x3e376999	0.17911376
13	0xbe05fcf2	-0.13084772
14	0x3e31e5da	0.17372838
15	0x3c74ac7d	0.014933703
16	0xbca0ecc9	-0.019644158
17	0x3e417441	0.18892004
18	0x3df0500f	0.1173402
19	0xbe25dfe7	-0.16198693
20	0x3dab6b91	0.08370126
21	0x3e270107	0.16308986
22	0x3b0ec434	0.0021784427
23	0x3e0d0cd4	0.13774425
24	0x3c3d78a3	0.011564407
25	0x3ec8c294	0.3921095
26	0xbe217831	-0.15768506
27	0xbecf7b5f	-0.40523812
28	0xbdf418b4	-0.11918774
29	0x3e811d14	0.25217497
30	0xbe0958d4	-0.13412791
31	0xbe8d96da	-0.27654153
32	0x3e2aa96f	0.16666196
33	0xbe3149c3	-0.17313294
34	0x3e5ab1bd	0.21356864
35	0x3e93b8c7	0.2885191
36	0xbd92df1b	-0.0717146
37	0x3d27e66c	0.04099123
38	0xbd91009c	-0.07080194
39	0x3ea20f24	0.31652176
40	0x3db91b84	0.09038451
41	0xbe4fdc6f	-0.20298932
42	0xbe39db52	-0.1815007
43	0x3de75a18	0.11296481
44	0xbe4f8af2	-0.20267847
45	0xbde4336e	-0.11142622
46	0xbd1495a9	-0.03627554
47	0x3efad958	0.48993945
48	0xbc89a54d	-0.016802454
49	0xbd46df00	-0.048552513
50	0x3e901449	0.28140476
51	0x3e4f8771	0.2026651
52	0xbe367d79	-0.17821302
53	0xbe306ebf	-0.17229746
54	0x3b0a0ede	0.002106599
55	0xbcd1b50f	-0.02559903
56	0x3e9a0446	0.30081385
57	0x3e8f6624	0.28007615
58	0x3e287498	0.16450727
59	0xbda8bb74	-0.08238879
60	0x3e1945f0	0.14968085
61	0xbe29e7aa	-0.16592279
62	0xbe412ce4	-0.1886478
63	0xbd9a07e5	-0.07521037
64	0x3ece5b35	0.4030396
65	0x3e988a05	0.297928
66	0x3e1701bf	0.1474676
67	0x3e55c656	0.2087644
68	0xbecf6ebc	-0.4051417
69	0xbb9fb483	-0.0048738136
70	0x3e8fdfcf	0.2810044
71	0xbe8ba80b	-0.27276644
72	0xbe693008	-0.22772229
73	0xbd7ce620	-0.0617429
74	0x3e5e1ab9	0.21689881
75	0xbe495d57	-0.19664513
76	0xbddf2fdd	-0.10897801
77	0xbdbe4d08	-0.09292036
78	0xbe05a6ef	-0.13051961
79	0xbe33d104	-0.17560202
80	0x3e45f2e2	0.19330934
81	0x3e09426f	0.13404249
82	0x3cb0724d	0.021538878
83	0xbe3d7c53	-0.18504457
84	0x3ed28efc	0.41124713
85	0x3e5c887f	0.21536444
86	0xbdf6793e	-0.12034844
87	0xbcbd9400	-0.023141861
88	0x3d7f084c	0.062263772
89	0x3c443a3d	0.011976776
90	0xbe0db6e5	-0.138393
91	0xbe5da297	-0.21644054
92	0x3de4eae2	0.11177613
93	0x3d97fccf	0.07421266
94	0x3def9d65	0.116999425
95	0xbd313ca4	-0.043270722
96	0xbdc51cc1	-0.09624625
97	0x3e4ddb41	0.2010317
98	0x3d380907	0.044930484
99	0x3e15b548	0.14619935
100	0x3ebbe60f	0.36698958
101	0x3d85cc2b	0.065330826
102	0x3db5c6b0	0.08875787
103	0xbd86c127	-0.0657981
104	0x3f1f564f	0.6224107
105	0x3e3e171b	0.18563502
106	0xbdf28248	-0.118412554
107	0x3e8822f4	0.26589167
108	0xbde3d9b5	-0.11125509
109	0xbeae09e6	-0.33991927
110	0xbebe7f9e	-0.3720674
111	0x3e1fd164	0.1560722
112	0x3e4ed9b3	0.20200233
113	0xbd912f58	-0.07089108
114	0x3f1dc1ff	0.6162414
115	0xbd61d8e5	-0.055138487
116	0xbeab985a	-0.33514673
117	0xbecc28ed	-0.39874974
118	0x3c7022d7	0.014656744
119	0x3da8795b	0.08226272
120	0xbd5d576e	-0.054038458
121	0x3de5c9b3	0.11220112
122	0x3e8924f6	0.2678601
123	0x3e04410b	0.12915437
124	0x3df56cb9	0.11983628
125	0xbe86e18d	-0.26343957
126	0xbe69759d	-0.22798772
127	0x3f192244	0.5981791
128	0x3f3ac581	0.7295762
129	0xbedf1f5b	-0.4357861
130	0xbe9717bc	-0.29510295
131	0x3ed939ca	0.42426902
132	0x3e7a693c	0.24454206
133	0x3e52c0b4	0.20581323
134	0xbdb2d28f	-0.08731567
135	0x3cfc96b9	0.030833589
136	0x3d90c40f	0.07068645
137	0x3e287b5d	0.1645331
138	0xbe2d3688	-0.16915333
139	0x3e3df942	0.18552116
140	0x3ec74ac1	0.3892422
141	0xbd50236e	-0.05081504
142	0x3d58d11e	0.052933805
143	0xbdd381dd	-0.10327504
144	0x3f156aae	0.58365905
145	0xbddf9d76	-0.10918705
146	0xbc0d7be3	-0.008635494
147	0x3f49a526	0.7876762
148	0xbceb59d4	-0.028729357
149	0xbead668d	-0.33867303
150	0x3ddb9d35	0.10723344
151	0xbe853e1a	-0.26023942
152	0xbddded26	-0.10836248
153	0x3e30159b	0.17195742
154	0x3e51ab88	0.2047559
155	0x3e55c36a	0.20875326
156	0xbd9ada44	-0.07561162
157	0x3e8396c9	0.25700977
158	0xbdc1af9f	-0.09457325
159	0xbe9c1ad8	-0.3048923
160	0xbe5e3e46	-0.21703443
161	0x3e2fa586	0.17152986
162	0xbe608012	-0.21923855
163	0xbdc70994	-0.09718624
164	0xbec0e754	-0.3767649
165	0x3e77366d	0.24141856
166	0x3ea29b10	0.31758928
167	0x3d16aac7	0.03678396
168	0x3ed23507	0.41056082
169	0x3edfb0d9	0.43689612
170	0xbd9509ab	-0.07277235
171	0x3ed5cdea	0.41758662
172	0x3df0ad3c	0.11751792
173	0x3e3e9ca3	0.1861444
174	0x3ee074e6	0.43839186
175	0x3f02c5e5	0.51083213
176	0x3c69a4ab	0.014260451
177	0xbe12ec20	-0.14347887
178	0xbdcf44d2	-0.10120548
179	0x3e6102b9	0.21973695
180	0xbdfe657c	-0.124217
181	0xbe162df1	-0.14665963
182	0x3dc9b211	0.098484166
183	0x3e5d53b5	0.21613963
184	0xbe89b0ec	-0.26892793
185	0xbe173543	-0.14766411
186	0x3e3a6e90	0.18206239
187	0xbe1fb04b	-0.15594594
188	0xbe1f04e5	-0.15529211
189	0x3e999f53	0.30004367
190	0xbe733773	-0.23751621
191	0x3e2c9ea2	0.16857389
192	0xbe15d412	-0.1463168
193	0x3d0ed321	0.034869317
194	0xbe11c4df	-0.14235257
195	0x3ecac82a	0.39605838
196	0x3c1f4ce3	0.009722921
197	0x3e68bfb5	0.2272938
198	0xbc30fa77	-0.010801903
199	0x3e2514c8	0.16121209
200	0x3e7c5f7f	0.24645804
201	0xbe089071	-0.1333635
202	0xbdbf3a7c	-0.09337327
203	0xbc2d16db	-0.010564531
204	0x3edb0fef	0.42785594
205	0x3e1ee991	0.15518786
206	0x3e90e205	0.2829744
207	0x3e976d76	0.295757
208	0xbcee4ac0	-0.029088378
209	0xbe5e218a	-0.21692482
210	0x3cae1b4a	0.021253247
211	0xbeaa92e6	-0.333152
212	0xbe91c488	-0.28470254
213	0xbc172af2	-0.009226548
214	0x3eca25a7	0.3948185
215	0x3e6e2ebb	0.23260014
216	0x3c4a3aa8	0.012343086
217	0xbe2d1a8e	-0.16904661
218	0xbe37ffca	-0.1796867
219	0xbe42921c	-0.19001049
220	0x3dc5fc8a	0.09667309
221	0xbb98205e	-0.0046425303
222	0xbe1972a8	-0.14985144
223	0x3e09a95d	0.13443513
224	0xbe5098b9	-0.20370759
225	0x3d4eebd4	0.050517872
226	0x3c107ee0	0.008819312
227	0x3f274b70	0.65349483
228	0xbeeec26e	-0.46632713
229	0x3ea3c8b0	0.3198905
230	0x3d868e66	0.06570129
231	0xbed06e76	-0.40709275
232	0x3b148014	0.0022659348
233	0xbd094193	-0.033509802
234	0x3d02c2e8	0.03192416
235	0x3ed9b530	0.42521048
236	0x3ee9e7d5	0.45684686
237	0x3e5ffd86	0.21874055
238	0x3e174e96	0.14776072
239	0xbebde0a5	-0.37085453
240	0xbe1b6004	-0.15173346
241	0xbe28def7	-0.16491304
242	0x3d81b93f	0.06334161
243	0x3e5d7583	0.21626858
244	0xbe9f1d82	-0.310772
245	0x3d2928f5	0.041298825
246	0x3d088174	0.03332658
247	0xbea21720	-0.31658268
248	0xbe9ab562	-0.3021651
249	0x3eefb3ff	0.46817014
250	0xbe0c5d5d	-0.1370749
251	0xbe1fa673	-0.15590839
252	0xbcfd3f0d	-0.030913854
253	0xbe3ed298	-0.18635023
254	0x3ee3ad43	0.44468126
255	0x3e9c1c5f	0.30490395

bias f4 [20]
0	0x3bbe74d8	0.0058122687
1	0x3e729033	0.2368782
2	0xbe02c5a4	-0.12770706
3	0xbdb31779	-0.087447114
4	0x3e75ca75	0.24003012
5	0x3e55e0e5	0.20886572
6	0xbd08cba2	-0.033397324
7	0x3e4ff675	0.2030886
8	0x3e3ea222	0.18616536
9	0xbc054aa9	-0.008135476
10	0xbe07641d	-0.13221784
11	0x3eaca5a3	0.3372012
12	0x3e078e6f	0.13237928
13	0x3e61ae91	0.22039248
14	0x3e2ae858	0.16690195
15	0x3d5ecb0f	0.05439287
16	0x3e3f6b73	0.18693332
17	0xbe135f70	-0.14391875
18	0x3e1b06c6	0.15139303
19	0x3d7e7109	0.062119517

weight f4 [10, 20]
0	0xbe092a8d	-0.13395138
1	0x3f241103	0.6408846
2	0xbe7bdf8e	-0.24596998
3	0xbe3780a6	-0.17920169
4	0x3dfb860b	0.12281426
5	0xbd3f5139	-0.04670832
6	0xbf017047	-0.50561947
7	0xbe89b4a7	-0.2689564
8	0x3ee06cab	0.43832907
9	0x3ec1516b	0.3775743
10	0xbdfc7b6b	-0.123282276
11	0x3eac3cf1	0.33640245
12	0x3f45e3d0	0.7730074
13	0x3df28fdc	0.11843845
14	0xbe4ca654	-0.19985324
15	0xbf1b34e2	-0.6062757
16	0xbe206cfd	-0.15666576
17	0x3e1203ea	0.14259306
18	0xbe83330c	-0.25624883
19	0xbdb349d4	-0.08754316
20	0xbd8cbbd7	-0.06871765
21	0xbcaa47f3	-0.020786261
22	0x3ec942d8	0.3930881
23	0xbe933e57	-0.287585
24	0x3dc6c617	0.097057514
25	0xbe9b16b0	-0.30290747
26	0x3f199d48	0.6000562
27	0x3ed3ff95	0.4140593
28	0xbf29ff11	-0.66404825
29	0x3cb34b0c	0.021886371
30	0xbea73700	-0.3265915
31	0x3e90c4e1	0.28275207
32	0xbe1da1a7	-0.15393697
33	0xbf21431e	-0.6299304
34	0xbce7e274	-0.028306223
35	0xbd4aa374	-0.049472287
36	0x3e117dcc	0.14208144
37	0x3dc2523c	0.09488341
38	0x3ed839b7	0.42231533
39	0xbdad36f6	-0.084577486
40	0xbd8974d4	-0.06711736
41	0xbc64ad17	-0.013957283
42	0x3ebc753a	0.36808187
43	0xbda828ef	-0.082109325
44	0xbe9ea08a	-0.30981857
45	0xbde6b3c5	-0.11264757
46	0xbdb7f25d	-0.08981774
47	0x3e5775b7	0.21040998
48	0x3e591406	0.21199045
49	0x3e531b0b	0.20615785
50	0x3cac43b2	0.021028373
51	0x3f39fa96	0.7264799
52	0xbd76ed77	-0.060285058
53	0xbea0d04d	-0.3140892
54	0xbed305db	-0.41215405
55	0x3dc85bb8	0.09783119
56	0xbf11d43c	-0.5696447
57	0xbe0517f9	-0.12997426
58	0x3eca8df4	0.39561427
59	0x3eb54a23	0.35408124
60	0x3e0cf521	0.13765384
61	0x3daecafb	0.08534809
62	0x3e6e5704	0.23275381
63	0x3ed78208	0.42091393
64	0x3cb42619	0.021990823
65	0xbecc8c72	-0.399509
66	0xbed9e979	-0.42560938
67	0x3dfe758b	0.12424763
68	0xbe87cbb0	-0.2652259
69	0x3e26780f	0.16256736
70	0x3e5a193d	0.2129869
71	0x3ea0d39b	0.31411442
72	0xbe9957f7	-0.29949924
73	0xbebd7c5a	-0.37008935
74	0x3efe2489	0.4963725
75	0x3ca91ea5	0.020644495
76	0x3ef99b96	0.48751515
77	0x3e07d49c	0.13264698
78	0xbf00e7fb	-0.50353974
79	0x3e786638	0.24257743
80	0x3d3c6713	0.045996737
81	0xbe4ee234	-0.20203477
82	0x3ba06ca4	0.0048957635
83	0xbeceefd2	-0.40417343
84	0x3e6dd1fc	0.23224634
85	0x3f0d2830	0.55139446
86	0x3eb10d68	0.3458054
87	0x3db27b17	0.08714884
88	0xbb759fda	-0.0037479312
89	0xbe492881	-0.19644357
90	0xbe104554	-0.14088947
91	0xbeb21793	-0.3478361
92	0xbdb3bb0d	-0.087759115
93	0x3eba9622	0.36442667
94	0xbe501fe4	-0.20324665
95	0x3e71d49f	0.23616265
96	0xbe5a6203	-0.21326451
97	0xbd00492d	-0.031319786
98	0xbc417b1d	-0.011809138
99	0xbdaabb3e	-0.08336495
100	0x3e5e0b66	0.21684036
101	0x3ec7c589	0.39017895
102	0xbdd03709	-0.10166747
103	0x3df9bd06	0.121942565
104	0x3ec197ce	0.3781113
105	0xbe1c5473	-0.1526659
106	0xbec220de	-0.379157
107	0xbf097d31	-0.5370665
108	0xbcdffe6d	-0.027343
109	0xbe6a83d8	-0.22901857
110	0xbe8bdb86	-0.2731592
111	0xbdf2aadb	-0.11848994
112	0xbe8158cc	-0.2526306
113	0x3edc60f2	0.43042713
114	0x3f05099f	0.51967806
115	0x3ea929d8	0.33039737
116	0x3ef556a5	0.47917667
117	0x3db20c07	0.086937
118	0xbebe3010	-0.37146044
119	0xbbb033a7	-0.005377251
120	0x3e40c42a	0.1882483
121	0xbd20f9d8	-0.03930077
122	0x3db9150f	0.0903722
123	0x3c71ab0a	0.014750252
124	0xbe4e3c82	-0.2014027
125	0xbeee44a2	-0.46536738
126	0x3f048b8f	0.5177545
127	0xbf2e6438	-0.6812167
128	0x3eba24cd	0.36356202
129	0x3e587812	0.21139553
130	0xbe8acd42	-0.27109724
131	0xbedf450f	-0.43607375
132	0xbda112f2	-0.07864942
133	0x3eecfbf5	0.46285978
134	0xbf00bbc7	-0.50286525
135	0x3e941760	0.28924084
136	0x3c624e80	0.013812661
137	0x3dc5c9e8	0.09657651
138	0x3e9aa25d	0.30201998
139	0xbe9ccfae	-0.30627197
140	0xbd223c1b	-0.039608102
141	0xbb4dc6a5	-0.003139892
142	0xbe6c104e	-0.23053095
143	0x3ec81b04	0.3908311
144	0x3e934068	0.28760076
145	0x3f1a42f3	0.60258406
146	0xbeb7bfdd	-0.35888568
147	0x3eb93cc0	0.3617916
148	0xbefce130	-0.49390554
149	0xbe73fcb4	-0.23826867
150	0x3f005e16	0.50143564
151	0x3e72524a	0.23664203
152	0xbe59d2dd	-0.21271844
153	0xbe87a70d	-0.26494637
154	0x3e5f56a3	0.21810393
155	0xbeac2775	-0.33623853
156	0xbe93b9c0	-0.28852654
157	0x3dcf1f00	0.10113335
158	0x3e14996a	0.14511648
159	0x3df624c3	0.120187305
160	0x3d1302d6	0.035891376
161	0xbe3013cd	-0.17195053
162	0x3e83887d	0.2569007
163	0xbe2135ac	-0.1574313
164	0x3db798e8	0.089647114
165	0xbf0215e4	-0.5081465
166	0xbd6119b3	-0.05495615
167	0x3e6e07c7	0.23245154
168	0x3e9073df	0.28213403
169	0xbde179a2	-0.11009528
170	0xbbee67cf	-0.0072755585
171	0x3d6e2b14	0.05814655
172	0xbe10a153	-0.1412404
173	0x3ce844b6	0.028353076
174	0x3d38065c	0.04492794
175	0x3e455e8a	0.19274345
176	0x3e6c491d	0.23074766
177	0x3d4a5028	0.04939285
178	0xbe3a0fdb	-0.18170111
179	0x3ea60759	0.3242748
180	0x3c8c8cb4	0.017156936
181	0xbdea2fdc	-0.1143491
182	0x3c697358	0.0142486915
183	0x3e66427b	0.22486298
184	0x3e6512c2	0.22370437
185	0x3f0047c4	0.50109506
186	0x3cda9f43	0.02668727
187	0x3e911efc	0.28343952
188	0xbda92657	-0.08259266
189	0xbdcc680e	-0.09980784
190	0x3ebbef83	0.3670617
191	0xbef483a5	-0.47756687
192	0x3d6ecaea	0.058298983
193	0x3e2102a3	0.15723662
194	0x3e9cde6d	0.30638447
195	0xbe3a9c84	-0.18223768
196	0xbe2cbf7a	-0.16869918
197	0x3d229874	0.039696172
198	0x3e1d5fcd	0.15368576
199	0xbdc2ca4a	-0.0951124

bias f4 [10]
0	0x3efb8723	0.4912654
1	0x3d6c152e	0.057637386
2	0x3da668fb	0.08125492
3	0xbd880d9e	-0.06643222
4	0xbe09a6b0	-0.13442492
5	0x3e947d5b	0.2900189
6	0xb9c8787c	-0.0003823674
7	0xbaa2cb4f	-0.001242021
8	0x3e297a5c	0.16550583
9	0xbe8b7647	-0.27238676
