datasets/mnist/partition_noniid-#label_major_classes_num_1_clients_10_dir_alpha_None_augement_data_percent_per_class_0.005_augement_data_with_zeros_250_seed_42/models/batch_size_256_com_round_25_epochs_5_lr_0.1_sample_ratio_0.9_personalization_steps_25_model_tinymlp/client_0.pt (torch, 70415 bytes, 8 tensors)

weight f4 [20, 784]
-0.0002673864 0.0191587 -0.029394465 -0.026283538 -0.013755515 0.009577049 -0.0007076137 0.028317487
-0.0031694302 0.009450449 -0.0107933255 -0.007020192 -0.03408097 -0.023533717 -0.014683699 0.001324592
0.014119115 0.021429386 -0.024212183 -0.015552245 0.012972042 0.029656714 -0.0073500066 0.026725428
-0.0057565486 0.003779075 0.032338437 -0.033131085 -0.0224835 -0.009041617 -0.013921428 0.030857172
-0.02314882 -0.016473327 -0.025520878 -0.03405449 -0.020334614 0.03128335 0.016287554 0.0183937
0.0030999265 -0.019338181 0.003754156 -0.033855263 -0.025800705 -0.01833795 0.023024332 0.021405283
-0.01566842 -0.0038774223 0.021631947 0.03552954 0.014174367 0.004824745 0.02394594 -0.021028655
0.0066551436 -0.027689483 -0.024752814 -0.018436797 0.016184643 0.013950703 -0.021669433 0.009289038
0.021581639 0.0034257341 0.011617196 0.01870663 0.032512713 0.05180597 -0.011200388 0.00039223724
0.026211647 0.03862237 0.036486328 0.03845885 0.011820456 -0.028244406 0.0029074538 -0.021801984
-0.033110563 0.031756308 0.027155707 -0.035626 0.006684718 -0.006016429 -0.0058761206 -0.016234325
0.014223033 -0.020358518 0.014776657 0.016988745 0.02728019 0.015373255 -0.032529663 -0.022752536
0.012921634 0.005510041 -0.044126987 -0.035021875 0.021976696 0.023383934 0.0011078987 0.022871982
0.003616934 0.03180607 -0.0042676725 -0.01892589 0.0022089358 0.005900062 -0.014566867 0.02119206
-0.02173354 0.032406285 0.024481101 -0.030117681 -0.007842537 0.0048859483 0.007128809 -0.002697734
0.0019125129 -0.009867855 -0.01971664 -0.01674399 -0.062235177 -0.038441926 -0.0039937603 -0.036010303
-0.018977968 -0.05320506 -0.025587836 0.014591731 0.0007020392 0.030126816 0.058423843 0.022905732
0.01639876 0.0017052925 0.0075886543 0.022936504 0.03383022 0.02268057 0.033931572 -0.0027307288
-0.03050935 -0.015985325 0.019325474 -0.03155621 -0.059855014 -0.052453455 -0.055455167 -0.07522308
-0.048966877 0.0010860036 0.025587052 -0.0513516 0.0019209085 -0.037434287 -0.020871853 0.0084987255
0.011786031 0.017311526 -0.013441047 0.008749593 0.01647721 0.0039830217 -0.015259881 0.013903557
-0.032144945 -0.002409753 0.031469557 -0.016693506 0.029786326 -0.0015851334 -0.06448915 -0.007968604
-0.02876898 -0.008477371 0.028152436 -0.04026098 -0.038786776 -0.026649449 0.004840671 0.00025658318
0.0033378962 0.025005845 -0.0055607376 0.006092352 0.013794991 0.02692575 0.030168638 0.04811354
-0.0109553905 0.0054851105 -0.02474494 -0.019383706 -0.020812247 0.012004371 -0.02102216 -0.008154319
-0.007294432 -0.0033307367 -0.08005673 -0.048590798 -0.019031215 0.01175455 -0.028705627 -0.0011457602
-0.029309638 -0.02638715 -0.025021682 0.012225674 0.045935817 -0.0041475613 -0.027715148 -0.015192859
-0.017170021 -0.019984704 0.03041368 -0.0053074127 0.024611125 0.051072128 0.012418311 0.001077241
-0.031301517 0.017436221 -0.027276602 -0.017428415 -0.023741508 -0.043444842 -0.048469163 0.0037830013
-0.015873479 -0.018481208 -0.012907145 -0.05154322 -0.030430626 -0.041844804 -0.04006451 -0.01502053
-0.0052187806 -0.003230439 -0.02128076 -0.00779795 0.027190566 -0.04193314 -0.0006553161 -0.012500361
0.035421252 0.010297448 -0.01963277 0.0051851175 0.029527232 -0.011253696 -0.027926067 -0.022506494
00000000: ff2f 8cb9 b5f2 9c3c a9cc f0bc 9350 d7bc
00000010: d05e 61bc 0ee9 1c3c 277f 39ba 13fa e73c
00000020: 37b6 4fbb 0ed6 1a3c 7dd6 30bc a409 e6bb
00000030: 7d98 0bbd c8c9 c0bc e693 70bc ef9d ad3a
00000040: dc53 673c ae8c af3c a158 c6bc d8ce 7ebc
00000050: b088 543c a3f2 f23c 53d8 f0bb 49ef da3c
00000060: 6ea1 bcbb 5caa 773b 4f75 043d 76b4 07bd
00000070: 512f b8bc 4a23 14bc b316 64bc 2ec8 fc3c
00000080: 98a2 bdbc 12f3 86bc 2911 d1bc b97c 0bbd
00000090: c794 a6bc f822 003d 7a6d 853c 62ae 963c
000000a0: 2328 4b3b 1b6b 9ebc 4908 763b d1ab 0abd
000000b0: 005c d3bc 7839 96bc 869d bc3c 225a af3c
000000c0: 0f5b 80bc 5a1c 7ebb 7b35 b13c 6c87 113d
000000d0: 9b3b 683c e518 9e3b 472a c43c 4944 acbc
000000e0: 6413 da3b 0ed5 e2bc 6ac6 cabc c408 97bc
000000f0: a895 843c 7d91 643c 1884 b1bc 0d31 183c
00000100: facb b03c 4882 603b 0d56 3e3c a63e 993c
00000110: 0d2c 053d 7f32 543d d581 37bc 31a5 cd39
00000120: cfb9 d63c 7e32 1e3d b072 153d 0787 1d3d
00000130: 96aa 413c d060 e7bc fb8a 3e3b 139a b2bc
00000140: f19e 07bd e712 023d a575 de3c 92ec 11bd
00000150: 7b0b db3b 7725 c5bb 798c c0bb d9fd 84bc
00000160: b907 693c e8c6 a6bc cb19 723c fb2b 8b3c
00000170: b47a df3c 1be0 7b3c d33d 05bd 8763 babc
00000180: 43b5 533c 938d b43b 80be 34bd 1973 0fbd
00000190: 7908 b43c aa8f bf3c e936 913a 065e bb3c
000001a0: 150a 6d3b 1547 023d d5d7 8bbb 780a 9bbc
000001b0: cbc3 103b 4f55 c13b dea9 6ebc f99a ad3c
000001c0: 890a b2bc 74bc 043d 978c c83c 5bb9 f6bc
000001d0: fc7d 00bc 4e1a a03b c998 e93b 77cc 30bb
000001e0: 49ad fa3a c9ac 21bc ca84 a1bc b12a 89bc
000001f0: 50ea 7ebd 4875 1dbd 17de 82bb 8a7f 13bd
00000200: af77 9bbc 8ded 59bd 959d d1bc 2812 6f3c
00000210: 0e09 383a 83cc f63c d74d 6f3d cda4 bb3c
00000220: b156 863c 1f84 df3a 3faa f83b 56e5 bb3c
00000230: 8f91 0a3d 9acc b93c d5fb 0a3d 07f6 32bb
00000240: bfee f9bc a8f3 82bc 7550 9e3c 1641 01bd
00000250: 882a 75bd 6fd9 56bd f524 63bd 8f0e 9abd
00000260: 7e91 48bd 3c58 8e3a f09b d13c 0e56 52bd
00000270: fec6 fb3a b254 19bd 73fb aabc 3d3e 0b3c
00000280: 321a 413c e7d0 8d3c d637 5cbc 745a 0f3c
00000290: 37fb 863c 0284 823b 9404 7abc bfcb 633c
000002a0: 6baa 03bd f2ec 1dbb 39e6 003d d2c0 88bc
000002b0: 7402 f43c 40c4 cfba e312 84bd bf8e 02bc
000002c0: edac ebbc ace4 0abc f09f e63c b3e8 24bd
000002d0: e2de 1ebd f24f dabc 7e9e 9e3b 0386 8639
000002e0: 9bc0 5a3b 0fd9 cc3c d936 b6bb 5aa2 c73b
000002f0: 6304 623c 6493 dc3c 3824 f73c b412 453d
00000300: 3d7e 33bc 71bc b33b e7b5 cabc 94ca 9ebc
00000310: 727e aabc fbad 443c aa36 acbc b199 05bc
00000320: 2106 efbb 7d48 5abb c8f4 a3bd 2507 47bd
00000330: 5ae7 9bbc 2896 403c 1028 ebbc 552d 96ba
00000340: c41a f0bc dd29 d8bc 45fa ccbc 324e 483c
00000350: 3227 3c3d 44e8 87bb e10a e3bc 78eb 78bc
00000360: 25a8 8cbc f6b6 a3bc 1c26 f93c cee9 adbb
00000370: 459d c93c 0231 513d 2c76 4b3c 3632 8d3a
00000380: 0536 00bd 68d6 8e3c 2e73 dfbc 09c6 8ebc
00000390: 8d7d c2bc 38f3 31bd 9a87 46bd 3bec 773b
000003a0: 1909 82bc e765 97bc 7d78 53bc fc1e 53bd
000003b0: a649 f9bc 7565 2bbd af1a 24bd ab18 76bc
000003c0: 4e02 abbb c6b5 53bb fd54 aebc f285 ffbb
000003d0: c0be de3c 16c2 2bbd 85c9 2bba 50ce 4cbc
000003e0: e015 113d a1b6 283c e7d4 a0bc ebe7 a93b
000003f0: 18e3 f13c 6c61 38bc 35c5 e4bc 8a5f b8bc

bias f4 [20]
0.38244873 0.11287857 0.13508879 0.17825651 0.17063268 0.1764842 0.095276035 0.11184109
0.37888318 0.0035154938 -0.05275586 0.43828672 0.02507247 0.10768292 0.0693618 0.036566593
0.116844274 0.1124223 0.35343257 0.2222926
00000000: 52d0 c33e e12c e73d b754 0a3e e088 363e
00000010: 55ba 2e3e 46b8 343e 1520 c33d f10c e53d
00000020: fafc c13e 3364 663b 8716 58bd 1e67 e03e
00000030: c864 cd3c dd88 dc3d 8f0d 8e3d dac6 153d
00000040: 0d4c ef3d aa3d e63d 1df5 b43e aca0 633e

weight f4 [20, 20]
0.05322492 0.1642406 0.19323255 0.19265376 -0.039517205 -0.23927686 0.08639154 -0.24932109
0.506373 -0.1399124 -0.19440973 0.44396645 0.03347106 -0.19406119 0.23278269 -0.0511736
0.08493581 0.004776448 0.051076073 0.18229645 0.18036316 -0.13027745 0.058709417 0.12750699
0.06861679 -0.20118417 0.20653418 0.06055552 -0.14688474 0.15900996 -0.01192216 -0.18048964
0.04376439 -0.18157256 -0.118457824 -0.1220587 -0.04504471 0.004888143 -0.008675483 0.05328797
0.15358044 0.129139 -0.056699246 0.22909212 -0.14534141 -0.14106004 -0.07539035 -0.012990211
-0.024486475 0.26655126 0.10129758 0.138944 0.034019426 0.037998043 0.012405216 -0.2637234
0.187946 -0.20699488 0.060326185 0.009656531 0.23621987 -0.21163492 -0.062347826 0.18363106
-0.2076879 0.08527535 -0.18415688 -0.06569511 -0.06555769 0.04602727 -0.103974186 0.20923498
0.08097619 -0.11827097 -0.10935041 -0.04259896 0.1496145 -0.15127295 -0.08275837 -0.17914934
-0.07692783 0.37301055 -0.045574233 0.44298527 0.19563545 0.01679861 -0.22620353 -0.17456469
0.82838166 0.024474882 -0.086914994 0.60794616 0.23145767 -0.15266725 0.02844682 -0.2007505
0.058179285 0.12210245 0.3649108 0.14606142 0.14871068 0.191905 -0.123042144 0.3346474
0.41392237 -0.17712456 -0.12161857 0.031267267 0.13348863 -0.12738796 -0.093821496 0.29699975
0.10536577 0.37835747 -0.27364606 0.062036023 -0.2232587 -0.28628486 0.427371 0.3492419
-0.17562863 -0.11867491 0.1948643 0.23896919 0.23600216 -0.06717271 -0.03572057 -0.026500862
-0.14656119 0.16668634 0.05050107 -0.07219483 0.13226922 0.13425705 0.01796581 0.23745461
-0.07210468 0.14202407 -0.01741521 -0.21607314 0.60209066 0.16693768 0.15518636 0.16184457
0.17816398 0.25196376 -0.18714027 0.28682002 0.4438923 0.62820345 0.2870612 0.821521
0.11455849 -0.24280599 0.56946266 -0.23178591 0.19231497 0.54337555 -0.33075932 -0.26140234
0.67164373 0.021226248 0.37126774 0.07832425 -0.30624223 0.31106782 -0.008554969 0.49706227
0.08449812 -0.18534 -0.39782912 0.05358611 -0.30556485 0.10535219 0.29621974 0.096693635
0.12871353 0.4994235 0.4988633 0.029965306 0.038460642 -0.24849238 0.2705769 -0.20530127
0.55590034 -0.10728476 0.29804444 -0.02262698 -0.33877322 -0.058118116 -0.16969202 -0.15671803
-0.14402612 0.020674895 -0.06015876 0.66975605 -0.14143205 -0.2112733 0.13308193 0.11961056
-0.20759909 -0.14651833 0.3600556 -0.04278666 0.2620028 -0.20559429 -0.08493246 -0.17949416
0.17895155 0.33822572 0.37706006 0.22082601 -0.07479665 0.24792838 0.21300808 -0.038597345
-0.2546911 -0.18728566 0.40800995 0.21880305 0.1962696 -0.12037528 0.23509632 -0.13428846
-0.23171179 0.42987135 0.084243864 0.26904956 0.14808403 0.0038619586 -0.362192 -0.28477436
-0.2719161 -0.15541327 0.016181279 0.3298468 0.2503442 0.5339518 0.28924954 -0.046977643
-0.04755534 -0.0015982952 0.23909058 -0.11557859 -0.2227787 -0.02449187 0.22691312 0.15234919
-0.10296404 0.121338785 -0.004392333 0.18878642 -0.021657838 -0.13638796 0.24574962 -0.19578233
00000000: 6002 5a3d b02e 283e c1de 453e 0747 453e
00000010: cbdc 21bd fe04 75be 0cee b03d 074e 7fbe
00000020: a9a1 013f 3245 0fbe 5813 47be 924f e33e
00000030: f318 093d fab7 46be 965e 6e3e 699b 51bd
00000040: d3f2 ad3d c083 9c3b 2535 513d ecab 3a3e
00000050: 1fb1 383e 7467 05be 4979 703d 3191 023e
00000060: f686 8c3d 3903 4ebe b27d 533e 1109 783d
00000070: f468 16be 82d3 223e 2a55 43bc 47d2 38be
00000080: 4a42 333d 28ee 39be 049a f2bd e9f9 f9bd
00000090: cd80 38bd b72c a03b 9d23 0ebc 7d44 5a3d
000000a0: 3144 1d3e 043d 043e 783d 68bd 2097 6a3e
000000b0: 61d4 14be 0b72 10be 4166 9abd e5d4 54bc
000000c0: dc97 c8bc 6879 883e 1b75 cf3d 5647 0e3e
000000d0: f457 0b3d d6a3 1b3d 3f3f 4b3c c106 87be
000000e0: eb74 403e 77f6 53be 9718 773d 6d36 1e3c
000000f0: 9fe3 713e d3b6 58be 6f60 7fbd c809 3c3e
00000100: 23ac 54be d8a4 ae3d 9f93 3cbe 288b 86bd
00000110: 1c43 86bd 1787 3c3d 6bf0 d4bd b241 563e
00000120: d8d6 a53d 0d38 f2bd 1cf3 dfbd 3f7c 2ebd
00000130: 8b34 193e 4ce7 1abe 387d a9bd ed72 37be
00000140: 578c 9dbd 3dfb be3e 0cac 3abd f7ce e23e
00000150: a954 483e 3d9d 893c e6a1 67be 16c1 32be
00000160: d210 543f 8c7f c83c 7d00 b2bd 5ca2 1b3f
00000170: 3d03 6d3e ce54 1cbe 4e09 e93c 8a91 4dbe
00000180: 674d 6e3d d910 fa3d 97d5 ba3e 2091 153e
00000190: 9d47 183e bf82 443e 85fd fbbd e756 ab3e
000001a0: a2ed d33e 2460 35be 2813 f9bd 1b12 003d
000001b0: 3eb1 083e fd71 02be 7c25 c0bd 5a10 983e
000001c0: 02ca d73d 12b8 c13e 561b 8cbe 7c19 7e3d
000001d0: ee9d 64be ee93 92be 5fd0 da3e d6cf b23e
000001e0: fed7 33be d50b f3bd 828a 473e 57b4 743e
000001f0: 8daa 713e d991 89bd bb4f 12bd 5618 d9bc
00000200: 2314 16be d3af 2a3e 36da 4e3d e2da 93bd
00000210: 9571 073e ae7a 093e 092d 933c 4d27 733e
00000220: 9eab 93bd c26e 113e 58aa 8ebc 4742 5dbe
00000230: 9d22 1a3f b6f1 2a3e 2ce9 1e3e 95ba 253e
00000240: 9e70 363e 6501 813e b3a1 3fbe 13da 923e
00000250: da45 e33e f1d1 203f b0f9 923e 334f 523f
00000260: a49d ea3d 22a2 78be 4ec8 113f 4959 6dbe
00000270: 37ee 443e a91a 0b3f 4959 a9be 87d6 85be
00000280: d8f0 2b3f abe2 ad3c ce16 be3e 7768 a03d
00000290: c8cb 9cbe 4844 9f3e 242a 0cbc f27e fe3e
000002a0: 5a0d ad3d c5c9 3dbe 42b0 cbbe 1c7d 5b3d
000002b0: ff72 9cbe e4c2 d73d 1daa 973e 5007 c63d
000002c0: 7bcd 033e 70b4 ff3e 036b ff3e cd79 f53c
000002d0: e888 1d3d c974 7ebe 0e89 8a3e 7f3a 52be
000002e0: 7c4f 0e3f 1db8 dbbd 4899 983e 375c b9bc
000002f0: af73 adbe 430d 6ebd bfc3 2dbe b17a 20be
00000300: 957b 13be 665e a93c 0869 76bd 2275 2b3f
00000310: 90d3 10be 0758 58be a146 083e 62f6 f43d
00000320: db94 54be e708 16be 3559 b83e 1141 2fbd
00000330: 3b25 863e 4f87 52be 12f1 adbd 51cd 37be
00000340: 133f 373e ec2b ad3e 040e c13e 3720 623e
00000350: fc2e 99bd f0e0 7d3e ca1e 5a3e 4018 1ebd
00000360: df66 82be d0c7 3fbe aee6 d03e e80d 603e
00000370: e6fa 483e 5187 f6bd 17bd 703e ea82 09be
00000380: db45 6dbe 1918 dc3e 0c88 ac3d ddc0 893e
00000390: 57a3 173e ea18 7d3b 3b71 b9be f2cd 91be
000003a0: 9638 8bbe a824 1fbe 9a8e 843c aee1 a83e
000003b0: 1d2d 803e 11b1 083f 8418 943e a16b 40bd
000003c0: 63c9 42bd e37d d1ba 29d4 743e 78b4 ecbd
000003d0: 1920 64be 2da3 c8bc ea5b 683e 6d01 1c3e
000003e0: d0de d2bd 7880 f83d 8fed 8fbb 3a51 413e
000003f0: c76b b1bc 49a9 0bbe caa5 7b3e 2a7b 48be

bias f4 [20]
0.16584717 0.024003318 -0.14278474 0.007411852 0.15872867 0.32159853 -0.08660325 0.26079535
-0.0526111 0.18629089 0.104168944 0.08959898 -0.12197278 -0.15500948 0.4362327 0.087885715
-0.019319454 0.24555676 0.16329646 0.28284127
00000000: d7d3 293e 9ba2 c43c 2a36 12be 1fdf f23b
00000010: c589 223e 90a8 a43e 0b5d b1bd f886 853e
00000020: bd7e 57bd 0ac3 3e3e 8756 d53d ac7f b73d
00000030: ddcc f9bd ceba 1ebe e459 df3e 6dfd b33d
00000040: d543 9ebc 3b73 7b3e 3037 273e 92d0 903e

weight f4 [20, 20]
-0.07076691 0.06643714 -0.19929294 0.1195922 -0.12523858 -0.16600437 -0.016606769 -0.14001136
-0.096710525 -0.108598426 0.043394383 -0.04877895 0.17911376 -0.13084772 0.17372838 0.014933703
-0.019644158 0.18892004 0.1173402 -0.16198693 0.08419371 0.16319561 0.002179838 0.13776119
0.012341324 0.39394215 -0.15612416 -0.40366805 -0.11704159 0.25620663 -0.1329217 -0.27422106
0.16667676 -0.17313083 0.21604662 0.29160953 -0.07059878 0.042546343 -0.0707856 0.31895053
0.09014452 -0.20301291 -0.18148541 0.112959154 -0.20307834 -0.112348825 -0.037009772 0.48941794
-0.017604258 -0.05036691 0.28090417 0.20175406 -0.17813347 -0.17229837 0.00084852375 -0.0270429
0.3005199 0.27957535 0.16449651 -0.08342599 0.14954005 -0.16593564 -0.18864147 -0.075207934
0.40274733 0.29750225 0.1472183 0.20848551 -0.40534982 -0.0054271007 0.28071874 -0.27298138
-0.22771928 -0.06174345 0.21642494 -0.19709574 -0.109083325 -0.093197376 -0.13052653 -0.17593351
0.19372766 0.13414395 0.021572806 -0.18503118 0.4119401 0.2164419 -0.11915638 -0.020475304
0.06595103 0.015126983 -0.13730073 -0.21294053 0.11200735 0.07421263 0.11874785 -0.041164342
-0.09480521 0.20298281 0.044954494 0.14906067 0.36747962 0.065380886 0.08876381 -0.06578234
0.62326443 0.18612199 -0.11736336 0.26918602 -0.10745895 -0.33794534 -0.37173906 0.15969382
0.20211957 -0.07089177 0.61814296 -0.053427786 -0.33442295 -0.39789963 0.014707119 0.08457488
-0.05469634 0.111994274 0.267837 0.12912743 0.11886554 -0.2657217 -0.23043485 0.5941907
0.72384584 -0.44242132 -0.29707822 0.41854334 0.24425684 0.2058119 -0.09077348 0.02614998
0.0680404 0.16117892 -0.16917953 0.18055463 0.38974681 -0.050611444 0.053025138 -0.10324813
0.58444935 -0.10873453 -0.007277604 0.7926828 -0.023153976 -0.33556226 0.10839436 -0.25504312
-0.10776975 0.17195605 0.20649835 0.21098273 -0.07338927 0.25960287 -0.09453645 -0.30151835
-0.21708377 0.17147055 -0.21930568 -0.0971957 -0.37680987 0.24173681 0.31749213 0.03516045
0.40841082 0.4365384 -0.07298277 0.41571215 0.11724089 0.18614566 0.43844917 0.5108437
0.013473083 -0.14437552 -0.10121558 0.21863727 -0.12424618 -0.14667708 0.09846864 0.21613885
-0.2689876 -0.14748816 0.1819784 -0.15717873 -0.15721191 0.29969242 -0.23770685 0.16691302
-0.14648697 0.03486991 -0.14233069 0.39609712 0.009125756 0.22654703 -0.0108114015 0.16014397
0.24645388 -0.13335682 -0.09337413 -0.010561564 0.42780817 0.15514655 0.2831235 0.2961771
-0.028499357 -0.216562 0.021235814 -0.3325599 -0.28469062 -0.009227335 0.39500102 0.23289344
0.012483788 -0.16895156 -0.17968582 -0.18967177 0.0972065 -0.0044229627 -0.14979514 0.1344651
-0.2029578 0.052171864 0.010832208 0.6570845 -0.46202835 0.3251356 0.06728244 -0.4027016
0.002617634 -0.033508632 0.03464134 0.42913708 0.45915148 0.22145593 0.14777842 -0.36722907
-0.15114984 -0.16479996 0.06334236 0.2162812 -0.30982506 0.043462444 0.035226665 -0.31482947
-0.30023634 0.47280404 -0.13574849 -0.15362708 -0.030913638 -0.1863483 0.4477178 0.30871856
00000000: 3eee 90bd 3210 883d 7313 4cbe c1ec f43d
00000010: 8b3e 00be 0dfd 29be eb0a 88bc 235f 0fbe
00000020: 2b10 c6bd da68 debd 4fbe 313d 70cc 47bd
00000030: 9969 373e f2fc 05be dae5 313e 7dac 743c
00000040: c9ec a0bc 4174 413e 0f50 f03d e7df 25be
00000050: c06d ac3d c01c 273e 9ddb 0e3b 4511 0d3e
00000060: 4433 4a3c c9b2 c93e 03df 1fbe 94ad cebe
00000070: 80b3 efbd 842d 833e a01c 08be b466 8cbe
00000080: 50ad 2a3e 3549 31be 533b 5d3e d84d 953e
00000090: 1896 90bd 1345 2e3d 0af8 90bd 7c4d a33e
000000a0: b19d b83d 9ee2 4fbe 50d7 39be 2157 e73d
000000b0: c5f3 4fbe 2417 e6bd 8f97 17bd fd94 fa3e
000000c0: ce36 90bc 884d 4ebd acd2 8f3e 9e98 4e3e
000000d0: 9f68 36be fc6e 30be 776f 5e3a 1289 ddbc
000000e0: bfdd 993e 8024 8f3e c671 283e 3fdb aabd
000000f0: 0721 193e 08eb 29be 3b2b 41be 9e06 9abd
00000100: e634 ce3e 3752 983e 65c0 163e 3a7d 553e
00000110: 038a cfbe d2d5 b1bb 5eba 8f3e 37c4 8bbe
00000120: 3e2f 69be b3e6 7cbd 809e 5d3e 77d3 49be
00000130: 1467 dfbd 44de bebd bfa8 05be ea27 34be
00000140: 8b60 463e 085d 093e 74b9 b03c d078 3dbe
00000150: d0e9 d23e f2a2 5d3e 4308 f4bd d3bb a7bc
00000160: 5511 873d 2ad7 773c 9098 0cbe 150d 5abe
00000170: 1c64 e53d cbfc 973d 1332 f33d f19b 28bd
00000180: 3c29 c2bd bada 4f3e 3422 383d 5ca3 183e
00000190: 4a26 bc3e 6ae6 853d cdc9 b53d e4b8 86bd
000001a0: 428e 1f3f c396 3e3e 345c f0bd c0d2 893e
000001b0: 7013 dcbd 2c07 adbe 9554 bebe c786 233e
000001c0: 6ff8 4e3e b42f 91bd 9e3e 1e3f 18d7 5abd
000001d0: 7c39 abbe 80b9 cbbe 21f6 703c 9835 ad3d
000001e0: 4509 60bd 415d e53d ee21 893e fb39 043e
000001f0: c76f f33d ad0c 88be 1df7 6bbe e21c 183f
00000200: f64d 393f 0c85 e2be a31a 98be 504b d63e
00000210: 771e 7a3e 5bc0 523e 72e7 b9bd 7c38 d63c
00000220: c458 8b3d 160c 253e 663d 2dbe 50e3 383e
00000230: e58c c73e f24d 4fbd e330 593d c173 d3bd
00000240: 799e 153f 36b0 debd f878 eebb 43ed 4a3f
00000250: 68ad bdbc d1ce abbe ddfd dd3d 0395 82be
00000260: 63b6 dcbd 3f15 303e 4e74 533e db0b 583e
00000270: 1d4d 96bd abea 843e 549c c1bd 9d60 9abe
00000280: 354b 5ebe fa95 2f3e ab91 60be 8a0e c7bd
00000290: 39ed c0be db89 773e 548e a23e 6704 103d
000002a0: 391b d13e f681 df3e fe77 95bd 39d8 d43e
000002b0: fe1b f03d f89c 3e3e 697c e03e a7c6 023f
000002c0: 35be 5c3c 2dd7 13be 1d4a cfbd 73e2 5f3e
000002d0: c874 febd 8432 16be eda9 c93d 8153 5d3e
000002e0: beb8 89be 2307 17be 8c58 3a3e 76f3 20be
000002f0: 29fc 20be 4971 993e 6d69 73be 3feb 2a3e
00000300: ae00 16be c0d3 0e3d 23bf 11be 3ecd ca3e
00000310: 3284 153c f2fb 673e 4e22 31bc c8fc 233e
00000320: 685e 7c3e b18e 08be f03a bfbd 690a 2dbc
00000330: ac09 db3e bdde 1e3e 90f5 903e 86a4 973e
00000340: 7c77 e9bc 6ec2 5dbe bbf6 ad3c 4b45 aabe
00000350: f8c2 91be 402e 17bc 933d ca3e 9e7b 6e3e
00000360: cd88 4c3c a301 2dbe 8fff 37be 5139 42be
00000370: 3414 c73d 80ee 90bb e663 19be 38b1 093e
00000380: 2bd4 4fbe 2ab2 553d 9379 313c b136 283f
00000390: fb8e ecbe 2c78 a63e 60cb 893d e72e cebe
000003a0: 9c8c 2b3b 5940 09bd 14e4 0d3d dbb7 db3e
000003b0: e715 eb3e 58c5 623e 3a53 173e 7305 bcbe
000003c0: 06c7 1abe 52c1 28be a4b9 813d d278 5d3e
000003d0: 64a1 9ebe ad05 323d d649 103d 5431 a1be
000003e0: 94b8 99be 5f13 f23e a701 0bbe 6b50 1dbe
000003f0: 993e fdbc 17d2 3ebe 443b e53e 5c10 9e3e

bias f4 [20]
0.0058122687 0.23796073 -0.12815605 -0.08762958 0.2411985 0.20990515 -0.035455298 0.2046551
0.18576297 -0.008483752 -0.13208908 0.33886626 0.13359465 0.21943799 0.16781911 0.05299731
0.1867171 -0.14395742 0.1502863 0.06312582
00000000: d874 be3b faab 733e 573b 03be 2377 b3bd
00000010: bdfc 763e 60f1 563e 9339 11bd 1b91 513e
00000020: a638 3e3e 6fff 0abc 5c42 07be e17f ad3e
00000030: 09cd 083e 5ab4 603e c6d8 2b3e b513 593d
00000040: c432 3f3e 9369 13be a7e4 193e 1c48 813d

weight f4 [10, 20]
-0.13395138 0.6442547 -0.24427983 -0.17860198 0.124405004 -0.045370493 -0.50394714 -0.26717645
0.44846162 0.38044202 -0.12164205 0.33991796 0.77618563 0.12494754 -0.19773439 -0.6028116
-0.15432969 0.14259306 -0.25564608 -0.08418755 -0.06871765 -0.020785699 0.39357987 -0.28759754
0.09715487 -0.30289978 0.6008278 0.41444787 -0.66358864 0.021933008 -0.3265937 0.28307295
-0.15393707 -0.6296297 -0.028094817 -0.048872747 0.14253716 0.09488343 0.42280093 -0.08437623
-0.06711736 -0.014192855 0.36864686 -0.082214616 -0.30990806 -0.11265938 -0.0886169 0.21054189
0.213035 0.20644332 0.020815043 0.7265859 -0.06050853 -0.31331056 -0.41237414 0.098832816
-0.5695015 -0.12997398 0.39632365 0.35409677 0.13765384 0.085089915 0.23266073 0.42081723
0.021836609 -0.39951852 -0.42556196 0.12414871 -0.265737 0.1624618 0.21286845 0.31385225
-0.29964933 -0.37040532 0.49605775 0.020488964 0.48721302 0.13264698 -0.5034729 0.24230962
0.045996737 -0.20201783 0.007003223 -0.40419507 0.23285547 0.553206 0.35136357 0.08911824
0.0016639348 -0.19585566 -0.14038755 -0.34757707 -0.0877474 0.3693325 -0.20284355 0.24062592
-0.21227914 -0.0312828 -0.009009953 -0.08252767 0.21684036 0.39033115 -0.10086155 0.121843934
0.37837058 -0.15282293 -0.37769744 -0.5370907 -0.025311822 -0.22849898 -0.2733767 -0.118643306
-0.25286597 0.43243584 0.52013016 0.3322871 0.4807146 0.086937 -0.37119335 -0.0053334315
0.1882483 -0.04216414 0.083515 0.014744076 -0.2036992 -0.46784276 0.5048187 -0.68538165
0.3428462 0.20659547 -0.27216545 -0.440082 -0.081030175 0.44696125 -0.5056001 0.2757542
0.007216507 0.09653852 0.29610378 -0.31054205 -0.039608102 -0.003255573 -0.23053482 0.39070842
0.28748643 0.60240424 -0.3588945 0.36162683 -0.4940448 -0.23827204 0.50127554 0.2365488
-0.21278067 -0.26506 0.21792708 -0.33625913 -0.28857398 0.10113335 0.1451161 0.12005632
0.035891376 -0.17191733 0.25825027 -0.15748712 0.08988513 -0.5081601 -0.05258847 0.23290016
0.2847606 -0.10948912 -0.0074094115 0.058593363 -0.14129844 0.03045232 0.045355964 0.19510256
0.23226137 0.049393274 -0.18064067 0.32467645 0.017156936 -0.114449516 0.014192935 0.22478274
0.22356425 0.50078535 0.026554171 0.2831738 -0.08293237 -0.099812366 0.36683318 -0.47769818
0.05821912 0.15696225 0.30621752 -0.18235241 -0.16872536 0.03969639 0.15361094 -0.09529871
00000000: 8d2a 09be e0ed 243f 7e24 7abe 70e3 36be
00000010: 0dc8 fe3d 69d6 39bd ae02 01bf 5acb 88be
00000020: c39c e53e 4cc9 c23e 781f f9bd ba09 ae3e
00000030: 1ab4 463f 7fe4 ff3d e27a 4abe dc51 1abf
00000040: 9a08 1ebe ea03 123e 0be4 82be 866a acbd
00000050: d7bb 8cbd c546 aabc 4d83 c93e fc3f 93be
00000060: 22f9 c63d ae15 9bbe dacf 193f 8332 d43e
00000070: f2e0 29bf daac b33c 4a37 a7be f0ee 903e
00000080: aea1 1dbe 692f 21bf 1a27 e6bc ca2e 48bd
00000090: 43f5 113e 3e52 c23d 5d79 d83e 72cd acbd
000000a0: d474 89bd 2689 68bc 48bf bc3e 2360 a8bd
000000b0: 45ac 9ebe f6b9 e6bd c77c b5bd 4b98 573e
000000c0: d925 5a3e e165 533e 4f84 aa3c 8901 3a3f
000000d0: cbd7 77bd 3e6a a0be b422 d3be dc68 ca3d
000000e0: daca 11bf e617 05be efea ca3e 2c4c b53e
000000f0: 21f5 0c3e 9f43 ae3d 9d3e 6e3e 5b75 d73e
00000100: b0e2 b23c b18d ccbe 42e3 d9be ae41 fe3d
00000110: ae0e 88be 635c 263e 30fa 593e 3eb1 a03e
00000120: a36b 99be c4a5 bdbe 48fb fd3e 79d8 a73c
00000130: fc73 f93e 9cd4 073e 9ae3 00bf 0320 783e
00000140: 1367 3c3d c3dd 4ebe 4b7b e53b a8f2 cebe
00000150: aa71 6e3e e99e 0d3f ede5 b33e a083 b63d
00000160: 6318 da3a 638e 48be c1c1 0fbe 9ff5 b1be
00000170: e9b4 b3bd 2619 bd3e 38b6 4fbe a466 763e
00000180: b45f 59be 6522 00bd 7b9e 13bc 4404 a9bd
00000190: 660b 5e3e 7cd9 c73e 8090 cebd 5089 f93d
000001a0: cab9 c13e 9d7d 1cbe 8f61 c1be c77e 09bf
000001b0: bd5a cfbc a3fb 69be 08f8 8bbe 43fb f2bd
000001c0: a677 81be 3b68 dd3e 4027 053f 8921 aa3e
000001d0: 3920 f63e 070c b23d 0e0d bebe 11c4 aebb
000001e0: 2ac4 403e 4eb4 2cbd ea09 ab3d 2391 713c
000001f0: 8696 50be 1689 efbe cc3b 013f 2c75 2fbf
00000200: 8a89 af3e c38d 533e 4559 8bbe 6e52 e1be
00000210: 26f3 a5bd 1bd8 e43e 026f 01bf a82f 8d3e
00000220: 7378 ec3b fdb5 c53d ea9a 973e 5eff 9ebe
00000230: 1b3c 22bd 745b 55bb 5211 6cbe ef0a c83e
00000240: 6c31 933e 2a37 1a3f 05c1 b7be 2727 b93e
00000250: 71f3 fcbe 96fd 73be 9853 003f d939 723e
00000260: 2de3 59be f2b5 87be 4728 5f3e 282a acbe
00000270: f8bf 93be 001f cf3d 5199 143e 17e0 f53d
00000280: d602 133d 190b 30be 6139 843e 4e44 21be
00000290: b215 b83d c816 02bf 0267 57bd 617d 6e3e
000002a0: 24cc 913e d53b e0bd a6ca f2bb 98ff 6f3d
000002b0: 8ab0 10be 2577 f93c 2dc7 393d f7c8 473e
000002c0: edd5 6d3e 9a50 4a3d def9 38be fe3b a63e
000002d0: b48c 8c3c 8264 eabd 7c89 683c 722d 663e
000002e0: 07ee 643e 7833 003f 2288 d93c 28fc 903e
000002f0: 72d8 a9bd 6d6a ccbd 8fd1 bb3e db94 f4be
00000300: 2c77 6e3d b6ba 203e 8bc8 9c3e 97ba 3abe
00000310: 57c6 2cbe af98 223d 304c 1d3e f82b c3bd

bias f4 [10]
0.4927675 0.057776112 0.08142258 -0.066522546 -0.13348633 0.29035774 -0.0037676285 -0.001285327
0.16600356 -0.27245152
00000000: 064c fc3e a5a6 6c3d e2c0 a63d f93c 88bd
00000010: a4b0 08be c5a9 943e 51ea 76bb 6b78 a8ba
00000020: d6fc 293e c47e 8bbe
