datasets/mnist/partition_noniid-#label_major_classes_num_1_clients_10_dir_alpha_None_augement_data_percent_per_class_0.005_augement_data_with_zeros_250_seed_42/models/batch_size_256_com_round_25_epochs_5_lr_0.1_sample_ratio_0.9_personalization_steps_25_model_tinymlp/client_7.pt (torch, 70415 bytes, 8 tensors)

weight f4 [20, 784]
000000 ff 2f 8c b9 b5 f2 9c 3c a9 cc f0 bc 93 50 d7 bc
       -0.0002673864 0.0191587 -0.029394465 -0.026283538
000010 d0 5e 61 bc 0e e9 1c 3c 27 7f 39 ba 13 fa e7 3c
       -0.013755515 0.009577049 -0.0007076137 0.028317487
000020 37 b6 4f bb 0e d6 1a 3c 7d d6 30 bc a4 09 e6 bb
       -0.0031694302 0.009450449 -0.0107933255 -0.007020192
000030 7d 98 0b bd c8 c9 c0 bc e6 93 70 bc ef 9d ad 3a
       -0.03408097 -0.023533717 -0.014683699 0.001324592
000040 dc 53 67 3c ae 8c af 3c a1 58 c6 bc d8 ce 7e bc
       0.014119115 0.021429386 -0.024212183 -0.015552245
000050 b0 88 54 3c a3 f2 f2 3c 53 d8 f0 bb 49 ef da 3c
       0.012972042 0.029656714 -0.0073500066 0.026725428
000060 6e a1 bc bb 5c aa 77 3b 4f 75 04 3d 76 b4 07 bd
       -0.0057565486 0.003779075 0.032338437 -0.033131085
000070 51 2f b8 bc 4a 23 14 bc b3 16 64 bc 2e c8 fc 3c
       -0.0224835 -0.009041617 -0.013921428 0.030857172
000080 98 a2 bd bc 12 f3 86 bc 29 11 d1 bc b9 7c 0b bd
       -0.02314882 -0.016473327 -0.025520878 -0.03405449
000090 c7 94 a6 bc f8 22 00 3d 7a 6d 85 3c d8 b2 96 3c
       -0.020334614 0.03128335 0.016287554 0.018395826
0000a0 ac 6e 4b 3b 7d 67 9e bc 43 08 76 3b 73 a6 0a bd
       0.0031041307 -0.019336456 0.0037541545 -0.033850145
0000b0 ab 3e d3 bc 84 2b 96 bc 86 9d bc 3c 22 5a af 3c
       -0.025786718 -0.018331297 0.023024332 0.021405283
0000c0 0f 5b 80 bc 5a 1c 7e bb 7b 35 b1 3c 6c 87 11 3d
       -0.01566842 -0.0038774223 0.021631947 0.03552954
0000d0 9b 3b 68 3c e5 18 9e 3b 47 2a c4 3c 49 44 ac bc
       0.014174367 0.004824745 0.02394594 -0.021028655
0000e0 64 13 da 3b 0e d5 e2 bc 6a c6 ca bc 6e 08 97 bc
       0.0066551436 -0.027689483 -0.024752814 -0.018436637
0000f0 c6 95 84 3c 7d 91 64 3c 16 84 b1 bc 26 31 18 3c
       0.016184699 0.013950703 -0.021669429 0.009289062
000100 f0 cb b0 3c a1 81 60 3b e5 55 3e 3c c7 41 99 3c
       0.02158162 0.0034256952 0.011617159 0.018708123
000110 f7 2f 05 3d 83 34 54 3d e2 7f 37 bc 3c 4a ce 39
       0.032516446 0.05180789 -0.011199923 0.0003934669
000120 36 cf d6 3c 4f 33 1e 3d f4 72 15 3d 77 87 1d 3d
       0.026221853 0.03862315 0.03648658 0.038459267
000130 4e ac 41 3c 5f 60 e7 bc 3d 8c 3e 3b 13 9a b2 bc
       0.011820866 -0.028244196 0.0029075288 -0.021801984
000140 f1 9e 07 bd e7 12 02 3d a5 75 de 3c 92 ec 11 bd
       -0.033110563 0.031756308 0.027155707 -0.035626
000150 7b 0b db 3b 77 25 c5 bb 79 8c c0 bb df fc 84 bc
       0.006684718 -0.006016429 -0.0058761206 -0.01623386
000160 60 08 69 3c e8 c6 a6 bc cb 19 72 3c 0a 2c 8b 3c
       0.014223188 -0.020358518 0.014776657 0.016988773
000170 12 7c df 3c c0 ef 7b 3c b8 34 05 bd e8 4d ba bc
       0.027280841 0.015376985 -0.03252098 -0.022742227
000180 70 c2 53 3c 39 95 b4 3b ad a0 34 bd 61 27 0f bd
       0.0129247755 0.005510953 -0.044098545 -0.034949664
000190 dd c7 b4 3c f4 72 c0 3c dd fa 9c 3a 8b db bb 3c
       0.022067958 0.023492314 0.0011976619 0.022931835
0001a0 13 ad 6f 3b 84 56 02 3d 46 c4 8b bb d8 09 9b bc
       0.0036571666 0.03182079 -0.004265341 -0.018925592
0001b0 78 ca 10 3b 44 56 c1 3b de a9 6e bc f9 9a ad 3c
       0.0022093337 0.0059001762 -0.014566867 0.02119206
0001c0 89 0a b2 bc 74 bc 04 3d 97 8c c8 3c 5b b9 f6 bc
       -0.02173354 0.032406285 0.024481101 -0.030117681
0001d0 fc 7d 00 bc 3c 1a a0 3b d3 9a e9 3b 2b bc 30 bb
       -0.007842537 0.00488594 0.007129052 -0.0026967626
0001e0 f4 86 fb 3a 54 5e 21 bc 37 3b a1 bc 7b ca 88 bc
       0.001919 -0.00984915 -0.019681556 -0.016698113
0001f0 62 b6 7e bd ae 0c 1d bd 74 fc 7a bb 32 97 12 bd
       -0.062185653 -0.03834217 -0.0038297446 -0.035788722
000200 85 97 99 bc 9b f6 58 bd 3d c9 cf bc 13 9e 72 3c
       -0.018749008 -0.052969556 -0.025364513 0.014808196
000210 06 52 62 3a f3 8a f7 3c 3a 90 6f 3d 76 ef bb 3c
       0.0008633438 0.030217623 0.058487155 0.022941332
000220 ed 5e 86 3c c6 86 df 3a 44 aa f8 3b 56 e5 bb 3c
       0.016402686 0.0017053715 0.0075886566 0.022936504
000230 8f 91 0a 3d 9a cc b9 3c d5 fb 0a 3d 68 e6 32 bb
       0.03383022 0.02268057 0.033931572 -0.0027297977
000240 34 e9 f9 bc ca fd 82 bc ec 38 9e 3c e7 5b 01 bd
       -0.030506708 -0.015990157 0.019314252 -0.031581786
000250 16 4b 75 bd db eb 56 bd 06 20 63 bd e3 0c 9a bd
       -0.05988606 -0.052471023 -0.05545046 -0.07521989
000260 b0 85 48 bd 27 fe 97 3a e2 f5 d2 3c d1 65 51 bd
       -0.04895562 0.0011596129 0.025752012 -0.05112249
000270 bf 8e 0d 3b 99 18 18 bd 9f 40 a8 bc ba ca 10 3c
       0.0021599976 -0.037132833 -0.020538626 0.008837396
000280 ff 36 46 3c 38 7d 8f 3c 29 6b 5a bc 51 3a 10 3c
       0.012098073 0.017515764 -0.013331213 0.008802966
000290 8b 11 87 3c b1 84 82 3b 69 04 7a bc bf cb 63 3c
       0.016487857 0.003983103 -0.0152598405 0.013903557
0002a0 6b aa 03 bd f2 ec 1d bb 60 e3 00 3d f9 b5 88 bc
       -0.032144945 -0.002409753 0.03146684 -0.016688334
0002b0 c0 0b f4 3c 60 ad d2 ba ae 38 84 bd 6e 95 04 bc
       0.02979076 -0.0016073398 -0.06456123 -0.008092267
0002c0 b5 62 ed bc b5 77 0f bc 49 5a e4 3c 89 1c 26 bd
       -0.028977731 -0.008756568 0.027875083 -0.040554557
0002d0 2d 46 20 bd 8e 4d dc bc 27 1e 98 3b 6e c7 fd 38
       -0.039129425 -0.02689245 0.0046422663 0.00012101127
0002e0 9f 87 57 3b 42 ab cc 3c 41 25 b4 bb 98 26 cb 3b
       0.0032887233 0.024984006 -0.005497605 0.006199669
0002f0 43 37 64 3c 63 b8 dd 3c 56 e9 f7 3c 06 4c 45 3d
       0.013929191 0.027065462 0.03026263 0.048168205
000300 87 4a 33 bc 44 c0 b3 3b b8 b4 ca bc 93 ca 9e bc
       -0.010943062 0.0054855663 -0.024744377 -0.019383704
000310 72 7e aa bc b9 a7 44 3c 0e 3e ac bc 79 93 05 bc
       -0.020812247 0.012002879 -0.021025684 -0.008152836
000320 81 b5 ef bb ba f1 60 bb 43 69 a4 bd 8c 9c 48 bd
       -0.007315338 -0.0034323768 -0.080278896 -0.04897742
000330 f9 f5 9f bc 04 bd 36 3c 3e db f0 bc da f0 00 bb
       -0.019526469 0.011153463 -0.029401418 -0.0019674809
000340 73 ee f6 bc 80 ba de bc 76 4f d3 bc 15 24 3b 3c
       -0.030142998 -0.02718854 -0.025794726 0.011422177
000350 2c 10 39 3d aa 23 9d bb 8e 0e e7 bc bc a4 7e bc
       0.04518144 -0.0047955113 -0.028205182 -0.015542205
000360 61 9b 8e bc 2a a0 a4 bc 7b e9 f8 3c ce 8c ad bb
       -0.017408075 -0.020095903 0.03038477 -0.0052963262
000370 e0 b9 c9 3c f4 37 51 3d 27 7b 4b 3c 6e 32 8d 3a
       0.024624765 0.05107875 0.0124194985 0.0010772476
000380 3e 33 00 bd e3 c6 8e 3c c3 8a df bc 74 23 8f bc
       -0.03129887 0.017428821 -0.027287846 -0.01747296
000390 6b 4f c3 bc b3 dc 32 bd f5 55 48 bd 96 ac 4b 3b
       -0.02384158 -0.043667506 -0.0489101 0.003107821
0003a0 eb c7 88 bc 4a 0c 9f bc f8 87 65 bc 0e f5 57 bd
       -0.01669689 -0.01941504 -0.014009468 -0.052723937
0003b0 8f 77 01 bd f3 02 30 bd 14 a7 28 bd 95 ad 84 bc
       -0.03160816 -0.042971563 -0.041174963 -0.016196052
0003c0 83 81 d2 bb 46 d2 8d bb 28 db b5 bc 7b 44 0b bc
       -0.0064241304 -0.004328045 -0.022199228 -0.008500214
0003d0 50 61 da 3c 97 ea 2c bd e7 d6 4e ba d2 d4 4d bc
       0.02665773 -0.04221591 -0.00078902993 -0.012562947
0003e0 7f 03 11 3d 05 a8 28 3c ca d3 a0 bc eb e7 a9 3b
       0.035403725 0.010293965 -0.019632239 0.0051851175
0003f0 55 e2 f1 3c c2 95 38 bc 08 f5 e4 bc 37 34 b9 bc
       0.029526869 -0.011266174 -0.027948871 -0.022607906

bias f4 [20]
000000 3d 61 c2 3e 8e 67 eb 3d 58 68 08 3e 6f a2 3a 3e
       0.37964812 0.11494361 0.13321054 0.18226026
000010 b2 d7 2f 3e 19 8d 31 3e 29 7e be 3d 01 89 e1 3d
       0.17172125 0.1733898 0.09301407 0.110124595
000020 0d 27 c5 3e 72 d3 97 3b 0b 65 57 bd 22 5a e3 3e
       0.38506356 0.0046333605 -0.052586596 0.44404703
000030 f8 31 f3 3c 6a 6d da 3d 8c cf 8d 3d b5 df 02 3d
       0.029686913 0.106654 0.06924352 0.031951625
000040 48 d7 ed 3d 46 02 e3 3d a6 81 b3 3e fc 52 63 3e
       0.11613327 0.11084418 0.3505985 0.22199625

weight f4 [20, 20]
000000 c6 4a 61 3d 0c 49 29 3e 56 ad 48 3e d8 6e 48 3e
       0.05500295 0.16531771 0.19597372 0.19573534
000010 42 87 16 bd 55 26 74 be 2f 4e b2 3d bf f1 7e be
       -0.036750086 -0.23842748 0.087063186 -0.24896906
000020 cd 99 02 3f af 26 0d be 62 5f 46 be a6 39 e4 3e
       0.5101593 -0.13784288 -0.19372323 0.44575232
000030 49 a0 11 3d 1e 69 46 be e5 fd 6e 3e fe 4d 40 bd
       0.03555325 -0.19376037 0.2333904 -0.04694938
000040 31 dd ae 3d f7 20 be 3b 8f ee 57 3d e3 15 3b 3e
       0.08538283 0.0058022696 0.05271774 0.18270068
000050 5d 9f 38 3e 44 68 05 be f0 27 70 3d 48 85 02 3e
       0.18029542 -0.13028055 0.058631837 0.12746155
000060 df 6b 8c 3d 5b 0e 4e be 02 71 53 3e 79 00 78 3d
       0.06856512 -0.20122664 0.20648578 0.060547326
000070 c8 6a 16 be fe c2 22 3e 39 8b 43 bc 19 d7 38 be
       -0.14689171 0.15894696 -0.011935049 -0.18050803
000080 2a 23 33 3d 4f ee 39 be 4e a8 f2 bd 54 43 fa bd
       0.043734707 -0.18157314 -0.11848508 -0.12219873
000090 e2 a0 38 bd 17 8c 9f 3b 14 e9 0e bc 49 38 5a 3d
       -0.045075305 0.004868995 -0.008722562 0.053276334
0000a0 ad 0e 1d 3e 40 0c 04 3e 82 62 69 bd bc 46 6a 3e
       0.1533763 0.12895298 -0.05697871 0.22878546
0000b0 20 d9 14 be 5e 9a 10 be 65 9f 9a bd 87 4f 55 bc
       -0.14535952 -0.14121386 -0.07549933 -0.013019449
0000c0 e4 6f cc bc 66 69 88 3e a4 71 cf 3d 64 fa 0d 3e
       -0.024955697 0.26642913 0.10129097 0.13865048
0000d0 12 24 0a 3d b1 9d 1b 3d d4 86 4a 3c c6 14 87 be
       0.033725806 0.037992183 0.012361247 -0.26383036
0000e0 c7 53 40 3e 5b 09 54 be 9f ea 75 3d 43 29 1d 3c
       0.18781959 -0.20706694 0.060038205 0.009592357
0000f0 14 93 71 3e 61 cb 58 be 51 7b 80 bd a7 b1 3b 3e
       0.23591262 -0.21171333 -0.06273521 0.18329488
000100 72 d5 54 be 8a 53 ae 3d 7a b4 3c be c3 a0 86 bd
       -0.20784548 0.085120276 -0.18428221 -0.065736316
000110 9e 11 87 bd a1 dc 3a 3d f8 2c d5 bd 76 f8 55 3e
       -0.06595157 0.045620564 -0.10408968 0.20895562
000120 23 57 a5 3d 34 40 f2 bd 55 40 e0 bd 41 18 30 bd
       0.08073261 -0.11828652 -0.1094977 -0.04299188
000130 52 12 19 3e e8 fe 1a be 20 e8 a9 bd 27 79 37 be
       0.14948395 -0.15136302 -0.082962275 -0.1791731
000140 b5 14 97 bd 70 d4 bf 3e e7 b3 26 bd 0c 78 e5 3e
       -0.073769964 0.37466764 -0.040698912 0.4481815
000150 3e 71 4d 3e 6b ca 95 3c 01 5d 66 be 04 17 32 be
       0.2006273 0.018284997 -0.22496416 -0.17391592
000160 79 a5 55 3f ac 57 e9 3c cd 37 af bd 99 6d 1c 3f
       0.83455616 0.028484188 -0.08555565 0.6110473
000170 72 85 70 3e 9b c6 1b be 9a b6 f2 3c 9a c1 45 be
       0.23488405 -0.1521248 0.029628087 -0.19312134
000180 0a a5 71 3d 70 9e fd 3d 97 41 bc 3e 65 48 16 3e
       0.058995284 0.12383735 0.3676879 0.14676054
000190 be d5 18 3e 58 c7 44 3e 5a 05 fa bd 55 b4 ab 3e
       0.14925286 0.19216669 -0.12208052 0.3353602
0001a0 9c 38 d4 3e ef 15 35 be b7 84 f8 bd d9 27 00 3d
       0.4144944 -0.17684148 -0.12134688 0.031288
0001b0 bb c3 09 3e 0c 56 01 be 6d 81 bf bd 09 76 98 3e
       0.13453571 -0.1263048 -0.09350858 0.29777554
0001c0 c3 02 d9 3d 55 c6 c1 3e 3f ea 8b be 76 77 80 3d
       0.1059623 0.37846628 -0.27327153 0.06272785
0001d0 d3 45 64 be 04 85 92 be af 2c db 3e df e2 b2 3e
       -0.22292261 -0.28617108 0.42807528 0.34938714
0001e0 a6 ee 33 be c9 04 f3 bd 02 75 47 3e 51 80 74 3e
       -0.17571506 -0.11866147 0.19478229 0.23877074
0001f0 94 f6 70 3e fa 95 89 bd 92 bd 12 bd 2e 60 d9 bc
       0.23531562 -0.06718059 -0.03582532 -0.02653512
000200 90 e9 15 be fa d5 2a 3e 0e 06 4f 3d b7 6e 93 bd
       -0.14639878 0.16683188 0.050542884 -0.071988516
000210 09 78 07 3e c0 66 09 3e e2 c3 93 3c 4a 0d 72 3e
       0.13229384 0.13418102 0.01803774 0.23637882
000220 cf 74 93 bd 70 5b 11 3e 35 c8 8e bc 8f 5d 5d be
       -0.07200014 0.14195037 -0.01742945 -0.21617721
000230 7e a2 1a 3f 37 34 2c 3e 3c c9 21 3e d0 66 29 3e
       0.60404193 0.16816793 0.15799421 0.16543126
000240 53 99 3a 3e 49 85 81 3e d5 b3 3e be 09 1c 93 3e
       0.18222551 0.25297 -0.18623288 0.28732327
000250 67 1d e5 3e 55 1a 21 3f 45 2a 93 3e 00 9d 52 3f
       0.44748995 0.62930804 0.28743187 0.82270813
000260 5a fe ee 3d 00 42 78 be fe d8 11 3f af 92 66 be
       0.116696075 -0.24243927 0.5697173 -0.22516893
000270 a9 23 45 3e f1 70 0b 3f f1 85 a8 be 85 8a 85 be
       0.19251885 0.5446921 -0.3291469 -0.26082245
000280 db 53 2b 3f ab 94 99 3c e7 40 bc 3e 07 e1 95 3d
       0.6692483 0.018747648 0.36768267 0.07318311
000290 12 97 9d be 0d b3 9e 3e 0e 72 10 bc de 47 fe 3e
       -0.3077932 0.3099598 -0.008816255 0.49664205
0002a0 9b 14 9c 3d d6 11 40 be b7 f1 cb be 76 cd 4d 3d
       0.07621118 -0.18756804 -0.3983285 0.05024477
0002b0 24 88 9e be ce 7a d7 3d 33 4f 97 3e 5e 9c c0 3d
       -0.30963242 0.1052147 0.29552612 0.09404825
0002c0 37 23 03 3e 66 ae fe 3e 03 0d fe 3e 4d 4f f2 3c
       0.12806402 0.4974243 0.49619302 0.02957883
0002d0 de dc 16 3d 63 e0 7e be 28 53 89 3e fe 8e 54 be
       0.03683173 -0.24890284 0.26821256 -0.20757672
0002e0 91 5f 0d 3f e2 59 dd bd a1 1f 98 3e 3d ec bc bc
       0.5522395 -0.108081594 0.2971163 -0.023061866
0002f0 79 42 ae be c1 d7 74 bd ae 6a 2e be 68 49 21 be
       -0.3403509 -0.05977607 -0.17032883 -0.15750659
000300 6d 94 14 be 9e 2c a6 3c 0d 45 78 bd bb f4 29 3f
       -0.14509745 0.020284947 -0.060612727 0.66389054
000310 c7 12 11 be 0c 29 59 be 83 19 07 3e d6 fb f3 3d
       -0.14167319 -0.21207064 0.13193326 0.11913268
000320 10 f7 53 be 15 87 15 be 75 ba b8 3e d2 48 2a bd
       -0.20699716 -0.14602311 0.36079755 -0.041573353
000330 c1 c0 86 3e 71 37 52 be b2 5b ad bd ec 9b 37 be
       0.26318935 -0.20528962 -0.08464755 -0.17930573
000340 5a 8a 38 3e c9 20 ad 3e 64 f9 c0 3e c7 5b 62 3e
       0.18021527 0.33814076 0.3769027 0.22105323
000350 9b ad 97 bd 10 f7 7d 3e 27 1d 5a 3e f6 4b 15 bd
       -0.074061595 0.24801278 0.21300183 -0.036449395
000360 62 64 82 be 6a 2d 3f be 09 37 d1 3e 19 54 60 3e
       -0.2546721 -0.18669668 0.408623 0.2190708
000370 47 88 46 3e ef c2 fa bd 65 2c 6d 3e df 4e 0e be
       0.19387923 -0.12244212 0.23161466 -0.13897274
000380 7d 95 6f be a1 84 db 3e 76 87 ab 3d 44 81 89 3e
       -0.23396869 0.42874625 0.083754465 0.26856434
000390 55 79 10 3e 71 7e e2 3a 78 b2 b9 be 69 29 93 be
       0.14108784 0.0017280114 -0.36268973 -0.2874253
0003a0 6b fb 8c be 4f 5b 1f be f0 67 7e 3c 8f de a6 3e
       -0.27535567 -0.15562175 0.01552771 0.32591674
0003b0 61 ca 7f 3e c6 33 08 3f 18 d1 92 3e 06 42 42 bd
       0.24979545 0.53204 0.2867515 -0.047426246
0003c0 fd 77 43 bd f4 3b da ba fc 95 74 3e e8 00 ed bd
       -0.04772185 -0.0016649948 0.2388534 -0.115724385
0003d0 39 26 64 be df 9b c9 bc 94 43 68 3e a4 fa 1b 3e
       -0.22280206 -0.024610458 0.22682029 0.1523233
0003e0 5f 58 d3 bd bf 10 f8 3d 6f 34 91 bb aa 23 41 3e
       -0.1031959 0.12112569 -0.0044312994 0.18861261
0003f0 77 7d b2 bc 10 aa 0b be 41 8f 7b 3e 0a 9a 48 be
       -0.021788342 -0.13639092 0.24566366 -0.19590011

bias f4 [20]
000000 42 56 2c 3e 7d 34 c4 3c 28 78 12 be 07 68 e9 3b
       0.1682978 0.02395081 -0.14303648 0.0071229967
000010 c9 e4 26 3e 27 06 a5 3e 26 ae b1 bd 48 ef 86 3e
       0.16298212 0.32231256 -0.08675794 0.26354432
000020 68 ba 65 bd 52 a8 3c 3e fb 28 d7 3d 71 b8 b0 3d
       -0.056085974 0.18423584 0.10505863 0.086289294
000030 ea 19 fa bd 1d bd 1e be c1 b9 df 3e 7b a9 b2 3d
       -0.12211974 -0.15501828 0.43696406 0.08723732
000040 3b 27 9f bc 3d aa 7a 3e f4 3c 27 3e 12 4a 8f 3e
       -0.019427886 0.24479003 0.16331846 0.279862

weight f4 [20, 20]
000000 3e ee 90 bd 32 10 88 3d 73 13 4c be c1 ec f4 3d
       -0.07076691 0.06643714 -0.19929294 0.1195922
000010 8b 3e 00 be 0d fd 29 be eb 0a 88 bc 23 5f 0f be
       -0.12523858 -0.16600437 -0.016606769 -0.14001136
000020 2b 10 c6 bd da 68 de bd 4f be 31 3d 70 cc 47 bd
       -0.096710525 -0.108598426 0.043394383 -0.04877895
000030 99 69 37 3e f2 fc 05 be da e5 31 3e 7d ac 74 3c
       0.17911376 -0.13084772 0.17372838 0.014933703
000040 c9 ec a0 bc 41 74 41 3e 0f 50 f0 3d e7 df 25 be
       -0.019644158 0.18892004 0.1173402 -0.16198693
000050 b5 90 ac 3d 55 08 27 3e be 32 10 3b b8 10 0d 3e
       0.08426038 0.16311772 0.00220029 0.13775909
000060 b2 07 4d 3c 6a 5c c9 3e dd ac 20 be 13 ea ce be
       0.012514042 0.3932832 -0.15690942 -0.4041296
000070 05 fc f0 bd 5e 2c 82 3e 36 a5 08 be 25 d1 8c be
       -0.11766819 0.25424474 -0.13344273 -0.27503315
000080 bc ac 2a 3e 6b 49 31 be e5 37 5c 3e cf 76 94 3e
       0.16667455 -0.17313163 0.21505697 0.28996894
000090 46 8a 91 bd 7f f7 2b 3d ee fd 90 bd 24 df a2 3e
       -0.07106452 0.041984078 -0.07079683 0.31810868
0000a0 1f aa b3 3d 96 ec 4f be fe 3a 3a be 59 0e e7 3d
       0.087726824 -0.20305094 -0.18186566 0.112820335
0000b0 61 5c 54 be e3 08 ea bd a0 0a 1a bd 8c 39 f8 3e
       -0.20738365 -0.11427476 -0.03760779 0.48481405
0000c0 af 9f 9b bc ef 91 4d bd e3 ef 8e 3e ee e6 4d 3e
       -0.018997042 -0.050188 0.27917394 0.20107624
0000d0 70 a4 36 be 15 70 30 be 2c b2 e6 ba 85 7b e1 bc
       -0.17836165 -0.17230256 -0.0017600707 -0.027524719
0000e0 70 43 99 3e f9 2e 8e 3e 3f 6e 28 3e 07 01 ac bd
       0.29934263 0.27770212 0.16448306 -0.083986335
0000f0 ba 75 1b 3e ab d5 29 be b2 d9 40 be a5 c2 99 bd
       0.15181628 -0.16585414 -0.18833044 -0.075078286
000100 c3 40 d0 3e 17 8c 99 3e 90 e3 17 3e 89 14 5a 3e
       0.4067441 0.29989693 0.14832902 0.21296896
000110 71 90 ce be cc 96 86 bb f8 ad 90 3e 10 13 8b be
       -0.40344575 -0.004107332 0.28257728 -0.2716298
000120 bc f8 68 be 2f e2 7c bd b6 02 61 3e e9 2a 48 be
       -0.22751135 -0.061739143 0.2197369 -0.19547619
000130 5f c5 dc bd 5e af ba bd ff a0 05 be d6 cc 32 be
       -0.10779833 -0.0911548 -0.13049696 -0.17460951
000140 28 8a 47 3e 1f 69 09 3e b1 21 b2 3c fe 67 3d be
       0.19486296 0.13419007 0.021744581 -0.18496701
000150 eb f4 d3 3e 8a d0 5e 3e 32 e8 f2 bd 98 10 94 bc
       0.41397795 0.21759239 -0.11860694 -0.018074319
000160 d9 6e 88 3d 43 5d 7f 3c c1 76 0b be 61 a7 59 be
       0.066617675 0.0155862 -0.1361952 -0.21255256
000170 b5 95 e5 3d 53 fe 97 3d e5 4c f6 3d 42 8e 25 bd
       0.11210195 0.07421555 0.12026385 -0.04041887
000180 c1 a4 c0 bd 26 ff 50 3e 2f 29 38 3d 40 06 19 3e
       -0.09406424 0.20409831 0.04496115 0.1494379
000190 5d 8a bd 3e 94 23 86 3d 6b d4 b6 3d 71 5b 86 bd
       0.37019625 0.06549755 0.08927234 -0.0656041
0001a0 b2 c8 20 3f 73 53 41 3e 20 ab ed bd e4 d7 8c 3e
       0.62806237 0.1887949 -0.11604905 0.2750846
0001b0 fa 51 d8 bd 60 69 ac be 6c f7 bc be 41 af 24 3e
       -0.10562511 -0.33674145 -0.36907518 0.16082479
0001c0 af 4b 4f 3e 94 2c 91 bd 8f 2a 1f 3f 3f 4f 53 bd
       0.20243715 -0.07088581 0.62174314 -0.051589247
0001d0 df 3a aa be 4b 46 ca be e6 3e 71 3c 22 44 af 3d
       -0.3324804 -0.39506754 0.014724469 0.08557917
0001e0 33 67 6c bd 55 51 e5 3d 2a e9 88 3e 54 0d 04 3e
       -0.057715606 0.111971535 0.2674039 0.1289571
0001f0 12 86 e8 3d 0e 4d 89 be 93 89 6c be 22 c9 16 3f
       0.11353697 -0.268166 -0.23099355 0.58900654
000200 92 d0 38 3f 48 61 e2 be 42 0e 99 be a7 cc d5 3e
       0.72193253 -0.44214845 -0.2989369 0.417577
000210 a3 d3 79 3e 6b bf 52 3e 91 78 c0 bd b1 b8 d3 3c
       0.24397139 0.20580833 -0.09397996 0.025844904
000220 a6 f3 88 3d e8 d6 22 3e 93 43 2d be 97 e3 37 3e
       0.06687097 0.15902293 -0.16920309 0.17957912
000230 0e 2f c8 3e e4 13 4f bd 78 8e 59 3d bf 5a d3 bd
       0.390984 -0.05055608 0.053114384 -0.10320043
000240 6b 2e 16 3f 7a 86 db bd bc 22 d4 bb bc 86 4b 3f
       0.5866458 -0.10719009 -0.006473867 0.79502463
000250 1e 96 b5 bc 8a 39 ab be 44 10 e0 3d 8d 2e 82 be
       -0.022166308 -0.33442336 0.109406024 -0.2542614
000260 a9 a6 dc bd 27 16 30 3e f1 b2 55 3e bf 63 59 3e
       -0.107739754 0.1719595 0.20869042 0.21229456
000270 1d 15 95 bd e5 6e 85 3e 07 91 c1 bd 8c f3 99 be
       -0.07279418 0.26061168 -0.0945149 -0.30068624
000280 92 bf 61 be a7 7b 2f 3e 29 c5 60 be 97 4e c7 bd
       -0.22045735 0.17137013 -0.2195021 -0.09731787
000290 f0 00 c4 be 58 70 73 3e a6 96 a1 3e 48 6c ef 3c
       -0.38281965 0.23773324 0.31560248 0.029226437
0002a0 00 be cf 3e 84 3c de 3e 8b 67 9a bd 3b c9 d3 3e
       0.40574646 0.43405545 -0.075392805 0.41364464
0002b0 f0 fe ef 3d c2 9a 3e 3e 28 95 dd 3e 2a 09 02 3f
       0.11718547 0.18613723 0.4327786 0.50795233
0002c0 ad ab 47 3c ad 48 16 be ad 62 cf bd 0c 99 5d 3e
       0.012186927 -0.14676161 -0.10126243 0.21640414
0002d0 b0 27 ff bd af 41 16 be fa a7 c9 3d e4 51 5d 3e
       -0.12458742 -0.14673494 0.09846492 0.2161327
0002e0 8f 08 8a be a6 0b 18 be f1 9f 39 3e b1 c7 21 be
       -0.26959655 -0.14848194 0.18127419 -0.15798832
0002f0 7d 94 21 be 72 a1 98 3e 21 1d 74 be 4e 45 2a 3e
       -0.157793 0.29810673 -0.23839237 0.16628
000300 60 02 16 be e2 d2 0e 3d 68 05 13 be fd 1b ca 3e
       -0.14649343 0.034869082 -0.14357531 0.39474478
000310 65 bb 0e 3c 03 47 67 3e 86 43 31 bc e8 25 23 3e
       0.0087116705 0.22585683 -0.0108193215 0.15932429
000320 65 e1 7e 3e 7d 74 08 be 3c 6c be bd 8e 8a 2a bc
       0.24890669 -0.13325687 -0.09297988 -0.010409011
000330 fa 3c dd 3e 23 59 21 3e 8f 8c 91 3e 78 47 9a 3e
       0.43210584 0.15756659 0.2842755 0.3013265
000340 f8 76 d8 bc 9b 85 5c be 79 3d bf 3c 60 8b a9 be
       -0.026423916 -0.21535341 0.023344742 -0.33114147
000350 03 9f 91 be 5c 1a 17 bc f4 fa cb 3e 44 2b 70 3e
       -0.2844163 -0.009222593 0.398399 0.23454005
000360 1f 23 66 3c c0 94 2a be 39 f7 37 be d5 eb 40 be
       0.014046459 -0.16658306 -0.17965402 -0.18839963
000370 a8 93 ce 3d f7 1c 92 bb 8b 2a 19 be d0 d1 09 3e
       0.10086757 -0.0044590193 -0.14957635 0.13458943
000380 04 26 49 be 84 f0 62 3d 87 e3 3b 3c 71 70 29 3f
       -0.19643408 0.055405155 0.011467821 0.66187197
000390 5f a2 eb be 4b 50 a6 3e c5 7f 8c 3d 9d ae cd be
       -0.46022317 0.32483134 0.068603076 -0.40172282
0003a0 31 fe 2e 3b 21 3a 09 bd 75 24 20 3d ba e5 db 3e
       0.0026701803 -0.0335027 0.039097268 0.42948705
0003b0 d3 45 eb 3e 8b 26 64 3e 8d 56 17 3e f0 61 bb be
       0.4595171 0.22280328 0.1477911 -0.36598158
0003c0 8a a0 1b be 1c dc 28 be 14 b9 81 3d 0e 75 5d 3e
       -0.1519796 -0.16490215 0.06334129 0.21626684
0003d0 fc 60 9f be 41 19 29 3d da f2 09 3d 68 18 a2 be
       -0.3112868 0.04128385 0.033678867 -0.31659245
0003e0 cc 67 9a be 8a 55 f0 3e dd 52 0c be 95 d8 1e be
       -0.30157316 0.4694026 -0.13703485 -0.15512307
0003f0 91 3f fd bc e5 d2 3e be 90 b9 e3 3e 7e 8b 9c 3e
       -0.0309141 -0.18635137 0.4447751 0.30575174

bias f4 [20]
000000 d8 74 be 3b be 43 73 3e ad 5e 04 be 1d ab b0 bd
       0.0058122687 0.2375631 -0.12926741 -0.08626387
000010 86 a4 77 3e 67 8b 58 3e 3a be 16 bd 21 66 52 3e
       0.24183854 0.21146928 -0.036802508 0.20546772
000020 36 1b 3c 3e 67 01 13 bc d0 c4 05 be 67 43 ae 3e
       0.18369755 -0.008972502 -0.1306336 0.340358
000030 e0 b0 07 3e f5 6b 5f 3e dc 52 2c 3e 94 f0 57 3d
       0.13251066 0.21818526 0.16828483 0.052719668
000040 83 96 3e 3e a6 68 13 be 15 39 1a 3e a2 f1 82 3d
       0.18612103 -0.14395389 0.15060838 0.06393744

weight f4 [10, 20]
000000 8d 2a 09 be 37 4d 24 3f 4e 5b 7b be ae ac 37 be
       -0.13395138 0.6418032 -0.24546549 -0.17936966
000010 76 b3 fb 3d 01 2c 40 bd e4 49 01 bf 72 cb 89 be
       0.12290089 -0.046916965 -0.50503373 -0.2691303
000020 1e 43 e2 3e af 05 c2 3e b5 cb fc bd 89 9a ac 3e
       0.4419183 0.3789496 -0.123435415 0.3371165
000030 ed 2a 46 3f 22 52 f7 3d 03 b2 4c be 5a dc 1a bf
       0.7740925 0.120762125 -0.19989781 -0.6049248
000040 18 ca 1f be ea 03 12 3e 42 25 83 be 15 29 b2 bd
       -0.15604436 0.14259306 -0.25614363 -0.08699242
000050 d7 bb 8c bd 5c 4c aa bc ad d8 c8 3e 3b 98 93 be
       -0.06871765 -0.020788364 0.3922781 -0.2882708
000060 c3 3e c5 3d a6 93 9b be 26 63 19 3f af de d2 3e
       0.096311115 -0.30386084 0.59916914 0.4118552
000070 40 fa 29 bf 30 a0 b3 3c 6d c3 a7 be 9f 31 90 3e
       -0.66397476 0.02192697 -0.32766286 0.28162858
000080 a6 a1 1d be c0 43 21 bf 42 5e f3 bc 80 96 4c bd
       -0.15393695 -0.62994003 -0.029708032 -0.049948215
000090 30 d0 10 3e 3e 52 c2 3d 05 cf d7 3e bc 67 af bd
       0.14141917 0.09488343 0.4215013 -0.08564708
0000a0 d4 74 89 bd 20 6e 64 bc 64 55 bc 3e 6d ed a9 bd
       -0.06711736 -0.0139422715 0.36783898 -0.082972385
0000b0 41 ea 9e be f7 58 e8 bd a8 fc b6 bd d2 80 55 3e
       -0.31038097 -0.11345094 -0.08934909 0.20849922
0000c0 b7 35 5a 3e dc b5 53 3e 9e 5f a1 3c c2 b2 39 3f
       0.21309553 0.20674843 0.019698914 0.7253839
0000d0 9b 87 76 bd 28 4b a0 be 4f 9d d3 be 4a a8 c9 3d
       -0.060187917 -0.3130734 -0.41330954 0.09846552
0000e0 03 d8 11 bf e6 17 05 be 07 7c ca 3e e8 c7 b4 3e
       -0.5697023 -0.12997398 0.3954775 0.35308766
0000f0 21 f5 0c 3e 76 f9 ad 3d 5b 36 6d 3e 3b e9 d6 3e
       0.13765384 0.084948465 0.23165266 0.41974816
000100 f2 4e ab 3c 3b 22 cd be f3 4c da be 74 38 f9 3d
       0.020911667 -0.40065178 -0.42636833 0.12168971
000110 b8 5a 88 be 37 61 26 3e ac 93 58 3e 36 ee 9f 3e
       -0.26631713 0.16248022 0.21150082 0.31236428
000120 9a 66 99 be 44 d2 bd be 9b 0f fd 3e f8 d6 a1 3c
       -0.2996109 -0.37074482 0.4942597 0.019755825
000130 00 f3 f8 3e 9c d4 07 3e 86 11 01 bf 83 a2 76 3e
       0.48622894 0.13264698 -0.50417364 0.24085431
000140 13 67 3c 3d 4c de 4e be ee 1c d7 3b ed 0d cf be
       0.045996737 -0.20201987 0.006564728 -0.40440312
000150 c2 df 6d 3e 85 60 0d 3f 1c 4e b3 3e 9f 45 b4 3d
       0.23229888 0.552254 0.3502053 0.08802342
000160 8d 3a 91 3a 55 89 48 be 20 46 10 be cb 02 b2 be
       0.0011080072 -0.19583638 -0.1408925 -0.34767756
000170 4e 99 b3 bd 33 a1 bc 3e 03 8b 50 be a1 82 75 3e
       -0.08769475 0.36841735 -0.20365529 0.23975612
000180 e2 ec 59 be 4d 24 00 bd 27 55 1d bc 22 d7 a9 bd
       -0.2128177 -0.03128462 -0.009602821 -0.082929865
000190 66 0b 5e 3e dd 39 c8 3e 13 2a ce bd 75 ac f9 3d
       0.21684036 0.39106646 -0.10066619 0.12191097
0001a0 a8 e5 c1 3e cd 7a 1c be 25 5e c1 be 44 78 09 bf
       0.37870526 -0.1528122 -0.3776714 -0.53699136
0001b0 f6 15 c3 bc 54 8f 69 be 0a e3 8b be 31 de f1 bd
       -0.023814183 -0.22808582 -0.27321655 -0.11809958
0001c0 c0 29 81 be 2b ea dd 3e 59 4d 05 3f ac 5c aa 3e
       -0.25227165 0.43342718 0.5207115 0.33273828
0001d0 1b 79 f6 3e 07 0c b2 3d 55 0e be be e2 87 9c bb
       0.4813927 0.086937 -0.3712031 -0.0047769407
0001e0 2a c4 40 3e e9 b7 2b bd 03 6b ab 3d d4 94 71 3c
       0.1882483 -0.041923437 0.0837002 0.014744956
0001f0 09 7c 50 be a6 75 ef be 3e 54 01 3f d3 6e 2f bf
       -0.20359816 -0.46769446 0.5051917 -0.6852848
000200 b0 18 b0 3e 7b da 53 3e b1 4e 8b be 3a 3a e1 be
       0.34393835 0.20688812 -0.27208474 -0.43989736
000210 cc 72 a5 bd d9 3f e5 3e 9d 6a 01 bf 20 6f 8d 3e
       -0.080785364 0.44775274 -0.50553304 0.27623844
000220 c8 0d f2 3b 43 b6 c5 3d 01 ad 97 3e ab e3 9e be
       0.0073868968 0.09653904 0.2962418 -0.31033072
000230 1b 3c 22 bd c1 69 ec b8 57 36 64 be 96 af cd 3e
       -0.039608102 -0.00011273055 -0.22286354 0.40173024
000240 07 3a 99 3e 34 42 1f 3f 33 c0 b1 be 6a 82 c6 3e
       0.29927084 0.6221039 -0.3471695 0.38771373
000250 53 3b f8 be f1 d5 73 be c2 88 04 3f cf 13 7d 3e
       -0.4848276 -0.23812081 0.51771176 0.24714588
000260 c1 20 59 be 7b 95 82 be 7c 72 72 3e d2 a8 a7 be
       -0.21203901 -0.2550467 0.23676485 -0.32745987
000270 18 c7 8f be b2 1f cf 3d ab 01 1d 3e 75 f0 08 3e
       -0.28081584 0.10113467 0.15332668 0.13372977
000280 d6 02 13 3d 57 b8 2f be 0e 4a 84 3e cd 5e 21 be
       0.035891376 -0.17160164 0.2583775 -0.1575882
000290 82 28 b8 3d 50 25 02 bf 60 98 57 bd 52 50 6e 3e
       0.08992101 -0.50838184 -0.05263555 0.23272827
0002a0 88 3d 92 3e fb a7 df bd ef 82 f5 bb bf 3b 71 3d
       0.2856257 -0.109207116 -0.007492415 0.05889487
0002b0 ef 69 10 be 68 34 fd 3c 8f 11 3a 3d 74 08 48 3e
       -0.1410291 0.030908778 0.0454269 0.19534475
0002c0 6c 22 6e 3e 99 50 4a 3d d2 12 39 be 82 58 a6 3e
       0.23255318 0.04939327 -0.18073586 0.324894
0002d0 b4 8c 8c 3c f5 aa ee bd f8 38 30 3c 03 7c 5e 3e
       0.017156936 -0.11653701 0.01075577 0.21726994
0002e0 09 c9 5c 3e d1 1a f9 3e 9d 2d a3 3c 2b cf 88 3e
       0.21561064 0.48653272 0.019919211 0.26720557
0002f0 73 67 b3 bd b3 61 cc bd 72 51 b6 3e 91 ee f6 be
       -0.08759966 -0.09979572 0.35609013 -0.48228887
000300 fa c5 6d 3d 0b d4 19 3e d5 84 96 3e 8d a9 3f be
       0.058050133 0.15022294 0.29398218 -0.18717022
000310 b2 38 31 be ab 98 22 3d 39 e3 18 3e 96 f9 d2 bd
       -0.17306784 0.039696377 0.14930429 -0.10301511

bias f4 [10]
000000 9e bb fb 3e dc 14 6b 3d 1e 50 a6 3d 72 04 89 bd
       0.49166578 0.05739294 0.0812075 -0.06690301
000010 99 ed 08 be 36 c8 94 3e 34 0d 6d bb ce c8 57 3b
       -0.13371886 0.29059 -0.00361712 0.0032926085
000020 84 15 2a 3e 23 e6 8c be
       0.1660977 -0.2751933
