datasets/mnist/partition_noniid-#label_major_classes_num_1_clients_10_dir_alpha_None_augement_data_percent_per_class_0.005_augement_data_with_zeros_250_seed_42/models/batch_size_256_com_round_25_epochs_5_lr_0.1_sample_ratio_0.9_personalization_steps_25_model_tinymlp/client_9.pt (torch, 70415 bytes, 8 tensors)

weight f4 [20, 784]
-0.0002673864 0.0191587 -0.029394465 -0.026283538 -0.013755515 0.009577049 -0.0007076137 0.028317487
-0.0031694302 0.009450449 -0.0107933255 -0.007020192 -0.03408097 -0.023533717 -0.014683699 0.001324592
0.014119115 0.021429386 -0.024212183 -0.015552245 0.012972042 0.029656714 -0.0073500066 0.026725428
-0.0057565486 0.003779075 0.032338437 -0.033131085 -0.0224835 -0.009041617 -0.013921428 0.030857172
-0.02314882 -0.016473338 -0.02552108 -0.034054745 -0.02033466 0.03128335 0.016287554 0.018395826
0.0031041307 -0.01933809 0.0037495657 -0.03385138 -0.02578672 -0.018331297 0.023024332 0.021405283
-0.01566842 -0.0038774223 0.021631947 0.03552954 0.014174367 0.004824745 0.02394594 -0.021028655
0.0066551436 -0.027689483 -0.024752814 -0.018436637 0.016184699 0.0139506655 -0.021669725 0.009288756
0.021581538 0.0034256908 0.011617214 0.018708162 0.032515883 0.0518065 -0.011205434 0.00038773415
0.026220141 0.038623393 0.03648651 0.038458843 0.0118203955 -0.028244413 0.0029074538 -0.021801984
-0.033110563 0.031756308 0.027155707 -0.035626 0.006684718 -0.006016429 -0.0058761206 -0.01623386
0.014223188 -0.020358682 0.01477634 0.016988449 0.027280644 0.015380826 -0.032508202 -0.022738269
0.012932962 0.0055257212 -0.04408632 -0.034956984 0.022061387 0.023486407 0.001188082 0.02292382
0.0036519414 0.031818885 -0.004265824 -0.01892648 0.0022090492 0.0059001762 -0.014566867 0.02119206
-0.02173354 0.032406285 0.024481101 -0.030117681 -0.007842537 0.0048859166 0.007128774 -0.0026968936
0.001919107 -0.0098330295 -0.01965627 -0.016671572 -0.062146343 -0.038288716 -0.0037801932 -0.03576896
-0.018751483 -0.052982356 -0.025379015 0.014806196 0.00086277403 0.030223824 0.05848775 0.022939015
0.016401168 0.0017053591 0.0075886543 0.022936504 0.03383022 0.02268057 0.033931572 -0.0027297977
-0.030506708 -0.01598418 0.019325402 -0.03155105 -0.05982502 -0.052348454 -0.055254534 -0.07492881
-0.04861804 0.0015477281 0.026115675 -0.05078227 0.0023995973 -0.037000407 -0.020501085 0.008793276
0.012052711 0.017503632 -0.01332912 0.008800264 0.0164868 0.0039829165 -0.015259881 0.013903557
-0.032144945 -0.002409753 0.031469557 -0.01668452 0.0297962 -0.0015751 -0.06446483 -0.007915084
-0.02861845 -0.00817658 0.028608922 -0.039657008 -0.038056437 -0.025658874 0.005909412 0.0012793345
0.0043238257 0.025856305 -0.004879666 0.0065821093 0.014143298 0.02721378 0.030359875 0.048208646
-0.010931913 0.005486499 -0.024744518 -0.019383706 -0.020812247 0.012004371 -0.02102216 -0.008138384
-0.0072750268 -0.0032854448 -0.079951614 -0.048387088 -0.018640742 0.012354735 -0.027819192 3.7616675e-05
-0.02775956 -0.024562074 -0.023007365 0.0143181095 0.047976762 -0.0022810267 -0.026217107 -0.0141532365
-0.01651182 -0.019560935 0.030689355 -0.0051212227 0.02467794 0.05108514 0.012419506 0.0010772403
-0.03129887 0.017436221 -0.02727707 -0.017421369 -0.02370512 -0.04334304 -0.048241552 0.0041929544
-0.01519167 -0.01746009 -0.011515003 -0.049855024 -0.028517092 -0.03978011 -0.03775722 -0.012499398
-0.0026430488 -0.00078122754 -0.019235402 -0.006278659 0.028176712 -0.04124611 -0.00025738392 -0.012283187
0.03549137 0.010305874 -0.019632548 0.0051851175 0.029527232 -0.011253696 -0.027926266 -0.022504756
00000000: ff2f 8cb9 b5f2 9c3c a9cc f0bc 9350 d7bc
00000010: d05e 61bc 0ee9 1c3c 277f 39ba 13fa e73c
00000020: 37b6 4fbb 0ed6 1a3c 7dd6 30bc a409 e6bb
00000030: 7d98 0bbd c8c9 c0bc e693 70bc ef9d ad3a
00000040: dc53 673c ae8c af3c a158 c6bc d8ce 7ebc
00000050: b088 543c a3f2 f23c 53d8 f0bb 49ef da3c
00000060: 6ea1 bcbb 5caa 773b 4f75 043d 76b4 07bd
00000070: 512f b8bc 4a23 14bc b316 64bc 2ec8 fc3c
00000080: 98a2 bdbc 18f3 86bc 9511 d1bc fd7c 0bbd
00000090: df94 a6bc f822 003d 7a6d 853c d8b2 963c
000000a0: ac6e 4b3b ea6a 9ebc 46bb 753b bfa7 0abd
000000b0: ac3e d3bc 842b 96bc 869d bc3c 225a af3c
000000c0: 0f5b 80bc 5a1c 7ebb 7b35 b13c 6c87 113d
000000d0: 9b3b 683c e518 9e3b 472a c43c 4944 acbc
000000e0: 6413 da3b 0ed5 e2bc 6ac6 cabc 6e08 97bc
000000f0: c695 843c 5591 643c b584 b1bc de2f 183c
00000100: c4cb b03c 8e81 603b 2156 3e3c dc41 993c
00000110: 602f 053d 0d33 543d ff96 37bc cc48 cb39
00000120: 9fcb d63c 9033 1e3d e172 153d 0587 1d3d
00000130: 55aa 413c d460 e7bc fb8a 3e3b 139a b2bc
00000140: f19e 07bd e712 023d a575 de3c 92ec 11bd
00000150: 7b0b db3b 7725 c5bb 798c c0bb dffc 84bc
00000160: 6008 693c 40c7 a6bc 7618 723c 5c2b 8b3c
00000170: a87b df3c dcff 7b3c 5227 05bd 9b45 babc
00000180: c6e4 533c 1c11 b53b db93 34bd 0e2f 0fbd
00000190: 15ba b43c 9166 c03c 6bb9 9b3a bcca bb3c
000001a0: 6955 6f3b 8554 023d 53c8 8bbb b50b 9bbc
000001b0: b2c5 103b 4456 c13b dea9 6ebc f99a ad3c
000001c0: 890a b2bc 74bc 043d 978c c83c 5bb9 f6bc
000001d0: fc7d 00bc 0a1a a03b 7e98 e93b 5ebe 30bb
000001e0: 8c8a fb3a b71a 21bc 3006 a1bc d292 88bc
000001f0: 2a8d 7ebd a1d4 1cbd 1ebd 77bb 7982 12bd
00000200: b69c 99bc 0704 59bd a7e7 cfbc b095 723c
00000210: c92b 623a f497 f73c da90 6f3d 9aea bb3c
00000220: be5b 863c 5b86 df3a 3faa f83b 56e5 bb3c
00000230: 8f91 0a3d 9acc b93c d5fb 0a3d 68e6 32bb
00000240: 34e9 f9bc 41f1 82bc 4e50 9e3c ac3b 01bd
00000250: 150b 75bd 556b 56bd 9452 62bd 4774 99bd
00000260: b623 47bd 23dd ca3a 8af0 d53c 1201 50bd
00000270: 9042 1d3b bd8d 17bd e4f1 a7bc ac11 103c
00000280: bc78 453c c763 8f3c 6262 5abc fc2e 103c
00000290: 530f 873c 2083 823b 9404 7abc bfcb 633c
000002a0: 6baa 03bd f2ec 1dbb 39e6 003d f9ad 88bc
000002b0: 2917 f43c 9673 ceba 2306 84bd 45ae 01bc
000002c0: 3d71 eabc 10f7 05bc 425d ea3c 636f 22bd
000002d0: 11e1 1bbd 8f32 d2bc bea3 c13b 58af a73a
000002e0: e1ae 8d3b 9ad0 d33c 9be5 9fbb bcae d73b
000002f0: 4bb9 673c 6fef de3c 46b5 f83c 6e76 453d
00000300: c41b 33bc 17c8 b33b 04b5 cabc 94ca 9ebc
00000310: 727e aabc fbad 443c aa36 acbc db56 05bc
00000320: 5963 eebb 9e50 57bb acbd a3bd 8a31 46bd
00000330: 78b4 98bc 846b 4a3c 13e5 e3bc 99c6 1d38
00000340: 0468 e3bc 6736 c9bc f179 bcbc 8196 6a3c
00000350: 4883 443d 477d 15bb 42c5 d6bc fae2 67bc
00000360: cc43 87bc 413e a0bc 3e68 fb3c eecf a7bb
00000370: 6429 ca3c a73e 513d 2f7b 4b3c 3032 8d3a
00000380: 3e33 00bd 68d6 8e3c 2974 dfbc 42b7 8ebc
00000390: 3d31 c2bc 7988 31bd ef98 45bd 0d65 893b
000003a0: 7be6 78bc 7608 8fbc 6ca9 3cbc c834 4cbd
000003b0: ad9c e9bc 78f0 22bd 51a7 1abd 46ca 4cbc
000003c0: 0037 2dbb 4bcb 4cba 9093 9dbc 36bd cdbb
000003d0: d9d2 e63c aef1 28bd 7cf1 86b9 6c3f 49bc
000003e0: 665f 113d f8d9 283c 70d4 a0bc ebe7 a93b
000003f0: 18e3 f13c 6c61 38bc a0c5 e4bc e55b b8bc

bias f4 [20]
0.38590306 0.11484678 0.13539112 0.18278076 0.1690374 0.17640962 0.094169796 0.11069914
0.38730294 0.0031379052 -0.053654574 0.4401208 0.026716033 0.106930226 0.06965668 0.03267752
0.11705533 0.11461262 0.35568276 0.22263972
00000000: 1695 c53e ca34 eb3d f8a3 0a3e e12a 3b3e
00000010: 2418 2d3e b9a4 343e 18dc c03d 3bb6 e23d
00000020: 924c c63e 50a5 4d3b e6c4 5bbd 8357 e13e
00000030: 95db da3c 3cfe da3d 29a8 8e3d ddd8 053d
00000040: b4ba ef3d 05ba ea3d 0d1c b63e abfb 633e

weight f4 [20, 20]
0.055640996 0.16477613 0.19621901 0.19494507 -0.036747884 -0.23804723 0.086771816 -0.24871844
0.5098922 -0.13875364 -0.19405423 0.44436368 0.03432267 -0.19330417 0.23307858 -0.04582735
0.0851765 0.0065437835 0.053468786 0.1825721 0.18021245 -0.13029057 0.058545284 0.12734546
0.06844608 -0.20124385 0.20647798 0.06053144 -0.14700551 0.15889317 -0.011953026 -0.18054235
0.04369435 -0.18159154 -0.11849504 -0.12235595 -0.04507745 0.004829189 -0.008775547 0.05325422
0.15368836 0.12922776 -0.05647976 0.22933465 -0.14515083 -0.1410627 -0.07539261 -0.012994372
-0.024148796 0.2666077 0.10131623 0.13915004 0.03422189 0.03806359 0.012403277 -0.26358667
0.18796715 -0.20698504 0.060548633 0.009715039 0.23589101 -0.2116856 -0.0626192 0.18332988
-0.20777199 0.0851307 -0.18421085 -0.06573204 -0.06593548 0.045890026 -0.1039829 0.20916294
0.0808256 -0.11829495 -0.10941588 -0.042969238 0.14954466 -0.15141201 -0.082963146 -0.17917411
-0.071605265 0.37431258 -0.038983777 0.44850698 0.2018968 0.019369934 -0.22541445 -0.17330778
0.8367285 0.026917066 -0.086194076 0.60903996 0.23376454 -0.15104449 0.02906193 -0.18890417
0.058712706 0.1260717 0.3701073 0.14670765 0.14992246 0.1921977 -0.12214817 0.3357912
0.41425496 -0.17650343 -0.121524096 0.03148787 0.13550651 -0.12705898 -0.09392392 0.29701394
0.10586551 0.3783395 -0.27347732 0.06369774 -0.22309259 -0.28515786 0.4279772 0.34930968
-0.17503077 -0.118480675 0.19547077 0.23946638 0.23583929 -0.06686911 -0.03588589 -0.026402151
-0.14506371 0.16688465 0.050543103 -0.0720832 0.13257368 0.13438231 0.01801611 0.23765564
-0.07206143 0.14259745 -0.016804764 -0.21614423 0.60423493 0.16733061 0.15830858 0.16387358
0.18204251 0.25320226 -0.18633355 0.28751636 0.4459722 0.62952 0.2876058 0.8217501
0.115185596 -0.24200743 0.56973976 -0.22494663 0.19247411 0.5446914 -0.32857314 -0.26105127
0.6723465 0.02195492 0.37315607 0.08139148 -0.3025023 0.31090704 -0.0077232514 0.49695957
0.086798 -0.18470079 -0.3975038 0.05527154 -0.30316445 0.10566645 0.2963433 0.10077827
0.12901485 0.49935874 0.50009245 0.030640347 0.03501965 -0.24940053 0.2656249 -0.2096424
0.5495959 -0.10883851 0.29702955 -0.023509338 -0.34383532 -0.059981603 -0.17039499 -0.15778844
-0.14597327 0.019408414 -0.060580608 0.65944517 -0.1417781 -0.21358132 0.12950487 0.11890252
-0.20682892 -0.14650047 0.3601549 -0.042532314 0.2618608 -0.2049527 -0.08475881 -0.17918268
0.17937674 0.33811823 0.37674037 0.22000563 -0.07501314 0.2476048 0.21303582 -0.036838613
-0.2547339 -0.18624115 0.40759534 0.21868941 0.19556025 -0.120158605 0.23529236 -0.13331494
-0.22996809 0.42907014 0.08458645 0.26863617 0.14804041 0.003956218 -0.36193332 -0.2836243
-0.27073368 -0.15524001 0.016165746 0.33018923 0.2504512 0.5328016 0.28943464 -0.046610683
-0.047591798 -0.0015893122 0.23906109 -0.11557764 -0.22277778 -0.02451636 0.22689301 0.15234627
-0.102953784 0.12129805 -0.004405152 0.18879527 -0.021643542 -0.13638993 0.24572653 -0.19580752
00000000: d0e7 633d 13bb 283e a3ed 483e ae9f 473e
00000010: f384 16bd a7c2 73be 6cb5 b13d 0cb0 7ebe
00000020: 4c88 023f 6f15 0ebe 27b6 46be a383 e33e
00000030: ee95 0c3d 87f1 45be 27ac 6e3e 76b5 3bbd
00000040: 0471 ae3d 3c6d d63b 1602 5b3d 2ef4 3a3e
00000050: 9d89 383e e46a 05be 2ecd 6f3d d966 023e
00000060: 752d 8c3d de12 4ebe f76e 533e d1ef 773d
00000070: 9d88 16be e4b4 223e a0d6 43bc 18e0 38be
00000080: d9f8 323d 22f3 39be 87ad f2bd c295 fabd
00000090: 22a3 38bd 2c3e 9e3b 50c7 0fbc 1921 5a3d
000000a0: 7b60 1d3e 4854 043e 5257 67bd b4d6 6a3e
000000b0: 6ba2 14be be72 10be 7167 9abd 59e6 54bc
000000c0: b2d3 c5bc ce80 883e e27e cf3d 597d 0e3e
000000d0: 412c 0c3d 91e8 1b3d 1d37 4b3c d5f4 86be
000000e0: 767a 403e e3f3 53be d801 783d d42b 1f3c
000000f0: 6a8d 713e 1cc4 58be 7f3e 80bd d4ba 3b3e
00000100: 2ec2 54be 0159 ae3d c5a1 3cbe 859e 86bd
00000110: 2e09 87bd 2ef7 3b3d fdf4 d4bd cf2e 563e
00000120: e487 a53d 9f44 f2bd 6f15 e0bd 8300 30bd
00000130: 3c22 193e c00b 1bbe 95e8 a9bd 6b79 37be
00000140: c8a5 92bd e6a5 bf3e 74ad 1fbd b5a2 e53e
00000150: 09be 4e3e b2ad 9e3c 0cd3 66be 9877 31be
00000160: d733 563f 2e81 dc3c 8586 b0bd 0bea 1b3f
00000170: f95f 6f3e 68ab 1abe 4913 ee3c 1870 41be
00000180: bc7c 703d f118 013e b47e bd3e 883a 163e
00000190: 4685 193e 79cf 443e d228 fabd d3ec ab3e
000001a0: 3a19 d43e 51bd 34be a0e1 f8bd 6df9 003d
000001b0: 38c2 0a3e c01b 02be 2f5b c0bd 3612 983e
000001c0: 04d0 d83d b7b5 c13e 3805 8cbe f673 823d
000001d0: 6272 64be 3600 92be d41f db3e b8d8 b23e
000001e0: 443b 33be ffa5 f2bd 7d29 483e ad36 753e
000001f0: db7f 713e acf2 88bd 15fd 12bd 5349 d8bc
00000200: 958b 14be cfe3 2a3e 4906 4f3d 5ba0 93bd
00000210: 65c1 073e 849b 093e 8596 933c 005c 733e
00000220: f194 93bd 1105 123e 25aa 89bc ea54 5dbe
00000230: 24af 1a3f b758 2b3e a51b 223e 7ace 273e
00000240: 5a69 3a3e baa3 813e 39ce 3ebe 5835 933e
00000250: 7856 e43e 3928 213f 1141 933e 375e 523f
00000260: 6de6 eb3d ccd0 77be 77da 113f 6958 66be
00000270: ef17 453e e570 0b3f bd3a a8be 83a8 85be
00000280: e61e 2c3f ceda b33c 500e bf3e 94b0 a63d
00000290: 95e1 9abe 352f 9f3e 5413 fdbb 7c71 fe3e
000002a0: 26c3 b13d 3422 3dbe 9e85 cbbe 6964 623d
000002b0: 5f38 9bbe a767 d83d 4fba 973e d664 ce3d
000002c0: 781c 043e f3ab ff3e 0f06 003f 7701 fb3c
000002d0: c470 0f3d da62 7fbe fdff 873e 7fac 56be
000002e0: 51b2 0c3f bae6 debd 4214 983e a896 c0bc
000002f0: 2f0b b0be 45af 75bd 067c 2ebe 4b93 21be
00000300: 047a 15be 65fe 9e3c 5f23 78bd 66d1 283f
00000310: 472e 11be 10b5 5abe ed9c 043e 2a83 f33d
00000320: f6ca 53be 3804 16be 3966 b83e 5d36 2ebd
00000330: 9e12 863e 1fdf 51be 0796 adbd aa7b 37be
00000340: 89ae 373e d51d ad3e 1de4 c03e 2849 613e
00000350: 7da0 99bd 1d8c 7d3e 1026 5a3e 16e4 16bd
00000360: 7b6c 82be 00b6 3ebe 56b0 d03e 1ef0 5f3e
00000370: f240 483e b715 f6bd 7bf0 703e b683 08be
00000380: c17c 6bbe 15af db3e a93b ad3d ae8a 893e
00000390: e897 173e 29a3 813b 534f b9be 3437 91be
000003a0: 9b9d 8abe 3df7 1ebe 076e 843c 900e a93e
000003b0: 243b 803e b065 083f c730 943e d8ea 3ebd
000003c0: 9eef 42bd 7850 d0ba 6ecc 743e f8b3 ecbd
000003d0: dc1f 64be 89d6 c8bc a456 683e a900 1c3e
000003e0: 6fd9 d2bd 1d6b f83d 1859 90bb 8c53 413e
000003f0: cc4d b1bc cda9 0bbe bc9f 7b3e c481 48be

bias f4 [20]
0.16782352 0.023881063 -0.14262176 0.007215966 0.16324541 0.32235223 -0.08630106 0.26285523
-0.050560378 0.18266456 0.104343794 0.090163864 -0.12198208 -0.15499294 0.43842384 0.08589859
-0.020771293 0.24529055 0.162702 0.28396678
00000000: eed9 2b3e 38a2 c33c 700b 12be e973 ec3b
00000010: ce29 273e 5a0b a53e 9cbe b0bd f694 863e
00000020: 6618 4fbd 6b0c 3b3e 33b2 d53d d5a7 b83d
00000030: bed1 f9bd 78b6 1ebe 1779 e03e 9aeb af3d
00000040: 8f28 aabc 722d 7b3e 5a9b 263e 1864 913e

weight f4 [20, 20]
-0.07076691 0.06643714 -0.19929294 0.1195922 -0.12523858 -0.16600437 -0.016606769 -0.14001136
-0.096710525 -0.108598426 0.043394383 -0.04877895 0.17911376 -0.13084772 0.17372838 0.014933703
-0.019644158 0.18892004 0.1173402 -0.16198693 0.08291389 0.16310821 0.0021426417 0.13772944
0.009996761 0.39125708 -0.15781508 -0.40604436 -0.118786335 0.2528326 -0.13476597 -0.27586794
0.16667005 -0.17313349 0.21262252 0.28875318 -0.071416 0.040822245 -0.07080381 0.3169096
0.0914236 -0.20296584 -0.18146224 0.11299556 -0.20084806 -0.11070952 -0.036073152 0.49148932
-0.01628794 -0.04889909 0.28173256 0.20297416 -0.17814942 -0.17229736 0.003491272 -0.025615716
0.30086684 0.28032705 0.1645288 -0.082229435 0.15215355 -0.16589803 -0.18857236 -0.07514419
0.40746072 0.30027 0.14876509 0.21381678 -0.40035576 -0.003228209 0.28235188 -0.26868248
-0.22767285 -0.061742272 0.22158623 -0.19515294 -0.10841885 -0.09116855 -0.130384 -0.17257684
0.19374658 0.1341424 0.021579377 -0.18502939 0.41199812 0.21662578 -0.11907525 -0.020423114
0.06600332 0.015332486 -0.13713917 -0.21292475 0.11201185 0.07421366 0.1188484 -0.041018605
-0.09477371 0.2031438 0.04494925 0.14917819 0.36907044 0.06541559 0.08891873 -0.065723866
0.6263535 0.18905267 -0.11601936 0.27208233 -0.105311126 -0.33549795 -0.36913124 0.16115324
0.20219423 -0.07088952 0.6211156 -0.05161315 -0.33346018 -0.39526287 0.0147127155 0.0866556
-0.05345498 0.11204653 0.26790148 0.12917414 0.12105651 -0.26369777 -0.22949405 0.59571636
0.72427166 -0.44085872 -0.2958158 0.41879055 0.24422787 0.20581481 -0.08843646 0.02755641
0.06849427 0.1622016 -0.16919765 0.18143304 0.39156836 -0.050571628 0.053051706 -0.103222
0.58786887 -0.10594115 -0.0057359096 0.79612106 -0.020163491 -0.3329169 0.11039342 -0.25251874
-0.10776264 0.17195763 0.21040075 0.21313782 -0.07267586 0.26162222 -0.09447365 -0.29902628
-0.21561512 0.17145401 -0.21914585 -0.097119145 -0.37423736 0.2425593 0.3172868 0.036883414
0.40881795 0.4351849 -0.07248181 0.41555995 0.117305025 0.18614523 0.43954974 0.50987107
0.013534308 -0.14387058 -0.101206556 0.21862006 -0.12461668 -0.14672953 0.09846778 0.21613275
-0.26964548 -0.14862934 0.18114233 -0.15800472 -0.15795438 0.29778954 -0.23844555 0.166089
-0.14649172 0.034869026 -0.1438031 0.39451474 0.008739289 0.22582574 -0.010817704 0.15913369
0.24952742 -0.1333134 -0.093250394 -0.010481991 0.4334526 0.15885696 0.28504077 0.30222952
-0.02308152 -0.21369994 0.02380164 -0.3280955 -0.28461552 -0.009225708 0.40086475 0.23527865
0.013480734 -0.16602598 -0.17955743 -0.18581039 0.09176499 -0.0045222268 -0.15013184 0.13425286
-0.21270692 0.045193747 0.007605632 0.64829147 -0.46756124 0.32051718 0.06285776 -0.40696314
0.0025314556 -0.03351549 0.02494087 0.42484045 0.457572 0.21711679 0.14770819 -0.37200618
-0.1514483 -0.1648978 0.06334172 0.21627162 -0.31028134 0.042037938 0.033988863 -0.31585377
-0.30134094 0.46976998 -0.13656026 -0.1549732 -0.03091391 -0.18634939 0.44569242 0.30616593
00000000: 3eee 90bd 3210 883d 7313 4cbe c1ec f43d
00000010: 8b3e 00be 0dfd 29be eb0a 88bc 235f 0fbe
00000020: 2b10 c6bd da68 debd 4fbe 313d 70cc 47bd
00000030: 9969 373e f2fc 05be dae5 313e 7dac 743c
00000040: c9ec a0bc 4174 413e 0f50 f03d e7df 25be
00000050: c2ce a93d d705 273e 906b 0c3b f208 0d3e
00000060: 74c9 233c d952 c83e 479a 21be 0ce5 cfbe
00000070: 4046 f3bd 4673 813e 1700 0abe 903e 8dbe
00000080: 8eab 2a3e e849 31be b8b9 593e 75d7 933e
00000090: 8d42 92bd 3a35 273d 9701 91bd fa41 a23e
000000a0: 4c3c bb3d 47d6 4fbe 3dd1 39be 376a e73d
000000b0: 1dab 4dbe acbb e2bd 71c1 13bd 7da4 fb3e
000000c0: 496e 85bc 6a4a 48bd 403f 903e 75d8 4f3e
000000d0: cd6c 36be b86e 30be d3cd 643b 0dd8 d1bc
000000e0: 380b 9a3e 0787 8f3e 3d7a 283e e867 a8bd
000000f0: 24ce 1b3e 2ce1 29be 1d19 41be 32e5 99bd
00000100: b19e d03e fdbc 993e e055 183e c9f2 5a3e
00000110: 6efb ccbe 5c90 53bb 6d90 903e c090 89be
00000120: 1223 69be 77e5 7cbd 80e7 623e 2cd6 47be
00000130: b40a debd 94b6 babd 6283 05be fcb7 30be
00000140: 8165 463e a05c 093e 3cc7 b03c 5878 3dbe
00000150: 6bf1 d23e 26d3 5d3e badd f3bd 604e a7bc
00000160: c02c 873d 1b35 7b3c 366e 0cbe f208 5abe
00000170: 7866 e53d 55fd 973d ca66 f33d 2003 28bd
00000180: b818 c2bd ee04 503e b41c 383d 2bc2 183e
00000190: cdf6 bc3e 9cf8 853d 061b b63d 3c9a 86bd
000001a0: b458 203f 0697 413e 8f9b edbd 604e 8b3e
000001b0: 5cad d7bd 63c6 abbe c5fe bcbe 5b05 253e
000001c0: 010c 4f3e 862e 91bd 6f01 1f3f 4f68 53bd
000001d0: 4bbb aabe e55f cabe 9a0d 713c 7e78 b13d
000001e0: 9cf3 5abd a778 e53d 622a 893e 3a46 043e
000001f0: 7aec f73d 6503 87be 7d00 6bbe de80 183f
00000200: de69 393f 3cb8 e1be 2b75 97be b76b d63e
00000210: df16 7a3e 1ec1 523e 2d1e b5bd fbbd e13c
00000220: b946 8c3d 2d18 263e 2642 2dbe 95c9 393e
00000230: a67b c83e 3224 4fbd bf4c 593d 0e66 d3bd
00000240: 937e 163f acf7 d8bd 4cf4 bbbb 97ce 4b3f
00000250: e82d a5bc 1574 aabe f215 e23d 234a 81be
00000260: a9b2 dcbd a915 303e 4b73 573e cd40 5a3e
00000270: 15d7 94bd 59f3 853e 677b c1bd f919 99be
00000280: 36ca 5cbe a491 2f3e c567 60be 67e6 c6bd
00000290: 0a9c bfbe 7761 783e 6a73 a23e 1013 173d
000002a0: 9650 d13e 8ed0 de3e 5871 94bd 46c4 d43e
000002b0: 9e3d f03d db9c 3e3e aa0c e13e e986 023f
000002c0: 01bf 5d3c cf52 13be 6245 cfbd f0dd 5f3e
000002d0: 0837 ffbd 4440 16be 7aa9 c93d e751 5d3e
000002e0: f90e 8abe 4a32 18be 607d 393e fdcb 21be
000002f0: cbbe 21be df77 983e 122b 74be 3c13 2a3e
00000300: ed01 16be d3d2 0e3d 1f41 13be d6fd c93e
00000310: 3c2f 0f3c dd3e 673e bd3c 31bc f1f3 223e
00000320: 1e84 7f3e 4f83 08be 10fa bebd a8bc 2bbc
00000330: 80ed dd3e 66ab 223e ddf0 913e d4bd 9a3e
00000340: 7515 bdbc 28d4 5abe a8fb c23c 22fc a7be
00000350: 20b9 91be 6d27 17bc 253e cd3e e3ec 703e
00000360: 4cde 5c3c b702 2abe e7dd 37be 1445 3ebe
00000370: 48ef bb3d 302f 94bb 29bc 19be 9579 093e
00000380: d8cf 59be 141d 393d aa38 f93b 6ef6 253f
00000390: 3064 efbe d41a a43e 92bb 803d 795d d0be
000003a0: c7e6 253b 8a47 09bd cc50 cc3c b084 d93e
000003b0: e146 ea3e dd53 5e3e d140 173e 9877 bebe
000003c0: 4315 1bbe f8da 28be 4eb9 813d 4f76 5d3e
000003d0: 32dd 9ebe f92f 2c3d e837 0b3d 96b7 a1be
000003e0: 5c49 9abe b185 f03e 74d6 0bbe 4bb1 1ebe
000003f0: 2b3f fdbc 60d2 3ebe cc31 e43e c8c1 9c3e

bias f4 [20]
0.0058122687 0.23678085 -0.12735109 -0.086032934 0.24124113 0.21101175 -0.0346877 0.2059145
0.18606958 -0.009014784 -0.13019821 0.33577418 0.13281013 0.22031209 0.16985771 0.052741792
0.18657468 -0.1439566 0.15124036 0.06246025
00000000: d874 be3b ae76 723e 5368 02be 0932 b0bd
00000010: ea07 773e 7713 583e b114 0ebd 40db 523e
00000020: 0689 3e3e bfb2 13bc ae52 05be 98ea ab3e
00000030: 61ff 073e 7e99 613e 2eef 2d3e c707 583d
00000040: 6f0d 3f3e 5c69 13be c1de 1a3e 52d6 7f3d

weight f4 [10, 20]
-0.13395138 0.6412933 -0.2456491 -0.17949425 0.12265754 -0.047292154 -0.50517845 -0.26947185
0.44035888 0.3785772 -0.12388277 0.33661467 0.7735344 0.11980077 -0.20017816 -0.60529846
-0.15621637 0.14259306 -0.25619882 -0.08755598 -0.06871765 -0.020785902 0.3931552 -0.28771162
0.09685338 -0.3031984 0.6001328 0.4136998 -0.66382223 0.02192814 -0.3268414 0.2827862
-0.15393679 -0.6299438 -0.028660974 -0.049372796 0.14203592 0.09488343 0.42237997 -0.08472483
-0.06711736 -0.013963221 0.36888763 -0.0822404 -0.30990833 -0.11289628 -0.08860346 0.21056925
0.2136848 0.20674615 0.020789005 0.727136 -0.06021491 -0.31315798 -0.4122965 0.09900657
-0.56926143 -0.12997398 0.39634722 0.35441342 0.13765384 0.08436216 0.23180702 0.41959378
0.020555122 -0.4005962 -0.42607933 0.122041315 -0.2670524 0.16244672 0.21150579 0.31276768
-0.29973823 -0.3716149 0.4934982 0.019509776 0.48539552 0.13264698 -0.50367546 0.24077229
0.045996737 -0.2027111 0.0023952199 -0.4073507 0.22639874 0.540147 0.33939523 0.076297015
-0.008586773 -0.195888 -0.14819336 -0.348549 -0.08782808 0.35680827 -0.21191613 0.2314802
-0.21690221 -0.031283457 -0.014719748 -0.08802842 0.21684036 0.39038986 -0.101360425 0.12106148
0.3775225 -0.15393627 -0.37844896 -0.53864974 -0.025406204 -0.2281351 -0.27430725 -0.118635744
-0.25244915 0.43173432 0.51849014 0.33158353 0.47968966 0.086937 -0.37139443 -0.0059614
0.1882483 -0.04196366 0.08360677 0.01474226 -0.20365512 -0.4677954 0.5049886 -0.6853949
0.3436397 0.20684598 -0.27214468 -0.43994516 -0.08080902 0.44750503 -0.5055951 0.27604565
0.0073091546 0.09653881 0.29614335 -0.3104122 -0.039608102 -0.0049377787 -0.23369034 0.38438413
0.28053516 0.58950245 -0.36537164 0.34797496 -0.49961203 -0.23828033 0.4918181 0.23378544
-0.21290785 -0.2726443 0.2071118 -0.3410664 -0.29268044 0.10113335 0.14149804 0.11357093
0.035891376 -0.17181012 0.25781357 -0.15790713 0.0892691 -0.5091458 -0.05350369 0.23163106
0.28454053 -0.1092744 -0.008090024 0.058624025 -0.14109127 0.029742483 0.044261303 0.19441241
0.23160928 0.049393266 -0.1810472 0.3242198 0.017156936 -0.108980626 0.02520723 0.23772243
0.24172327 0.5323327 0.048926663 0.31761155 -0.05859164 -0.09901882 0.38956377 -0.47001323
0.060027763 0.18445618 0.33432674 -0.16350482 -0.154446 0.03969677 0.16465941 -0.07741995
00000000: 8d2a 09be cc2b 243f 708b 7bbe 57cd 37be
00000010: e033 fb3d 6bb5 41bd 6053 01bf 37f8 89be
00000020: b876 e13e dfd4 c13e 40b6 fdbd c258 ac3e
00000030: 5a06 463f 1b5a f53d 81fb 4cbe d7f4 1abf
00000040: 2ff7 1fbe ea03 123e 7e2c 83be 8d50 b3bd
00000050: d7bb 8cbd 3247 aabc a34b c93e f04e 93be
00000060: 115b c63d d23c 9bbe 4ea2 193f 76d0 d33e
00000070: 41f0 29bf a5a2 b33c c257 a7be 5ac9 903e
00000080: 9ba1 1dbe ff43 21bf 6bca eabc 213b 4abd
00000090: dd71 113e 3e52 c23d 3042 d83e 3684 adbd
000000a0: d474 89bd fec5 64bc d7de bc3e a86d a8bd
000000b0: 4eac 9ebe 2a36 e7bd bb75 b5bd 779f 573e
000000c0: 30d0 5a3e 43b5 533e b44d aa3c 9625 3a3f
000000d0: e9a3 76bd 3e56 a0be 8718 d3be f5c3 ca3d
000000e0: 1ebb 11bf e617 05be 06ee ca3e ad75 b53e
000000f0: 21f5 0c3e 11c6 ac3d d25e 6d3e ffd4 d63e
00000100: 3763 a83c f21a cdbe 1227 dabe ccf0 f93d
00000110: 18bb 88be 6f58 263e f994 583e 1623 a03e
00000120: 4a77 99be 4f44 bebe ccab fc3e f7d2 9f3c
00000130: c385 f83e 9cd4 073e e0f0 00bf 038d 763e
00000140: 1367 3c3d 8093 4fbe 1ff9 1c3b 4590 d0be
00000150: 12d5 673e 1347 0a3f 36c5 ad3e 9c41 9c3d
00000160: 89af 0cbc dd96 48be 00c0 17be 0475 b2be
00000170: 35df b3bd 93af b63e 8b00 59be 2509 6d3e
00000180: 9d1b 5ebe 1523 00bd 192b 71bc 3f48 b4bd
00000190: 660b 5e3e 2ee1 c73e 0e96 cfbd 15ef f73d
000001a0: a14a c13e 78a1 1dbe 10c4 c1be f3e4 09bf
000001b0: ac20 d0bc 3f9c 69be 0072 8cbe 4cf7 f2bd
000001c0: 0441 81be 480c dd3e c5bb 043f 51c5 a93e
000001d0: e299 f53e 070c b23d 6927 bebe d957 c3bb
000001e0: 2ac4 403e 16e2 2bbd 073a ab3d 8589 713c
000001f0: f88a 50be e182 efbe ef46 013f 0a76 2fbf
00000200: 8bf1 af3e 6fcf 533e 8c56 8bbe 7e40 e1be
00000210: 337f a5bd 611f e53e ae6e 01bf db55 8d3e
00000220: a281 ef3b 24b6 c53d 1aa0 973e 59ee 9ebe
00000230: 1b3c 22bd 17cd a1bb 854c 6fbe ffcd c43e
00000240: 4ea2 8f3e a2e9 163f fe11 bbbe c629 b23e
00000250: 26cd ffbe c2ff 73be 95cf fb3e 7365 6f3e
00000260: 8404 5abe 0998 8bbe 1e15 543e 41a0 aebe
00000270: 36da 95be 001f cf3d dde4 103e e097 e83d
00000280: d602 133d feee 2fbe 2400 843e 68b2 21be
00000290: b8d2 b63d 6157 02bf af26 5bbd b130 6d3e
000002a0: 4caf 913e 42cb dfbd 058c 04bc bf1f 703d
000002b0: 3b7a 10be 82a6 f33c 574b 353d 0c14 473e
000002c0: fc2a 6d3e 9850 4a3d 7064 39be 2300 a63e
000002d0: b48c 8c3c 3c31 dfbd 657f ce3c 826d 733e
000002e0: 4e86 773e f546 083f 5367 483d fb9d a23e
000002f0: cafd 6fbd 61ca cabd e774 c73e 93a5 f0be
00000300: acdf 753d 15e2 3c3e e02c ab3e cf6d 27be
00000310: 1827 1ebe 1599 223d 7a9c 283e 5a8e 9ebd

bias f4 [10]
0.49149173 0.05764722 0.0815186 -0.06695736 -0.13594805 0.29019716 -0.0036658463 -0.0035424035
0.1658498 -0.2657769
00000000: cea4 fb3e 7e1f 6c3d 39f3 a63d f120 89bd
00000010: f735 0bbe b994 943e b23e 70bb ab27 68bb
00000020: 88d4 293e e913 88be
