datasets/mnist/partition_noniid-#label_major_classes_num_1_clients_10_dir_alpha_None_augement_data_percent_per_class_0.005_augement_data_with_zeros_250_seed_42/models/batch_size_256_com_round_25_epochs_5_lr_0.1_sample_ratio_0.9_personalization_steps_25_model_tinymlp/client_2.pt (torch, 70415 bytes, 8 tensors)

weight f4 [20, 784]
00000000: ff2f 8cb9 b5f2 9c3c a9cc f0bc 9350 d7bc
00000010: d05e 61bc 0ee9 1c3c 277f 39ba 13fa e73c
00000020: 37b6 4fbb 0ed6 1a3c 7dd6 30bc a409 e6bb
00000030: 7f98 0bbd 0eca c0bc 7394 70bc c09d ad3a
00000040: dc53 673c ae8c af3c a158 c6bc d8ce 7ebc
00000050: b088 543c a3f2 f23c 53d8 f0bb 49ef da3c
00000060: 6ea1 bcbb 5caa 773b 4f75 043d 76b4 07bd
00000070: 512f b8bc 4a23 14bc b316 64bc 2ec8 fc3c
00000080: 98a2 bdbc 12f3 86bc 2911 d1bc b97c 0bbd
00000090: e294 a6bc c622 003d db6c 853c 09b2 963c
000000a0: 2f68 4b3b b169 9ebc 0b9a 753b 0ab3 0abd
000000b0: 5e66 d3bc 0335 96bc c79c bc3c 225a af3c
000000c0: 0f5b 80bc 5a1c 7ebb 7b35 b13c 6c87 113d
000000d0: 9b3b 683c e518 9e3b 472a c43c 4944 acbc
000000e0: 6413 da3b 0ed5 e2bc 6ac6 cabc 6e08 97bc
000000f0: c695 843c 7d91 643c 1e84 b1bc b630 183c
00000100: 97c9 b03c 1295 603b c942 3e3c a01e 993c
00000110: 1509 053d dff9 533d 769e 38bc e348 a339
00000120: 140f d63c 5ce8 1d3d 094a 153d 2e76 1d3d
00000130: 4d88 413c 9368 e7bc 6b85 3e3b 849b b2bc
00000140: 76a2 07bd bb10 023d a575 de3c 92ec 11bd
00000150: 7b0b db3b 7725 c5bb 798c c0bb dffc 84bc
00000160: 6108 693c eac6 a6bc 0b19 723c 842a 8b3c
00000170: 4a81 df3c 88ca 7b3c 1c52 05bd c4b3 babc
00000180: a32a 523c c972 af3b 407a 35bd 291f 10bd
00000190: 37ca b23c a599 be3c 160a 863a 90fe ba3c
000001a0: 1983 6c3b 7942 023d a91c 8cbb 4e0a 9bbc
000001b0: a496 103b 0045 c13b dea9 6ebc f99a ad3c
000001c0: 890a b2bc 74bc 043d 978c c83c 5ab9 f6bc
000001d0: 897e 00bc 8d03 a03b e47b e93b b931 31bb
000001e0: 9be6 f93a 77e8 21bc 27b2 a1bc 0f5f 89bc
000001f0: b61f 7fbd c4be 1dbd da9f 85bb 99ae 13bd
00000200: d2e0 9bbc 081f 5abd 5601 d2bc 4b58 6f3c
00000210: dda5 3d3a a601 f73c ef72 6f3d eee5 bb3c
00000220: d653 863c df32 df3a 3faa f83b 56e5 bb3c
00000230: 8f91 0a3d 9acc b93c d5fb 0a3d 50e5 32bb
00000240: 38e9 f9bc 37ff 82bc a043 9e3c e146 01bd
00000250: 333d 75bd 7ad3 56bd 75ed 62bd a1dc 99bd
00000260: ea11 48bd fdc2 a43a 9e6b d33c ca77 51bd
00000270: 10d1 0b3b 3351 18bd 695d a9bc 3cd6 0d3c
00000280: 028e 433c 9ea6 8e3c 0070 5bbc 00ed 0f3c
00000290: d906 873c 1271 823b 9404 7abc bfcb 633c
000002a0: 6baa 03bd f2ec 1dbb 33e6 003d 82ac 88bc
000002b0: 1a1e f43c d8ae ceba 420b 84bd 6552 02bc
000002c0: 6b5e ebbc 4d7b 09bc 9fea e73c 3007 24bd
000002d0: 1dbf 1dbd 9cc8 d6bc c9f4 af3b c711 3f3a
000002e0: 4718 7d3b 1227 d13c 340f a7bb bd54 d23b
000002f0: 2b41 663c ec64 de3c 1f08 f83c 825c 453d
00000300: 6534 33bc 3eba b33b fcb4 cabc 94ca 9ebc
00000310: 727e aabc fbad 443c fe36 acbc 784a 05bc
00000320: 9916 eebb f4f1 57bb 98e0 a3bd 29ce 46bd
00000330: d5ff 9abc e9af 433c ca10 e9bc effd 63ba
00000340: e411 edbc 6d45 d4bc d675 c8bc 3942 523c
00000350: a2f5 3e3d 8c89 5ebb 6f42 ddbc 854c 70bc
00000360: fac7 89bc dc79 a1bc 62aa fa3c 3e97 a9bb
00000370: 2a00 ca3c ea37 513d 357b 4b3c 3032 8d3a
00000380: 3e33 00bd f8d6 8e3c 8e73 dfbc 61b1 8ebc
00000390: 2a48 c2bc 56d6 31bd 6e65 46bd ced9 7a3b
000003a0: de48 81bc 64f4 95bc 39d5 4fbc 94ca 51bd
000003b0: 05b4 f5bc d465 29bd 44cd 21bd 7922 6cbc
000003c0: 8631 94bb 9d04 1fbb 53fc a7bc ddd1 ebbb
000003d0: 1c1e e23c 4852 2abd eb9d dcb9 697b 4abc
000003e0: 254f 113d c5c9 283c 70d4 a0bc ebe7 a93b
000003f0: 18e3 f13c 6c61 38bc 5fc2 e4bc a460 b8bc
-0.0002673864 0.0191587 -0.029394465 -0.026283538 -0.013755515 0.009577049 -0.0007076137 0.028317487
-0.0031694302 0.009450449 -0.0107933255 -0.007020192 -0.03408098 -0.023533847 -0.014683831 0.0013245866
0.014119115 0.021429386 -0.024212183 -0.015552245 0.012972042 0.029656714 -0.0073500066 0.026725428
-0.0057565486 0.003779075 0.032338437 -0.033131085 -0.0224835 -0.009041617 -0.013921428 0.030857172
-0.02314882 -0.016473327 -0.025520878 -0.03405449 -0.020334665 0.031283163 0.016287258 0.01839544
0.003103744 -0.019337507 0.003747585 -0.03386215 -0.025805648 -0.018335825 0.023023976 0.021405283
-0.01566842 -0.0038774223 0.021631947 0.03552954 0.014174367 0.004824745 0.02394594 -0.021028655
0.0066551436 -0.027689483 -0.024752814 -0.018436637 0.016184699 0.013950703 -0.021669444 0.009288957
0.0215805 0.003426854 0.0116126025 0.018691361 0.032479364 0.051751968 -0.011268249 0.00031144088
0.026130237 0.038551673 0.03644756 0.038442783 0.011812282 -0.028248107 0.0029071223 -0.021802671
-0.03311392 0.031754237 0.027155707 -0.035626 0.006684718 -0.006016429 -0.0058761206 -0.01623386
0.014223189 -0.020358521 0.0147764785 0.016988046 0.02728333 0.015368111 -0.03254901 -0.022790797
0.012827548 0.0053542596 -0.04430604 -0.035185967 0.02182494 0.023266623 0.0010226395 0.022826463
0.0036088882 0.031801675 -0.0042758775 -0.018925812 0.0022062445 0.005898118 -0.014566867 0.02119206
-0.02173354 0.032406285 0.024481101 -0.03011768 -0.007842668 0.004883236 0.0071253646 -0.0027037694
0.0019065918 -0.009882084 -0.01973827 -0.01676896 -0.0622861 -0.038512006 -0.0040778937 -0.03605518
-0.019028101 -0.05325225 -0.025635403 0.014608453 0.00072344934 0.030152153 0.05845922 0.022936787
0.016397398 0.001702871 0.0075886543 0.022936504 0.03383022 0.02268057 0.033931572 -0.0027297325
-0.030506715 -0.015990837 0.019319355 -0.031561736 -0.059872817 -0.052447774 -0.055402238 -0.07512785
-0.04884521 0.0012570318 0.025808152 -0.05113963 0.0021334328 -0.037186813 -0.020674424 0.0086570345
0.011935713 0.017413434 -0.013393402 0.008784533 0.016482757 0.003980764 -0.015259881 0.013903557
-0.032144945 -0.002409753 0.031469535 -0.01668382 0.02979951 -0.001576866 -0.0644746 -0.007954215
-0.028731545 -0.008391214 0.028310118 -0.040045917 -0.038512338 -0.026218705 0.005369757 0.0007288721
0.0038619207 0.025531325 -0.005098248 0.006418793 0.014053623 0.027147733 0.03027731 0.048183925
-0.010937785 0.0054848483 -0.024744503 -0.019383706 -0.020812247 0.012004371 -0.021022316 -0.0081354305
-0.0072658774 -0.0032950612 -0.08001822 -0.048536453 -0.018920818 0.011943796 -0.028450388 -0.0008697202
-0.028939195 -0.025912011 -0.024470251 0.0128331715 0.046620972 -0.0033956496 -0.027009217 -0.014666681
-0.016818989 -0.019711427 0.030598823 -0.0051755 0.024658281 0.051078714 0.012419512 0.0010772403
-0.03129887 0.01743649 -0.02727678 -0.017418565 -0.023716051 -0.043417297 -0.048436575 0.0038276794
-0.015781816 -0.018305011 -0.012685114 -0.051218584 -0.029993067 -0.041356876 -0.039502397 -0.014412516
-0.004522505 -0.0024264224 -0.02050606 -0.0071966485 0.027602248 -0.041582376 -0.00042079328 -0.012358525
0.03547587 0.010302012 -0.019632548 0.0051851175 0.029527232 -0.011253696 -0.027924715 -0.02250702

bias f4 [20]
00000000: dc1b c43e 9d24 e73d 44c4 0b3e 0df1 353e
00000010: 62fd 2e3e 4981 363e 0ce6 be3d d2a0 e43d
00000020: 974f c13e df38 413c 8fb7 49bd 81a9 e13e
00000030: 8b0a d03c 11c5 d73d 6c88 963d 83c9 193d
00000040: 16fa ef3d 6f77 e93d 7b5b b13e 1dc9 603e
0.38302505 0.1128628 0.13649088 0.17767735 0.17088845 0.17822756 0.09321222 0.111634865
0.37756035 0.011793344 -0.04924732 0.44074634 0.025395652 0.10535634 0.07350239 0.037545692
0.11717622 0.11399733 0.34640107 0.21951719

weight f4 [20, 20]
00000000: f9ca 5a3d 6c2a 283e 57d9 453e 0c7f 453e
00000010: bdf4 1ebd 090a 75be aa3c b13d 834d 7fbe
00000020: f090 013f 61b6 0fbe 936c 47be c513 e33e
00000030: 8c5b 083d 08a7 46be cb4f 6e3e 8729 4cbd
00000040: dbbe ad3d b012 9f3b 15c9 513d 06cc 3a3e
00000050: e09a 383e d56e 05be ab99 6f3d 8c7c 023e
00000060: 301e 8c3d a120 4ebe 7b58 533e 04d0 773d
00000070: 2c69 16be fe93 223e 41cd 44bc 55eb 38be
00000080: 850e 333d f4eb 39be b7c2 f2bd d7ac fabd
00000090: 6fe0 38bd 45ba 9f3b e66b 0fbc 712b 5a3d
000000a0: b076 1c3e 1709 043e 9412 6fbd 3f3c 6a3e
000000b0: d05e 15be 1562 11be ffb4 9bbd b666 5cbc
000000c0: 50bc ccbc 8458 873e e34f cd3d 6a28 0d3e
000000d0: eba3 093d 283e 1b3d c0bb 3d3c 4a8e 87be
000000e0: 27d0 3f3e da18 54be c133 743d 53e6 1c3c
000000f0: 2a4e 723e 54a5 58be 3d9f 7dbd 9b50 3c3e
00000100: de91 54be 3322 af3d 6275 3cbe 1b49 86bd
00000110: 309c 85bd 2c89 3e3d 9aac d4bd ac84 563e
00000120: 1449 a63d 8e31 f2bd 006e dfbd 9a5f 2cbd
00000130: 8053 193e fab7 1abe 432f a9bd 516f 37be
00000140: 35cc a2bd 3ba7 be3e de7d 4fbd f6ed e13e
00000150: 5256 453e 2510 6d3c 0fb6 68be 83fc 33be
00000160: f95a 533f c149 943c 8f06 b9bd 25d9 1a3f
00000170: 9d51 6b3e 68eb 1cbe 7b79 d83c 5b3c 52be
00000180: 16de 693d 9d1e f73d 24f1 b93e 9c6f 153e
00000190: 7522 163e 8d14 443e a805 02be 0068 aa3e
000001a0: ee8d d13e 75ff 36be 40df fabd f9a1 f83c
000001b0: b7ce 063e f38c 06be b9e0 c4bd 8264 973e
000001c0: 55d6 d53d 4b5f c13e afac 8cbe 44a5 613d
000001d0: 48eb 64be 135d 93be 7e1e da3e 1eab b23e
000001e0: 01f7 32be f9b8 f2bd 2342 493e c9e9 743e
000001f0: 02ef 713e 7482 87bd 684c 10bd 86aa d4bc
00000200: 5978 15be e431 2d3e d914 543d 3a97 91bd
00000210: aed0 073e 938f 093e a38b 9a3c 02e6 733e
00000220: 706d 92bd 83cb 113e e8f0 89bc 8d45 5dbe
00000230: 17eb 1b3f fa4f 2c3e a1e9 2a3e 8fa8 2b3e
00000240: 83aa 443e d6c7 833e 26b0 3bbe 559e 943e
00000250: bda3 e53e 97ac 233f 12d2 953e a52c 533f
00000260: 3448 f03d 07f5 76be b7a4 123f 2867 55be
00000270: 9b64 463e 826f 0c3f 451a a7be e43e 85be
00000280: 3e5c 2b3f cac9 ac3c e7ea bc3e 6bff 9f3d
00000290: 2dc2 9cbe 5440 9e3e 517b 16bc 24c4 fd3e
000002a0: f02b ab3d d3f3 40be f774 ccbe c588 583d
000002b0: 3382 9cbe f099 d73d 6df1 963e 86a3 c13d
000002c0: 761e 033e 6ec6 fe3e bfed fe3e 73cd f53c
000002d0: d8bd 1f3d 8a79 7ebe 9adf 8a3e 2ee5 52be
000002e0: 4b9e 0d3f a82c dabd 9184 983e 2f9b b6bc
000002f0: 8e24 adbe 7626 65bd db7b 2cbe d135 1fbe
00000300: ef43 13be 2af1 a73c cd8d 72bd 2b8c 2a3f
00000310: 962a 10be 7448 58be 616c 083e 6a54 f43d
00000320: 874d 54be 7f04 16be 0bfd b73e 5774 2dbd
00000330: 2f2a 863e 34b0 52be 92b4 adbd e8ba 37be
00000340: 8630 373e ae67 ac3e 6167 c03e 8052 613e
00000350: 0c22 99bd d7ab 7d3e 6acf 593e 145d 18bd
00000360: b47d 82be 6633 3fbe 65c9 d03e 5920 603e
00000370: 123f 483e a34b f6bd 7854 713e ba3d 09be
00000380: 42de 6bbe 8aeb db3e b7c0 ac3d d182 893e
00000390: 39c1 173e c773 943b 732d b9be 7d75 91be
000003a0: c90b 8bbe 83ec 1ebe eb0c 843c ba0b a93e
000003b0: 1d36 803e 8a73 083f 332e 943e 7e09 40bd
000003c0: b2b4 44bd 3dbd deba f0f0 733e 1c11 edbd
000003d0: eb4f 64be b107 cdbc 12f8 673e 75b2 1b3e
000003e0: 615c d3bd ec39 f63d 8012 a0bb 8ec9 403e
000003f0: 1620 b3bc ccaf 0bbe c431 7b3e f419 49be
0.053416226 0.16422433 0.1932119 0.19286746 -0.03880762 -0.2392961 0.08654149 -0.24931912
0.5061178 -0.14034416 -0.19475012 0.4435102 0.03329043 -0.19399655 0.23272626 -0.04984429
0.084836684 0.0048545226 0.051217157 0.18241891 0.1802783 -0.1303056 0.05849616 0.12742823
0.06841695 -0.20129634 0.20639221 0.060501114 -0.14688557 0.15876767 -0.012011827 -0.18058522
0.04371502 -0.18156415 -0.11853545 -0.12239998 -0.04513591 0.0048745 -0.008753752 0.053264085
0.1527965 0.12894093 -0.058367327 0.22874545 -0.1458695 -0.14197572 -0.07602882 -0.013452223
-0.024992138 0.2643472 0.10025003 0.13784948 0.03360359 0.037901074 0.011580408 -0.26475745
0.18731748 -0.20712605 0.05961967 0.009576398 0.2366263 -0.21156818 -0.06191944 0.18390124
-0.20758769 0.08551445 -0.18404153 -0.065569125 -0.06523931 0.046517536 -0.10384484 0.20949048
0.08119407 -0.11825858 -0.10909653 -0.04208336 0.14973259 -0.15109244 -0.082609676 -0.17913558
-0.07949106 0.37236962 -0.050657146 0.44126862 0.1927121 0.014469181 -0.227257 -0.17576794
0.8256069 0.018101575 -0.09034454 0.60487586 0.22980352 -0.15324175 0.026425114 -0.20530836
0.057096563 0.12066386 0.36316788 0.14593357 0.14661582 0.19148465 -0.1269747 0.3328247
0.40928596 -0.17870887 -0.12249613 0.030350672 0.13164793 -0.13139705 -0.09613175 0.2956887
0.10441271 0.37768015 -0.27475497 0.05508925 -0.22355378 -0.28781947 0.4260139 0.34896177
-0.17477037 -0.11851687 0.19654135 0.23917307 0.2362633 -0.06616679 -0.035229117 -0.025960218
-0.1459669 0.16913563 0.051777694 -0.07108922 0.13263199 0.13433675 0.018865412 0.2381821
-0.0714978 0.1423779 -0.016838506 -0.21608563 0.60905594 0.16827384 0.16690685 0.16763519
0.1920567 0.257384 -0.18328914 0.29027048 0.44851485 0.63935226 0.29261833 0.8249
0.11732522 -0.24116908 0.57282585 -0.20840132 0.19374315 0.5485765 -0.3263723 -0.26024544
0.66937625 0.021092314 0.36897966 0.07812389 -0.30616894 0.30908453 -0.009184674 0.49563706
0.0835799 -0.18843012 -0.39932987 0.05286481 -0.30568084 0.10527408 0.29481068 0.09455018
0.12804589 0.49760765 0.4979076 0.030005192 0.03899941 -0.24851051 0.2712372 -0.20595238
0.5531966 -0.10653049 0.2978864 -0.022290794 -0.33816952 -0.055944882 -0.16844122 -0.15547873
-0.14381383 0.020500738 -0.059217263 0.6662013 -0.14078745 -0.21121389 0.13322593 0.11930163
-0.207327 -0.14650153 0.35935244 -0.04234728 0.2620406 -0.20575029 -0.08481707 -0.17942393
0.17889604 0.3367285 0.37578872 0.22004128 -0.07477197 0.24772583 0.21270528 -0.03719814
-0.2548653 -0.1867195 0.40778652 0.2188734 0.1955531 -0.12026145 0.23567379 -0.13402453
-0.23034003 0.4295314 0.08435195 0.26857617 0.14819802 0.0045304033 -0.36167488 -0.2840995
-0.2715743 -0.1551991 0.016119441 0.3301676 0.25041285 0.533013 0.28941497 -0.046884052
-0.048023887 -0.0016993653 0.23822379 -0.11575529 -0.22296111 -0.025028082 0.22653225 0.15204795
-0.10320354 0.120227665 -0.004885018 0.18826887 -0.021865886 -0.1364128 0.24530703 -0.19638807

bias f4 [20]
00000000: d2f7 293e 5085 c33c 791a 13be 6ba4 fc3b
00000010: a3a2 1f3e e564 a33e e2ad afbd 6f94 893e
00000020: b19d 5cbd 0ca6 3e3e f457 d53d 7bf9 b73d
00000030: 63c0 fabd e9b6 1ebe ceb7 de3e ba0a bb3d
00000040: 8fad 85bc 774b 7a3e 3a60 273e 1ba4 8e3e
0.16598442 0.02386728 -0.14365567 0.00771003 0.15589385 0.31912914 -0.085780874 0.26871058
-0.053861324 0.1861803 0.10417166 0.089831315 -0.12243726 -0.15499462 0.43499607 0.09132905
-0.01631811 0.2444285 0.16345301 0.27859578

weight f4 [20, 20]
00000000: 3eee 90bd 3210 883d 7313 4cbe c1ec f43d
00000010: 8b3e 00be 0dfd 29be eb0a 88bc 235f 0fbe
00000020: 2b10 c6bd da68 debd 4fbe 313d 70cc 47bd
00000030: 9969 373e f2fc 05be dae5 313e 7dac 743c
00000040: c9ec a0bc 4174 413e 0f50 f03d e7df 25be
00000050: 0f69 ab3d f3fd 263e e0c4 0e3b bc0d 0d3e
00000060: aa9b 3b3c fabd c83e dfcf 21be 5caf cfbe
00000070: 68cc f1bd df1e 813e 9fb3 09be 3728 8dbe
00000080: 20ad 2a3e 0f4a 31be ab88 5a3e 8368 933e
00000090: 78ef 92bd 32d8 283d 4a00 91bd 4d8d a23e
000000a0: 5c00 bb3d 15b6 4fbe 40ca 39be 577a e73d
000000b0: 31c9 4dbe 8e04 e1bd edb0 0cbd 1f2d fd3e
000000c0: cb1f 76bc 0f02 3abd 5c26 913e 7975 513e
000000d0: 3954 36be 006e 30be 5792 9d3b f2cf b4bc
000000e0: dc04 9b3e 0d77 903e b178 283e 8874 a6bd
000000f0: 0e02 193e abe9 29be c01f 41be dc03 9abd
00000100: 2d07 ce3e 893a 983e 2c98 163e 9cf2 543e
00000110: f872 cfbe f61f b1bb 4f86 8f3e 97aa 8bbe
00000120: dd11 69be 89e6 7cbd 4f76 5d3e 9d00 4abe
00000130: d0bc dfbd d45b bfbd 4ea7 05be b0ee 33be
00000140: 97be 443e 9425 093e 10fd ad3c fc9a 3dbe
00000150: 8565 d13e e84d 5b3e a683 f9bd 2ea4 e8bc
00000160: b747 803d 8ebf 313c ca6c 10be bc2e 5dbe
00000170: 152e e43d 20fb 973d 06a3 eb3d 4467 3cbd
00000180: ccca c9bd 5588 4b3e ff06 383d 1dae 163e
00000190: b6db bb3e 55e4 853d f6d2 b53d 8ed1 86bd
000001a0: 5951 1f3f 5213 3e3e 16fd f0bd 4136 893e
000001b0: 3a8a ddbd 202e adbe f86d bebe 79f2 223e
000001c0: 0e07 4f3e 1030 91bd 51f5 1d3f 45ce 5cbd
000001d0: 124c abbe 0fd4 cbbe b7b4 703c 8f6a ac3d
000001e0: 24e6 61bd c32d e53d 61ed 883e db20 043e
000001f0: 79f2 f13d d3e2 87be 5d2f 6cbe 6d1a 173f
00000200: d0d1 383f f57c e2be 21b0 98be 5698 d53e
00000210: 664f 793e d4c0 523e 21ad b9bd c017 d33c
00000220: 462e 873d 4be9 223e 533e 2dbe 116c 383e
00000230: caa9 c73e a6e2 4ebd 63b9 583d 4474 d3bd
00000240: 9db7 153f 4c47 dcbd 0f56 bcbb e168 4b3f
00000250: a4f1 afbc c321 aabe 92b4 df3d e98f 81be
00000260: ab0e ddbd e115 303e a1ab 553e 9a25 5b3e
00000270: 60b6 94bd 7d55 853e 9491 c1bd f295 99be
00000280: fa20 5dbe d8b8 2f3e 88f7 5fbe 6bc8 c6bd
00000290: c1d2 bfbe 9ad8 773e 0ff5 a23e 69a4 2a3d
000002a0: 83e7 d13e cf8a df3e dfce 8fbd 1d51 d53e
000002b0: 902f f23d d29c 3e3e 80ba e03e ab12 033f
000002c0: 0ec5 893c 1636 10be 4e4a cfbd 75c9 5f3e
000002d0: 8e84 febd 082e 16be 62c1 c93d ca55 5d3e
000002e0: 31b4 89be 5788 17be 6b46 3a3e fbab 1fbe
000002f0: 809e 20be ce22 993e 7a20 73be 9d22 2b3e
00000300: 9ade 15be f0d3 0e3d e82c 12be 3cb0 ca3e
00000310: b7c2 1e3c bf75 683e dc26 31bc 4faf 233e
00000320: 897c 7c3e 6c7b 08be b0d9 bebd 047d 2cbc
00000330: a51a db3e 4bea 1e3e 1b2c 913e c083 983e
00000340: b795 e1bc 0eec 5cbe 12f2 b23c becf a9be
00000350: 7692 91be ea2b 17bc 9c63 ca3e 4d63 6f3e
00000360: 7a69 5d3c 73fb 2bbe 6ffd 37be b7bc 41be
00000370: cf74 cb3d 6700 86bb 1afa 18be bee5 093e
00000380: 75d4 4bbe d5e1 603d fdc0 713c 566d 2b3f
00000390: 8c65 e9be f2ad a93e 9e45 943d aa40 cbbe
000003a0: 9541 613b 933c 09bd 0d79 233d e85d df3e
000003b0: 2ffd ed3e a921 693e 945c 173e 0a55 babe
000003c0: c67f 1bbe 19e7 28be 7ab9 813d 7775 5d3e
000003d0: 5341 9fbe ea19 273d b51c 063d 1965 a2be
000003e0: 0c85 9abe d240 ef3e 110d 0dbe 077c 1fbe
000003f0: 6f3c fdbc 00d3 3ebe ec5c e33e 5091 9b3e
-0.07076691 0.06643714 -0.19929294 0.1195922 -0.12523858 -0.16600437 -0.016606769 -0.14001136
-0.096710525 -0.108598426 0.043394383 -0.04877895 0.17911376 -0.13084772 0.17372838 0.014933703
-0.019644158 0.18892004 0.1173402 -0.16198693 0.08369648 0.16307811 0.0021784827 0.1377477
0.011450687 0.3920744 -0.15801953 -0.40563476 -0.118065655 0.25218865 -0.13447426 -0.27569744
0.16667604 -0.17313407 0.21341197 0.28790674 -0.07174581 0.041221805 -0.07080133 0.3174843
0.09130928 -0.20284303 -0.18143559 0.11302631 -0.2009628 -0.10987197 -0.034348417 0.49448487
-0.0150222285 -0.04541212 0.28349578 0.20454969 -0.17805566 -0.17229462 0.004808705 -0.022071812
0.30277145 0.2821583 0.1645229 -0.08127695 0.1494219 -0.16593044 -0.18859768 -0.07520267
0.4023985 0.2973216 0.14706486 0.20795673 -0.40517402 -0.0054054214 0.28032157 -0.27278587
-0.2276072 -0.061743293 0.21627162 -0.19726796 -0.10924685 -0.09343687 -0.13052103 -0.17571521
0.1921333 0.13393241 0.021238834 -0.18516153 0.40897766 0.21416438 -0.12183313 -0.0283986
0.062636785 0.010848893 -0.14104 -0.21599859 0.11141602 0.07420945 0.11505704 -0.04599692
-0.098531336 0.19876225 0.044928547 0.14714856 0.36691064 0.065376915 0.08878128 -0.06582938
0.622335 0.18562058 -0.11767022 0.26799205 -0.1081738 -0.33824253 -0.37193274 0.15912808
0.20217535 -0.07089245 0.6170245 -0.05390765 -0.33456475 -0.39810225 0.014691523 0.08418762
-0.05515112 0.11190369 0.26743606 0.12903158 0.11813826 -0.2654024 -0.23064943 0.590247
0.7219515 -0.4423596 -0.29821876 0.41717786 0.24346694 0.2058137 -0.09066225 0.02576816
0.06600623 0.15909307 -0.16918306 0.18009974 0.38996726 -0.050509118 0.052911174 -0.1032491
0.58483297 -0.10755786 -0.0057475637 0.7945691 -0.021477528 -0.33228883 0.10923113 -0.25305107
-0.10793813 0.17195846 0.20866252 0.21401063 -0.07261348 0.26041785 -0.09451595 -0.29997212
-0.21594611 0.17160356 -0.2187177 -0.097061954 -0.3746548 0.2420372 0.3182759 0.0416607
0.40996942 0.4366059 -0.070218794 0.41663447 0.11825478 0.1861451 0.43892288 0.5120036
0.016817596 -0.14083132 -0.10121594 0.21854194 -0.124276266 -0.14665997 0.09851338 0.21614757
-0.26895288 -0.14798103 0.18190925 -0.15592949 -0.15685463 0.29909366 -0.23742858 0.16712423
-0.14635697 0.034870088 -0.14274943 0.3958758 0.009689978 0.22701167 -0.010812487 0.15984844
0.24656881 -0.13328332 -0.09318864 -0.010527853 0.42793766 0.15519063 0.28353962 0.29788017
-0.02753721 -0.21574423 0.021843944 -0.33166307 -0.28432053 -0.0092267785 0.3952912 0.23377724
0.013513917 -0.16795139 -0.17967771 -0.18919645 0.09934389 -0.0040894034 -0.14939156 0.13466546
-0.19905265 0.05490287 0.014755485 0.6696371 -0.45585287 0.33140522 0.07239841 -0.39697772
0.0034371365 -0.033505034 0.039910365 0.43626332 0.46482226 0.22766747 0.1478141 -0.36393005
-0.1518546 -0.16494407 0.06334205 0.2162684 -0.31104526 0.040796198 0.03274222 -0.31717756
-0.30179632 0.4672914 -0.13774516 -0.15574656 -0.030912606 -0.18635178 0.4440683 0.30384302

bias f4 [20]
00000000: d874 be3b 369d 723e d579 01be 5a92 b3bd
00000010: 1de4 743e ed9b 563e 37c0 13bd ea6e 523e
00000020: 5b4b 3f3e f07c 0abc b5da 06be 2612 af3e
00000030: 5a5b 073e 2b50 5f3e d30c 2a3e da87 5f3d
00000040: b06a 3c3e 8369 13be cfe2 1b3e 8332 853d
0.0058122687 0.23692784 -0.12644131 -0.08768149 0.23915143 0.20957918 -0.036071982 0.20550123
0.1868109 -0.008452639 -0.13169368 0.34193534 0.13218442 0.21807925 0.16606455 0.054572918
0.18400073 -0.14395718 0.1522324 0.06503775

weight f4 [10, 20]
00000000: 8d2a 09be 93e5 233f ffc8 7cbe f021 38be
00000010: fbf2 fa3d 96a8 40bd b757 01bf 007f 8abe
00000020: 0f95 df3e de11 c13e 7f77 ffbd 18a6 aa3e
00000030: 79a0 453f ccc8 f33d 1c65 4dbe 1822 1bbf
00000040: 5574 20be ea03 123e 5740 83be 97ac b7bd
00000050: d7bb 8cbd 9e4c aabc ad0b c73e 468d 93be
00000060: cd06 c53d 215f 9bbe 5683 183f 25f4 d03e
00000070: fd76 2abf 19db b13c 730c a8be 70e6 8d3e
00000080: 58a2 1dbe e84c 21bf 857b fbbc c3aa 56bd
00000090: 7855 0f3e 3e52 c23d ed2b d63e 4a68 b4bd
000000a0: d474 89bd 5ebc 2ebc e917 c53e 3b8f 9fbd
000000b0: 6d04 9cbe 3e3c dabd 5746 95bd cb0f 6e3e
000000c0: 37a4 733e ec7a 583e 487d fd3c 7efb 3f3f
000000d0: 7518 68bd 9aa7 9abe f2c0 cdbe 8097 e93d
000000e0: 9091 0fbf e717 05be 0833 d13e 6176 be3e
000000f0: 21f5 0c3e dd9c ad3d 3b25 6c3e cef1 d63e
00000100: c3b2 ad3c 82b2 ccbe 4638 dabe 4575 f83d
00000110: 1b1f 89be c3e5 253e 1f8d 583e 52e4 9e3e
00000120: c68b 99be 9ac3 bdbe 1807 fd3e 7e15 9e3c
00000130: 63b4 f83e 9cd4 073e f617 01bf ae7b 753e
00000140: 1367 3c3d 6dd7 4ebe 5a26 ba3b 49fd cebe
00000150: feca 6d3e 1943 0d3f c885 b23e d34c b23d
00000160: 60ad 39ba 0da1 48be edac 10be 8f5e b2be
00000170: 8aa1 b3bd bd08 bc3e 7384 50be 1e43 743e
00000180: 17fc 59be ab22 00bd 3460 2ebc 4f41 abbd
00000190: 660b 5e3e 3b48 c83e 3e18 cebd e7e7 f93d
000001a0: 37fb c13e 6646 1cbe ab52 c1be 6e6b 09bf
000001b0: 7bcd c1bc c78d 69be a1cf 8bbe aacf f1bd
000001c0: 0e27 81be eb06 de3e d25e 053f 026c aa3e
000001d0: 2890 f63e 070c b23d 590b bebe b9ab 98bb
000001e0: 2ac4 403e ff59 2cbd 67c8 a83d d892 713c
000001f0: 01af 50be 6aa2 efbe f2bd 003f fdaa 2fbf
00000200: 6a6a ae3e 581b 533e 2568 8bbe 04b7 e1be
00000210: 9acc a5bd 9618 e43e 6a76 01bf e551 8c3e
00000220: 0f0c e03b 1cb6 c53d b402 973e 9854 9fbe
00000230: 1b3c 22bd a537 59bb e013 6dbe 8d95 c73e
00000240: 21de 923e 98f3 193f e123 b8be fcfb b73e
00000250: 1a65 fdbe 0104 74be 76f4 ff3e ae87 703e
00000260: 2ce8 59be 3ad7 87be dfec 5d3e 827d acbe
00000270: f9f3 93be 001f cf3d 63c3 133e 2df2 f23d
00000280: d602 133d 1b2c 30be c78d 823e b9dc 21be
00000290: 22b7 b63d 3f3e 02bf d89e 62bd ada7 6a3e
000002a0: fd84 8f3e 21ed e1bd 40e1 11bc 0c90 5e3d
000002b0: 0cd5 10be 2fa8 eb3c 51cc 323d 82b7 443e
000002c0: bd09 6c3e 9950 4a3d ac23 3bbe 5f98 a43e
000002d0: b48c 8c3c 4f47 eabd 7ad8 613c 3c0e 663e
000002e0: 28ba 643e bf0d 003f e69c d33c 308e 903e
000002f0: 50ec aabd 8368 ccbd 5c96 bb3e 04c6 f4be
00000300: 00a3 6e3d ef53 203e 33a9 9c3e 5e37 3bbe
00000310: b3cc 2cbe bf98 223d c7b9 1c3e 6402 c4bd
-0.13395138 0.6402218 -0.24686049 -0.17981696 0.12253376 -0.047035776 -0.5052447 -0.27050018
0.4366841 0.37708944 -0.12473964 0.33329844 0.77197987 0.11903533 -0.20058101 -0.605989
-0.15669377 0.14259306 -0.25635025 -0.08968466 -0.06871765 -0.020788487 0.38876095 -0.2881872
0.09620438 -0.30346015 0.595754 0.40811267 -0.6658781 0.02171092 -0.32821998 0.27714872
-0.1539396 -0.63007975 -0.030698547 -0.052408945 0.13997447 0.09488343 0.41830388 -0.08808954
-0.06711736 -0.010665027 0.38494805 -0.07790991 -0.30472127 -0.106560215 -0.07288807 0.23248212
0.23793112 0.21140641 0.030943528 0.7499312 -0.05666395 -0.30205995 -0.40186268 0.114058495
-0.56081486 -0.129974 0.40859246 0.3719969 0.13765384 0.08477185 0.23061077 0.41981357
0.021203404 -0.3997994 -0.42621058 0.121317424 -0.26781544 0.16200928 0.21147583 0.3103357
-0.2998945 -0.37063295 0.49419475 0.019297358 0.48575124 0.13264698 -0.50427186 0.23972961
0.045996737 -0.20199366 0.0056808414 -0.40427616 0.23221967 0.5518051 0.34867692 0.08706059
-0.0007083025 -0.19592686 -0.14128466 -0.34837767 -0.087710455 0.36725417 -0.20363025 0.23853728
-0.21287571 -0.031283062 -0.010643054 -0.08362066 0.21684036 0.39117607 -0.100632176 0.12202435
0.37886974 -0.1526123 -0.37758383 -0.5367955 -0.023657551 -0.2280799 -0.27306846 -0.11807187
-0.2522511 0.43364653 0.5209781 0.33285528 0.48156857 0.086937 -0.37118033 -0.004659143
0.1882483 -0.042078014 0.08241349 0.014744483 -0.20379259 -0.468036 0.50289834 -0.6862028
0.34065562 0.206159 -0.27227893 -0.44084942 -0.08095665 0.44550008 -0.5057131 0.2740623
0.006837375 0.09653875 0.2949425 -0.31119227 -0.039608102 -0.003314474 -0.23152113 0.38981286
0.28685096 0.6013732 -0.35964873 0.35934436 -0.49491197 -0.23829652 0.49991196 0.23489258
-0.21279973 -0.26531392 0.2167239 -0.33689505 -0.28897074 0.10113335 0.14430003 0.118625976
0.035891376 -0.17204325 0.25498793 -0.15806855 0.089216486 -0.5087623 -0.055327266 0.22915526
0.2803115 -0.11031557 -0.008903801 0.054336593 -0.14143771 0.02876672 0.043651883 0.19210628
0.2305059 0.04939327 -0.18275326 0.321475 0.017156936 -0.11439382 0.013784522 0.22466367
0.22336638 0.50020975 0.025831651 0.2823348 -0.08345854 -0.099808715 0.36638153 -0.47807324
0.058260918 0.15657018 0.3059784 -0.1828284 -0.16874962 0.03969645 0.15305243 -0.095707685

bias f4 [10]
00000000: 5f5c fb3e 8d2d 683d a0e2 b13d d45f 89bd
00000010: 4230 09be 1bcf 943e 39db 86bb 6453 d7ba
00000020: c90c 293e c490 8bbe
0.4909391 0.056684066 0.086858034 -0.06707731 -0.13397315 0.2906426 -0.004115489 -0.0016428051
0.16508783 -0.27258885
