datasets/mnist/partition_noniid-#label_major_classes_num_2_clients_10_dir_alpha_None_augement_data_percent_per_class_0.01_seed_42/models/batch_size_256_com_round_15_epochs_5_lr_0.1_sample_ratio_0.9_personalization_steps_25/client_5.pt (torch, 175631 bytes, 8 tensors)

weight f4 [50, 784]
0	0xb98c2fff	-0.0002673864
1	0x3c9cf2b5	0.0191587
2	0xbcf0cca9	-0.029394465
3	0xbcd75093	-0.026283538
4	0xbc615ed0	-0.013755515
5	0x3c1ce90e	0.009577049
6	0xba397f27	-0.0007076137
7	0x3ce7fa13	0.028317487
8	0xbb4fb637	-0.0031694302
9	0x3c1ad60e	0.009450449
10	0xbc30d67d	-0.0107933255
11	0xbbe609a4	-0.007020192
12	0xbd0b52e3	-0.034014594
13	0xbcbfda34	-0.023419477
14	0xbc712506	-0.0147183
15	0x3aad6d8a	0.0013231498
16	0x3c6753dc	0.014119115
17	0x3caf8cae	0.021429386
18	0xbcc658a1	-0.024212183
19	0xbc7eced8	-0.015552245
20	0x3c5488b0	0.012972042
21	0x3cf2f2a3	0.029656714
22	0xbbf0d853	-0.0073500066
23	0x3cdaef49	0.026725428
24	0xbbbca16e	-0.0057565486
25	0x3b77aa5c	0.003779075
26	0x3d04754f	0.032338437
27	0xbd07b476	-0.033131085
28	0xbcb82f51	-0.0224835
29	0xbc14234a	-0.009041617
30	0xbc6416b3	-0.013921428
31	0x3cfcc82e	0.030857172
32	0xbcbda382	-0.023149256
33	0xbc86ad29	-0.016439991
34	0xbcca094f	-0.024662642
35	0xbd069d72	-0.032864995
36	0xbca6d3f8	-0.020364746
37	0x3cfcfaff	0.030881403
38	0x3c85b54c	0.0163218
39	0x3c91e6a6	0.017810177
40	0x3b6aebe3	0.0035846166
41	0xbc8f76cc	-0.017512701
42	0x3bd8fc87	0.0066219005
43	0xbd05d40b	-0.032672923
44	0xbccd1dfb	-0.02503871
45	0xbc916a54	-0.017750897
46	0x3cba0f45	0.02271236
47	0x3caf164f	0.021372942
48	0xbc7fff2c	-0.015624803
49	0xbab7102b	-0.001396661
50	0x3cbb0a4e	0.022832062
51	0x3d116805	0.03549959
52	0x3c683b9b	0.014174367
53	0x3b9e18e5	0.004824745
54	0x3cc42a47	0.02394594
55	0xbcac4449	-0.021028655
56	0x3bda1364	0.0066551436
57	0xbce2d50e	-0.027689483
58	0xbccac6e8	-0.024753049
59	0xbc96f946	-0.01842941
60	0x3c845baa	0.01615699
61	0x3c6b821b	0.014374281
62	0xbcaa9914	-0.020824946
63	0x3c3f6540	0.011681855
64	0x3cab15c1	0.020884397
65	0xbb4e0302	-0.0031434898
66	0x3b8ac474	0.004234845
67	0x3c5daabe	0.013529478
68	0x3cf198f6	0.029491883
69	0x3d2d59fa	0.042322136
70	0xbc9e4d19	-0.019323872
71	0xbb7e8244	-0.0038834969
72	0x3cb77bf0	0.022397965
73	0x3d10bd0e	0.035336547
74	0x3d09dde5	0.03365888
75	0x3d05c6f2	0.032660432
76	0x3c1e3ee5	0.00965855
77	0xbceb0b4b	-0.028691908
78	0x3b8338aa	0.0040045576
79	0xbcb3b2c3	-0.021935826
80	0xbd080363	-0.033206355
81	0x3d0209a2	0.031747468
82	0x3cde75a5	0.027155707
83	0xbd11ec92	-0.035626
84	0x3bdb0b7b	0.006684718
85	0xbbc52577	-0.006016429
86	0xbbc09349	-0.0058769328
87	0xbc849f60	-0.016189277
88	0x3c6262eb	0.013817529
89	0xbcaa667b	-0.02080082
90	0x3c6e2d62	0.014537187
91	0x3ca492f0	0.020089597
92	0x3ce778da	0.028255869
93	0x3cbd1be4	0.023084588
94	0xbcc29d88	-0.023756757
95	0xbc530c78	-0.012881391
96	0x3cf56dba	0.029959548
97	0x3cbe1acd	0.023206139
98	0xbc5f4563	-0.013627383
99	0xbbb60453	-0.0055547147
100	0x3d2ddbf1	0.04244608
101	0x3cb4cf1b	0.022071412
102	0xbc996356	-0.018724125
103	0xbc50caee	-0.012743695
104	0xbd0e0cb9	-0.034680102
105	0x3aced059	0.0015778645
106	0xbcd3a77a	-0.025836695
107	0xbcdad133	-0.026711082
108	0xbb04876a	-0.0020222315
109	0x3bae9846	0.005328211
110	0xbc6fa849	-0.014627525
111	0x3cad9af9	0.02119206
112	0xbcb20a89	-0.02173354
113	0x3d04bc37	0.03240606
114	0x3cc88070	0.024475306
115	0xbcf6d55c	-0.030131035
116	0xbc0ac63f	-0.008470117
117	0x3b83d3f5	0.00402307
118	0x3c21ec0e	0.00988294
119	0x3c80e736	0.01573525
120	0x3cc9020f	0.024537114
121	0x3c846279	0.016160237
122	0xbb945e99	-0.0045278785
123	0x3d01941f	0.0316354
124	0xbc376d75	-0.01119553
125	0x3b789cdf	0.00379353
126	0x3c80f7a2	0.01574308
127	0xbb6b466d	-0.0035900131
128	0xbba0c285	-0.004906001
129	0xbced9a9f	-0.029004393
130	0xbc45aed1	-0.012065605
131	0x3bf02213	0.0073282807
132	0xbca47aa4	-0.02007801
133	0xbb8ed490	-0.0043588355
134	0x3caa27cc	0.02077093
135	0xbc16b274	-0.00919782
136	0xbb781f27	-0.0037860365
137	0xbb77e036	-0.003782285
138	0x3becb7b5	0.007224048
139	0x3cb9f354	0.022699036
140	0x3d0a918f	0.03383022
141	0x3cb9cc9a	0.02268057
142	0x3d0afdda	0.033933498
143	0xbb302f82	-0.0026883786
144	0xbcf950cb	-0.030434033
145	0xbc4f04d6	-0.01263543
146	0x3d02c4b4	0.031925872
147	0x3c27d17b	0.010242815
148	0xbb90e892	-0.004422256
149	0xbc342618	-0.01099541
150	0xbc8759f6	-0.016522389
151	0xbc503c7a	-0.012709731
152	0x3c81170c	0.01575806
153	0x3d3754da	0.044758655
154	0x3d1cdf6c	0.03829901
155	0xbc88dc90	-0.016706735
156	0x3d1503c3	0.03638054
157	0xbc1662ac	-0.009178799
158	0x3c3ec0a7	0.011642612
159	0x3a8df029	0.001082902
160	0x3b5d6b44	0.003378586
161	0xbabab022	-0.0014243165
162	0xbd18378b	-0.037162345
163	0xbd20a2f9	-0.039217923
164	0xbc705322	-0.014668258
165	0xbb27e4b5	-0.0025618498
166	0xbc867626	-0.01641376
167	0x3c5ccb9a	0.013476277
168	0xbd03aa6b	-0.032144945
169	0xbb1df7e3	-0.002410405
170	0x3cfdb026	0.030967783
171	0xbc766775	-0.0150393145
172	0x3d06b5e9	0.032888327
173	0x3c85e117	0.016342683
174	0xbcbb3ae5	-0.022855232
175	0x3d15ddad	0.03658836
176	0x3c0584b3	0.008149314
177	0xba15adba	-0.0005709786
178	0x3d498db4	0.049207404
179	0xbc1fb9fb	-0.009748931
180	0x3c371824	0.011175189
181	0xbc58911c	-0.0132181905
182	0x3cc904a7	0.024538351
183	0x3c8d5067	0.017250253
184	0x3c7e898a	0.015535722
185	0x3c193fcb	0.009353588
186	0xbbaafdbe	-0.0052182367
187	0xba4ccee6	-0.00078128127
188	0xbcc45c4f	-0.023969797
189	0x3c68c00f	0.014205947
190	0x3c86f147	0.016472472
191	0x3c2a7823	0.010404619
192	0xbd21e6eb	-0.03952686
193	0xbbe388be	-0.006943791
194	0xbce0aa11	-0.027424844
195	0xbca2b4b0	-0.01986155
196	0xbcaa7bb4	-0.02081094
197	0x3c47b7b9	0.012189799
198	0xbcae1767	-0.021251393
199	0xbad97dd0	-0.0016593281
200	0x3b561bc0	0.003267035
201	0x3cec9576	0.028879862
202	0xbc7b1a88	-0.01532615
203	0xbc412e85	-0.011790876
204	0xbc823005	-0.015892038
205	0x3d032609	0.032018695
206	0xbbe591e0	-0.007005915
207	0x3cdc6ab3	0.026906347
208	0x3b5d2d56	0.0033748946
209	0xbbf0d8dd	-0.007350071
210	0xbc9be951	-0.019032152
211	0xbcb12073	-0.021621918
212	0xbc111932	-0.008856105
213	0xbcc6bab6	-0.024258953
214	0xbbd2cbfd	-0.0064330087
215	0x3b4e0364	0.0031435126
216	0xbceb966f	-0.028758256
217	0xbca4dded	-0.020125354
218	0x3c80cb0d	0.015721822
219	0xbd4c446c	-0.04986994
220	0xbcb24323	-0.021760529
221	0x3cb89551	0.022532137
222	0x3c298717	0.010347149
223	0x3a57a673	0.0008226402
224	0xbcff9543	-0.031199103
225	0x3c92b374	0.017907836
226	0xbccd5987	-0.025067104
227	0xbc2d9ce2	-0.010596486
228	0xbbd30ebe	-0.0064409664
229	0x3b674dc1	0.0035294148
230	0x3c4760de	0.012169091
231	0x3d2b3d81	0.0418067
232	0x3bc5efb4	0.0060405377
233	0x3cd79103	0.026314264
234	0x3c2b8e2a	0.010470906
235	0xbcff644f	-0.03117576
236	0x3b507110	0.0031805672
237	0xbd0851e4	-0.033281222
238	0xbca04de5	-0.019568393
239	0xbb843f02	-0.0040358314
240	0xbbd7039e	-0.0065617105
241	0x3c8a9e19	0.01692109
242	0xbca60348	-0.020265236
243	0xbb9668f5	-0.0045901486
244	0x3c27f55d	0.01025137
245	0xbd247851	-0.040153805
246	0x3c582ffc	0.013195034
247	0xbd520db1	-0.05128259
248	0xbca4263e	-0.020037767
249	0xbc955c1a	-0.018232394
250	0xbcade3e2	-0.021226827
251	0x3b9719e9	0.004611243
252	0x3cf1efc2	0.02953327
253	0xbc2b4895	-0.010454317
254	0xbcabe1de	-0.020981725
255	0xbc653f8b	-0.013992201

bias f4 [50]
0	0xbd7d09bd	-0.061776865
1	0xbd7374bb	-0.059437495
2	0x3e2362a7	0.15955602
3	0x3d789172	0.060685582
4	0x3e177e3c	0.14794248
5	0x3cbf1292	0.023324285
6	0x3e5f09f1	0.21781136
7	0xbd449bc3	-0.04800011
8	0xbd21e28e	-0.0395227
9	0x3da6fb86	0.08153443
10	0x3ba9d251	0.0051825424
11	0xba47dc53	-0.00076240784
12	0x3d38b5d4	0.04509528
13	0x3d073a4c	0.03301458
14	0x3d154df7	0.036451306
15	0x3cda7cef	0.026670901
16	0x3c37c45e	0.011216251
17	0x3d6cdae2	0.05782593
18	0x3e371d01	0.17882158
19	0x3c21759c	0.0098547
20	0x3dc470b0	0.09591806
21	0xbd0089f4	-0.031381562
22	0x3d7aefcb	0.06126384
23	0x3d907e35	0.07055322
24	0xbc94f004	-0.018180855
25	0x3e023a3e	0.1271753
26	0x3c946e8d	0.018119121
27	0x3da752ce	0.081700906
28	0x3d80ff90	0.06298745
29	0x3d44302f	0.047897514
30	0x3c7647bb	0.01503175
31	0x3dd66ef3	0.10470381
32	0x3d981fd2	0.07427944
33	0x3e14c0ff	0.14526747
34	0x3d51d1a0	0.051225305
35	0xbd6af9c9	-0.05736712
36	0xbc833591	-0.016016753
37	0x3cc5a309	0.024125593
38	0x3d1ffe33	0.039060783
39	0x3e03e606	0.12880716
40	0x3b36fdce	0.0027922275
41	0x3dac4b58	0.08412808
42	0x3d9cebd3	0.076621674
43	0xbd46751c	-0.048451528
44	0xbd2b7d90	-0.041867793
45	0xbd4c49e3	-0.04987515
46	0xbcbed188	-0.023293272
47	0xbd1ac3c4	-0.037784353
48	0x3d710362	0.058841117
49	0x3dd5e7a4	0.104445726

weight f4 [50, 50]
0	0xbaa51fe9	-0.0012598011
1	0xbd83012b	-0.06396707
2	0x3c5f0012	0.013610857
3	0x3ce0d732	0.027446363
4	0xbe001761	-0.12508918
5	0xbe279501	-0.16365434
6	0x3dd63614	0.10459533
7	0xbdddac32	-0.10823859
8	0x3dfd826d	0.12378392
9	0x3e5b0ba0	0.21391153
10	0xbd5f652e	-0.05453985
11	0x3c54441d	0.012955693
12	0x3d0a90b5	0.03382941
13	0x3d6abd2f	0.057309326
14	0x3e1ab609	0.15108503
15	0x3da92599	0.08259124
16	0x3c983a76	0.018582564
17	0x3d95b5cb	0.07310065
18	0x3e2553ca	0.16145244
19	0x3de40ccb	0.111352526
20	0xbe44cf78	-0.19219768
21	0x3debe1d4	0.11517683
22	0xbdbcec24	-0.09224728
23	0xbe2a3cf3	-0.16624813
24	0x3c96fed3	0.018432057
25	0x3d436045	0.04769923
26	0x3dc953ff	0.09830474
27	0x3e507991	0.20358874
28	0xbd5085d0	-0.050908864
29	0xbe26a9f4	-0.1627577
30	0xbd52029a	-0.051272012
31	0x3e345bd8	0.1761316
32	0x3d812347	0.06305557
33	0x3d6748cf	0.05646592
34	0x3d32671f	0.043555375
35	0xbc86e954	-0.016468681
36	0x3d837ead	0.06420646
37	0x3d2a3ccb	0.041561883
38	0x3df54cbd	0.11977527
39	0x3e5b9090	0.21441865
40	0x3c580846	0.013185566
41	0xbdcaa9a4	-0.09895638
42	0x3c6e01ac	0.014526766
43	0x3e53103f	0.20611666
44	0x3e58a37f	0.21156119
45	0x3d3c76ae	0.04601162
46	0x3e027fde	0.1274409
47	0xbda4449e	-0.080209
48	0xbc40e758	-0.011773907
49	0xbd83b3e5	-0.064307965
50	0xbdcc1555	-0.09965006
51	0x3ddc7d4b	0.10766085
52	0xbe1cad38	-0.15300453
53	0x3c869291	0.01642731
54	0xbe21c374	-0.15797216
55	0x3d89f68a	0.06736477
56	0xbdc9a87c	-0.09846589
57	0x3e198faf	0.14996217
58	0x3df31592	0.118693486
59	0x3db61252	0.08890213
60	0x3cff58ad	0.031170214
61	0xbd0d25a7	-0.034459736
62	0xbaf18367	-0.0018426002
63	0x3e23c4d0	0.15993047
64	0x3d005642	0.03133226
65	0x3e227fad	0.15869017
66	0xbd8a126d	-0.06741796
67	0x3e569165	0.20953901
68	0x3dc89c0e	0.0979539
69	0x3dadec39	0.084923215
70	0xbc9726ec	-0.018451177
71	0x3c8b94f9	0.01703881
72	0x3e1d1535	0.15340121
73	0xbd5fc7ac	-0.05463378
74	0x3db271cc	0.08713111
75	0xbd1b4e18	-0.037916273
76	0x3ce89715	0.028392354
77	0x3e1d3447	0.15351973
78	0xbdc3fd83	-0.09569838
79	0xbd4be76f	-0.04978126
80	0xbd579068	-0.05262795
81	0xbd987429	-0.07444031
82	0x3df4812a	0.119386986
83	0xbd3365c2	-0.043798216
84	0x3cddb9f5	0.02706621
85	0xbd8630a6	-0.06552248
86	0xbd0fb97e	-0.03508901
87	0x3ce1f269	0.02758141
88	0x3c89dc74	0.016828753
89	0x3df3f71a	0.11912365
90	0xbe3f904c	-0.18707389
91	0x3d73ab01	0.059489254
92	0x3e3d419f	0.18482064
93	0x3d539035	0.0516512
94	0xbdf45db2	-0.119319335
95	0x3d53a1d4	0.051668003
96	0x3dd4e8ac	0.10395941
97	0xbd8afe30	-0.06786764
98	0xbdbf8000	-0.09350586
99	0xbd9080e1	-0.07055832
100	0x3d8646f1	0.065565
101	0xbdc21ff8	-0.09478754
102	0xbdf0093e	-0.11720513
103	0xbd16bb7a	-0.036799885
104	0x3cde72c0	0.027154326
105	0x3d734abb	0.05939744
106	0x3c5b60ec	0.013389807
107	0x3d40e636	0.047094546
108	0xbde101d8	-0.1098668
109	0xbcbb8e19	-0.022894906
110	0x3d727e71	0.059202615
111	0x3e1b6f88	0.15179265
112	0xbe0fb146	-0.14032468
113	0x3dcbd6df	0.09953093
114	0xbde40f9d	-0.111357905
115	0xbdf19656	-0.117962524
116	0x3d93159b	0.07181855
117	0xbd937080	-0.07199192
118	0xbd95cb25	-0.07314137
119	0x3e23827c	0.15967745
120	0xbd9c8dd1	-0.07644237
121	0x3e14dacd	0.14536591
122	0xbddd0ad0	-0.10793078
123	0x3bdb167a	0.006686029
124	0xbc179838	-0.0092526
125	0xbdb67e72	-0.08910836
126	0x3de39324	0.11112049
127	0x3e071182	0.13190272
128	0xbd45920d	-0.048234988
129	0x3dd833fb	0.105567895
130	0x3de88ab0	0.113545775
131	0xbe0a9195	-0.13532098
132	0x3d47313c	0.048630938
133	0x3ca12e09	0.019675272
134	0xbcadd645	-0.021220336
135	0xbcf26131	-0.02958736
136	0xbdbd9212	-0.09256376
137	0xbcc8644b	-0.024461886
138	0xbe04dd0a	-0.12974945
139	0xbd972bde	-0.07381414
140	0x3d11a794	0.035560206
141	0x3d81589b	0.06315728
142	0x3dfdf4f8	0.1240024
143	0xbdc0fc9d	-0.09423182
144	0xbdd74fcf	-0.10513269
145	0x3e012515	0.12611802
146	0xbd87938f	-0.066199414
147	0x3e084d2f	0.13310693
148	0x3c0914be	0.008366762
149	0x3e14bf6f	0.14526151
150	0xbdfa026b	-0.122074924
151	0x3dcff13e	0.10153435
152	0x3e3ab6ac	0.18233746
153	0xbdb3b6b7	-0.087750845
154	0x3d311918	0.043236822
155	0xbd86774c	-0.06565723
156	0x3d1b499a	0.03791199
157	0xbd283184	-0.041062847
158	0xbd8eb6dc	-0.069684714
159	0xbba0c853	-0.004906693
160	0xbb3dcd1a	-0.0028961361
161	0x3e1967b4	0.14980966
162	0xbe0f3104	-0.13983542
163	0xbd17ea00	-0.037088394
164	0xbddda543	-0.10822537
165	0x3d60e6ea	0.054907717
166	0x3dc040f5	0.093873896
167	0x3cebd15d	0.028786356
168	0xbd512650	-0.05106193
169	0xbc2d6d31	-0.010585115
170	0xbda851d2	-0.08218731
171	0xbe08665c	-0.13320297
172	0x3d500e98	0.050795168
173	0xbcb02fe6	-0.021507215
174	0x3e35b215	0.17743714
175	0x3d674c52	0.05646927
176	0xbdab8d93	-0.083766125
177	0xbc030929	-0.007997789
178	0xbd8a8626	-0.06763868
179	0xbd4d0f6c	-0.050063536
180	0x3d058d73	0.0326056
181	0x3e1b3147	0.15155517
182	0x3d7b6a4d	0.061380673
183	0xbe27e6a3	-0.16396575
184	0x3e00c564	0.12575299
185	0xbe38eba6	-0.18058643
186	0x3e08afac	0.13348264
187	0xbdd31f84	-0.103087455
188	0xbd3cffac	-0.046142265
189	0xbd7f818d	-0.06237941
190	0xbd578775	-0.052619416
191	0x3dde8e48	0.10866982
192	0x3db3395c	0.08751175
193	0x3dbf8a06	0.09352498
194	0xbdebf7ff	-0.11521911
195	0x3d9d79b3	0.07689228
196	0xbc442be7	-0.011973358
197	0xbdcd5830	-0.10026586
198	0x3ca78be1	0.020452442
199	0xbddbdeb6	-0.10735838
200	0x3d598fc9	0.05311564
201	0x3dc84b26	0.097799584
202	0x3cc51fe9	0.024063068
203	0x3dcfc061	0.10144115
204	0x3d22c1da	0.039735653
205	0x3e2721fb	0.16321556
206	0x3d96f7ec	0.07371506
207	0x3e401e6f	0.1876161
208	0xbdba4eb4	-0.09097043
209	0x3e2d6fb7	0.16937147
210	0x3dfae141	0.12249995
211	0x3c987125	0.018608639
212	0x3df96a42	0.1217847
213	0x3c6ce969	0.014459946
214	0xbdf60b99	-0.12013931
215	0xbe2da504	-0.1695748
216	0xbc80375b	-0.015651396
217	0x3dda024c	0.10644969
218	0x3df6366e	0.120221004
219	0xbd260b52	-0.04053814
220	0xbe077ef2	-0.1323202
221	0xbe2721b0	-0.16321445
222	0x3d85b560	0.06528735
223	0x3cf64c1d	0.03006559
224	0xbe2a219f	-0.16614388
225	0x3d9370e8	0.071992695
226	0x3dded089	0.10879619
227	0xbe27bd52	-0.16380814
228	0x3df5dce7	0.120050244
229	0xbe5cb67c	-0.21553987
230	0x3e0d9cf3	0.13829403
231	0xbe007295	-0.1254371
232	0x3e20cfdc	0.15704292
233	0xbe0e71a5	-0.1391054
234	0xbd418278	-0.047243565
235	0xbdbe92d6	-0.093053505
236	0xbd574c15	-0.05256279
237	0x3e356de5	0.17717703
238	0xbd090fa2	-0.033462174
239	0xbe3a6575	-0.18202765
240	0x3e43fee8	0.19140208
241	0x3e1301fa	0.14356223
242	0x3cb77dc2	0.022398833
243	0xbe4b8f91	-0.19878985
244	0xbd6a37c7	-0.0571821
245	0x3d31adec	0.043378755
246	0xbd92a932	-0.07161178
247	0xbd042f2d	-0.032271553
248	0xbd197f9c	-0.037475213
249	0xbdd2e9e8	-0.1029852
250	0xbdc289d0	-0.09498942
251	0x3d8d547b	0.06900879
252	0x3dea168e	0.11430083
253	0x3d9d30f4	0.07675353
254	0xbde46419	-0.111519046
255	0xbd5fd906	-0.05465033

bias f4 [50]
0	0x3da61085	0.081086196
1	0x3d7c5f1a	0.061614133
2	0x3aef63fd	0.0018264052
3	0x3d874e19	0.06606693
4	0x3e0bf572	0.13667849
5	0x3d3cdf46	0.046111368
6	0x3e06ad8d	0.13152142
7	0x3ddf2786	0.1089621
8	0x3dacbe7a	0.08434768
9	0xbcb60d26	-0.022223067
10	0x3db15be9	0.086601086
11	0x3e800d77	0.25010273
12	0x3e33a21e	0.17542312
13	0x3dd116b9	0.10209412
14	0xbe064a15	-0.13114198
15	0xbb687062	-0.0035467376
16	0x3df014b7	0.11722701
17	0x3de0ef6b	0.10983165
18	0x3decba22	0.115589395
19	0xbe1044fe	-0.14088818
20	0xbd9dbd3d	-0.0770211
21	0x3c8a424b	0.016877314
22	0x3e015580	0.12630272
23	0xbcaff4b1	-0.021478983
24	0x3e99edd7	0.3006427
25	0x3de87d72	0.11352052
26	0x3c67bf26	0.014144694
27	0x3dc562a0	0.09637952
28	0x3e35ae43	0.17742257
29	0x3e57a6e5	0.21059759
30	0x3e865745	0.26238456
31	0xbbd9d258	-0.0066473894
32	0x3e522460	0.20521688
33	0xbe0de7a7	-0.138579
34	0x3db272ca	0.087133005
35	0x3dba066c	0.09083256
36	0xbb93a3c3	-0.004505606
37	0x3b76d24e	0.0037661972
38	0xbd348a40	-0.044077158
39	0x3d61d315	0.055132944
40	0x3e848589	0.2588313
41	0x3e2dfcab	0.16990916
42	0x3e641800	0.2227478
43	0x3dbb9af3	0.091604136
44	0x3e84cc53	0.25937137
45	0x3e47c32c	0.19508046
46	0x3d0d8174	0.034547284
47	0x3e090b9b	0.13383333
48	0xbe1e024a	-0.1543056
49	0x3c3d5a92	0.011557238

weight f4 [20, 50]
0	0x3e24a84a	0.16079822
1	0xbe273790	-0.16329789
2	0xbe0fca91	-0.14042117
3	0x3e227024	0.15863091
4	0x3c94e991	0.01817778
5	0x3e8fead5	0.2810885
6	0x3e2da8d1	0.1695893
7	0x3d4d0a85	0.05005886
8	0x3d9b061b	0.07569524
9	0x3e807f7f	0.25097272
10	0xbea35752	-0.31902558
11	0x3cc00a4e	0.023442414
12	0x3e7f8f4d	0.24957009
13	0xbe2ff197	-0.17182003
14	0xbe1644eb	-0.14674728
15	0x3df5f137	0.12008899
16	0x3e6a653d	0.22890182
17	0x3e823418	0.2543037
18	0x3ea2628f	0.3171582
19	0x3e048563	0.12941508
20	0x3ed349af	0.41267154
21	0xbcd94bbe	-0.026525375
22	0x3e76377d	0.24044605
23	0xbe55363e	-0.20821473
24	0x3e597381	0.21235467
25	0xbd238645	-0.03992297
26	0x3d567a2d	0.05236261
27	0xbe90b102	-0.28260046
28	0xbe986845	-0.2976705
29	0xbe0c8633	-0.13723068
30	0xbd7fbc23	-0.06243528
31	0xbd18099d	-0.037118543
32	0x3f3125fc	0.69198585
33	0xbd1b9f09	-0.037993465
34	0xbb00e4c9	-0.0019667617
35	0x3e12b10b	0.14325349
36	0xbb759701	-0.0037474039
37	0x3d86f0b2	0.06588878
38	0x3dbdd825	0.09269742
39	0xbe544150	-0.2072804
40	0x3e3dfa81	0.18552591
41	0xbdd18e07	-0.10232168
42	0xbe11ed92	-0.14250782
43	0xbe1f0e9a	-0.15532914
44	0x3dc34126	0.095339105
45	0xbe52fec4	-0.20604998
46	0xbe7f1170	-0.24908996
47	0x3e0cd8c1	0.1375456
48	0xbb501954	-0.0031753378
49	0xbd7a2fd2	-0.06108076
50	0xbe207c05	-0.1567231
51	0x3d270417	0.040775385
52	0xbd4f8090	-0.050659716
53	0x3b82f974	0.0039970223
54	0xbe26965f	-0.162683
55	0xbe1428c4	-0.14468676
56	0x3e98d649	0.29850987
57	0xbdba2f5f	-0.090910666
58	0x3e1806e1	0.14846374
59	0xbe0cb319	-0.13740195
60	0x3e035612	0.12825802
61	0x3d0ae5f2	0.0339107
62	0x3e968091	0.29394963
63	0xbd607447	-0.05479839
64	0x3de29af7	0.110647134
65	0x3cc4d1f2	0.024025891
66	0x3e71188e	0.23544523
67	0xbe4369e2	-0.1908336
68	0x3e3328e8	0.17496073
69	0x3bf5d6d0	0.0075024143
70	0xbdaac0c2	-0.08337547
71	0x3e0c3426	0.13691768
72	0x3c9f1c19	0.019422578
73	0xbd8a8d40	-0.067652225
74	0xbde529d0	-0.11189616
75	0x3e563f9d	0.20922704
76	0x3ded60c5	0.11590723
77	0x3e6b1f46	0.22961149
78	0xbc76b5c9	-0.015057989
79	0xbd28944f	-0.041157063
80	0x3e186172	0.14880922
81	0xbd673bb1	-0.05645341
82	0x3ee77a05	0.4521028
83	0x3b9f0551	0.0048529287
84	0xbdeb85e9	-0.11500151
85	0x3e87e8a5	0.2654468
86	0x3d8afba5	0.06786279
87	0x3a603f4e	0.0008554355
88	0x3df3d486	0.1190577
89	0xbd5e971c	-0.054343328
90	0x3e91b2d9	0.28456762
91	0xbe72c2e6	-0.2370716
92	0x3da9e6d6	0.082959816
93	0x3e296db7	0.16545759
94	0x3be3b972	0.006949597
95	0x3ddf84e6	0.1091402
96	0x3e59e340	0.21278095
97	0x3e4b5d0d	0.19859715
98	0xbd0fa3e2	-0.0350684
99	0xbd697b56	-0.057002388
100	0x3dc8eb28	0.098104775
101	0x3db16954	0.08662668
102	0xbd46f772	-0.048575826
103	0xbde4b85b	-0.111679755
104	0xbe526acc	-0.20548552
105	0xbc17c7d6	-0.009263953
106	0xbccee7ed	-0.025257075
107	0x3da9d787	0.08293062
108	0x3e8f1794	0.27947676
109	0x3e126552	0.14296463
110	0xbc2b89ad	-0.010469836
111	0x3e43746a	0.19087377
112	0x3dddc3a8	0.10828334
113	0x3e00326b	0.12519233
114	0xbcd63728	-0.026149347
115	0xbe2d7a6e	-0.16941234
116	0x3d97c825	0.074112214
117	0x3eb12c93	0.3460432
118	0x3b64473c	0.0034832498
119	0xbd84fd5e	-0.064936385
120	0x3d1a07fa	0.037605263
121	0x3d670dbb	0.05640958
122	0xbe75d655	-0.24007542
123	0x3dd92116	0.10602014
124	0xbe05fa02	-0.13083652
125	0x3e013c57	0.12620674
126	0xbe126b2b	-0.14298694
127	0x3eb76d1d	0.35825434
128	0x3cdc05a4	0.026858158
129	0xbcfe6948	-0.031056061
130	0xbd93435d	-0.07190583
131	0x3c9f394b	0.0194365
132	0xbe4acd90	-0.19804978
133	0xbd566a66	-0.052347563
134	0x3e9bf088	0.30456948
135	0xbe4ae3cb	-0.19813459
136	0xbdc01e79	-0.09380812
137	0x3d8e95d4	0.06962171
138	0x3e7f1d36	0.24913487
139	0xbcddd0a8	-0.027077034
140	0xbd5d3e4f	-0.0540145
141	0x3b3b27a0	0.0028557554
142	0xbd6c14e7	-0.05763712
143	0xbda70d35	-0.08156816
144	0xbd629ad7	-0.055323448
145	0x3e03efe6	0.12884483
146	0xbe11ff39	-0.14257516
147	0xbdb56d8a	-0.088587835
148	0x3dddafdc	0.10824558
149	0x3e355495	0.17708047
150	0x3c0b874a	0.008516142
151	0x3de8d5b4	0.11368886
152	0xbdb76849	-0.08955438
153	0xbdde1869	-0.108444996
154	0x39ee2bd7	0.0004542756
155	0xbdbd1f93	-0.09234538
156	0xbda09199	-0.078402705
157	0xbd9d0853	-0.07667603
158	0xbd8b0259	-0.06787557
159	0x3d8d2f71	0.06893814
160	0x3d54e898	0.05197963
161	0x3db1b56e	0.08677183
162	0xbd4fd51d	-0.05074035
163	0x3bc9b1ca	0.0061552273
164	0xbd9a47f8	-0.07533258
165	0xbd60ebec	-0.054912493
166	0x3c7e011c	0.015503194
167	0x3af67bf3	0.001880525
168	0xbd37c630	-0.04486674
169	0x3d972933	0.07380905
170	0x3dc25d86	0.094904944
171	0xbca28384	-0.019838102
172	0x3cb2f922	0.021847311
173	0xbdc16a8d	-0.09444151
174	0xbc71d8ca	-0.014761159
175	0xbd823a4a	-0.06358774
176	0xbdd4e7b9	-0.1039576
177	0xbd887283	-0.066624664
178	0xbe0aa88f	-0.13540863
179	0xbd8df08e	-0.06930648
180	0xbd04e35a	-0.03244338
181	0xbd1b933a	-0.037982203
182	0xbdbfd783	-0.093672775
183	0x3d9e427d	0.077275254
184	0xbdd5b5b2	-0.10435046
185	0x3da0404c	0.07824764
186	0xbd02b8fc	-0.031914696
187	0xbd8c396b	-0.06846889
188	0x3d195fc1	0.037444834
189	0xbc155e14	-0.009116668
190	0xbe082a74	-0.13297445
191	0xbd9e6cbb	-0.077355824
192	0xbd24735c	-0.040149078
193	0x3ddcaa9d	0.107747294
194	0x3befbb37	0.007316019
195	0x3dbe352e	0.09287487
196	0x3d883dc3	0.06652405
197	0xbdf43c72	-0.119255915
198	0xbc5a9290	-0.013340607
199	0xbdddb14d	-0.10824833
200	0x3e629c25	0.22129877
201	0x3cb63902	0.02224398
202	0xbde88d85	-0.11355118
203	0xbd7cc2b3	-0.061709117
204	0x3c128035	0.0089417
205	0x3e3155b0	0.17317843
206	0xbde0f6bd	-0.109845616
207	0xbe397a89	-0.1811315
208	0x3e2e92a3	0.17048125
209	0x3e06f0ef	0.13177846
210	0x3e9c4865	0.30523983
211	0xbdb09dbf	-0.08623838
212	0x3e221acd	0.15830536
213	0xbdf52ea4	-0.119717866
214	0x3d8f0be3	0.06984689
215	0x3df33993	0.11876216
216	0xbd32f327	-0.04368892
217	0xbd9ee713	-0.07758918
218	0xbd4bbe8a	-0.04974226
219	0xbdb9acbe	-0.09066151
220	0x3db6bb50	0.08922446
221	0xbd87b675	-0.06626598
222	0x3e9f7c3f	0.3114948
223	0x3e5300bd	0.2060575
224	0xbe01ad4e	-0.12663767
225	0x3e711b77	0.23545633
226	0x3c5841df	0.013199299
227	0xbe33d3ce	-0.17561266
228	0xb9a3cd2e	-0.00031242653
229	0x3e06fdbd	0.13182731
230	0x3d48e611	0.049047533
231	0x3cf46ac6	0.02983607
232	0x3eb0a9e0	0.34504604
233	0x3dbc2e24	0.09188488
234	0xbded60a0	-0.115906954
235	0xbe11b037	-0.14227377
236	0xbbf0c720	-0.0073479563
237	0xbd1f4e92	-0.03889329
238	0xbd827b16	-0.06371133
239	0xbe123bed	-0.14280672
240	0x3d868b5f	0.06569552
241	0x3e0b5f5b	0.13610594
242	0x3da0cf14	0.07851997
243	0x3e6bd07c	0.23028749
244	0xbdf5ca21	-0.12001444
245	0x3de7fd9b	0.11327668
246	0x3e98cf3b	0.29845604
247	0x3e736552	0.2376912
248	0x3df367f1	0.118850596
249	0x3dbf3694	0.09336582
250	0x3e7da564	0.24770123
251	0x3dcd9cd1	0.10039676
252	0x3d349156	0.044083916
253	0x3dbf520a	0.093418196
254	0x3e14e25e	0.14539477
255	0xbd4821b7	-0.048860278

bias f4 [20]
0	0x3e7c5387	0.24641238
1	0x3e495657	0.19661842
2	0x3d590f4a	0.052993096
3	0xbdff740b	-0.12473305
4	0x3af1f9e5	0.0018461315
5	0x3dbea243	0.09308293
6	0x3c857257	0.016289873
7	0x3ea45e4e	0.321032
8	0x3dd013a1	0.10159994
9	0x3e163272	0.14667681
10	0x3dd8eb17	0.10591715
11	0x3b30e7dc	0.0026993668
12	0xbdd9d68c	-0.10636625
13	0x3e78a763	0.24282603
14	0xbdebd630	-0.115154624
15	0x3cc3b5c8	0.023890391
16	0xbd80eebd	-0.06295536
17	0x3d060148	0.032716066
18	0x3e5653ee	0.20930454
19	0x3ebdd757	0.37078354

weight f4 [10, 20]
0	0x3e2db68f	0.16964172
1	0xbf18c653	-0.5967762
2	0x3f11d951	0.56972224
3	0x3dd8b04a	0.105804995
4	0xbd1f7efe	-0.03893947
5	0xbea89e99	-0.329335
6	0xbe4e457b	-0.20143692
7	0xbdfd1d47	-0.123591
8	0x3eb4ca0f	0.35310408
9	0xbf09e2fa	-0.53861964
10	0xbd149f11	-0.03628451
11	0xbe84b064	-0.25915825
12	0xbdb45787	-0.08805757
13	0xbbd71e23	-0.006564872
14	0xbe651e53	-0.22374849
15	0xbdc5987a	-0.09648223
16	0x3f389495	0.7210172
17	0x3eb3b635	0.3509995
18	0xbef8ea91	-0.4861646
19	0xbd6ed02f	-0.058304008
20	0xbeeab932	-0.45844418
21	0x3eb26dca	0.34849387
22	0xbe3d094d	-0.18460579
23	0xbd97739a	-0.07395096
24	0x3e22697f	0.15860556
25	0xbe53adf1	-0.20671822
26	0xbe7d8e7a	-0.24761382
27	0x3eb97c97	0.36227867
28	0xbdcc54d9	-0.09977121
29	0x3e4c3ed1	0.19945838
30	0x3f0d9655	0.55307513
31	0x3e9961cc	0.29957426
32	0xbe20721b	-0.15668528
33	0xbe4ace6b	-0.19805305
34	0x3d8157db	0.06315585
35	0xbf4215f1	-0.7581473
36	0xbec8e92e	-0.39240402
37	0x3e9fcab5	0.3120934
38	0x3d83b563	0.06431081
39	0x3f043f7f	0.5165939
40	0x3e75bd8e	0.2399809
41	0x3f11c2ce	0.56937873
42	0x3d178d93	0.03700025
43	0xbdbec27f	-0.09314441
44	0x3ed6173a	0.41814595
45	0x3f1b86ca	0.60752547
46	0x3dbe27f0	0.09284961
47	0x3e40fcc0	0.18846416
48	0xbd358ceb	-0.044323843
49	0xbe42f520	-0.1903882
50	0xbd4baaa5	-0.049723286
51	0xbe771a5a	-0.24131146
52	0xbe2e345f	-0.17012165
53	0xbe062b95	-0.13102563
54	0xbe35135c	-0.17683166
55	0x3c455cd2	0.012046056
56	0xbec9ad8c	-0.39390218
57	0x3e8bd35d	0.27309695
58	0xbef19a02	-0.4718781
59	0xbf0a9b88	-0.5414357
60	0x3f139bc7	0.5765957
61	0x3c944309	0.018098371
62	0xbe917a19	-0.28413466
63	0x3e3eac5e	0.1862044
64	0x3e9e0f59	0.30871084
65	0xbeb364f5	-0.35037962
66	0xbd6dc832	-0.05805225
67	0xbd401d0c	-0.0469027
68	0x3f193c24	0.5985739
69	0xbe11e113	-0.14246015
70	0xbdc397ac	-0.095504135
71	0x3f1d562e	0.61459625
72	0xbdad9dc3	-0.08477356
73	0xbebe5c90	-0.37179995
74	0xbdc12765	-0.09431342
75	0x3eab2966	0.33430022
76	0xbf035146	-0.5129589
77	0xbe3881e3	-0.18018298
78	0x3d7f58e0	0.062340617
79	0xbe97f857	-0.29681656
80	0xbed5ff16	-0.41796178
81	0xbda4eadf	-0.080526106
82	0x3dfd07a8	0.12354976
83	0x3df40940	0.11915827
84	0xbe8945e7	-0.26811144
85	0xbebfc9fc	-0.3745879
86	0x3ec2927d	0.38002387
87	0x3eb8da85	0.36104217
88	0xbdddd1c9	-0.10831029
89	0x3f2258a6	0.63416517
90	0xbe1621e9	-0.14661373
91	0xbe9b690d	-0.30353585
92	0xbe64f148	-0.22357666
93	0x3e84c94b	0.25934824
94	0x3c5381be	0.012909351
95	0x3f267f63	0.65038127
96	0xbec75982	-0.38935477
97	0x3e444611	0.19167353
98	0xbe91b35b	-0.2845715
99	0xbeafc968	-0.34333348
100	0x3f3afcba	0.7304188
101	0x3e33f97c	0.1757564
102	0x3d5213e4	0.0512885
103	0x3e3506a1	0.1767831
104	0xbeaa3258	-0.33241534
105	0xbf013f07	-0.504868
106	0xbe9837c0	-0.29730034
107	0x3eb4bc87	0.35300085
108	0x3e5256a9	0.2054087
109	0xbdbab802	-0.09117128
110	0xbc5a2a30	-0.013315722
111	0xbe035291	-0.12824465
112	0x3d8985a9	0.06714947
113	0xbe361c78	-0.17784297
114	0x3e0a1b23	0.13486914
115	0xbe0a938b	-0.13532846
116	0x3ea0466c	0.31303728
117	0xbeb781e2	-0.3584128
118	0x3ea4a29c	0.3215531
119	0x3e701218	0.23444402
120	0xbeb9de8e	-0.36302608
121	0x3cc57ae0	0.024106443
122	0xbe4ac340	-0.19801044
123	0xbe132cbb	-0.14372532
124	0xbee0eb03	-0.439293
125	0x3dada5c8	0.08478886
126	0xbebb6fc1	-0.366087
127	0x3f49b639	0.78793675
128	0xbd167e65	-0.036741633
129	0x3ef9346d	0.4867281
130	0xbe7ad512	-0.24495342
131	0xbe742787	-0.23843203
132	0x3da3d6b6	0.07999937
133	0xbed6eed0	-0.41979074
134	0x3e070318	0.13184774
135	0xbf27b11e	-0.65504634
136	0x3f1cf69d	0.613138
137	0xbe0b9820	-0.1363225
138	0xbe7e4e5d	-0.2483458
139	0xbec4e37f	-0.38454816
140	0xbf0ea1bb	-0.5571553
141	0xbeaff128	-0.34363675
142	0xbe25044d	-0.16114922
143	0xbcc45b25	-0.023969242
144	0x3ed86d15	0.42270723
145	0xbd838c72	-0.06423272
146	0x3dcfbdaa	0.101435974
147	0xbebe259c	-0.3713807
148	0xbee7793f	-0.4520969
149	0x3c80957d	0.015696282
150	0x3e540c0a	0.20707718
151	0x3e8a3c8d	0.26999322
152	0x3db12494	0.08649555
153	0x3f2d25e2	0.6763593
154	0x3e92a453	0.28640994
155	0xbc2b9b66	-0.010474062
156	0xbe07e2f2	-0.13270167
157	0xbe2b443f	-0.16725253
158	0x3edaab57	0.42708847
159	0x3ec87670	0.3915286
160	0xbd9feaf6	-0.07808487
161	0x3dcdee3e	0.10055207
162	0x3b5ccd95	0.0033691872
163	0xbdf99a00	-0.12187576
164	0x3ea03222	0.31288248
165	0x3ee099dc	0.43867385
166	0xbe244be0	-0.16044569
167	0xbea44394	-0.32082808
168	0x3eafd924	0.34345353
169	0x3e5fb1e1	0.21845199
170	0xbe5bfb5b	-0.21482603
171	0xbd01ec74	-0.03171964
172	0x3e1eadc5	0.15495975
173	0xbed22ac0	-0.4104824
174	0xbcb06939	-0.02153455
175	0xbbea02db	-0.0071414537
176	0x3eeda86f	0.46417567
177	0xbe7329a8	-0.2374636
178	0x3e343f14	0.17602187
179	0xbea6f9fc	-0.32612598
180	0xbe82dea4	-0.25560486
181	0x3e6bd4e4	0.2303043
182	0x3f0c1f1a	0.5473496
183	0xbdf14197	-0.117800884
184	0x3c92893d	0.017887706
185	0xbe6d75af	-0.23189424
186	0x3efc9736	0.49334115
187	0xbf040cc5	-0.51581985
188	0xbe512da9	-0.20427574
189	0xbe5db1da	-0.21649876
190	0xbe28d3d5	-0.16487058
191	0xbea233a3	-0.3168002
192	0xbda02fbd	-0.07821605
193	0xbd5737d0	-0.05254346
194	0xbdaa6d2b	-0.083216034
195	0x3f571fd4	0.8403294
196	0xbe1a6bc8	-0.15080178
197	0xbead9bf1	-0.33908036
198	0xbbfe2c80	-0.0077567697
199	0x3eaa90c3	0.3331357

bias f4 [10]
0	0xbe108689	-0.14113821
1	0x3e26b616	0.16280398
2	0x3d21093e	0.039315455
3	0xbe6778a6	-0.22604617
4	0x3e869b9f	0.26290604
5	0x3e07f971	0.13278748
6	0x3ded64bb	0.115914784
7	0x3cac566e	0.021037307
8	0xbd697f7f	-0.057006355
9	0x3dcc1d50	0.099665284
