datasets/mnist/partition_noniid-#label_major_classes_num_2_clients_10_dir_alpha_None_augement_data_percent_per_class_0.01_seed_42/models/batch_size_256_com_round_15_epochs_5_lr_0.1_sample_ratio_0.9_personalization_steps_25/client_6.pt (torch, 175631 bytes, 8 tensors)

weight f4 [50, 784]
0	0xb98c2fff	-0.0002673864
1	0x3c9cf2b5	0.0191587
2	0xbcf0cca9	-0.029394465
3	0xbcd75093	-0.026283538
4	0xbc615ed0	-0.013755515
5	0x3c1ce90e	0.009577049
6	0xba397f27	-0.0007076137
7	0x3ce7fa13	0.028317487
8	0xbb4fb637	-0.0031694302
9	0x3c1ad60e	0.009450449
10	0xbc30d67d	-0.0107933255
11	0xbbe609a4	-0.007020192
12	0xbd0b5c6a	-0.03402368
13	0xbcc007bc	-0.023441188
14	0xbc712da4	-0.014720354
15	0x3aad6aaa	0.0013230641
16	0x3c6753dc	0.014119115
17	0x3caf8cae	0.021429386
18	0xbcc658a1	-0.024212183
19	0xbc7eced8	-0.015552245
20	0x3c5488b0	0.012972042
21	0x3cf2f2a3	0.029656714
22	0xbbf0d853	-0.0073500066
23	0x3cdaef49	0.026725428
24	0xbbbca16e	-0.0057565486
25	0x3b77aa5c	0.003779075
26	0x3d04754f	0.032338437
27	0xbd07b476	-0.033131085
28	0xbcb82f51	-0.0224835
29	0xbc14234a	-0.009041617
30	0xbc6416b3	-0.013921428
31	0x3cfcc82e	0.030857172
32	0xbcbda380	-0.023149252
33	0xbc86acee	-0.016439881
34	0xbcca1200	-0.024666786
35	0xbd068601	-0.03284264
36	0xbca670fb	-0.020317545
37	0x3cfd8ed8	0.030951902
38	0x3c8604ec	0.016359769
39	0x3c933009	0.01796724
40	0x3b74f2e1	0.0037376212
41	0xbc8edf36	-0.01744042
42	0x3bd5c18e	0.0065233177
43	0xbd06eca9	-0.03294054
44	0xbcd47caf	-0.02593836
45	0xbc9478a6	-0.018123936
46	0x3cba6fd5	0.022758404
47	0x3caf8fca	0.021430869
48	0xbc7e8726	-0.015535152
49	0xbaa6e8e3	-0.00127342
50	0x3cbb2819	0.022846268
51	0x3d1168e5	0.035500426
52	0x3c683b9b	0.014174367
53	0x3b9e18e5	0.004824745
54	0x3cc42a47	0.02394594
55	0xbcac4449	-0.021028655
56	0x3bda1364	0.0066551436
57	0xbce2d50e	-0.027689483
58	0xbccac6bc	-0.024752967
59	0xbc96fcb2	-0.018431041
60	0x3c846ada	0.016164232
61	0x3c6b95d0	0.01437898
62	0xbcaa2ede	-0.020774301
63	0x3c41b19a	0.011822129
64	0x3caf216b	0.02137824
65	0xbb09b0e4	-0.0021009976
66	0x3ba20aa1	0.0049451147
67	0x3c673bc4	0.01411337
68	0x3cf4ae96	0.029868405
69	0x3d2d5a39	0.04232237
70	0xbc99f3d5	-0.018793026
71	0xbb636485	-0.0034697365
72	0x3cb6c655	0.022311369
73	0x3d12ae3e	0.0358107
74	0x3d0fdf9a	0.035125352
75	0x3d0a697e	0.03379201
76	0x3c250eef	0.010074361
77	0xbce6e243	-0.028184062
78	0x3b91b9d4	0.0044472013
79	0xbcb2dbc4	-0.021833308
80	0xbd07dbf3	-0.033168744
81	0x3d0206c2	0.031744726
82	0x3cde75a5	0.027155707
83	0xbd11ec92	-0.035626
84	0x3bdb0b7b	0.006684718
85	0xbbc52577	-0.006016429
86	0xbbc09242	-0.0058768103
87	0xbc84b53a	-0.016199697
88	0x3c62d285	0.013844137
89	0xbcaa6195	-0.020798484
90	0x3c6e5548	0.0145467
91	0x3ca4862c	0.02008351
92	0x3cea77a1	0.028621497
93	0x3cbc567a	0.022990454
94	0xbcc2ddf6	-0.02378748
95	0xbc629c21	-0.013831169
96	0x3cedd14d	0.029030466
97	0x3cbd4f3a	0.023109067
98	0xbc579070	-0.013156995
99	0xbbb62b1c	-0.0055593383
100	0x3d29e9e6	0.04148283
101	0x3cb379d2	0.021908674
102	0xbc9306d2	-0.017947588
103	0xbc47e41d	-0.012200383
104	0xbd0c1931	-0.034203712
105	0x3b3e53bd	0.002904161
106	0xbcca0e45	-0.024665007
107	0xbcd65371	-0.026162835
108	0xbaf282f6	-0.0018502164
109	0x3baea7d5	0.0053300657
110	0xbc6f97d1	-0.014623598
111	0x3cad9af9	0.02119206
112	0xbcb20a89	-0.02173354
113	0x3d04bc3b	0.032406073
114	0x3cc87f4c	0.024474762
115	0xbcf6a3e5	-0.030107448
116	0xbc0aea78	-0.008478753
117	0x3b760efd	0.0037545555
118	0x3c14c2f0	0.00907968
119	0x3c6e079e	0.014528183
120	0x3cc668d0	0.0242199
121	0x3c78f529	0.0151951695
122	0xbb985789	-0.004649107
123	0x3cffd893	0.0312312
124	0xbc3fc75c	-0.011705246
125	0x3b895c07	0.0041918787
126	0x3c81dd12	0.015852485
127	0xbb239c8a	-0.002496513
128	0xbb436f58	-0.0029821005
129	0xbce7292b	-0.028217873
130	0xbc39b153	-0.011333781
131	0x3c04351f	0.008069306
132	0xbc90a045	-0.017654547
133	0xba23f03a	-0.0006253753
134	0x3cc0f429	0.023553925
135	0xbbf6cd53	-0.007531801
136	0xbb368acd	-0.0027853728
137	0xbb656fd9	-0.0035009293
138	0x3bedc6ce	0.0072563654
139	0x3cba0945	0.022709498
140	0x3d0a918f	0.03383022
141	0x3cb9cc9a	0.02268057
142	0x3d0b00ad	0.03393619
143	0xbb2e5f72	-0.0026607183
144	0xbcfa04f6	-0.030519944
145	0xbc547624	-0.01296762
146	0x3cf73d29	0.03018053
147	0x3c0933ae	0.008374138
148	0xbbd55d5d	-0.006511374
149	0xbc441686	-0.011968261
150	0xbc849242	-0.016183022
151	0xbc3be041	-0.0114670405
152	0x3c829c6e	0.015943732
153	0x3d37e3c4	0.04489495
154	0x3d206ad8	0.039164394
155	0xbc839c80	-0.016065836
156	0x3d145030	0.036209285
157	0xbc06ccf0	-0.008227572
158	0x3c5af979	0.013365143
159	0x3b887592	0.004164406
160	0x3bce48a4	0.0062952805
161	0x3a4158c8	0.0007375595
162	0xbd0ddf2f	-0.034636673
163	0xbd158cb4	-0.036511138
164	0xbc4c8d54	-0.012484867
165	0xbaf37bb2	-0.0018576293
166	0xbc85a736	-0.016315084
167	0x3c5ceb72	0.013483869
168	0xbd03aa6b	-0.032144945
169	0xbb1df9a3	-0.0024105094
170	0x3cfd8844	0.030948766
171	0xbc7b9689	-0.015355715
172	0x3d054e93	0.032545637
173	0x3c836d2b	0.016043266
174	0xbccd0a6d	-0.025029385
175	0x3d0a99f6	0.033838235
176	0x3bc343a5	0.0059589916
177	0xbb11c591	-0.0022243003
178	0x3d3d45d2	0.046209164
179	0xbc55ff4f	-0.013061359
180	0x3c1334fe	0.008984802
181	0xbc689ded	-0.014197809
182	0x3cbfe7ad	0.023425901
183	0x3c782c5b	0.015147294
184	0x3c6fe192	0.0146411825
185	0x3c37d675	0.011220564
186	0xba9776e5	-0.0011555819
187	0x3b8d7258	0.0043166094
188	0xbca6c43a	-0.02035724
189	0x3c7e4e70	0.015521631
190	0x3c9d75bb	0.019221177
191	0x3c661e30	0.014045283
192	0xbd169a76	-0.0367684
193	0xbbc687d8	-0.0060586743
194	0xbcdd8857	-0.027042551
195	0xbca1df79	-0.01975988
196	0xbcaa7c03	-0.020811087
197	0x3c47a604	0.012185577
198	0xbcaf13f3	-0.021371817
199	0xbb13cd7b	-0.0022552896
200	0x3b0b30a4	0.002123871
201	0x3ce44608	0.027865425
202	0xbc9603e3	-0.0183124
203	0xbc7c0d43	-0.015384021
204	0xbca10cb7	-0.019659383
205	0x3ce29136	0.027657133
206	0xbc4db0ed	-0.012554389
207	0x3cabab49	0.020955699
208	0xb9b2fad3	-0.00034137684
209	0xbc3f3ac4	-0.011671726
210	0xbcaeae4e	-0.02132335
211	0xbcbc85a2	-0.02301294
212	0xbc35f99c	-0.011106875
213	0xbcceda99	-0.02525072
214	0xbbbab6ea	-0.0056980746
215	0x3c0fed48	0.0087846
216	0xbcc72b9f	-0.024312792
217	0xbc9e4668	-0.019320682
218	0x3c90d431	0.017679306
219	0xbd3e2df9	-0.04643056
220	0xbc9d0b3c	-0.019170396
221	0x3cc00b7c	0.023442976
222	0x3c2df2be	0.010616956
223	0x3a6e1693	0.00090823433
224	0xbd00381c	-0.03130351
225	0x3c92af81	0.017905952
226	0xbcce5d7c	-0.025191061
227	0xbc35e544	-0.0111020245
228	0xbc060db1	-0.008181975
229	0x3b06fb66	0.0020596622
230	0x3c0f053d	0.008729276
231	0x3d17af0f	0.037032183
232	0x3a448363	0.0007496385
233	0x3cb4df01	0.022078993
234	0x3baa6321	0.0051998054
235	0xbd0c5996	-0.034265123
236	0x3a6520af	0.0008740527
237	0xbd178a85	-0.036997337
238	0xbcc9cfb6	-0.024635177
239	0xbc0da4e7	-0.008645273
240	0xbc2fdd3e	-0.010733901
241	0x3c50c584	0.012742404
242	0xbcb9e139	-0.022690402
243	0xbb4e7c8e	-0.0031507346
244	0x3c6ed342	0.014576735
245	0xbd1cc810	-0.038276732
246	0x3c730268	0.014832117
247	0xbd43de9b	-0.047819715
248	0xbc924ba9	-0.017858343
249	0xbc94244b	-0.018083712
250	0xbcaf447b	-0.021394959
251	0x3b9798da	0.0046263756
252	0x3cf1ed81	0.029532196
253	0xbc2b782a	-0.010465661
254	0xbcac8a6c	-0.021062098
255	0xbc6d4ac2	-0.014483156

bias f4 [50]
0	0xbd75b236	-0.05998441
1	0xbd59bc90	-0.053158343
2	0x3e253910	0.16135049
3	0x3d997669	0.07493288
4	0x3e14e323	0.14539771
5	0x3d146153	0.036225628
6	0x3e67d2cb	0.22639005
7	0xbd47ccdb	-0.04877935
8	0xbd0e457a	-0.034734227
9	0x3db2bc30	0.087273
10	0x3b8d02cd	0.0043033124
11	0xbb8c2579	-0.004276928
12	0x3d792ef0	0.06083578
13	0x3d174c99	0.036938284
14	0x3d51ae9c	0.05119191
15	0x3d11833c	0.035525545
16	0x3cac03d5	0.020997921
17	0x3d46b9df	0.048517104
18	0x3e3dac33	0.1852272
19	0x3cb26c99	0.021780299
20	0x3ddbe999	0.107379146
21	0xbd2e1c31	-0.042507354
22	0x3d283757	0.0410684
23	0x3d8dd228	0.0692485
24	0xbcd73047	-0.026268138
25	0x3dfba95a	0.122881606
26	0x3ccb2696	0.024798673
27	0x3d9b7708	0.07591063
28	0x3dacb503	0.08432963
29	0x3d1e59c1	0.038659815
30	0x3a868e84	0.0010265862
31	0x3df631d2	0.12021221
32	0x3d907880	0.070542336
33	0x3dfd2792	0.12361063
34	0x3d5a1174	0.0532393
35	0xbd861fd7	-0.06549042
36	0xbc89d3c9	-0.01682462
37	0x3ceb7c18	0.028745696
38	0x3d1eee4e	0.038801484
39	0x3e03d2e3	0.12873416
40	0x3c7495f8	0.014928333
41	0x3deb2fa2	0.114836946
42	0x3d630164	0.055421248
43	0xbd21b775	-0.0394816
44	0xbd3023a9	-0.04300276
45	0xbcdfa914	-0.027302302
46	0xbcbba1cc	-0.0229043
47	0xbd0abe96	-0.033873163
48	0x3d8af575	0.067850985
49	0x3d95ef14	0.07320991

weight f4 [50, 50]
0	0x3b0c075a	0.0021366687
1	0xbd4e6f61	-0.050399188
2	0x3c36a732	0.011148261
3	0x3cbc60fb	0.022995463
4	0xbe1e4e2d	-0.15459509
5	0xbe2cf648	-0.16890824
6	0x3dd709e6	0.10499935
7	0xbde6fa60	-0.11278224
8	0x3e0dd4f7	0.13850771
9	0x3e670561	0.22560646
10	0xbd789ee6	-0.060698412
11	0xba4a169f	-0.0007709059
12	0x3d80822b	0.062748276
13	0x3d9f61ae	0.07782303
14	0x3e1e12be	0.15436837
15	0x3dd188cb	0.10231169
16	0x3ccbc33a	0.024873365
17	0x3db0f7f2	0.08641042
18	0x3e278a9b	0.16361468
19	0x3deef020	0.11666894
20	0xbe441f06	-0.1915246
21	0x3e10f1e7	0.14154778
22	0xbdb65f7a	-0.089049295
23	0xbe30881d	-0.17239423
24	0x3c4c6b3c	0.012476739
25	0x3d3e1a0e	0.046411566
26	0x3dca2d48	0.09871918
27	0x3e618e62	0.22026971
28	0xbd44deb3	-0.048063945
29	0xbe2f01ae	-0.17090484
30	0xbd466656	-0.04843744
31	0x3e32b106	0.17450342
32	0x3d9579b6	0.07298605
33	0x3d8ad993	0.0677978
34	0x3d59000e	0.052978568
35	0xbc03d004	-0.0080452
36	0x3d8df2ca	0.06931074
37	0x3d278357	0.04089674
38	0x3de495ad	0.11161361
39	0x3e7192a6	0.23591098
40	0xbc493bef	-0.012282356
41	0xbdc8d7da	-0.098067954
42	0x3c8da8e9	0.017292457
43	0x3e53dc26	0.20689449
44	0x3e608e54	0.21929294
45	0x3d68ff7c	0.056884274
46	0x3e0242a5	0.12720735
47	0xbd9ed41d	-0.07755301
48	0xbd173e1e	-0.036924474
49	0xbd5e2262	-0.05423201
50	0xbdd11951	-0.10209907
51	0x3e0261aa	0.12732568
52	0xbe27fb2a	-0.16404405
53	0x3c6fd89b	0.014639045
54	0xbe440208	-0.191414
55	0x3d69ce36	0.057081424
56	0xbdd0fa13	-0.10203948
57	0x3e0ab235	0.13544543
58	0x3df2a209	0.11847312
59	0x3dcee46b	0.10102161
60	0x3d14627c	0.036226735
61	0xbd45f24b	-0.04832677
62	0xbb971cba	-0.004611579
63	0x3e2b3def	0.16722845
64	0x3d1b0bf9	0.037853215
65	0x3e20095d	0.15628572
66	0xbd8f995a	-0.07011671
67	0x3e543283	0.20722394
68	0x3dd58b4b	0.10426959
69	0x3d9c2103	0.07623484
70	0xbc8e2b61	-0.017354669
71	0x3c97ddd6	0.018538397
72	0x3e1fe62e	0.1561515
73	0xbd5cd51e	-0.053914182
74	0x3dbe3d1f	0.09289002
75	0xbd2e69b0	-0.04258126
76	0x3cbe78d7	0.02325098
77	0x3e13dfa8	0.14440787
78	0xbdd510ff	-0.104036324
79	0xbd6c88c8	-0.057747632
80	0xbd27424e	-0.040834717
81	0xbd9feb73	-0.0780858
82	0x3e0462ac	0.12928265
83	0xbd5122d3	-0.0510586
84	0x3cfbaeaa	0.030722935
85	0xbd8ed6e5	-0.06974582
86	0xbcda30cf	-0.026634602
87	0x3c670dab	0.01410238
88	0x3c44eb87	0.012019045
89	0x3df132e8	0.11777288
90	0xbe4bd5ec	-0.19905823
91	0x3d3d6761	0.046241168
92	0x3e3ca370	0.18421721
93	0x3d0fd2ad	0.035113025
94	0xbe00579e	-0.12533423
95	0x3d3f3b05	0.046687145
96	0x3dd50871	0.10402001
97	0xbd8f244e	-0.069893464
98	0xbde0d4e7	-0.10978108
99	0xbd97d3e0	-0.07413459
100	0x3d50da68	0.05098954
101	0xbdc9760d	-0.098369695
102	0xbe10d1d8	-0.14142549
103	0xbd26a43a	-0.040683962
104	0x3c8faaf6	0.017537575
105	0x3cfd65a4	0.030932255
106	0xbcb66adb	-0.02226775
107	0x3d27c382	0.040957935
108	0xbdff2821	-0.12458826
109	0xbd314464	-0.043278113
110	0x3c94d2b3	0.018166875
111	0x3e10636c	0.14100426
112	0xbe108a1f	-0.14115189
113	0x3dccb579	0.09995551
114	0xbde3f5c2	-0.11130859
115	0xbde8e8c0	-0.113725185
116	0x3d7a2ebe	0.061079733
117	0xbd9afa14	-0.0756723
118	0xbd9f5ec5	-0.07781748
119	0x3e13a143	0.14416985
120	0xbdee5146	-0.116365954
121	0x3e0cbd1f	0.13744019
122	0xbddb7c1c	-0.10717031
123	0xbd025050	-0.031814873
124	0xbbeb0692	-0.007172414
125	0xbdbe8bdf	-0.09304022
126	0x3dc71ee0	0.09722686
127	0x3e013db5	0.12621196
128	0xbd4152fd	-0.047198284
129	0x3d94eb18	0.07271403
130	0x3db5a343	0.0886903
131	0xbe0c176c	-0.1368081
132	0x3d511f7e	0.051055424
133	0x3a168bac	0.00057428586
134	0xbd063888	-0.032768756
135	0xbcf312a5	-0.029671976
136	0xbdbbaab3	-0.09163418
137	0xbca6ab25	-0.02034528
138	0xbe021282	-0.12702373
139	0xbdd2fcc1	-0.10302115
140	0x3bed3942	0.0072394917
141	0x3ccbff31	0.024901958
142	0x3dec12c2	0.11527015
143	0xbdc0a4d3	-0.09406438
144	0xbdcc45cf	-0.099742524
145	0x3df3892b	0.11891397
146	0xbd87c185	-0.06628708
147	0x3e064384	0.13111693
148	0xbba659ba	-0.005076614
149	0x3df90376	0.12158863
150	0xbdfa34cf	-0.12217104
151	0x3db297dc	0.08720371
152	0x3e2692f6	0.16266999
153	0xbdafee58	-0.08590382
154	0x3ce2533d	0.027627582
155	0xbd6e7859	-0.05822024
156	0x3d08c40e	0.033390097
157	0xbcfc69c9	-0.030812161
158	0xbd9ae2df	-0.075628035
159	0xbbb11357	-0.005403917
160	0xbb62bb0d	-0.0034596354
161	0x3e19c658	0.15017068
162	0xbe0b7946	-0.13620481
163	0xbd3296cb	-0.04360084
164	0xbddbffc5	-0.107421435
165	0x3d37b9ab	0.0448548
166	0x3da48e8e	0.08035003
167	0x3d009165	0.03138866
168	0xbd584fa0	-0.05281031
169	0xbccb9eb5	-0.02485595
170	0xbd9c6726	-0.076368615
171	0xbe081dca	-0.13292614
172	0x3d51159b	0.051045995
173	0xbcadf001	-0.021232607
174	0x3e225c85	0.15855606
175	0x3d73fe2a	0.05956856
176	0xbdb29e32	-0.087215796
177	0xbc9aef54	-0.018912949
178	0xbd7ede49	-0.062223706
179	0xbd6dc3f7	-0.058048215
180	0x3d0927cf	0.03348523
181	0x3e084906	0.13309106
182	0x3d6aea74	0.0573525
183	0xbe189187	-0.14899264
184	0x3e008aaf	0.12552904
185	0xbe322694	-0.17397529
186	0x3e085604	0.13314062
187	0xbdd381ce	-0.10327493
188	0xbd5db99f	-0.0541321
189	0xbd8d3575	-0.06894962
190	0xbd548265	-0.051882166
191	0x3de6e385	0.11273865
192	0x3dc10f2c	0.09426722
193	0x3d95b990	0.07310784
194	0xbdedc6d6	-0.116101906
195	0x3d9c2f10	0.07626164
196	0xbc42d0f8	-0.011890642
197	0xbdc8bf4f	-0.09802114
198	0x3cce2372	0.025163386
199	0xbde017a2	-0.109420076
200	0x3d817fe4	0.06323221
201	0x3decc1b7	0.11560386
202	0x3cdb00a9	0.026733713
203	0x3dcfe100	0.10150337
204	0x3d19f136	0.037583552
205	0x3e3548c5	0.1770354
206	0x3d91b506	0.071146056
207	0x3e268587	0.16261874
208	0xbdb7cf91	-0.08975137
209	0x3e2b962b	0.16756503
210	0x3de21d96	0.11040799
211	0x3ca608fc	0.020267956
212	0x3ddffd7d	0.10937021
213	0x3c4a5ad6	0.012350759
214	0xbdf91061	-0.12161327
215	0xbe2ae6e1	-0.16689636
216	0xbc29373b	-0.010328109
217	0x3dd1e924	0.10249546
218	0x3dfbbcb1	0.122918494
219	0xbd2c475b	-0.042060237
220	0xbe038f99	-0.12847747
221	0xbe2ab7ab	-0.16671626
222	0x3d5ea2a9	0.054354344
223	0x3d0b17e4	0.03395833
224	0xbe1e588f	-0.1546347
225	0x3d8b39e1	0.06798149
226	0x3db67ad9	0.0891015
227	0xbe1d17e4	-0.15341145
228	0x3de674cf	0.11252748
229	0xbe4f19d0	-0.2022469
230	0x3e18970e	0.14901373
231	0xbdf518de	-0.11967634
232	0x3e18fa5d	0.14939256
233	0xbdfb9651	-0.1228453
234	0xbd3f5d55	-0.046719868
235	0xbdc9bb00	-0.098501205
236	0xbd3c7ef5	-0.046019513
237	0x3e28439a	0.16432038
238	0xbd2b279b	-0.041785818
239	0xbe3397e9	-0.17538418
240	0x3e4916e3	0.19637637
241	0x3e06d24b	0.13166158
242	0x3c4758aa	0.012167135
243	0xbe3e3c6f	-0.18577741
244	0xbd7ee717	-0.062232103
245	0x3d4f2cf6	0.050579987
246	0xbd92bd07	-0.0716496
247	0xbd19745d	-0.03746449
248	0xbd2123ee	-0.039340906
249	0xbdcfc87d	-0.10145662
250	0xbdcc2229	-0.09967453
251	0x3d946afc	0.07246968
252	0x3de70853	0.112808846
253	0x3d9b2c37	0.07576793
254	0xbde58fe6	-0.11209087
255	0xbd7ff9f4	-0.062494233

bias f4 [50]
0	0x3db0da12	0.086353436
1	0x3d7aa8a7	0.061195996
2	0xbce2350c	-0.027613185
3	0x3d629619	0.055318926
4	0x3e176d8c	0.14787883
5	0x3d46d025	0.048538346
6	0x3e05f5da	0.13082066
7	0x3df105f6	0.11768715
8	0x3db34d62	0.08754994
9	0xbcf4d0cf	-0.029884724
10	0x3dad197b	0.08452126
11	0x3e900260	0.28126812
12	0x3e239944	0.15976435
13	0x3dec47ed	0.11537156
14	0xbe07a9a2	-0.13248304
15	0xbb2096a5	-0.0024503854
16	0x3df7462f	0.12073933
17	0x3dd1a427	0.10236388
18	0x3ddb6a74	0.10713664
19	0xbe0fa15a	-0.14026394
20	0xbd889d42	-0.066706195
21	0x3c9d4644	0.019198544
22	0x3e19ca1d	0.15018506
23	0xbcf18d48	-0.029486313
24	0x3e93b58b	0.28849444
25	0x3dead838	0.11467022
26	0x3cd4a6aa	0.025958378
27	0x3df6422c	0.1202434
28	0x3e30f2b2	0.17280081
29	0x3e546881	0.2074299
30	0x3e6d204f	0.23156856
31	0x3b412323	0.0029470406
32	0x3e531d2a	0.20616594
33	0xbe0e53e7	-0.13899194
34	0x3da8723c	0.082249135
35	0x3dcfe2f6	0.10150711
36	0xbb831358	-0.0040001087
37	0x3b3bab93	0.0028636202
38	0xbd3926b1	-0.045202915
39	0x3d7a0489	0.06103948
40	0x3e8ad806	0.27117938
41	0x3e3b3582	0.1828213
42	0x3e6e0c7e	0.23246953
43	0x3dbd09dc	0.09230396
44	0x3e79adff	0.2438278
45	0x3e3d1249	0.18464006
46	0x3d739cdd	0.05947577
47	0x3e136db1	0.14397313
48	0xbe217900	-0.15768814
49	0xbae9b943	-0.0017831702

weight f4 [20, 50]
0	0x3e2cbb3f	0.16868304
1	0xbe3343f8	-0.17506397
2	0xbde73fd5	-0.11291472
3	0x3e0deeb9	0.13860597
4	0xb892ae13	-6.994246e-05
5	0x3e90a705	0.28252426
6	0x3e2d304b	0.16912954
7	0x3d8eff68	0.069823086
8	0x3da2e88f	0.07954513
9	0x3e86f8dd	0.26361743
10	0xbea02e64	-0.31285393
11	0x3d204d4e	0.039136223
12	0x3e655eba	0.22399417
13	0xbe324d7b	-0.17412369
14	0xbe20b34d	-0.15693398
15	0x3df9d562	0.12198903
16	0x3e5c3195	0.21503289
17	0x3e848714	0.25884306
18	0x3e98037e	0.29690164
19	0x3e047fc1	0.12939359
20	0x3eccc5b5	0.39994588
21	0xbcef7b57	-0.029233618
22	0x3e5dcf93	0.21661215
23	0xbe4550ec	-0.1926915
24	0x3e766eae	0.24065658
25	0xbd185fc0	-0.03720069
26	0x3cffb458	0.031213924
27	0xbe90e296	-0.2829787
28	0xbe981159	-0.29700735
29	0xbe11ed38	-0.14250648
30	0xbd88931f	-0.06668686
31	0xbd53815c	-0.05163704
32	0x3f25862f	0.6465787
33	0xbd1ad249	-0.0377982
34	0x3c186e78	0.009303682
35	0x3dee67ff	0.116409294
36	0xbbbb2d60	-0.005712196
37	0x3d865d59	0.065607734
38	0x3d9dfcc3	0.07714226
39	0xbe483fca	-0.19555584
40	0x3e2516b2	0.16121939
41	0xbdd45e2a	-0.10369523
42	0xbe0bb698	-0.13643873
43	0xbe37ada9	-0.1793734
44	0x3d82d4c3	0.06388237
45	0xbe3af140	-0.18256092
46	0xbe753b2c	-0.23948354
47	0x3e142bf1	0.14469887
48	0xbc216698	-0.00985112
49	0xbd868adc	-0.06569454
50	0xbe064f69	-0.1311623
51	0x3d19bca3	0.037533414
52	0xbd3fd408	-0.046833068
53	0xbb8a10c5	-0.004213425
54	0xbe3747c8	-0.17898476
55	0xbe082fd6	-0.13299498
56	0x3e941dc1	0.2892895
57	0xbda9aacf	-0.08284532
58	0x3e2e40ff	0.17016982
59	0xbde003bf	-0.109382145
60	0x3e0203a6	0.12696704
61	0x3c5bd482	0.013417365
62	0x3e91995f	0.28437325
63	0xbdb1cbc0	-0.0868144
64	0x3dd9f662	0.10642697
65	0x3d46a6ae	0.048498802
66	0x3e50226b	0.2032563
67	0xbe456c4d	-0.19279595
68	0x3e33246f	0.17494367
69	0x3bf27f54	0.0074004326
70	0xbd665faf	-0.056243595
71	0x3dfd2096	0.12359731
72	0x3cecc5aa	0.028902847
73	0xbd104b30	-0.035227954
74	0xbdbc78ef	-0.09202754
75	0x3e56964f	0.20955776
76	0x3d1e145a	0.038593628
77	0x3e6ee4e1	0.23329498
78	0xbd0aff00	-0.033934593
79	0xbd2d91df	-0.04237544
80	0x3e0d1d36	0.13780674
81	0xbd9191a5	-0.071078576
82	0x3eda8603	0.42680368
83	0x3ba93855	0.005164186
84	0xbdd20d67	-0.102564625
85	0x3e76ce1d	0.24102063
86	0x3d8b6b6f	0.06807601
87	0xb9bc8564	-0.00035957538
88	0x3de18ef9	0.11013598
89	0xbd179380	-0.0370059
90	0x3e806cf4	0.25083125
91	0xbe7c8e4f	-0.24663661
92	0x3da9a764	0.0828388
93	0x3e0a0fa3	0.13482527
94	0xbadcc401	-0.0016843082
95	0x3df2522b	0.118320785
96	0x3e5490e5	0.20758398
97	0x3e346fff	0.17620848
98	0xbd0a580b	-0.03377537
99	0xbd56c76b	-0.052436274
100	0x3dd84926	0.10560827
101	0x3d9d705a	0.07687445
102	0xbd25df07	-0.0404959
103	0xbde7fb79	-0.113272615
104	0xbe4a220d	-0.19739552
105	0x3c7f9f14	0.015601892
106	0xbcdd71ca	-0.027031798
107	0x3dc57d11	0.09642995
108	0x3e93f4a0	0.28897572
109	0x3de5730a	0.112035826
110	0x3c49b823	0.012311968
111	0x3e332eca	0.17498317
112	0x3dca539c	0.098792285
113	0x3de898ff	0.11357307
114	0xbc8a1f83	-0.01686073
115	0xbe365132	-0.17804411
116	0x3d982ad3	0.07430043
117	0x3eb98d2b	0.36240515
118	0xbbd0212a	-0.0063516097
119	0xbd857bf1	-0.065177806
120	0x3c41166d	0.011785132
121	0x3d86784b	0.06565913
122	0xbe80bb1b	-0.2514275
123	0x3dc31df9	0.09527201
124	0xbde4ac9d	-0.11165736
125	0x3dfe348d	0.12412367
126	0xbe0c78a5	-0.13717897
127	0x3eb1790a	0.34662658
128	0x3d08d7f0	0.03340906
129	0xbcf6f5a7	-0.030146433
130	0xbd7afd61	-0.061276797
131	0x3cd7c98d	0.026341224
132	0xbe5784be	-0.21046731
133	0xbd56d9a7	-0.052453663
134	0x3e9c1d08	0.304909
135	0xbe43557e	-0.19075581
136	0xbdc12e58	-0.094326675
137	0x3d8bb519	0.06821651
138	0x3e8725b1	0.26395944
139	0xbcbf1fd3	-0.023330605
140	0xbd431911	-0.047631327
141	0xbbba0ed1	-0.005678036
142	0xbda317a8	-0.079634964
143	0xbd90da10	-0.07072842
144	0xbd4da149	-0.05020264
145	0x3e1a0bd0	0.15043569
146	0xbe0e0350	-0.13868451
147	0xbd80e95b	-0.06294509
148	0x3dd77d51	0.10521949
149	0x3e42542b	0.1897742
150	0x3c0b874a	0.008516142
151	0x3de8d5b4	0.11368886
152	0xbdb76849	-0.08955438
153	0xbdde1869	-0.108444996
154	0x39ee2bd7	0.0004542756
155	0xbdbd1f93	-0.09234538
156	0xbda09199	-0.078402705
157	0xbd9d0853	-0.07667603
158	0xbd8b0259	-0.06787557
159	0x3d8d2f71	0.06893814
160	0x3d54e898	0.05197963
161	0x3db1b56e	0.08677183
162	0xbd4fd51d	-0.05074035
163	0x3bc9b1ca	0.0061552273
164	0xbd9a47f8	-0.07533258
165	0xbd60ebec	-0.054912493
166	0x3c7e011c	0.015503194
167	0x3af67bf3	0.001880525
168	0xbd37c630	-0.04486674
169	0x3d972933	0.07380905
170	0x3dc25d86	0.094904944
171	0xbca28384	-0.019838102
172	0x3cb2f922	0.021847311
173	0xbdc16a8d	-0.09444151
174	0xbc71d8ca	-0.014761159
175	0xbd823a4a	-0.06358774
176	0xbdd4e7b9	-0.1039576
177	0xbd887283	-0.066624664
178	0xbe0aa88f	-0.13540863
179	0xbd8df08e	-0.06930648
180	0xbd04e35a	-0.03244338
181	0xbd1b933a	-0.037982203
182	0xbdbfd783	-0.093672775
183	0x3d9e427d	0.077275254
184	0xbdd5b5b2	-0.10435046
185	0x3da0404c	0.07824764
186	0xbd02b8fc	-0.031914696
187	0xbd8c396b	-0.06846889
188	0x3d195fc1	0.037444834
189	0xbc155e14	-0.009116668
190	0xbe082a74	-0.13297445
191	0xbd9e6cbb	-0.077355824
192	0xbd24735c	-0.040149078
193	0x3ddcaa9d	0.107747294
194	0x3befbb37	0.007316019
195	0x3dbe352e	0.09287487
196	0x3d883dc3	0.06652405
197	0xbdf43c72	-0.119255915
198	0xbc5a9290	-0.013340607
199	0xbdddb14d	-0.10824833
200	0x3e910f68	0.28332067
201	0x3d1a782e	0.03771227
202	0xbde32e3e	-0.11092804
203	0xbd631fa1	-0.055450086
204	0xbc333299	-0.010937356
205	0x3e5d98fc	0.2164039
206	0xbdc2fd30	-0.09520948
207	0xbe2f0a80	-0.17093849
208	0x3e428d3e	0.18999192
209	0x3e1d2062	0.15344384
210	0x3ea3f5c5	0.32023445
211	0xbda7233c	-0.08161017
212	0x3e0b67b5	0.1361378
213	0xbe09def2	-0.13463953
214	0x3d8327e7	0.06404095
215	0x3e050b12	0.12992504
216	0xbd636ad7	-0.055521812
217	0xbda6bbad	-0.08141265
218	0xbd20563b	-0.039144736
219	0xbdb9b99a	-0.09068604
220	0x3dde4723	0.10853412
221	0xbd4a1310	-0.049334586
222	0x3ea5a608	0.32353234
223	0x3e691ae8	0.2276417
224	0xbd901cf1	-0.0703677
225	0x3e67bead	0.22631331
226	0xbd7b555f	-0.061360713
227	0xbe4050f6	-0.18780884
228	0x3c2abaa2	0.010420473
229	0x3e143625	0.1447378
230	0x3d9b22ae	0.07574974
231	0x3ca91aa4	0.020642586
232	0x3eabe092	0.3356977
233	0x3dbc7827	0.09202605
234	0xbddebea8	-0.108762085
235	0xbe259ae4	-0.16172367
236	0xbc1e1fe5	-0.009651159
237	0xbd1f012b	-0.038819473
238	0xbd54b13d	-0.05192684
239	0xbdef2e12	-0.11678709
240	0x3d5e1b59	0.0542253
241	0x3e2616e2	0.16219667
242	0x3db73f96	0.08947675
243	0x3e5c139c	0.21491855
244	0xbdaeda38	-0.08537716
245	0x3e029efc	0.1275596
246	0x3e96b300	0.2943344
247	0x3e621545	0.22078426
248	0x3dc43dbc	0.095820874
249	0x3db99ae3	0.090627454
250	0x3ea82f58	0.3284862
251	0x3de7eb40	0.11324167
252	0x3d380688	0.044928104
253	0x3db834c7	0.089944415
254	0x3dd1cc00	0.10243988
255	0xbbd3f6e2	-0.0064686397

bias f4 [20]
0	0x3e7c9644	0.24666697
1	0x3e518447	0.20460616
2	0x3cfb8a5d	0.030705625
3	0xbdff740b	-0.12473305
4	0x3c1dba65	0.009626959
5	0x3dedb28c	0.11606321
6	0x3bde01d5	0.0067751207
7	0x3eb8071c	0.35942924
8	0x3df2f7a7	0.11863642
9	0x3e3b0aaf	0.18265794
10	0x3dfe3576	0.124125406
11	0x3c6432ad	0.013928098
12	0xbdd72eee	-0.10506998
13	0x3e8786cc	0.2647003
14	0xbdf2ba3d	-0.118519284
15	0x3d164896	0.036690317
16	0xbd8dcaa4	-0.06923416
17	0x3d90879e	0.07057117
18	0x3e4d7d48	0.20067322
19	0x3eacf064	0.33777153

weight f4 [10, 20]
0	0x3e046da7	0.12932454
1	0xbf14be43	-0.58102816
2	0x3f1a6fbd	0.6032675
3	0x3dd8b04a	0.105804995
4	0xbda71d23	-0.08159854
5	0xbec5b38e	-0.38613552
6	0xbe525769	-0.20541157
7	0xbdfabe0b	-0.12243279
8	0x3ecf44a9	0.4048207
9	0xbf0ba0bd	-0.5454214
10	0xbd915034	-0.07095376
11	0xbe9b7839	-0.3036516
12	0xbdb45e01	-0.08806992
13	0x3e16719a	0.14691773
14	0xbe64f588	-0.22359288
15	0xbd2ef2a7	-0.04271188
16	0x3f2e5054	0.6809132
17	0x3e937c62	0.28805834
18	0xbefee707	-0.49785635
19	0xbd8e8b64	-0.069601804
20	0xbeec773c	-0.4618472
21	0x3ea7f58d	0.32804528
22	0xbe505341	-0.20344259
23	0xbd97739a	-0.07395096
24	0x3e11ab52	0.1422551
25	0xbe57d1bd	-0.21076103
26	0xbe75d8f6	-0.24008545
27	0x3ea3b358	0.31972766
28	0xbe05755c	-0.1303305
29	0x3e27866d	0.16359873
30	0x3f0eb821	0.5574971
31	0x3e98b5a5	0.29826084
32	0xbe2076b8	-0.15670288
33	0xbe78ecc7	-0.24309073
34	0x3d774134	0.060364917
35	0xbf45c436	-0.7725252
36	0xbec297ca	-0.3800643
37	0x3e9dea1e	0.3084268
38	0x3d556877	0.05210158
39	0x3f019252	0.5061389
40	0x3e7af079	0.24505796
41	0x3efc54c3	0.49283418
42	0xbd44727d	-0.047960747
43	0xbdbec27f	-0.09314441
44	0x3efa088e	0.48834652
45	0x3f2519f7	0.64492744
46	0x3e0074e6	0.12544593
47	0x3e4ff845	0.20309551
48	0x3bf40ead	0.0074480386
49	0xbe4a5b0b	-0.19761293
50	0xbce40ef0	-0.027839154
51	0xbe1a8ce4	-0.15092808
52	0xbe2e6ac3	-0.17032914
53	0xbdf930a7	-0.12167483
54	0xbe32911d	-0.17438169
55	0xbd9a31c5	-0.07529024
56	0xbe710bd9	-0.23539676
57	0x3e8547af	0.26031253
58	0xbec8de37	-0.39232036
59	0xbf153aae	-0.58292663
60	0x3f08e58f	0.5347528
61	0xbc8f07f9	-0.017459856
62	0xbe9009f6	-0.281326
63	0x3e3eac5e	0.1862044
64	0x3e9513c6	0.29116648
65	0xbebeacbf	-0.3724117
66	0xbd8e03bb	-0.06934305
67	0xbdaf0a9c	-0.085469455
68	0x3f165305	0.5872043
69	0xbe182bbf	-0.14860438
70	0xbd8fa1c2	-0.07013275
71	0x3f228229	0.6347986
72	0xbdada105	-0.08477978
73	0xbece0d2a	-0.40244418
74	0xbdc7389b	-0.097275935
75	0x3e9df72b	0.30852637
76	0xbf0306f1	-0.51182467
77	0xbe469c23	-0.19395499
78	0x3dd727fd	0.10505674
79	0xbe832544	-0.2561437
80	0xbedaa045	-0.427004
81	0xbd08aea7	-0.033369686
82	0x3dec29c9	0.115314074
83	0x3df40940	0.11915827
84	0xbe883fed	-0.26611272
85	0xbebb9141	-0.36634257
86	0x3ecb77ef	0.3973994
87	0x3eac2110	0.33618975
88	0xbdcf929e	-0.10135387
89	0x3f179bda	0.59222186
90	0xbe120233	-0.14258651
91	0xbe9272ea	-0.28603297
92	0xbe64f51a	-0.22359124
93	0x3e8413b8	0.25796294
94	0x3c770be9	0.015078523
95	0x3f433e04	0.76266503
96	0xbef1a4f4	-0.47196162
97	0x3e83448e	0.2563824
98	0xbe9c501b	-0.30529866
99	0xbe93f5c2	-0.28898436
100	0x3f37c785	0.7178882
101	0x3e49424b	0.19654195
102	0x3dc548be	0.09633015
103	0x3e3506a1	0.1767831
104	0xbea90533	-0.3301178
105	0xbefb99f8	-0.49140906
106	0xbe932a24	-0.28743088
107	0x3eb87533	0.36026916
108	0x3e4cbe69	0.1999451
109	0xbdd14e52	-0.102200165
110	0xbc1e78d6	-0.009672364
111	0xbdfc5b83	-0.12322142
112	0x3d8974e8	0.06711751
113	0xbe644430	-0.22291636
114	0x3e0d18f5	0.13779052
115	0xbdeafff2	-0.11474599
116	0x3e880d5b	0.2657269
117	0xbeaa67cb	-0.33282313
118	0x3e6379ff	0.22214507
119	0x3e61c8ba	0.22049227
120	0xbea2031c	-0.31642997
121	0x3d881d48	0.0664621
122	0xbe250edc	-0.1611895
123	0xbe132cbb	-0.14372532
124	0xbef894e5	-0.48551098
125	0x3c0983f8	0.00839328
126	0xbeb1272a	-0.34600192
127	0x3f65fc28	0.89837885
128	0xbd37b926	-0.044854306
129	0x3f029732	0.51011956
130	0xbe93a04f	-0.28833243
131	0xbea33331	-0.31874993
132	0x3da45312	0.08023657
133	0xbecdc7ff	-0.40191647
134	0x3e07c1a5	0.13257463
135	0xbf1eb01b	-0.61987466
136	0x3f1b288e	0.60608757
137	0xbdefafe2	-0.11703469
138	0xbe6088a0	-0.21927118
139	0xbec9204c	-0.39282453
140	0xbf078875	-0.5294259
141	0xbeb89302	-0.36049658
142	0xbe283854	-0.16427737
143	0xbcc45b25	-0.023969242
144	0x3ed2e9cb	0.41193995
145	0xbdbbfe7a	-0.09179397
146	0x3d9d9b46	0.07695632
147	0xbed18178	-0.4091909
148	0xbedfd011	-0.4371343
149	0x3d47482f	0.048652824
150	0x3e59ab0a	0.21256652
151	0x3e86f1a4	0.26356232
152	0x3db12235	0.086491026
153	0x3f39ae1d	0.725313
154	0x3e8b49ce	0.27204746
155	0xbd3a7891	-0.045525137
156	0xbe220521	-0.15822269
157	0xbe1d5c4d	-0.15367241
158	0x3ee39d37	0.44455883
159	0x3ec4cbf0	0.38436842
160	0xbd5b55fe	-0.053548805
161	0x3dad24e8	0.08454305
162	0x3d2e5124	0.04255785
163	0xbdf99a00	-0.12187576
164	0x3e8fb6db	0.28069195
165	0x3ef035c5	0.46916023
166	0xbe41ad73	-0.18913822
167	0xbea5c588	-0.32377267
168	0x3eaf64dd	0.3425664
169	0x3e577e90	0.21044374
170	0xbe53d627	-0.20687161
171	0xbce0ed01	-0.027456762
172	0x3e1ebc1d	0.15501447
173	0xbef458f5	-0.4772412
174	0xbc8bb610	-0.017054588
175	0xbcb7e2d4	-0.022447027
176	0x3efb8041	0.49121287
177	0xbe5cc6f6	-0.21560273
178	0x3df86867	0.12129288
179	0xbea42e74	-0.3206669
180	0xbe813b79	-0.25240687
181	0x3e8a1331	0.26967767
182	0x3f014ebd	0.5051077
183	0xbdf14197	-0.117800884
184	0x3ddf7b08	0.10912138
185	0xbe09e2b3	-0.13465385
186	0x3ef2daa3	0.47432432
187	0xbf00a9fe	-0.5025939
188	0xbe8becae	-0.2732901
189	0xbe1f937b	-0.15583603
190	0xbe2371af	-0.15961336
191	0xbea4ab52	-0.32161957
192	0xbda02e5c	-0.07821342
193	0xbdbf16f6	-0.09330551
194	0xbd9ba738	-0.07600254
195	0x3f4bdeb0	0.7963667
196	0xbe16c25f	-0.14722584
197	0xbec829cc	-0.39094388
198	0x3cb5c6c7	0.022189511
199	0x3ea68bed	0.3252863

bias f4 [10]
0	0xbe3310ee	-0.17486927
1	0x3e248f65	0.16070326
2	0x3bb1e452	0.005428829
3	0xbe633255	-0.22187169
4	0x3eb09985	0.34492126
5	0x3e0a1f95	0.1348861
6	0x3e0f482f	0.1399238
7	0x3ce2a6de	0.02766746
8	0xbd05ba6f	-0.0326485
9	0x3cd5cbb6	0.026098114
