datasets/mnist/partition_noniid-#label_major_classes_num_2_clients_10_dir_alpha_None_augement_data_percent_per_class_0.01_seed_42/models/batch_size_256_com_round_15_epochs_5_lr_0.1_sample_ratio_0.9_personalization_steps_25/client_4.pt (torch, 175631 bytes, 8 tensors)

weight f4 [50, 784]
-0.0002673864 0.0191587 -0.029394465 -0.026283538 -0.013755515 0.009577049 -0.0007076137 0.028317487
-0.0031694302 0.009450449 -0.0107933255 -0.007020192 -0.034014076 -0.023418343 -0.0147183 0.0013231498
0.014119115 0.021429386 -0.024212183 -0.015552245 0.012972042 0.029656714 -0.0073500066 0.026725428
-0.0057565486 0.003779075 0.032338437 -0.033131085 -0.0224835 -0.009041617 -0.013921428 0.030857172
-0.023149256 -0.016439991 -0.024662368 -0.032864556 -0.020364711 0.03088143 0.01632187 0.01781069
0.003586204 -0.01751194 0.0066220304 -0.03267106 -0.025038267 -0.01775074 0.022712866 0.021376386
-0.0156229 -0.0013966528 0.022832062 0.03549959 0.014174367 0.004824745 0.02394594 -0.021028655
0.0066551436 -0.027689483 -0.024753049 -0.01842941 0.01615698 0.014374285 -0.020824544 0.011682916
0.020885952 -0.0031412172 0.0042407247 0.013532969 0.029496744 0.042321134 -0.019323424 -0.0038759075
0.022413952 0.035349045 0.03367286 0.03267337 0.009663865 -0.028690074 0.004005537 -0.021935262
-0.033206344 0.031747468 0.027155707 -0.035626 0.006684718 -0.006016429 -0.0058769328 -0.016189277
0.013817527 -0.020800833 0.014541272 0.02009239 0.028256023 0.02309327 -0.023731789 -0.012855273
0.030001352 0.023259357 -0.013555697 -0.0054391003 0.042551767 0.022164742 -0.018643478 -0.012660365
-0.034616224 0.0016319072 -0.025793232 -0.026682092 -0.0020078972 0.005328484 -0.014627525 0.02119206
-0.02173354 0.03240606 0.024475306 -0.030130982 -0.008471618 0.004022862 0.00989136 0.015745802
0.024551583 0.016206093 -0.0044246046 0.03179844 -0.010973221 0.0040942812 0.016133213 -0.003144679
-0.0044653574 -0.028614953 -0.011732542 0.00760139 -0.019878056 -0.0042013032 0.020891499 -0.00910926
-0.0037323856 -0.0037672806 0.007224952 0.022699036 0.03383022 0.02268057 0.033933505 -0.0026883737
-0.03043654 -0.012628123 0.0319549 0.010305633 -0.004314724 -0.0107979765 -0.016207572 -0.012262395
0.016334848 0.04549451 0.039112575 -0.015880553 0.03720336 -0.008426291 0.012271353 0.0015869517
0.003752795 -0.0011605622 -0.036976118 -0.03909245 -0.014600346 -0.002542012 -0.016412811 0.013476277
-0.032144945 -0.002410405 0.030967856 -0.015039337 0.032886688 0.016360201 -0.022799827 0.036722872
0.00836841 -0.00021421994 0.049743105 -0.009040308 0.012048083 -0.01224876 0.02552016 0.01824691
0.016493956 0.0102378065 -0.0044481405 -0.00015471116 -0.02348467 0.01455425 0.01672273 0.010581393
-0.039411645 -0.006898464 -0.027414337 -0.019861363 -0.02081094 0.012189799 -0.021251345 -0.0016590037
0.003267409 0.028908664 -0.015227085 -0.011605122 -0.0155746965 0.03251555 -0.006324238 0.027728258
0.0042968593 -0.0064243884 -0.018105563 -0.020705272 -0.007991728 -0.023478292 -0.005763521 0.0037039958
-0.02828588 -0.019745285 0.015998999 -0.0496482 -0.021602884 0.022609916 0.010364132 0.0008237926
-0.031199103 0.017907836 -0.025067104 -0.010595576 -0.0064314525 0.0035773763 0.012287861 0.04202704
0.006415141 0.026839523 0.011165817 -0.030325428 0.0040565385 -0.032444354 -0.018753817 -0.0032528301
-0.005849798 0.017544387 -0.019707872 -0.004090164 0.010700199 -0.039777916 0.013504762 -0.05100895
-0.019857977 -0.018155485 -0.021214232 0.004611979 0.02953327 -0.010454317 -0.020981725 -0.013990143
00000000: ff2f 8cb9 b5f2 9c3c a9cc f0bc 9350 d7bc
00000010: d05e 61bc 0ee9 1c3c 277f 39ba 13fa e73c
00000020: 37b6 4fbb 0ed6 1a3c 7dd6 30bc a409 e6bb
00000030: 5852 0bbd d3d7 bfbc 0625 71bc 8a6d ad3a
00000040: dc53 673c ae8c af3c a158 c6bc d8ce 7ebc
00000050: b088 543c a3f2 f23c 53d8 f0bb 49ef da3c
00000060: 6ea1 bcbb 5caa 773b 4f75 043d 76b4 07bd
00000070: 512f b8bc 4a23 14bc b316 64bc 2ec8 fc3c
00000080: 82a3 bdbc 29ad 86bc bc08 cabc fc9c 06bd
00000090: e5d3 a6bc 0dfb fc3c 71b5 853c b9e7 913c
000000a0: 8506 6b3b 3375 8fbc 9efd d83b 17d2 05bd
000000b0: 0d1d cdbc 006a 91bc 5510 ba3c 881d af3c
000000c0: 31f7 7fbc e40f b7ba 4e0a bb3c 0568 113d
000000d0: 9b3b 683c e518 9e3b 472a c43c 4944 acbc
000000e0: 6413 da3b 0ed5 e2bc e8c6 cabc 46f9 96bc
000000f0: a55b 843c 1f82 6b3c 3c98 aabc b469 3f3c
00000100: 0419 ab3c e1dc 4dbb c7f5 8a3b 63b9 5d3c
00000110: 28a3 f13c ed58 2d3d 284c 9ebc f002 7ebb
00000120: 779d b73c 29ca 103d 8eec 093d 83d4 053d
00000130: 3055 1e3c 7207 ebbc e140 833b 94b1 b3bc
00000140: 6003 08bd a209 023d a575 de3c 92ec 11bd
00000150: 7b0b db3b 7725 c5bb 4993 c0bb 609f 84bc
00000160: e962 623c 8266 aabc 843e 6e3c cc98 a43c
00000170: 2d79 e73c 192e bd3c 2b69 c2bc ec9e 52bc
00000180: 65c5 f53c 688a be3c b718 5ebc 7b3a b2bb
00000190: c34a 2e3d d592 b53c 35ba 98bc 6b6d 4fbc
000001a0: bec9 0dbd b8e5 d53a 544c d3bc 6794 dabc
000001b0: ed96 03bb 909a ae3b 49a8 6fbc f99a ad3c
000001c0: 890a b2bc 37bc 043d 7080 c83c 40d5 f6bc
000001d0: 8bcc 0abc 36d2 833b 5f0f 223c 57fd 803c
000001e0: 6720 c93c a4c2 843c 46fc 90bb 153f 023d
000001f0: 06c9 33bc 5229 863b cd29 843c f516 4ebb
00000200: 2252 92bb e869 eabc d939 40bc 1515 f93b
00000210: 4ed7 a2bc 16ab 89bb a624 ab3c 013f 15bc
00000220: 0a9b 74bb 7be4 76bb 4abf ec3b 54f3 b93c
00000230: 8f91 0a3d 9acc b93c dcfd 0a3d 6d2f 30bb
00000240: 0d56 f9bc 30e6 4ebc 24e3 023d f5d8 283c
00000250: 8762 8dbb ffe9 30bc bec5 84bc 36e8 48bc
00000260: a9d0 853c 7458 3a3d 8234 203d ef17 82bc
00000270: 8d62 183d 6d0e 0abc c90d 493c 4301 d03a
00000280: 74f1 753b 011e 98ba 4574 17bd 681f 20bd
00000290: 4a36 6fbc e297 26bb 2974 86bc 9acb 5c3c
000002a0: 6baa 03bd e3f7 1dbb 4db0 fd3c 8d67 76bc
000002b0: 31b4 063d d405 863c b4c6 babc b96a 163d
000002c0: a81b 093c 3aa0 60b9 6dbf 4b3d cd1d 14bc
000002d0: 5365 453c 06af 48bc a80f d13c 8b7a 953c
000002e0: 551e 873c 79bc 273c b5c1 91bb f639 22b9
000002f0: ec62 c0bc f374 6e3c 1bfe 883c 945d 2d3c
00000300: 1b6e 21bd 830c e2bb 0894 e0bc 4cb4 a2bc
00000310: b47b aabc b9b7 473c 4d17 aebc ed72 d9ba
00000320: 0722 563b ddd1 ec3c 067b 79bc 6923 3ebc
00000330: 032d 7fbc 062f 053d 8e3b cfbb 5f26 e33c
00000340: abcc 8c3b ad83 d2bb 1e52 94bc 1a9e a9bc
00000350: bdef 02bc 8c55 c0bc ebdb bcbb bdbe 723b
00000360: cab7 e7bc ddc0 a1bc 5510 833c e95b 4bbd
00000370: 88f8 b0bc 6e38 b93c 52ce 293c c9f3 573a
00000380: 4395 ffbc 74b3 923c 8759 cdbc 1199 2dbc
00000390: efbe d2bb 6a72 6a3b 0653 493c 8c24 2c3d
000003a0: 1a36 d23b 8fde db3c d5f0 363c 086d f8bc
000003b0: b6ec 843b 5fe4 04bd 9ba1 99bc 6f2d 55bb
000003c0: aaaf bfbb 3fb9 8f3c 6772 a1bc c806 86bb
000003d0: e34f 2f3c 2bee 22bd 1443 5d3c c3ee 50bd
000003e0: 32ad a2bc d0ba 94bc 78c9 adbc 1520 973b
000003f0: c2ef f13c 9548 2bbc dee1 abbc ea36 65bc

bias f4 [50]
-0.059519254 -0.058454778 0.15573218 0.061188795 0.14641522 0.024643945 0.21687506 -0.044359073
-0.037503563 0.0833292 0.008253512 -0.0006255096 0.045183163 0.03341082 0.036349006 0.02586983
0.0104506975 0.058741428 0.17743868 0.0115434 0.094931915 -0.03178867 0.06102839 0.07057895
-0.021016784 0.12636398 0.020413887 0.080033496 0.06274367 0.04570195 0.015065275 0.10067445
0.07401915 0.14447023 0.050981652 -0.05720869 -0.016318955 0.026291255 0.037354104 0.12802152
0.0055165915 0.084080614 0.0791876 -0.051048886 -0.042855505 -0.048020832 -0.023293879 -0.03765682
0.05638043 0.10289823
00000000: 76ca 73bd 476e 6fbd 4278 1f3e 1aa1 7a3d
00000010: dfed 153e 19e2 c93c 7f14 5e3e dcb1 35bd
00000020: 569d 19bd 80a8 aa3d bd39 073c 3df9 23ba
00000030: fb11 393d c9d9 083d b2e2 143d f7ec d33c
00000040: 6739 2b3c da9a 703d 7cb2 353e 8720 3d3c
00000050: aa6b c23d d634 02bd e8f8 793d b28b 903d
00000060: 642b acbc 8f65 013e 063b a73c 9ae8 a33d
00000070: c17f 803d f831 3b3d 58d4 763c 682e ce3d
00000080: 5a97 973d 01f0 133e 23d2 503d a953 6abd
00000090: 54af 85bc c260 d73c 9e00 193d 1318 033e
000000a0: 86c4 b43b 7532 ac3d 1c2d a23d a318 51bd
000000b0: 4189 2fbd 7eb1 44bd ced2 bebc 0a3e 1abd
000000c0: 2aef 663d 4fbc d23d

weight f4 [50, 50]
-0.0012997034 -0.064054556 0.014081042 0.027409164 -0.12423798 -0.16366258 0.104762994 -0.1090565
0.123639114 0.21351376 -0.054643404 0.01317881 0.033816215 0.057086058 0.15108606 0.08298492
0.018895557 0.0727906 0.16128391 0.1114448 -0.19202082 0.11522217 -0.09284104 -0.16618116
0.018887464 0.047850143 0.09797345 0.20371775 -0.0507766 -0.16272612 -0.051567145 0.17682411
0.0627799 0.056160502 0.043607738 -0.016308738 0.06434269 0.04139078 0.11986437 0.21441638
0.013006188 -0.09881216 0.014020923 0.20664619 0.21207285 0.045856465 0.12744078 -0.08027145
-0.01129166 -0.06435073 -0.09942845 0.107737735 -0.15209432 0.016773669 -0.15739524 0.067470714
-0.09755093 0.15086164 0.119003795 0.089357205 0.03134479 -0.03416505 -0.0018641974 0.16033308
0.031464208 0.15922737 -0.06726392 0.20970182 0.09918534 0.08566307 -0.018323537 0.017017012
0.15425105 -0.05445265 0.087516434 -0.03755594 0.029656539 0.1538109 -0.095388025 -0.049322985
-0.052396674 -0.073840946 0.11995684 -0.043515656 0.02724335 -0.06555185 -0.034916583 0.028157221
0.017724603 0.11951134 -0.18707563 0.059762027 0.1853819 0.052221633 -0.11911474 0.051876187
0.10395964 -0.06787794 -0.09314859 -0.070281506 0.065718524 -0.09474313 -0.11695441 -0.036685538
0.027427513 0.059462737 0.013727185 0.0474627 -0.10972022 -0.022707762 0.05936215 0.15192528
-0.1403134 0.099639386 -0.11133643 -0.11784411 0.07189771 -0.07192676 -0.072791554 0.1600458
-0.076341815 0.14539473 -0.10769351 0.006743548 -0.009167557 -0.089031905 0.11162042 0.13199806
-0.048145916 0.105726376 0.113663435 -0.13516255 0.048737645 0.019797176 -0.02116805 -0.029563775
-0.09251272 -0.024199875 -0.12947345 -0.073658906 0.03568161 0.06328452 0.12417886 -0.09407624
-0.10505286 0.1262189 -0.06619924 0.1331289 0.008569896 0.14538978 -0.12231268 0.10148191
0.18112595 -0.088037714 0.04196294 -0.06581131 0.036841765 -0.041382458 -0.06989425 -0.0050246604
-0.0029780876 0.1493968 -0.13984916 -0.037241284 -0.10829221 0.0541829 0.09342405 0.028678898
-0.052018203 -0.011314409 -0.08263295 -0.13330378 0.050428644 -0.02169475 0.17667915 0.05599914
-0.08471884 -0.008481105 -0.06810816 -0.0504994 0.032540873 0.1503666 0.061109435 -0.16409048
0.12543002 -0.18084525 0.13318956 -0.10353168 -0.04690728 -0.06303562 -0.05264572 0.10828923
0.08741167 0.09264062 -0.11593636 0.076763935 -0.011973408 -0.100269176 0.019515749 -0.10770821
0.054025177 0.09827881 0.026037635 0.10237176 0.041136958 0.16364163 0.07628837 0.1912033
-0.08990047 0.1709868 0.12316016 0.019399641 0.121919185 0.0155291585 -0.11994579 -0.1684925
-0.01524632 0.10773854 0.1237509 -0.03839737 -0.13182001 -0.16291477 0.06823186 0.030337134
-0.16509713 0.0727586 0.113008216 -0.16261198 0.121059254 -0.21430711 0.1393844 -0.12397397
0.1586553 -0.13768944 -0.046574585 -0.09285248 -0.052028682 0.17927743 -0.031084055 -0.18008004
0.19196066 0.14419428 0.02422157 -0.19725832 -0.056503862 0.044360474 -0.07161111 -0.03210606
-0.036235366 -0.101769894 -0.09544525 0.06888065 0.11339735 0.07624116 -0.11266381 -0.054773126
00000000: cf5a aaba 092f 83bd 2cb4 663c 2f89 e03c
00000010: 7b70 febd 2a97 27be fb8d d63d 0459 dfbd
00000020: 8136 fd3d 5aa3 5a3e c3d1 5fbd efeb 573c
00000030: df82 0a3d 12d3 693d 4eb6 1a3e fff3 a93d
00000040: dbca 9a3c 3d13 953d 9c27 253e 2c3d e43d
00000050: 1ba1 44be 9af9 eb3d 7123 bebd 652b 2abe
00000060: e2b9 9a3c 83fe 433d 4ea6 c83d 639b 503e
00000070: 20fb 4fbd ada1 26be 1238 53bd 6111 353e
00000080: c092 803d 8e08 663d 079e 323d e799 85bc
00000090: 1ac6 833d 6189 293d 737b f53d f88f 5b3e
000000a0: e817 553c 085e cabd 03b8 653c 0f9b 533e
000000b0: a029 593e fdd3 3b3d d67f 023e 5c65 a4bd
000000c0: a800 39bc 51ca 83bd 25a1 cbbd 9aa5 dc3d
000000d0: 9dbe 1bbe ef68 893c 382c 21be 162e 8a3d
000000e0: c8c8 c7bd 797b 1a3e 43b8 f33d e900 b73d
000000f0: 6563 003d a7f0 0bbd 1658 f4ba 5b2e 243e
00000100: 9de0 003d 800c 233e abc1 89bd 13bc 563e
00000110: af21 cb3d 1f70 af3d 3e1b 96bc 4367 8b3c
00000120: fdf3 1d3e be09 5fbd d13b b33d 42d4 19bd
00000130: 45f2 f23c 9b80 1d3e cc5a c3bd e606 4abd
00000140: e59d 56bd ec39 97bd efab f53d 793d 32bd
00000150: 722d df3c 0c40 86bd b104 0fbd f9a9 e63c
00000160: 3033 913c 5dc2 f43d c190 3fbe 07c9 743d
00000170: c1d4 3d3e 5ae6 553d 6ef2 f3bd 207c 543d
00000180: cbe8 d43d 9703 8bbd b0c4 bebd c0ef 8fbd
00000190: 6f97 863d b008 c2bd cb85 efbd 9343 16bd
000001a0: aaaf e03c 338f 733d fde7 603c 4068 423d
000001b0: ffb4 e0bd a105 babc ba25 733d 4d92 1b3e
000001c0: 51ae 0fbe bc0f cc3d 5b04 e4bd 4158 f1bd
000001d0: 1b3f 933d 564e 93bd bd13 95bd 0ce3 233e
000001e0: 1959 9cbd 5be2 143e 6a8e dcbd fbf8 dc3b
000001f0: 8533 16bc 5c56 b6bd 3f99 e43d 802a 073e
00000200: a734 45bd 1287 d83d 60c8 e83d 0d68 0abe
00000210: 20a1 473d b02d a23c 9e68 adbc bb2f f2bc
00000220: 4f77 bdbd d13e c6bc b094 04be 7bda 96bd
00000230: e126 123d 509b 813d 7c51 fe3d 0bab c0bd
00000240: f425 d7bd 873f 013e 7893 87bd f152 083e
00000250: c068 0c3c 0fe1 143e 127f fabd bfd5 cf3d
00000260: 1579 393e 1e4d b4bd 55e1 2b3d 15c8 86bd
00000270: 64e7 163d a780 29bd b724 8fbd e8a5 a4bb
00000280: 052c 43bb 7afb 183e 9e34 0fbe 518a 18bd
00000290: 4ec8 ddbd e3ee 5d3d 1c55 bf3d 02f0 ea3c
000002a0: 0a11 55bd 1260 39bc 773b a9bd c980 08be
000002b0: 448e 4e3d 30b9 b1bc 61eb 343e 5b5f 653d
000002c0: 1281 adbd 55f4 0abc 4a7c 8bbd 75d8 4ebd
000002d0: 9449 053d b4f9 193e e34d 7a3d 5607 28be
000002e0: ba70 003e 7f2f 39be d862 083e 6b08 d4bd
000002f0: d921 40bd d218 81bd 0aa3 57bd bec6 dd3d
00000300: e404 b33d 5eba bd3d 0b70 edbd 6936 9d3d
00000310: 1d2c 44bc ed59 cdbd 7edf 9f3c 1f96 dcbd
00000320: 8149 5d3d 6746 c93d e14c d53c 49a8 d13d
00000330: 3a7f 283d ac91 273e 143d 9c3d ccca 433e
00000340: bd1d b8bd 2a17 2f3e 653b fc3d ffeb 9e3c
00000350: c4b0 f93d 036e 7e3c 23a6 f5bd 4c89 2cbe
00000360: b3cb 79bc 06a6 dc3d 1d71 fd3d 9046 1dbd
00000370: d3fb 06be 21d3 26be 25bd 8b3d 9585 f83c
00000380: 390f 29be 7602 953d da70 e73d c183 26be
00000390: eaed f73d 5373 5bbe c9ba 0e3e 11e6 fdbd
000003a0: 8976 223e 76fe 0cbe fec4 3ebd 7129 bebd
000003b0: 071c 55bd 8194 373e fda3 febc e766 38be
000003c0: 5691 443e aaa7 133e 506c c63c 16fe 49be
000003d0: 9870 67bd 54b3 353d d8a8 92bd a581 03bd
000003e0: 896b 14bd bc6c d0bd cd78 c3bd 4c11 8d3d
000003f0: df3c e83d 5324 9c3d 49bc e6bd c959 60bd

bias f4 [50]
0.08112226 0.06258147 0.002154705 0.06507747 0.13954884 0.044895157 0.1295926 0.10875172
0.08213665 -0.02366117 0.08681423 0.25033095 0.17367373 0.10327078 -0.13115916 -0.0036413337
0.11584152 0.10785636 0.112047 -0.14088818 -0.07741819 0.01647423 0.12830861 -0.02150526
0.29960337 0.113512956 0.015210368 0.09828293 0.17780632 0.2119689 0.26137128 -0.0066904877
0.20336083 -0.138579 0.0852322 0.09393415 -0.004324559 0.0037654405 -0.046043444 0.057129417
0.25804868 0.17056285 0.2226162 0.09290234 0.25839943 0.19384201 0.037088398 0.13419148
-0.15388402 0.010137818
00000000: 6d23 a63d b72a 803d f435 0d3b 5647 853d
00000010: e4e5 0e3e fce3 373d ecb3 043e 39b9 de3d
00000020: 4337 a83d 12d5 c1bc a9cb b13d 612b 803e
00000030: 87d7 313e a17f d33d 964e 06be 71a3 6ebb
00000040: 523e ed3d cce3 dc3d e678 e53d fe44 10be
00000050: 6e8d 9ebd f7f4 863c 5563 033e cd2b b0bc
00000060: 9d65 993e 7b79 e83d e834 793c 9048 c93d
00000070: dc12 363e 600e 593e 75d2 853e e13b dbbb
00000080: d23d 503e a7e7 0dbe 388e ae3d 8c60 c03d
00000090: 08b5 8dbb 9cc5 763b 0d98 3cbd 8900 6a3d
000000a0: f51e 843e 07a8 2e3e 80f5 633e 9543 be3d
000000b0: ee4c 843e 857e 463e 01ea 173d 7e69 093e
000000c0: c693 1dbe 1719 263c

weight f4 [20, 50]
0.15682292 -0.16457824 -0.14072359 0.15751356 0.016293233 0.27766234 0.1639559 0.04516575
0.072911724 0.24588692 -0.32080424 0.020785283 0.2470269 -0.1743922 -0.14829004 0.118515514
0.22480732 0.24993116 0.31429133 0.12941508 0.40679184 -0.028555432 0.2372534 -0.20953937
0.20555967 -0.041288357 0.051223412 -0.2916375 -0.29894876 -0.13762113 -0.06592555 -0.03843232
0.68564516 -0.037993465 -0.0048094196 0.13941875 -0.0037870002 0.06588871 0.08721819 -0.20896724
0.1805086 -0.10523779 -0.1433758 -0.15694822 0.09369856 -0.20681132 -0.251859 0.13635136
-0.0044426015 -0.062618494 -0.15959087 0.039260346 -0.05085697 0.0034794675 -0.163466 -0.14764461
0.29616287 -0.09300839 0.14611533 -0.14006485 0.12620027 0.031964745 0.29209146 -0.05605779
0.1095754 0.023307154 0.23353244 -0.19300391 0.17358088 0.0075024143 -0.085508205 0.13588506
0.018335737 -0.06906595 -0.11468973 0.20780183 0.11547418 0.22506699 -0.016035037 -0.04174493
0.1454323 -0.0573251 0.44903567 0.0048529287 -0.11796225 0.26365006 0.06778488 0.0008553765
0.11609214 -0.05547622 0.28267717 -0.23957917 0.08184446 0.16420703 0.005556315 0.10767378
0.21183193 0.19781283 -0.035923574 -0.059079606 0.09567603 0.08501834 -0.048753258 -0.11190754
-0.20616952 -0.012159545 -0.02679152 0.08171341 0.27771032 0.14139375 -0.012733146 0.18880686
0.10624742 0.12414317 -0.027106557 -0.17009974 0.072655916 0.34506407 0.0024762382 -0.064936385
0.036760293 0.05556457 -0.24102288 0.10483985 -0.13281879 0.12463559 -0.14331257 0.35502023
0.025774652 -0.031776037 -0.07542969 0.019024283 -0.20076165 -0.052347563 0.30164513 -0.1998043
-0.09389391 0.06962168 0.24684085 -0.02823383 -0.055489585 0.0005186087 -0.059054196 -0.08303387
-0.056626152 0.12721878 -0.14335968 -0.089446805 0.10755153 0.17518452 0.008516142 0.11368886
-0.08955438 -0.108444996 0.0004542756 -0.09234538 -0.078402705 -0.07667603 -0.06787557 0.06893814
0.05197963 0.08677183 -0.05074035 0.0061552273 -0.07533258 -0.054912493 0.015503194 0.001880525
-0.04486674 0.07380905 0.094904944 -0.019838102 0.021847311 -0.09444151 -0.014761159 -0.06358774
-0.1039576 -0.066624664 -0.13540863 -0.06930648 -0.03244338 -0.037982203 -0.093672775 0.077275254
-0.10435046 0.07824764 -0.031914696 -0.06846889 0.037444834 -0.009116668 -0.13297445 -0.077355824
-0.040149078 0.107747294 0.007316019 0.09287487 0.06652405 -0.119255915 -0.013340607 -0.10824833
0.22312857 0.02194 -0.11365049 -0.06092396 0.008483531 0.17495495 -0.10756623 -0.17981161
0.17173703 0.13510033 0.3064653 -0.08597466 0.15947907 -0.1196863 0.07050375 0.11985891
-0.042077426 -0.07469486 -0.047755 -0.09066151 0.092392035 -0.06547376 0.31277302 0.20681532
-0.12450998 0.23561214 0.01326903 -0.17426868 0.0002205048 0.13168925 0.050086807 0.030235667
0.34973705 0.09188488 -0.11478915 -0.14294975 -0.007384841 -0.038893256 -0.061275158 -0.14323515
0.06706048 0.13728383 0.07899865 0.2309805 -0.119363755 0.11386713 0.29902914 0.23875695
0.1190456 0.09399711 0.24981228 0.10032091 0.044115923 0.09420639 0.14572652 -0.047234103
00000000: 3096 203e 3387 28be d819 10be 3c4b 213e
00000010: 6379 853c c229 8e3e 0ee4 273e b9ff 383d
00000020: be52 953d c8c9 7b3e 7440 a4be e645 aa3c
00000030: 9ff4 7c3e de93 32be 58d9 17be 43b8 f23d
00000040: e433 663e f4ed 7f3e cbea a03e 6385 043e
00000050: 0547 d03e 15ed e9bc 8ef2 723e 7d91 56be
00000060: 3c7e 523e fb1d 29bd a4cf 513d 8351 95be
00000070: d00f 99be 8eec 0cbe fa03 87bd 356b 1dbd
00000080: 7186 2f3f 099f 1bbd 5698 9dbb cac3 0e3e
00000090: 522f 78bb a9f0 863d 739f b23d 82fb 55be
000000a0: 3fd7 383e e986 d7bd 1bd1 12be 09b7 20be
000000b0: 08e5 bf3d 59c6 53be aaf3 80be b19f 0b3e
000000c0: 3e93 91bb 203e 80bd ca6b 23be 75cf 203d
000000d0: 664f 50bd c707 643b a263 27be 2630 17be
000000e0: a9a2 973e 2f7b bebd 429f 153e 296d 0fbe
000000f0: a53a 013e 77ed 023d 038d 953e da9c 65bd
00000100: 1169 e03d a5ee be3c 2123 6f3e d1a2 45be
00000110: 30bf 313e d0d6 f53b ed1e afbd 7425 0b3e
00000120: d434 963c 7372 8dbd 73e2 eabd 01ca 543e
00000130: ba7d ec3d f677 663e e95b 83bc bbfc 2abd
00000140: 34ec 143e b9cd 6abd 01e8 e53e 5105 9f3b
00000150: 3196 f1bd 24fd 863e cdd2 8a3d 583b 603a
00000160: b7c1 ed3d 083b 63bd 10bb 903e 3e54 75be
00000170: 119e a73d e325 283e c011 b63b 1284 dc3d
00000180: 78ea 583e 728f 4a3e 9924 13bd 75fd 71bd
00000190: cbf1 c33d 181e ae3d 7fb1 47bd c82f e5bd
000001a0: 1a1e 53be d438 47bc e479 dbbc 5c59 a73d
000001b0: 0c30 8e3e 86c9 103e af9e 50bc 9656 413e
000001c0: 3f98 d93d c63e fe3d 920e debc a02e 2ebe
000001d0: a0cc 943d 3dac b03e 6248 223b 5efd 84bd
000001e0: f691 163d ad97 633d b4ce 76be 46b6 d63d
000001f0: a601 08be f240 ff3d 88c0 12be 36c5 b53e
00000200: 5d25 d33c 9727 02bd e27a 9abd d0d8 9b3c
00000210: 7694 4dbe 666a 56bd 3b71 9a3e 8099 4cbe
00000220: 734b c0bd d095 8e3d d9c3 7c3e a24a e7bc
00000230: 0c49 63bd 3ef3 073a d0e2 71bd a90d aabd
00000240: d3f0 67bd a445 023e e1cc 12be e32f b7bd
00000250: fa43 dc3d 9263 333e 4a87 0b3c b4d5 e83d
00000260: 4968 b7bd 6918 debd d72b ee39 931f bdbd
00000270: 9991 a0bd 5308 9dbd 5902 8bbd 712f 8d3d
00000280: 98e8 543d 6eb5 b13d 1dd5 4fbd cab1 c93b
00000290: f847 9abd eceb 60bd 1c01 7e3c f37b f63a
000002a0: 30c6 37bd 3329 973d 865d c23d 8483 a2bc
000002b0: 22f9 b23c 8d6a c1bd cad8 71bc 4a3a 82bd
000002c0: b9e7 d4bd 8372 88bd 8fa8 0abe 8ef0 8dbd
000002d0: 5ae3 04bd 3a93 1bbd 83d7 bfbd 7d42 9e3d
000002e0: b2b5 d5bd 4c40 a03d fcb8 02bd 6b39 8cbd
000002f0: c15f 193d 145e 15bc 742a 08be bb6c 9ebd
00000300: 5c73 24bd 9daa dc3d 37bb ef3b 2e35 be3d
00000310: c33d 883d 723c f4bd 9092 5abc 4db1 ddbd
00000320: d17b 643e 84bb b33c 97c1 e8bd 678b 79bd
00000330: 82fe 0a3c 6427 333e af4b dcbd 8920 38be
00000340: d5db 2f3e be57 0a3e 05e9 9c3e 7c13 b0bd
00000350: 7b4e 233e 171e f5bd 4564 903d 9778 f53d
00000360: 6159 2cbd 9ef9 98bd bf9a 43bd beac b9bd
00000370: 0938 bd3d 1b17 86bd c923 a03e 65c7 533e
00000380: 17ff febd 4f44 713e 5866 593c 7d73 32be
00000390: 4e37 6739 8cd9 063e d327 4d3d cab0 f73c
000003a0: bc10 b33e 242e bc3d 9316 ebbd 6b61 12be
000003b0: 89fc f1bb 894e 1fbd a9fb 7abd 3cac 12be
000003c0: 0157 893d 2294 0c3e 0bca a13d 2786 6c3e
000003d0: fc74 f4bd 2b33 e93d 591a 993e b47c 743e
000003e0: 2ece f33d 8f81 c03d cace 7f3e 0d75 cd3d
000003f0: e6b2 343d 48ef c03d 5539 153e 8c78 41bd

bias f4 [20]
0.24253984 0.19438228 0.051145237 -0.12473305 0.0031420132 0.094883725 0.016244058 0.32232347
0.10191607 0.1500962 0.10605114 0.004086187 -0.10636625 0.24394801 -0.11491302 0.023528235
-0.064110726 0.034444682 0.2068247 0.36680585
00000000: 5d5c 783e 260c 473e ab7d 513d 0b74 ffbd
00000010: 3cea 4d3b 6652 c23d 4212 853c 9507 a53e
00000020: 5fb9 d03d d1b2 193e 5731 d93d 6ce5 853b
00000030: 8cd6 d9bd 82cd 793e 8457 ebbd 49be c03c
00000040: 7c4c 83bd de15 0d3d dbc9 533e facd bb3e

weight f4 [10, 20]
0.1728036 -0.59566253 0.5717411 0.105804995 -0.03784793 -0.32865202 -0.20136827 -0.12277225
0.35516298 -0.53801596 -0.03627773 -0.2584816 -0.08805757 -0.005754042 -0.22374828 -0.09525536
0.72502077 0.35198262 -0.4846167 -0.05681303 -0.4580696 0.34866208 -0.18458986 -0.07395096
0.1588224 -0.20666972 -0.24768002 0.36233532 -0.09956999 0.19941491 0.5531531 0.29982352
-0.15668528 -0.19807352 0.06315578 -0.75821424 -0.39232406 0.31227732 0.06445827 0.5167816
0.24069577 0.5696116 0.037114106 -0.09314441 0.41849706 0.6075295 0.092725284 0.18825907
-0.043912 -0.19068569 -0.049704436 -0.2410611 -0.17012165 -0.13111821 -0.17683116 0.012030015
-0.39361423 0.2731989 -0.47147587 -0.5411717 0.5842282 0.021922773 -0.2822404 0.1862044
0.31235212 -0.34893832 -0.05753432 -0.045168996 0.60341644 -0.14058667 -0.09527909 0.61810976
-0.08477356 -0.37080422 -0.09429794 0.33793807 -0.5087622 -0.17873254 0.06662795 -0.29367962
-0.41557187 -0.07377445 0.12924494 0.11915827 -0.26478946 -0.3708907 0.38704106 0.36820242
-0.106196254 0.6447344 -0.14615202 -0.30165812 -0.22357666 0.26615265 0.012936562 0.66407144
-0.38260657 0.19237545 -0.2783477 -0.3384155 0.7088197 0.16297509 0.04346789 0.1767831
-0.34009552 -0.51208013 -0.29870096 0.34043577 0.19168854 -0.10235415 -0.013945788 -0.13464841
0.06714947 -0.1812449 0.13486364 -0.14398912 0.29142234 -0.36401102 0.3109267 0.22683977
-0.3581365 0.027869588 -0.19644088 -0.14372532 -0.43829522 0.08778663 -0.36607105 0.79396415
-0.03353639 0.49159122 -0.2448195 -0.23778091 0.07999937 -0.41931674 0.13184774 -0.65427
0.620421 -0.13457307 -0.24671577 -0.38368535 -0.5564526 -0.34194693 -0.15922217 -0.023969242
0.42507896 -0.06362245 0.103105634 -0.37145242 -0.45152876 0.016497385 0.20755379 0.27164143
0.08649555 0.67870003 0.2866011 -0.006687387 -0.13173929 -0.1670604 0.43001387 0.39484695
-0.07340567 0.102910176 0.0049517704 -0.12187576 0.31463382 0.43993416 -0.16036308 -0.3194096
0.3464154 0.21990709 -0.21474138 -0.03041386 0.15495975 -0.40998742 -0.021533167 -0.0054294458
0.46826425 -0.23652212 0.17845549 -0.32458737 -0.25855133 0.22318345 0.5403528 -0.117800884
0.011824506 -0.23542452 0.48556015 -0.52019334 -0.20691925 -0.22514084 -0.16572608 -0.3205693
-0.07821605 -0.06094975 -0.08344645 0.8242431 -0.15683754 -0.3397866 -0.016727945 0.32502228
00000000: 6df3 303e 577d 18bf a05d 123f 4ab0 d83d
00000010: 6e06 1bbd 1445 a8be 7c33 4ebe 0470 fbbd
00000020: ecd7 b53e 6abb 09bf f597 14bd b357 84be
00000030: 8757 b4bd 678c bcbb 451e 65be 3e15 c3bd
00000040: f69a 393f 1137 b43e ae1f f8be c8b4 68bd
00000050: 1988 eabe d683 b23e 2005 3dbe 9a73 97bd
00000060: 57a2 223e 3aa1 53be d59f 7dbe 0484 b93e
00000070: 5aeb cbbd 6c33 4c3e 719b 0d3f 7882 993e
00000080: 1b72 20be c9d3 4abe d157 813d 541a 42bf
00000090: b3de c8be d0e2 9f3e b302 843d cd4b 043f
000000a0: f478 763e 11d2 113f f604 183d 7fc2 bebd
000000b0: 3f45 d63e 0e87 1b3f c1e6 bd3d fcc6 403e
000000c0: 12dd 33bd 1c43 43be e196 4bbd b9d8 76be
000000d0: 5f34 2ebe da43 06be 3a13 35be 8a19 453c
000000e0: ce87 c9be bae0 8b3e 4965 f1be 3b8a 0abf
000000f0: fb8f 153f 6397 b33c d081 90be 5eac 3e3e
00000100: 9eec 9f3e 0ba8 b2be 1ba9 6bbd 2003 39bd
00000110: 8079 1a3f f4f5 0fbe af21 c3bd 713c 1e3f
00000120: c39d adbd 0dda bdbe 471f c1bd 3806 ad3e
00000130: 3d3e 02bf aa05 37be 3c74 883d 2d5d 96be
00000140: d6c5 d4be 0f17 97bd c958 043e 4009 f43d
00000150: 7c92 87be 63e5 bdbe 3f2a c63e 0785 bc3e
00000160: 6c7d d9bd 500d 253f e0a8 15be ef72 9abe
00000170: 48f1 64be 2945 883e e0f3 533c 9600 2a3f
00000180: 02e5 c3be 12fe 443e 9783 8ebe cc44 adbe
00000190: 3575 353f f1e2 263e 630b 323d a106 353e
000001a0: 0021 aebe af17 03bf 55ef 98be 994d ae3e
000001b0: 004a 443e 0d9f d1bd e07c 64bc 46e1 09be
000001c0: a985 893d 4398 39be b219 0a3e e271 13be
000001d0: 4f35 953e a75f babe c931 9f3e af48 683e
000001e0: ab5d b7be c34e e43c cc27 49be bb2c 13be
000001f0: 3b68 e0be 7ac9 b33d aa6d bbbe 3c41 4b3f
00000200: 745d 09bd d8b1 fb3e f7b1 7abe d77c 73be
00000210: b6d6 a33d afb0 d6be 1803 073e 3d7e 27bf
00000220: e9d3 1e3f 86cd 09be 0fa3 7cbe 6872 c4be
00000230: ad73 0ebf ab13 afbe 230b 23be 255b c4bc
00000240: f3a3 d93e 7d4c 82bd 0c29 d33d 032f bebe
00000250: c72e e7be 8625 873c fb88 543e 9614 8b3e
00000260: 9424 b13d 49bf 2d3f 61bd 923e de21 dbbb
00000270: aae6 06be e211 2bbe c72a dc3e 6129 ca3e
00000280: b655 96bd 92c2 d23d 7642 a23b 009a f9bd
00000290: af17 a13e 0d3f e13e 3836 24be a889 a3be
000002a0: 5c5d b13e 532f 613e 2ae5 5bbe 7d26 f9bc
000002b0: c5ad 1e3e dfe9 d1be 5366 b0bc 7ee9 b1bb
000002c0: 55c0 ef3e db32 72be 09bd 363e 5130 a6be
000002d0: d760 84be 348a 643e 9054 0a3f 9741 f1bd
000002e0: 93bb 413c 2013 71be 579b f83e 642b 05bf
000002f0: a4e2 53be 528b 66be 19b4 29be a921 a4be
00000300: bd2f a0bd 72a6 79bd f9e5 aabd 9901 533f
00000310: 059a 20be 82f8 adbe 0b09 89bc 5269 a63e

bias f4 [10]
-0.14043513 0.16284479 0.03933423 -0.22467366 0.2658553 0.12780893 0.11734006 0.021772407
-0.056134313 0.09652709
00000000: 3ace 0fbe c9c0 263e ee1c 213d da10 66be
00000010: 301e 883e 58e0 023e fc4f f03d 0c5c b23c
00000020: 18ed 65bd ffaf c53d
