datasets/mnist/partition_noniid-#label_major_classes_num_3_clients_10_dir_alpha_None_augement_data_percent_per_class_0_seed_42/models/batch_size_256_com_round_50_epochs_5_lr_0.1_sample_ratio_0.9_personalization_steps_25/client_8.pt (torch, 175631 bytes, 8 tensors)

weight f4 [50, 784]
-0.0002673864 0.0191587 -0.029394465 -0.026283538 -0.013755515 0.009577049 -0.0007076137 0.028317487
-0.0031694302 0.009450449 -0.0107933255 -0.007020192 -0.034126744 -0.023667583 -0.014721136 0.0013230315
0.014119115 0.021429386 -0.024212183 -0.015552245 0.012972042 0.029656714 -0.0073500066 0.026725428
-0.0057565486 0.003779075 0.032338437 -0.033131085 -0.0224835 -0.009041617 -0.013921428 0.030857172
-0.023149028 -0.016441036 -0.02487375 -0.033326413 -0.020959824 0.030511122 0.01569557 0.016427085
0.0015948477 -0.018216375 0.006452856 -0.032353364 -0.024843477 -0.018643364 0.022343593 0.020721857
-0.016044207 -0.0013137292 0.022777768 0.035428047 0.014174367 0.004824745 0.02394594 -0.021028655
0.0066551436 -0.027689483 -0.024752349 -0.018449254 0.016126322 0.01435382 -0.021136392 0.010883012
0.020918198 -0.00048548967 0.0043595973 0.0091001075 0.023685409 0.041388266 -0.022398194 -0.008368335
0.016718837 0.028055297 0.02866924 0.030414663 0.0067104516 -0.03181301 0.0013239898 -0.02297803
-0.033123937 0.031837054 0.027155707 -0.035626 0.006684718 -0.006016429 -0.005875163 -0.016275486
0.013695035 -0.021144174 0.013041025 0.018497482 0.027249403 0.018515654 -0.03349535 -0.022739299
0.01725422 0.012971599 -0.021966718 -0.020041745 0.031806137 0.017008945 -0.024848256 -0.01881912
-0.04158353 -0.009374019 -0.03453892 -0.02920966 -0.002306281 0.00527424 -0.014535788 0.02119206
-0.02173354 0.03240615 0.024476847 -0.030025128 -0.008343747 0.005753859 0.010524156 0.015081848
0.025228767 0.012498881 -0.01536397 0.021531483 -0.019002344 -0.009972853 -0.008180563 -0.02981033
-0.027383199 -0.04727242 -0.023097409 0.0012397295 -0.029632067 -0.012710858 0.016203783 -0.0064236135
-0.0015300218 -0.0039651147 0.007742404 0.023226865 0.03383022 0.02268057 0.03391227 -0.0026239052
-0.030350873 -0.00943254 0.03103172 0.0074173776 -0.00084239105 -0.009755609 -0.020600665 -0.017104125
0.013303623 0.04070798 0.027935408 -0.030710213 0.011377715 -0.038042843 -0.007156331 -0.021971477
-0.031117296 -0.030451281 -0.05119918 -0.041140754 -0.011998793 -0.0009851818 -0.01462471 0.014213856
-0.032144945 -0.0024102372 0.031392366 -0.014577116 0.035761017 0.015405095 -0.03108133 0.028805254
-0.000119917495 -0.013046989 0.034786947 -0.026998803 0.008561354 0.00075604947 0.036125988 0.0051709767
0.015761755 0.01355111 0.0021726044 -0.01334694 -0.048708472 -0.0030294005 0.009229504 0.005621356
-0.041872986 -0.0032101371 -0.025740549 -0.019659875 -0.020810876 0.01219842 -0.020853376 1.4704147e-05
0.0056329314 0.02450982 -0.028444668 -0.023907753 -0.034735356 0.016228454 -0.01806579 0.030847277
0.005383355 -0.0031877002 -0.022987051 -0.03236714 -0.0082654515 -0.016031386 0.0033152895 0.004486556
-0.03305518 -0.038911942 0.0046630157 -0.054964915 -0.023921851 0.026259495 0.011571914 0.000961638
-0.031045947 0.01773672 -0.025274996 -0.008464584 -0.008690435 -0.0046849544 0.0026375821 0.04047412
0.004521324 0.03333252 0.02670054 -0.013893869 0.02909949 -0.018121172 -0.013416731 0.012867441
0.010138975 0.025236545 -0.01316299 -0.0041247816 0.0033288817 -0.059826117 -0.0014976497 -0.056267668
-0.02264763 -0.018497217 -0.020438783 0.004620624 0.029531777 -0.010303069 -0.020832375 -0.00978406
00000000: ff2f 8cb9 b5f2 9c3c a9cc f0bc 9350 d7bc
00000010: d05e 61bc 0ee9 1c3c 277f 39ba 13fa e73c
00000020: 37b6 4fbb 0ed6 1a3c 7dd6 30bc a409 e6bb
00000030: 7cc8 0bbd 85e2 c1bc eb30 71bc 9269 ad3a
00000040: dc53 673c ae8c af3c a158 c6bc d8ce 7ebc
00000050: b088 543c a3f2 f23c 53d8 f0bb 49ef da3c
00000060: 6ea1 bcbb 5caa 773b 4f75 043d 76b4 07bd
00000070: 512f b8bc 4a23 14bc b316 64bc 2ec8 fc3c
00000080: 08a3 bdbc 5aaf 86bc 09c4 cbbc 4781 08bd
00000090: f0b3 abbc 76f2 f93c ff93 803c 1892 863c
000000a0: 350a d13a 823a 95bc 7b72 d33b f684 04bd
000000b0: 8c84 cbbc f8b9 98bc e909 b73c e2c0 a93c
000000c0: 246f 83bc 7031 acba 7198 ba3c 001d 113d
000000d0: 9b3b 683c e518 9e3b 472a c43c 4944 acbc
000000e0: 6413 da3b 0ed5 e2bc 70c5 cabc e422 97bc
000000f0: 591b 843c 492c 6b3c 3a26 adbc a94e 323c
00000100: a45c ab3c 5289 feb9 f4da 8e3b 9e18 153c
00000110: e707 c23c be86 293d 6b7c b7bc 571b 09bc
00000120: f1f5 883c 39d4 e53c c1db ea3c 2c28 f93c
00000130: 59e3 db3b 5c4e 02bd ba89 ad3a 6c3c bcbc
00000140: f7ac 07bd 9267 023d a575 de3c 92ec 11bd
00000150: 7b0b db3b 7725 c5bb 7084 c0bb 2b54 85bc
00000160: 2461 603c 8c36 adbc 06aa 553c 0888 973c
00000170: 243a df3c 24ae 973c 6c32 09bd c447 babc
00000180: b958 8d3c d486 543c 8cf3 b3bc 962e a4bc
00000190: 2747 023d 5856 8b3c 928e cbbc 8e2a 9abc
000001a0: 7e53 2abd 7c95 19bc af78 0dbd 1949 efbc
000001b0: f924 17bb 88d3 ac3b 8427 6ebc f99a ad3c
000001c0: 890a b2bc 50bc 043d ab83 c83c 42f7 f5bc
000001d0: 36b4 08bc de8a bc3b 826d 2c3c db19 773c
000001e0: 8fac ce3c 1bc8 4c3c 29b9 7bbc cb62 b03c
000001f0: ceaa 9bbc 2d65 23bc c507 06bc cb34 f4bc
00000200: bb52 e0bc baa0 41bd c736 bdbc 6b7e a23a
00000210: f3be f2bc 3441 50bc ccbd 843c 2d7d d2bb
00000220: 038b c8ba cbed 81bb feb3 fd3b 4446 be3c
00000230: 8f91 0a3d 9acc b93c 98e7 0a3d d3f5 2bbb
00000240: 65a2 f8bc f18a 1abc 3c36 fe3c 790d f33b
00000250: e8d3 5cba fdd5 1fbc bac2 a8bc f31d 8cbc
00000260: 70f7 593c 69bd 263d ccd8 e43c fc93 fbbc
00000270: 9869 3a3c d0d2 1bbd a87f eabb 87fd b3bc
00000280: b3e9 febc f774 f9bc 3bb6 51bd 3583 28bd
00000290: 9696 44bc 3721 81ba 7b9c 6fbc 3ce1 683c
000002a0: 6baa 03bd 12f5 1dbb 4895 003d dbd4 6ebc
000002b0: 257a 123d a765 7c3c 469e febc fff8 eb3c
000002c0: 377c fbb8 0ac3 55bc c27c 0e3d 982c ddbc
000002d0: ec44 0c3c 9f31 463a d8f8 133d 4c71 a93b
000002e0: cc1e 813c 7a05 5e3c 4162 0e3b 20ad 5abc
000002f0: 8982 47bd e888 46bb 5837 173c 5a33 b83b
00000300: 0283 2bbd 2a61 52bb d8dd d2bc bf0d a1bc
00000310: 927b aabc e2db 473c b3d4 aabc d5b1 7637
00000320: 7494 b83b d1c8 c83c cb04 e9bc 31da c3bc
00000330: a946 0ebd 89f1 843c b5fe 93bc 6eb3 fc3c
00000340: db66 b03b bce8 50bb 574f bcbc 6893 04bd
00000350: d16b 07bc 4154 83bc 5445 593b f603 933b
00000360: de64 07bd 2162 1fbd 36cc 983b e422 61bd
00000370: c2f7 c3bc 271e d73c 2098 3d3c 6f16 7c3a
00000380: 1254 febc 994c 913c 820d cfbc 0aaf 0abc
00000390: 5462 0ebc 3f84 99bb 49db 2c3b 31c8 253d
000003a0: 9d27 943b ae87 083d 17bb da3c 1ca3 63bc
000003b0: 0e62 ee3c da72 94bc d9d1 5bbc f6d1 523c
000003c0: f21d 263c dfbc ce3c 95a9 57bc 2d29 87bb
000003d0: 5e29 5a3b 3b0c 75bd c94c c4ba ed78 66bd
000003e0: 8687 b9bc 7a87 97bc 3c6f a7bc 9a68 973b
000003f0: a0ec f13c 34ce 28bc a8a8 aabc 524d 20bc

bias f4 [50]
-0.0034583549 -0.02736577 0.05670898 0.009098575 0.05636788 0.06807252 0.06479029 -0.048437588
0.0034201448 0.10235927 0.11936362 0.011986887 0.07479273 0.050438464 0.05899243 0.06741098
-0.010889061 0.039444566 0.11915965 0.025756007 0.08232889 0.012448248 0.08603495 0.07923974
-0.01621937 0.035108987 -0.0012163855 0.14470209 0.09454566 0.116928145 0.035906434 0.03711978
0.0474268 0.15872373 0.08024353 -0.08466853 0.0032647068 0.021827662 -0.015150428 0.15501232
0.017665934 0.17903192 0.1090094 -0.021297345 -0.07090803 -0.026980462 -0.023841785 -0.034109384
0.04347124 0.162779
00000000: 91a5 62bb 2e2e e0bc ad47 683d 3112 153c
00000010: 02e2 663d 9b69 8b3d c6b0 843d 7e66 46bd
00000020: 8224 603b bda1 d13d ea74 f43d a664 443c
00000030: ee2c 993d 9098 4e3d 0ca2 713d c50e 8a3d
00000040: 0868 32bc a090 213d f909 f43d 43fe d23c
00000050: 0d9c a83d bdf3 4b3c 1833 b03d 7248 a23d
00000060: 7cde 84bc 71ce 0f3d 206f 9fba c92c 143e
00000070: 28a1 c13d 0678 ef3d a012 133d e90a 183d
00000080: 9b42 423d 7988 223e b856 a43d b266 adbd
00000090: b1f4 553b edcf b23c 8039 78bc 8dbb 1e3e
000000a0: 26b8 903c 2554 373e 5240 df3d c577 aebc
000000b0: 3b38 91bd 2106 ddbc d94f c3bc 48b6 0bbd
000000c0: e60e 323d 8aaf 263e

weight f4 [50, 50]
0.06191962 -0.089045145 -0.07083326 0.09552772 -0.061911207 -0.1475795 0.07301442 -0.092548475
0.145392 0.21481003 -0.10430369 -0.039016683 0.005197799 0.114032365 0.16416799 0.08796046
0.04582994 0.18883261 0.14483196 0.006011167 -0.21688971 0.068712756 -0.041535202 -0.16127199
0.072907016 0.12375571 0.033876676 0.3683829 -0.13493863 -0.3229453 -0.016130442 0.12884775
0.04095214 0.0394559 0.007244549 -0.10085972 0.09571794 0.04763149 0.07903488 0.2632059
-0.021867957 -0.18339923 0.0049225264 0.14915015 0.27838114 0.1280708 0.12683974 -0.07791238
-0.013969012 0.0009696624 -0.024732191 0.22441429 -0.16536736 0.10274276 -0.07941762 0.16884612
-0.12454558 0.1758401 0.16966958 0.1112469 0.13663279 -0.10796145 0.004427284 0.27313095
-0.016604433 0.11328954 -0.053584952 0.30354264 0.14052966 0.11535317 0.10600896 -0.04277956
0.19812922 -0.08851731 0.16153555 0.014122847 0.035395443 0.33104196 -0.18947087 -0.14517686
-0.11576477 -0.007421481 0.17207073 -0.23891525 0.012407464 -0.14599003 0.03759129 0.13355084
-0.056813024 0.15301213 -0.19854079 0.1594747 0.1862014 0.12945901 -0.0626392 0.17990921
0.103003934 -0.06587247 -0.09350937 -0.029646045 0.050015032 -0.09886517 -0.139773 -0.051483784
0.0033598584 0.030513208 -0.016540369 0.024233975 -0.12574162 -0.038076065 0.0028840867 0.14416635
-0.14204042 0.10739727 -0.110846445 -0.11008189 0.060099166 -0.074176565 -0.07894434 0.13248444
-0.121265635 0.14365779 -0.10594173 -0.025143418 -0.003380261 -0.09121605 0.09562674 0.12222683
-0.04836066 0.09027197 0.100154184 -0.13916618 0.057339985 0.0018937786 -0.031756 -0.02971956
-0.09242079 -0.0296298 -0.12052788 -0.108433776 -0.004235212 0.020926826 0.1200236 -0.099733695
-0.09705155 0.11654977 -0.066188626 0.13074154 -0.010361863 0.119871296 -0.108687885 0.12641074
0.11130471 -0.07081713 -0.04620474 -0.027537216 0.038703065 -0.016574148 -0.069165185 0.0065384973
0.008449715 0.16260257 -0.13470335 -0.036855165 -0.13231403 0.05658031 0.062795006 0.034210686
-0.09790749 -0.031161278 -0.09736874 -0.12061093 0.031881228 -0.028094469 0.14372379 0.052320424
-0.11003996 -0.04175744 -0.067753375 -0.06609631 0.059456233 0.11662483 0.040275887 -0.11882787
0.10085015 -0.15253623 0.13947782 -0.11056217 -0.08518462 -0.063125 -0.056660675 0.11793925
0.08637847 0.061681844 -0.11617304 0.106879115 -0.011914418 -0.09757455 -0.007847048 -0.10904574
0.0572671 0.09097822 0.1095066 0.13446721 0.08425715 0.17695293 0.07282299 0.14740658
-0.07692961 0.14733525 0.09710106 0.016038015 0.13619871 -0.013360136 -0.2062202 -0.21320112
-0.029407546 0.11922269 0.02848275 -0.059255347 -0.054829627 -0.11870977 0.017428622 0.009911631
-0.13241825 0.03910044 0.14946425 -0.17916414 0.058512796 -0.16069344 0.09155837 -0.10162487
0.15031807 -0.147737 -0.03860863 -0.048137996 -0.021809665 0.25146416 -0.043488454 -0.18812858
0.17337745 0.23999882 -0.028976517 -0.103208765 0.00048559112 0.05244187 -0.07208296 -0.042002097
0.037072316 -0.20112379 -0.025713008 0.069449656 0.0005531211 0.17432366 0.009596821 -0.08438807
00000000: 6d9f 7d3d 4d5d b6bd 0711 91bd 0aa4 c33d
00000010: 9b96 7dbd 151f 17be 9688 953d 0e8a bdbd
00000020: a4e1 143e 29f7 5b3e 2c9d d5bd f5cf 1fbd
00000030: 4c52 aa3b cd89 e93d a71b 283e 9d24 b43d
00000040: 2db8 3b3d 565d 413e d44e 143e 53f9 c43b
00000050: 5618 5ebe 46b9 8c3d d120 2abd 7c24 25be
00000060: 4650 953d a273 fd3d 45c2 0a3d af9c bc3e
00000070: 5a2d 0abe 1659 a5be fd23 84bc aaf0 033e
00000080: 6ebd 273d 839c 213d af63 ed3b 8a8f cebd
00000090: c407 c43d 3d19 433d 0add a13d ecc2 863e
000000a0: 6e24 b3bc 02cd 3bbe 254d a13b d1ba 183e
000000b0: f987 8e3e fe24 033e 47e2 013e 8790 9fbd
000000c0: 48de 64bc f130 7e3a 2a9b cabc dccc 653e
000000d0: 1056 29be cc6a d23d b5a5 a2bd ffe5 2c3e
000000e0: c111 ffbd 6d0f 343e ddbd 2d3e 6ad5 e33d
000000f0: 77e9 0b3e e51a ddbd c012 913b d2d7 8b3e
00000100: 0506 88bc 5904 e83d e57b 5bbd f169 9b3e
00000110: 02e7 0f3e 483e ec3d 3a1b d93d 9f39 2fbd
00000120: 63e2 4a3e 9048 b5bd 9369 253e 8363 673c
00000130: d0fa 103d 557e a93e a704 42be 3ea9 14be
00000140: 1416 edbd e52f f3bb 4f33 303e 33a6 74be
00000150: ad48 4b3c 697e 15be 53f9 193d 8dc1 083e
00000160: c6b4 68bd 36af 1c3e 474e 4bbe 564d 233e
00000170: 94ab 3e3e e790 043e fb48 80bd 1f3a 383e
00000180: baf3 d23d 25e8 86bd d781 bfbd 43dc f2bc
00000190: 90dc 4c3d d279 cabd a720 0fbe a9e0 52bd
000001a0: 1231 5c3b d6f6 f93c ab7f 87bc 5486 c63c
000001b0: 69c2 00be a6f5 1bbd f202 3d3b 58a0 133e
000001c0: 0b73 11be 1af3 db3d 7603 e3bd 9d72 e1bd
000001d0: 8b2a 763d e2e9 97bd 92ad a1bd 00aa 073e
000001e0: 1e5a f8bd 071b 133e faf7 d8bd 92f9 cdbc
000001f0: 5e87 5dbb 7bcf babd f4d7 c33d 0f52 fa3d
00000200: d415 46bd 83e0 b83d a31d cd3d 9481 0ebe
00000210: 55dd 6a3d aa38 f83a 9412 02bd 6f76 f3bc
00000220: 1c47 bdbd 32ba f2bc 52d7 f6bd 8712 debd
00000230: 89c7 8abb bc6e ab3c efce f53d 2e41 ccbd
00000240: f7c2 c6bd a5b1 ee3d e78d 87bd 1ce1 053e
00000250: cec4 29bc 157f f53d c197 debd d171 013e
00000260: b9f3 e33d 9208 91bd 2e41 3dbd ba95 e1bc
00000270: 1b87 1e3d 82c6 87bc 7aa6 8dbd e440 d63b
00000280: ac70 0a3c 4a81 263e adef 09be 71f5 16bd
00000290: 547d 07be c1c0 673d ab9a 803d 8120 0c3d
000002a0: b983 c8bd f045 ffbc 4369 c7bd dd02 f7bd
000002b0: e495 023d 5f26 e6bc 542c 133e f14d 563d
000002c0: a15c e1bd d909 2bbd 48c2 8abd 815d 87bd
000002d0: 6188 733d 00d9 ee3d 54f8 243d 075c f3bd
000002e0: 868a ce3d 7532 1cbe 46d3 0e3e 6b6e e2bd
000002f0: 4675 aebd ae47 81bd 0615 68bd 228a f13d
00000300: 32e7 b03d 1aa6 7c3d 21ec edbd 70e3 da3d
00000310: b134 43bc 2ad5 c7bd e890 00bc 5f53 dfbd
00000320: e890 6a3d ca52 ba3d ff44 e03d c6b1 093e
00000330: 038f ac3d 2633 353e 3824 953d c0f1 163e
00000340: 458d 9dbd 0ddf 163e ecdc c63d 2862 833c
00000350: ad77 0b3e 79e4 5abc 632b 53be 6551 5abe
00000360: 18e8 f0bc 072b f43d a854 e93c bcb5 72bd
00000370: 0895 60bd 1c1e f3bd 78c6 8e3c 6564 223c
00000380: a698 07be c827 203d 280d 193e ce76 37be
00000390: 1dab 6f3d d28c 24be f482 bb3d b320 d0bd
000003a0: fbec 193e 5e48 17be 1524 1ebd 592c 45bd
000003b0: 2faa b2bc e9bf 803e f320 32bd c7a4 40be
000003c0: dc89 313e 40c2 753e 2960 edbc 1e5f d3bd
000003d0: f096 fe39 49cd 563d 3ba0 93bd 640a 2cbd
000003e0: 24d9 173d 65f3 4dbe 16a4 d2bc 9f3b 8e3d
000003f0: 54ff 103a e781 323e fc3b 1d3c a7d3 acbd

bias f4 [50]
0.18965398 0.12613887 -0.0290969 0.054580364 0.19610497 0.08574855 0.21236853 0.20637336
0.06320294 0.0050822967 0.10226003 0.36251402 0.26361468 0.092367664 -0.06273141 0.026580589
0.22857867 0.30587724 0.18154925 -0.14648797 -0.13486537 0.1132931 0.23728448 0.00966416
0.4230322 0.17175367 0.0057404716 0.18680821 0.21264128 0.2575878 0.34066063 -0.054277804
0.386436 -0.13829914 0.17761475 0.2454338 0.023582023 0.010902103 0.012065976 0.14032479
0.3212814 0.21226698 0.3223472 0.12688474 0.22385344 0.3828509 0.12441419 0.2887133
-0.11008454 0.014970227
00000000: a734 423e 8c2a 013e 9f5c eebc a98f 5f3d
00000010: becf 483e f09c af3d 2377 593e 8a53 533e
00000020: 8b70 813d 6589 a63b b56d d13d 709b b93e
00000030: 81f8 863e 422b bd3d 5379 80bd 89bf d93c
00000040: 8710 6a3e f19b 9c3e 0ce8 393e f100 16be
00000050: 261a 0abe 3606 e83d b4fa 723e 6d56 1e3c
00000060: ad97 d83e 32e0 2f3e 911a bc3b a74a 3f3e
00000070: a3be 593e 8ce2 833e 126b ae3e 6752 5ebd
00000080: f0da c53e 4a9e 0dbe a4e0 353e 0053 7b3e
00000090: 162f c13c bc9e 323c 5fb0 453c 4db1 0f3e
000000a0: ff7e a43e 845c 593e b10a a53e 13ee 013e
000000b0: d639 653e 0805 c43e decc fe3d 3bd2 933e
000000c0: 0174 e1bd af45 753c

weight f4 [20, 50]
0.16426753 -0.22765271 -0.09253581 0.10205663 -0.021860486 0.119977035 0.27032825 0.20770125
0.090048514 0.2301122 -0.30148613 0.0041178954 0.19989128 -0.049449928 -0.249626 0.20457014
0.2220633 0.26689827 0.34602097 0.13046198 0.19532579 -0.060635585 -0.009936422 -0.11512694
0.32964534 -0.06508239 -0.03664153 -0.1149671 -0.15856539 -0.2285901 -0.12343039 0.0073364377
0.41724777 -0.037794203 0.028577931 0.0065203644 -0.031894397 0.06829812 -0.1290051 -0.13838437
0.38729107 -0.13989857 -0.06471881 -0.2111812 0.06163065 -0.035857335 -0.26319486 0.30846804
0.082974255 -0.025698839 -0.15528512 0.2859583 -0.02600958 -0.015957898 -0.07023301 -0.23324318
0.20229201 0.013363155 0.03798311 -0.052805066 0.043559805 -0.12938282 0.063881874 0.008361819
0.24986804 -0.028969606 0.11980066 0.029595124 0.013668124 0.004923716 -0.19283031 0.21284421
-0.044614114 0.051528964 -0.29839075 0.09337164 0.27304298 0.21796039 0.059484527 -0.05474805
0.0031703042 0.014740075 0.38633966 0.00490424 -0.31242046 0.21809343 0.05270664 -0.00027763515
0.06907335 -0.08481839 0.18373726 -0.17259291 0.04519292 0.2516702 -0.0033789792 0.24794883
0.3128606 0.2484701 -0.020680988 -0.07398569 0.15084866 0.101724684 -0.04007734 -0.113288
-0.16763794 0.02094367 -0.024669947 0.17688817 0.25765294 0.12714289 -0.102338046 0.25659853
0.16197582 0.28862596 -0.06437879 -0.09689328 0.13092972 0.47292235 0.07003958 -0.065286465
-0.07391535 0.17996347 -0.20226364 0.14675032 -0.088103294 0.03874206 -0.108409174 0.2488455
0.06211478 -0.03989096 -0.111792475 -0.10193639 -0.028966477 -0.052618217 0.29420447 -0.1946426
-0.10513705 0.071031064 0.21080068 0.01894425 0.006526783 0.026736839 -0.02628134 -0.04036853
0.001812218 0.2812004 -0.18561581 0.12833858 0.16254652 0.020215886 0.008299962 0.113118
-0.08971482 -0.1084446 -0.00011214302 -0.09237876 -0.078432515 -0.07667652 -0.06787132 0.068938136
0.05204022 0.0866383 -0.05072346 0.006154198 -0.07563892 -0.054912493 0.015488416 0.0018805249
-0.04486674 0.07380898 0.094904944 -0.019860972 0.021279342 -0.09439847 -0.014761855 -0.06395162
-0.104552105 -0.06738581 -0.13540235 -0.06930727 -0.03238327 -0.037982203 -0.09369831 0.077275254
-0.104331836 0.077126294 -0.0319166 -0.06846889 0.03744226 -0.00921391 -0.13310006 -0.07737691
-0.040096827 0.107179455 0.007344617 0.09289978 0.065670185 -0.11928172 -0.013617894 -0.10825423
0.22123507 0.13071889 -0.10975543 -0.0023462279 0.041144807 0.263082 -0.16290972 -0.19058631
0.17521214 0.117768936 0.345332 -0.09991576 0.24177773 -0.079245925 0.09614423 0.14208496
-0.13625054 -0.088522375 -0.11733977 -0.08966916 0.019389328 -0.07255561 0.35892132 0.17189099
-0.16655397 0.2682019 0.03203614 -0.15859045 -0.024076957 0.17165166 0.09254719 0.045682788
0.29380265 0.09181937 -0.08921837 -0.17304473 -0.008585928 -0.037504252 0.0115641 -0.059003696
-0.026676092 0.1864154 0.07786965 0.27617547 -0.11059505 0.029426595 0.26122227 0.15399623
0.048357252 0.033036616 0.2526564 0.37546614 0.0549005 0.17809415 0.21152604 -0.051343016
00000000: bf35 283e cb1d 69be 6a83 bdbd 1103 d13d
00000010: c314 b3bc 85b6 f53d 7768 8a3e a3af 543e
00000020: 5b6b b83d 88a2 6b3e 645c 9abe 69ef 863b
00000030: 4db0 4c3e 028c 4abd f59d 7fbe d67a 513e
00000040: 9064 633e e4a6 883e a929 b13e d397 053e
00000050: 7c03 483e 055d 78bd 60cc 22bc acc7 ebbd
00000060: 46c7 a83e eb49 85bd 6e15 16bd df73 ebbd
00000070: f75e 22be 8613 6abe 13c9 fcbd 8066 f03b
00000080: 80a1 d53e 18ce 1abd 441c ea3c c8a8 d53b
00000090: b3a3 02bd e2df 8b3d ea19 04be a2b4 0dbe
000000a0: 044b c63e 9241 0fbe 4c8b 84bd e23f 58be
000000b0: 6c70 7c3d 24df 12bd 7ac1 86be 86ef 9d3e
000000c0: 68ee a93d 5f86 d2bc 1003 1fbe 2069 923e
000000d0: 0b12 d5bc 23ba 82bc 53d6 8fbd 4dd7 6ebe
000000e0: a325 4f3e 22f1 5a3c 2d94 1b3d 204a 58bd
000000f0: c46b 323d ee7c 04be 80d4 823d 0300 093c
00000100: 68dd 7f3e ab51 edbc 0c5a f53d 7971 f23c
00000110: 44f0 5f3c 2057 a13b 4f75 45be d5f3 593e
00000120: 4abd 36bd 0910 533d acc6 98be a139 bf3d
00000130: 4acc 8b3e 0231 5f3e 0ca6 733d 7e3f 60bd
00000140: e1c4 4f3b 5b80 713c 50ce c53e bfb3 a03b
00000150: 93f5 9fbe e253 5f3e ebe2 573d 8f8f 91b9
00000160: 5476 8d3d 44b5 adbd 9f25 3c3e 32bc 30be
00000170: 361c 393d ebda 803e dd71 5dbb 4ce6 7d3e
00000180: 442f a03e f26e 7e3e 2d6b a9bc cf85 97bd
00000190: 1278 1a3e 0855 d03d 2328 24bd 8a03 e8bd
000001a0: 48a9 2bbe 0f92 ab3c a118 cabc 2c22 353e
000001b0: 16eb 833e bf31 023e 9c96 d1bd e260 833e
000001c0: fddc 253e c8c6 933e 07d9 83bd fc6f c6bd
000001d0: 7112 063e e122 f23e e970 8f3d e9b4 85bd
000001e0: ee60 97bd 5848 383e 331e 4fbe b745 163e
000001f0: 806f b4bd ffaf 1e3d a105 debd 5bd1 7e3e
00000200: 116c 7e3d b464 23bd 74f3 e4bd 07c4 d0bd
00000210: 1b4b edbc 3386 57bd f8a1 963e 6450 47be
00000220: 1852 d7bd bc78 913d 22dc 573e f930 9b3c
00000230: a0de d53b 3707 db3c f74b d7bc 7959 25bd
00000240: f287 ed3a 80f9 8f3e 1212 3ebe 306b 033e
00000250: 9872 263e c99b a53c 90fc 073c 69aa e73d
00000260: 67bc b7bd 3418 debd 532e ebb8 1331 bdbd
00000270: 3aa1 a0bd 9408 9dbd 1e00 8bbd 702f 8d3d
00000280: 2028 553d 6c6f b13d 67c3 4fbd 28a9 c93b
00000290: 94e8 9abd eceb 60bd 20c3 7d3c f27b f63a
000002a0: 30c6 37bd 2a29 973d 865d c23d 7ab3 a2bc
000002b0: 0452 ae3c fc53 c1bd b5db 71bc 11f9 82bd
000002c0: 6a1f d6bd 9201 8abd eaa6 0abe f8f0 8dbd
000002d0: 52a4 04bd 3a93 1bbd e6e4 bfbd 7d42 9e3d
000002e0: eeab d5bd 64f4 9d3d fbba 02bd 6b39 8cbd
000002f0: 0e5d 193d f1f5 16bc 624b 08be c977 9ebd
00000300: 923c 24bd e780 db3d 1dab f03b 3d42 be3d
00000310: 177e 863d f949 f4bd 961d 5fbc 65b4 ddbd
00000320: 728b 623e 2cdb 053e 74c7 e0bd 2cc3 19bb
00000330: 7587 283d afb2 863e ced1 26be 0f29 43be
00000340: d06a 333e d730 f13d 5bcf b03e a2a0 ccbd
00000350: 9594 773e b04b a2bd 44e7 c43d b87e 113e
00000360: 4385 0bbe 384b b5bd d54f f0bd 77a4 b7bd
00000370: 5ed6 9e3c 0998 94bd 89c4 b73e 3104 303e
00000380: 208d 2abe c251 893e 5438 033d 8965 22be
00000390: 0a3d c5bc 74c5 2f3e 6289 bd3d e01d 3b3d
000003a0: 4d6d 963e cb0b bc3d 1fb8 b6bd a332 31be
000003b0: feab 0cbc 0f9e 19bd 5a77 3d3c dcad 71bd
000003c0: d287 dabc aee3 3e3e 207a 9f3d df66 8d3e
000003d0: a87f e2bd 0b10 f13c edbe 853e 30b1 1d3e
000003e0: 4112 463d 6751 073d 2e5c 813e 193d c03e
000003f0: 59df 603d 505e 363e 489a 583e 0e4d 52bd

bias f4 [20]
0.6794921 0.4263923 0.25938177 -0.1252114 0.030951595 0.4260227 0.12629429 0.5398826
0.5139453 0.4382934 0.21589759 0.06482301 -0.10837091 0.36099944 -0.039403394 0.04438833
0.13152915 -0.024308862 0.23619644 0.49086502
00000000: 32f3 2d3f 1750 da3e b0cd 843e 6b37 00be
00000010: 338e fd3c a61f da3e 4a53 013e bf35 0a3f
00000020: eb91 033f fe67 e03e 4214 5d3e edc1 843d
00000030: 91f1 ddbd ebd4 b83e 7465 21bd 8ad0 353d
00000040: 94af 063e 6123 c7bc 7bdd 713e a952 fb3e

weight f4 [10, 20]
-0.0061973883 -0.5335567 0.40655664 0.105802625 0.048060704 -0.39045796 0.083205834 -0.004131804
0.23678434 -0.6510498 -0.24732642 -0.5695646 -0.08747072 0.5661145 -0.29668185 0.30030754
0.5825083 0.13976607 -0.16573177 -0.29555923 -0.7836215 0.2790235 -0.14937982 -0.0739579
0.353863 -0.13536862 -0.2519059 -0.19645436 -0.2581608 0.18691336 0.65474445 0.5072469
-0.15625848 -0.16314195 0.14256395 -0.6765946 -0.15914778 0.19554529 0.2531083 0.64483684
-0.3407538 0.77854836 0.002008933 -0.09291384 0.36363354 0.9284373 0.23519354 -0.12752256
-0.012459977 0.14933734 -0.07494008 -0.3097372 -0.17001733 -0.014146681 -0.22148314 0.09155439
-0.3839565 0.12981805 -0.11830693 -0.6168782 0.2078032 0.10054396 -0.0346227 0.18622093
0.7434024 -0.021952583 -0.09810581 -0.4228426 0.46688187 -0.57522964 -0.12177741 0.6188466
-0.084471606 -0.35345927 -0.13695307 0.55742884 -0.50108 -0.15861568 0.06798868 -0.2867153
-0.24329579 -0.2985733 -0.40346467 0.11913621 -0.10653953 -0.517694 0.115286656 0.8106224
-0.19147393 0.8934143 -0.0739657 0.16613555 -0.22327068 -0.47691423 0.037117098 0.34133857
-0.32890636 0.14000179 -0.3855041 -0.19632176 0.33675894 0.34190756 0.6006036 0.17670849
-0.5795159 -0.51085156 -0.39133072 0.35602456 0.53554815 -0.20956954 0.18879724 -0.17250592
0.06763019 0.110905685 0.1985097 -0.36114588 -0.03679357 -0.12930349 -0.2713983 0.5864546
0.7225563 0.19252029 -0.3286338 -0.14373823 -0.2365554 0.098822184 -0.5068899 0.8574658
0.3414183 -0.26623267 -0.45698786 -0.29215026 0.076756135 -0.4895679 0.069021314 -0.54218537
0.6871215 -0.1440423 -0.07669403 -0.47008115 -0.34509674 -0.24636182 -0.42908067 -0.024053985
0.14954911 -0.34025243 0.38849506 -0.15000442 -0.6199377 0.30925906 0.09721811 -0.113774575
0.08688452 0.7281355 0.19910802 0.26351637 -0.148153 -0.104442716 0.5963724 -0.107979335
-0.35012016 -0.18750878 0.19023031 -0.121887095 0.09297706 0.012736056 -0.18470567 -0.08150144
0.49496055 0.7463673 -0.0677321 0.209852 0.15545301 -0.20140585 0.02791534 -0.42537466
0.5721639 -0.13480905 -0.081702836 -0.07569912 0.38833195 0.019210862 0.6501668 -0.117832534
-0.2686921 -0.054442935 0.34747767 -0.36745015 -0.43853438 -0.20784074 -0.10396299 -0.3793828
-0.0780614 -0.53890955 0.010432493 0.6256019 -0.14450788 -0.22476907 -0.2655315 0.3430855
00000000: 7613 cbbb 2c97 08bf 3128 d03e 0caf d83d
00000010: 4ddb 443d 1bea c7be d267 aa3d 1664 87bb
00000020: 9877 723e 33ab 26bf 2343 7dbe fcce 11bf
00000030: d923 b3bd e1ec 103f afe6 97be e9c1 993e
00000040: 441f 153f d61e 0f3e 97b5 29be 8a53 97be
00000050: 6b9b 48bf 2bdc 8e3e 06f7 18be 3d77 97bd
00000060: 882d b53e 129e 0abe cff9 80be 552b 49be
00000070: a72d 84be 3766 3f3e 559d 273f efda 013f
00000080: 3902 20be af0e 27be 49fc 113e 4e35 2dbf
00000090: a3f7 22be 063d 483e 6997 813e 0714 253f
000000a0: 4877 aebe f24e 473f 4ea8 033b 9d49 bebd
000000b0: 2d2e ba3e 11ae 6d3f 93d6 703e 4695 02be
000000c0: ee24 4cbc e3eb 183e 2f7a 99bd e095 9ebe
000000d0: 0619 2ebe 7bc7 67bc 7acc 62be de80 bb3d
000000e0: f295 c4be 06ef 043e e74a f2bd bbeb 1dbf
000000f0: 5dca 543e fee9 cd3d 88d0 0dbd b3b0 3e3e
00000100: 9f4f 3e3f e7d5 b3bc b3eb c8bd d37e d8be
00000110: 240b ef3e 4042 13bf 6f66 f9bd bb6c 1e3f
00000120: 73ff acbd 9df8 b4be 6d3d 0cbe a8b3 0e3f
00000130: c746 00bf 266c 22be a63d 8b3d 59cc 92be
00000140: 8822 79be 99de 98be ec92 cebe affd f33d
00000150: 6631 dabd 9887 04bf 691b ec3d f384 4f3f
00000160: be11 44be cdb6 643f 547b 97bd 701f 2a3e
00000170: 12a1 64be 1a2e f4be 1908 183d eec3 ae3e
00000180: 6a66 a8be a15c 0f3e cb60 c5be 9208 49be
00000190: ab6b ac3e 820e af3e 28c1 193f 12f3 343e
000001a0: 275b 14bf 2bc7 02bf 805c c8be da48 b63e
000001b0: af19 093f 6699 56be 1054 413e 64a5 30be
000001c0: b281 8a3d 8522 e33d 2046 4b3e 1de8 b8be
000001d0: dbb4 16bd 2268 04be b8f4 8abe e321 163f
000001e0: 73f9 383f 0a24 453e b042 a8be 1d30 13be
000001f0: 943b 72be 4963 ca3d 89c3 01bf e182 5b3f
00000200: 61ce ae3e a64f 88be 50fa e9be b894 95be
00000210: 5232 9d3d a5a8 fabe 0c5b 8d3d a9cc 0abf
00000220: 32e7 2f3f d37f 13be c211 9dbd 7aae f0be
00000230: 85b0 b0be 4646 7cbe 76b0 dbbe dd0c c5bc
00000240: 6723 193e 9135 aebe d3e8 c63e c29a 19be
00000250: 3db4 1ebf 3457 9e3e 4a1a c73d a502 e9bd
00000260: 83f0 b13d 1767 3a3f f9e2 4b3e 9eeb 863e
00000270: 6cb5 17be 10e6 d5bd ddab 183f 4524 ddbd
00000280: f342 b3be 4d02 40be bccb 423e f19f f9bd
00000290: c26a be3d e4aa 503c 7c23 3dbe 3aea a6bd
000002a0: 786b fd3e ed11 3f3f 21b7 8abd 71e3 563e
000002b0: 132f 1f3e 563d 4ebe b6ae e43c b5ca d9be
000002c0: 5579 123f 620b 0abe d153 a7bd 2408 9bbd
000002d0: 72d3 c63e 1960 9d3c 5571 263f 2f52 f1bd
000002e0: 0392 89be 8eff 5ebd 98e8 b13e 6d22 bcbe
000002f0: 9487 e0be 34d4 54be 8cea d4bd 763e c2be
00000300: a8de 9fbd faf5 09bf 0ced 2a3c 7227 203f
00000310: e0f9 13be dd29 66be bff3 87be e7a8 af3e

bias f4 [10]
-0.16640025 -0.0013767976 0.16186732 -0.38305005 -0.0077923876 0.34546992 0.2157312 0.00841764
0.14242494 0.09495123
00000000: d464 2abe a975 b4ba 8cc0 253e 231f c4be
00000010: 4957 ffbb 6fe1 b03e a4e8 5c3e 24ea 093c
00000020: d8d7 113e ca75 c23d
