datasets/mnist/partition_noniid-#label_major_classes_num_5_clients_10_dir_alpha_None_seed_42/models/batch_size_256_com_round_50_epochs_3_sample_ratio_0.9_personalization_steps_25/client_1.pt (torch, 172183 bytes, 6 tensors)

weight f4 [50, 784]
00000000: ff2f 8cb9 b5f2 9c3c a9cc f0bc 9350 d7bc
00000010: d05e 61bc 0ee9 1c3c 277f 39ba 13fa e73c
00000020: 37b6 4fbb 0ed6 1a3c 7dd6 30bc a409 e6bb
00000030: 30c7 0bbd 21df c1bc 0436 71bc e267 ad3a
00000040: dc53 673c ae8c af3c a158 c6bc d8ce 7ebc
00000050: b088 543c a3f2 f23c 53d8 f0bb 49ef da3c
00000060: 6ea1 bcbb 5caa 773b 4f75 043d 76b4 07bd
00000070: 512f b8bc 4a23 14bc b316 64bc 2ec8 fc3c
00000080: 8da3 bdbc 73ae 86bc d45c cdbc c8f6 0abd
00000090: 944b b0bc 526b ee3c 22bf 513c 3fe3 3f3c
000000a0: 7fcc 1dbc 791e b1bc 856b 1e3b 0f4a 25bd
000000b0: f949 07bd b60c a8bc b779 b43c 5042 a23c
000000c0: 7fd1 87bc 0958 e5ba 19da b73c 4244 113d
000000d0: 9b3b 683c e518 9e3b 472a c43c 4944 acbc
000000e0: 6413 da3b 0ed5 e2bc fac6 cabc 252b 97bc
000000f0: 964c 843c c94a 6b3c 6df7 afbc 7fa7 1c3c
00000100: b572 8d3c e365 14bc 4d6f 15bc 3a2b d4bb
00000110: 7e01 5b3b 688d 943c dc4d 40bd 4ab6 02bd
00000120: 6fda 3bbb fbb1 9e3c 661c b63c 3540 d13c
00000130: ae35 6e3b 6de3 0bbd aa02 483a a034 bcbc
00000140: 4197 0bbd 7a7b ff3c a575 de3c 92ec 11bd
00000150: 7b0b db3b 7725 c5bb ef63 c0bb 4208 86bc
00000160: 83df 5f3c a524 aebc 7e98 443c aa4f 743c
00000170: 30d7 873c 8e91 96ba d327 5fbd 831e 54bd
00000180: cba5 bebc 97e7 20bd 798b 91bd 58cb 82bd
00000190: d87c e8ba ce23 a73a 29c5 01bd 55d4 bebc
000001a0: bd20 2dbd 299b 89bb c38e e0bc b4ff e0bc
000001b0: 349a 41bb 1b13 903b 55d0 79bc f99a ad3c
000001c0: 890a b2bc 3cbc 043d 89a9 c83c 4759 f6bc
000001d0: ffb6 15bc 9304 1aba 36bc 263b fa36 053b
000001e0: fa19 d1b9 2886 93bc 46e1 31bd ee60 cdbc
000001f0: ac28 bcbd cb87 acbd 6792 89bd e497 6ebd
00000200: 2e12 1abd dc88 41bd 0590 70bc 8b7f 883c
00000210: cebb 85bc e4ea 073c cd1f 233d a371 f53b
00000220: 30d9 b63b 812e 89bb 48a9 ec3b 4ad8 b93c
00000230: 8f91 0a3d 9acc b93c b0c7 0a3d cbc2 38bb
00000240: b502 0dbd 8dca b6bc ccec 8b3c 16de 2cbc
00000250: 4e56 bdbc 6b21 e7bc 7d85 25bd 779d 2cbd
00000260: fe37 1abd 0cbc 1dbd c5c3 dfbc 69b8 a6bd
00000270: 42a5 0abd 72f6 a2bd 6f6a 23bd 2632 70bd
00000280: c8f4 e0bc 11cd 58bc ca72 d2bc ae53 6ebc
00000290: e005 9bbb 7796 4f3a 7eb5 85bc 9434 5c3c
000002a0: 6baa 03bd 2276 23bb 6931 003d 4400 60bc
000002b0: 5bbd f13c 1b74 e73b 8c53 2abd ddc9 583c
000002c0: 4acf 4ebc 2716 b0bc 6aa0 823c ec3d 18bd
000002d0: 0e65 2e3b d791 01bc 43b3 b93b 2d74 92bb
000002e0: c7d4 553d a0e1 493d 4cac 08bc 7e03 4abd
000002f0: 01ad 67bd d19e 203c 5b9c c33c 1598 6a3c
00000300: 991a 12bd ad82 1dbc 9432 d0bc 15e7 a2bc
00000310: 877b aabc ff8a 2b3c ddfd a8bc a324 f33a
00000320: 217c 89bb 14e4 683c be01 2dbd 9cb0 79bd
00000330: bb87 51bd acf6 763c 3c35 25bd 0244 c53b
00000340: 5c8f 023a e2fa ebbb 6603 bcbc d389 e73a
00000350: aec1 643d e03b 383d ec6e b73c ce78 d7bb
00000360: d075 19bd 8bb7 e8bc fd14 303c 3de4 2fbd
00000370: 8c6a 9dbc c7b3 713c d8a1 3d3c 55da 123a
00000380: b15e 01bd 1cf1 943c e4b2 c1bc e88f 3ebc
00000390: 6582 53bc 61d4 4abc 2fce afbc a613 e2bb
000003a0: 07d8 3fbc deb1 893c a1d0 d2bb c0b5 90bd
000003b0: d62d 26bd c3cc 94bd 3a83 43bd 3714 8c3c
000003c0: 93ea d53c 288a 863d 0387 d53b 1947 b2bb
000003d0: d6b3 e23b 9f2f 41bd 25a4 0039 7121 3cbd
000003e0: 51f9 e9bc 0c63 05bd 68ca b6bc ff35 2a3b
000003f0: 54ff f13c 8c2c 1dbc 3fcc a7bc 578c 69bc
-0.0002673864 0.0191587 -0.029394465 -0.026283538 -0.013755515 0.009577049 -0.0007076137 0.028317487
-0.0031694302 0.009450449 -0.0107933255 -0.007020192 -0.034125507 -0.023665966 -0.014722351 0.0013229812
0.014119115 0.021429386 -0.024212183 -0.015552245 0.012972042 0.029656714 -0.0073500066 0.026725428
-0.0057565486 0.003779075 0.032338437 -0.033131085 -0.0224835 -0.009041617 -0.013921428 0.030857172
-0.023149276 -0.016440606 -0.025068678 -0.033926755 -0.021520413 0.029103909 0.012801917 0.011711895
-0.009631275 -0.021620976 0.0024172973 -0.04035383 -0.03302953 -0.020513874 0.022030694 0.01980701
-0.016579388 -0.001749755 0.022442864 0.035465486 0.014174367 0.004824745 0.02394594 -0.021028655
0.0066551436 -0.027689483 -0.024753083 -0.01845319 0.0161498 0.014361092 -0.021480286 0.009561419
0.01726661 -0.009057495 -0.009120774 -0.0064748796 0.0033417637 0.018133834 -0.046949252 -0.031912126
-0.0028664132 0.019371977 0.022230338 0.025543312 0.0036347914 -0.034152437 0.00076297915 -0.022974312
-0.034079794 0.031186808 0.027155707 -0.035626 0.006684718 -0.006016429 -0.005871288 -0.01636136
0.013664129 -0.021257708 0.011999248 0.0149115715 0.016582102 -0.001148747 -0.05448134 -0.05178691
-0.023272416 -0.03928336 -0.071066804 -0.06386441 -0.0017737402 0.001275176 -0.031682167 -0.023294607
-0.04226755 -0.0041994047 -0.027411824 -0.027465679 -0.0029541375 0.004396809 -0.015247424 0.02119206
-0.02173354 0.032406077 0.024494903 -0.030071868 -0.009137868 -0.00058753154 0.0025441772 0.0020326958
-0.0003988294 -0.018008307 -0.043427728 -0.025070634 -0.09187445 -0.08424338 -0.06717377 -0.058250323
-0.037614994 -0.04724966 -0.014682774 0.01666238 -0.016324904 0.008295748 0.03982525 0.007490353
0.00558009 -0.004186452 0.0072223283 0.022686142 0.03383022 0.02268057 0.033881843 -0.0028192278
-0.03442641 -0.02231338 0.017080687 -0.010550996 -0.023112442 -0.028214177 -0.040410507 -0.042142358
-0.037651055 -0.038509414 -0.02731503 -0.08140642 -0.03384901 -0.07957162 -0.039896425 -0.058641575
-0.02746047 -0.013232485 -0.025689501 -0.014546318 -0.004730925 0.00079188443 -0.016321894 0.01344027
-0.032144945 -0.0024942239 0.03129712 -0.013671938 0.029509237 0.0070634014 -0.041583583 0.013231722
-0.012622664 -0.021494938 0.015945632 -0.03716843 0.0026610526 -0.007908306 0.0056671216 -0.0044694156
0.052204873 0.04928744 -0.00834186 -0.049319737 -0.056561474 0.00980349 0.023878267 0.014318486
-0.035669897 -0.009613675 -0.025414743 -0.01988558 -0.020810856 0.010470151 -0.020628864 0.0018550347
-0.0041957055 0.014214534 -0.04223799 -0.060959443 -0.051154833 0.01507346 -0.04033397 0.00602007
0.00049804687 -0.0072015384 -0.02295084 0.0017664976 0.05584877 0.044978976 0.022391759 -0.0065756803
-0.03746587 -0.028407833 0.0107471915 -0.042942274 -0.019215845 0.014752335 0.011574231 0.0005601992
-0.031584445 0.018181376 -0.023644872 -0.01163099 -0.012909506 -0.012379737 -0.02146062 -0.006899315
-0.01170922 0.016808446 -0.006433562 -0.07065916 -0.040571056 -0.07265618 -0.04773257 0.017099483
0.02611283 0.0656932 0.006516339 -0.0054406044 0.006918411 -0.047164556 0.0001226818 -0.04593033
-0.028561266 -0.03256516 -0.022313312 0.0025972126 0.029540695 -0.00959314 -0.020483134 -0.014254651

bias f4 [50]
00000000: fade 873d ceb7 c5ba bfcb 023e 0bd7 573d
00000010: 86de fd3d a08a 993d e44e 9a3d c252 b6bd
00000020: 2faa 013a b6bf c43d 27c1 473e 2cf2 eb3d
00000030: 2d75 513e 6069 183e 9c19 fbbd 2c55 15bd
00000040: 25e6 4d3e 5a14 783d 4e86 22bd 9ce3 31bd
00000050: 8c82 9c3d 815f fa3c 3fd9 833d f40d 9b3d
00000060: 4221 033e c9d0 063e 622a 1f3e cd57 033e
00000070: d054 f03d 326c 983d 5532 f63d 6431 22bd
00000080: eda6 ea3c aad9 6a3e c8ed d2bc 3820 18be
00000090: 31f1 f8bb c048 693d a0cf 193b dfff c33c
000000a0: 0a6a 473e 7a1a 0a3e 9fe6 143e 2f09 a33d
000000b0: c57b 663d 4867 123e b407 16bd fdf9 a9bd
000000c0: 896f 253d 5d45 5e3e
0.06634326 -0.0015084685 0.12773035 0.052695315 0.123959586 0.07497144 0.075345784 -0.089025036
0.0004946319 0.096068785 0.19507276 0.115208 0.20454855 0.14883947 -0.12260744 -0.03645818
0.20107324 0.060566284 -0.039678864 -0.043429956 0.07642087 0.030563118 0.06437921 0.07571021
0.12805656 0.13165583 0.15543512 0.12826462 0.11734927 0.074425116 0.12021319 -0.039597884
0.02864405 0.22934595 -0.025748149 -0.1485604 -0.0075971116 0.056954145 0.0023469701 0.02392572
0.19474044 0.13486663 0.145411 0.07960736 0.05627038 0.14297211 -0.03662844 -0.082996346
0.04038957 0.21706147

weight f4 [50, 50]
00000000: 697d f2bd 9685 c9bd 47d3 a9bd 9301 b03d
00000010: c537 5a3d 327c 99bd 1ab5 df3d 7f14 ebbd
00000020: 1bc2 b73d 59a7 ac3e b0d9 e3bd b5d3 debc
00000030: c5be 77bb 61ad bdbd 5ce6 5a3e e1c2 203d
00000040: 9e4d 56bc 6f05 1f3e 956c 9d3e 7aa7 ce3d
00000050: 0aaf bcbd 4c7d f23d bafd 21bd bc9d a0be
00000060: 0420 6a3d 03c2 443d aedd 60bd 9644 1e3e
00000070: 29a0 02be a0ff 55be a834 b13c e6f9 613e
00000080: e41c e93d 29f6 063d ff36 163e d6cc 55bd
00000090: 0dea 4b3d 4f7d 34bc fb04 683e 1249 8d3d
000000a0: 2e24 cc3d 40d8 443d d398 673d 6524 863e
000000b0: 16ce b83e 4b46 62be 138e 093e acc9 42bd
000000c0: 20af 81be 757f 0bbe 3107 dfbe c629 393e
000000d0: 307f cebe d853 873d 47bd bcbe fa44 c13e
000000e0: 2ba5 ecbd f562 663e 87db 033e cd61 73be
000000f0: 08ea 2f3e 5bde f13d 9f80 a53e 5b7c 813e
00000100: 38f4 563d 790f 5f3e b896 7d3e 663a da3b
00000110: 1610 7c3e c17a 973e bdab 433e 1584 c73d
00000120: 6334 0e3e 770f 98bd ac31 7b3e b8f2 453d
00000130: adb4 c5bd 703e 2e3e c725 d4be f5d4 febd
00000140: 76b4 99be fa7a 0b3e 902e 953e aae6 98bd
00000150: e7b8 18be bf75 09be dde0 aabd 2517 3b3e
00000160: ba2d 073e 9fa2 c2bc 2155 c5be 9633 8e3e
00000170: bb3c bb3c 7c80 af3d 53fe 3abe 86ed 58be
00000180: 0d16 ce3d b711 d8bd 76fb 2fbd 7b62 81be
00000190: 0c6f 463e 9711 39be 33b1 143c 748b efbd
000001a0: 227f 543e 3c6c 2ebe 4aaa 85bd c4e1 833d
000001b0: 0376 2cbe 5c3b 68bd 78bb debd 8221 a03e
000001c0: cdd4 dabd 77bd ad3e 37fe 9a3c 0b6d 5fbe
000001d0: 3ee9 8f3e 6b0f 673d d0f8 db3c d0ee 843e
000001e0: 0a94 94be d841 953e f74a 03be 2d96 c7bd
000001f0: d235 373e 77d0 03be 32b7 a63e 6112 9e3e
00000200: e806 01bd 396f 093f 63d7 a63d 70dd 66bd
00000210: 8ed5 873c c4b4 1b3e 5fe2 1abd 5818 77bc
00000220: b4bf e9bd c144 1d3d 49f2 c2bd fc5f 13be
00000230: b275 453e ba50 b13d ee6e e83d f16f 08be
00000240: f4db ab3c 5077 353e f661 1cbd 3433 2a3e
00000250: d526 a0bd 964c 053f 97a2 ffbd 1871 3f3e
00000260: 8509 6f3e 2594 3abd fcc8 e23a 4104 10bc
00000270: 462d ff3d 5888 e6bb 0906 dcbb 162b a13d
00000280: b462 fa3d 7164 643e a84b d0bc cd6a 10be
00000290: aa0a 79be fa86 bdbc 98e6 813e c571 783e
000002a0: ca2c 8f3d 0c0b 24be 5a54 10bd 183e 1cbe
000002b0: 85a8 ea3c 447c 1dbe d0c5 b33e a22b dc3d
000002c0: fff0 37bd 3e6d 473d 5083 b7bd 0fa4 dfbd
000002d0: f255 893d 1047 1a3e d531 353e 1a5d 76bd
000002e0: 4272 993d a64b 78be d398 063e 5ba8 99bc
000002f0: 920c 56bd 86f1 59bd 0350 17bd 8970 963e
00000300: 04b0 1c3e ad8c b23d ff4e 01bd 397e 253e
00000310: c2b5 abbd c8e8 07be 6df5 b0bd e843 1ebe
00000320: ffb0 dc3d e144 b23e ef33 a93d d331 4e3d
00000330: 9898 02be 1fc8 753e cc5a 8f3d ff73 cb3d
00000340: b866 a23d 1078 3e3e 885c 953e 3d2b 293e
00000350: ea0c 493e 1332 1fbe 19d9 a1be 89e6 d03b
00000360: e5bf 183d d863 933e 00af a63d 85cb 48be
00000370: a090 59be 8b97 17be 695b 293c 47b4 aabd
00000380: 05f1 4abd 0cdf d2bb d0ea 563e 6f9c f7bd
00000390: 90f5 29ba 263f b8be 4a64 783e d551 debd
000003a0: c45f 8b3e 156a 59be 44ab 4fbe ff21 a4bd
000003b0: 1647 fe3b 14dc 963e e8ba 10be 5e33 b8bd
000003c0: d720 8f3e ad71 743e 41f4 823d 121e 66bd
000003d0: 6b8f 18be cf0e 2a3e d245 49be d36c 24bd
000003e0: 93ca afbd d5c6 01be c73c fcbd 2f8d 053d
000003f0: e8bb 2f3d 6cfd fc3d 53d0 d73d 0003 e3bd
-0.11840326 -0.098399326 -0.08292251 0.0859405 0.053275842 -0.074943915 0.10923214 -0.11478519
0.089725696 0.33721426 -0.11125505 -0.02720056 -0.0037802916 -0.09261585 0.21376938 0.03924835
-0.013080029 0.15529417 0.30746904 0.10090537 -0.092130736 0.11840305 -0.039548613 -0.31370342
0.05715944 0.048036586 -0.05489891 0.15455851 -0.12756409 -0.20898294 0.021631554 0.22067985
0.113824636 0.0329496 0.14669417 -0.0521973 0.049783755 -0.011016204 0.2265815 0.06898703
0.09967838 0.048057795 0.05654223 0.26199642 0.3609473 -0.22097127 0.13433103 -0.04755561
-0.25328922 -0.1362284 -0.43560174 0.18082342 -0.4033141 0.06607789 -0.36863157 0.37747937
-0.11554941 0.22498687 0.12876712 -0.23767777 0.1717912 0.11809989 0.32324693 0.25290188
0.052479 0.21783246 0.24764526 0.0066597937 0.24615511 0.2958584 0.19108482 0.097419895
0.13887171 -0.07424825 0.24530667 0.048327178 -0.09653602 0.17016006 -0.41435072 -0.12442962
-0.30020493 0.1362113 0.29137087 -0.07465871 -0.14914285 -0.13423823 -0.083436705 0.18270548
0.13201037 -0.023759184 -0.3854151 0.27773732 0.022856107 0.08569428 -0.1826108 -0.21184358
0.100627996 -0.10550254 -0.04296442 -0.25270447 0.19378299 -0.18073116 0.009075451 -0.116965204
0.20751622 -0.17033476 -0.06526621 0.06439546 -0.16841893 -0.056697235 -0.108756006 0.31275564
-0.1068512 0.33933613 0.018920047 -0.2181894 0.28107637 0.056411188 0.026852041 0.2596345
-0.29019195 0.29151797 -0.12821566 -0.09745441 0.17891625 -0.12872492 0.32561642 0.30873397
-0.031500727 0.5368534 0.081465505 -0.056363523 0.016581323 0.15205675 -0.03781354 -0.015081488
-0.114135176 0.038395647 -0.095188685 -0.14392084 0.19283178 0.086579755 0.11349283 -0.13323952
0.020978905 0.17721295 -0.03817936 0.16621095 -0.078199066 0.52069986 -0.124821834 0.18695486
0.23343475 -0.045551438 0.001730233 -0.008790077 0.12459807 -0.0070352964 -0.0067145866 0.07869546
0.122258574 0.2230394 -0.0254267 -0.14103241 -0.24320474 -0.02313565 0.25371242 0.2426215
0.06990965 -0.16019839 -0.035236694 -0.15258062 0.02864481 -0.15379435 0.35111856 0.1075051
-0.044907566 0.048688166 -0.08960593 -0.109199636 0.06705846 0.1506617 0.1769479 -0.060147382
0.07492496 -0.24247608 0.13144235 -0.018757036 -0.05225808 -0.05320885 -0.03694154 0.29382733
0.1530152 0.08718238 -0.031569477 0.16161431 -0.08384277 -0.13272393 -0.08640561 -0.15455592
0.10775947 0.34818175 0.08261859 0.050340485 -0.12753522 0.24002121 0.0699974 0.09934234
0.07929748 0.18600488 0.29172158 0.165204 0.19633833 -0.15546446 -0.31610945 0.006375138
0.03729238 0.28787112 0.08138847 -0.19608887 -0.21246576 -0.14803903 0.010336735 -0.083351664
-0.04954626 -0.0064352807 0.20988011 -0.12090384 -0.000648343 -0.35985678 0.24257007 -0.10855452
0.272215 -0.21231873 -0.20280176 -0.08014297 0.007759939 0.2946478 -0.14133799 -0.089941725
0.27954742 0.23871489 0.06394244 -0.05618102 -0.1489846 0.16607212 -0.1965554 -0.040142845
-0.0858356 -0.12673505 -0.1231628 0.032605346 0.04290381 0.12353024 0.105377816 -0.110845566

bias f4 [50]
00000000: f60d 803e 8c00 923e 2e4e 063e 7ae4 6b3e
00000010: 8ccd d43e 63f1 5a3d 40f3 633e 8aee 36bc
00000020: b117 623e cd18 8b3d d837 f33d 2bff 3c3e
00000030: d0f6 123e 4df6 d63d 6edb 50bd 182b 9abd
00000040: 682d fabc 9eb1 493e 9746 f43d 65bd 18be
00000050: 75b0 623c dcfd 913e 7c44 973e 2ebb 883e
00000060: ccdb 5e3e 6b02 893e 8c42 073d d567 4cbc
00000070: 4906 9e3d 7263 623e cced 533e 2bc9 1abd
00000080: 11be 9d3e 75c7 07be 3d59 b53d d881 243e
00000090: 5806 95bc aa0f 113c a083 ffbd e230 c93d
000000a0: 41f0 353e fcca 413e 089b 3f3e 7b0e 783e
000000b0: c0d4 5e3e 55fc 763e b84a 873e 71f5 053e
000000c0: 0e84 b1bc 1eaa 7a3c
0.2501065 0.28516042 0.1311576 0.23036376 0.4156307 0.05345286 0.22260761 -0.011165271
0.2207935 0.0679184 0.11875886 0.18456714 0.14351964 0.10496197 -0.050990514 -0.07527751
-0.03053923 0.19696662 0.119275264 -0.14915998 0.013836016 0.28513992 0.29544437 0.26705307
0.21763533 0.26759657 0.03302245 -0.012475927 0.077160425 0.22108248 0.20696181 -0.037789505
0.30809072 -0.1325968 0.088549115 0.16065156 -0.018191501 0.008853832 -0.12476277 0.09823777
0.17767431 0.18925089 0.18711483 0.24224274 0.21760845 0.24119695 0.26424193 0.1308191
-0.021669414 0.015299348

weight f4 [10, 50]
00000000: 0660 0d3f b623 bdbe d9d9 0ebe 5119 753e
00000010: be2c 8abe 40cf ed3e f896 73be 7c6e 843e
00000020: d755 9abe 8a04 8e3e fcbc a7be 1916 8cbe
00000030: 92db 0b3d 0c2d bcbe 7550 1abe 03a6 673d
00000040: c176 833d 85b7 a23e 08e2 eebc 087d 033e
00000050: f9ac 023f c3b0 7ebe 39e8 d83e 3897 81be
00000060: cd87 013f c6f4 d1bd 2ac2 6dbc dcc8 44be
00000070: 4be1 63be 89b7 88bd e368 b3bd 010d d53c
00000080: 9393 123e cfc6 1bbd d232 4c3d 59ec babd
00000090: 4fe7 ddbc 9bc5 883d 8044 3abd 850b 9fbd
000000a0: 865a a53d a63d 1f3b a13e 1cbe 5256 62be
000000b0: ff1e 9c3d 5db1 99be ddd9 8ebe f742 20be
000000c0: 1f30 40bd 52a1 00be e57c afbd f1b8 e4be
000000d0: aa0a febd 0973 92bd e438 86be 9208 51be
000000e0: e31a b43e 5b4c a3bc 3c8b e73d d071 4bbe
000000f0: b4ef 103e 38aa 90be 42cf cb3e 6a13 a3be
00000100: 8184 a93d a7b7 5d3c b063 efbd 23e9 c1be
00000110: b243 5c3d 8541 c13b 257e 90be 9596 5a3e
00000120: 21a2 50be e2b0 a5bd 25de 53be caed 0dbe
00000130: a9f7 a03e 4dfd 9bbb 96f3 503b 0b39 113d
00000140: fc04 243e 85bd 0a3d b7c8 353f a12b 8f3b
00000150: c158 80be a5c8 0b3e c856 aa3d 4cbc 493b
00000160: 25d2 bebc 7303 8cbd 6eb9 d43e ccea 6f3d
00000170: 124c ab3e b251 ec3e 0066 153c 8a98 a23c
00000180: 5f80 37bd e6cc 5c3f 253e c0be 904a 28be
00000190: aa84 553e 87ac 1e3e 0730 b23e eed1 26be
000001a0: b9b1 02bf 5b5d b0bd 3418 13be 1ee7 013d
000001b0: 9eb2 bd3e 04aa 4cba b67f 1f3d efc2 873e
000001c0: ed2c 743e ec4a 813e e0ff 05be ae61 c1bd
000001d0: 2488 553d e9d6 c23e 6ba2 483d a43b 8fbd
000001e0: ff34 a5bc b4d7 3bbe d1d7 24be 2291 a3be
000001f0: fe87 bcbc 759a c83c b900 3dbe 0125 b93e
00000200: 56b3 a33e e984 3fbe 2e81 083e 5678 9cbe
00000210: 5c43 4cbe 0a07 62bd bf33 853e 8670 e7be
00000220: 6942 0bbe cfeb 903d 531d f13e f024 2cbe
00000230: c48b 363e 09fd 73bc a415 11be 3e9b 253c
00000240: e683 be3d 8b86 be3e 55b6 c9be 2093 aa3e
00000250: ae78 4f3e 8fe2 d03e 8a4d cfbe a0d9 143f
00000260: 3360 0e3d e667 0cbd e256 cfbd cf51 ddbe
00000270: 4ad7 da3e 4cbd 943e 86ed e5be 6bfb 853b
00000280: 0d5a 85be 3542 003d 6965 c8bc bb81 023f
00000290: 7746 b5bd 45e9 6bbd 12f9 093f 4bd9 a73e
000002a0: 0ab1 3a3e e11d a03d 84f5 423e 62eb 8b3e
000002b0: 0fd3 c4be 0bc2 cebe 75ff 9cbd c50b a5be
000002c0: 114c bdbb b3e8 c43e 598a a0bd 92c1 37be
000002d0: bb15 6b3d 92af d0bc 1594 eebc d9b5 9d3d
000002e0: fe2d 0dbe ccd3 b23e da2a 403d 2604 8dbd
000002f0: c196 bb3e 1351 963e 840b 18be 7a79 fabd
00000300: 1d72 52bd a9b7 463e 74be 833d 7ca8 09be
00000310: 50d9 46be b3e0 96be 5e8b 3f3e 6c0b e9bd
00000320: b99f e2be 4936 f3be b809 1ebf 1520 c9be
00000330: 6b62 c53e 97aa 023e 9cc0 04be 09ff dbbc
00000340: 1894 c5bd e37b 8fbe ca64 443f d1d0 933e
00000350: 4a9c 413d 6912 243e d5c4 08be a10a b23d
00000360: 83e3 1f3d 8503 1cbe 7296 46bc 433e bebd
00000370: c86b 80be 0aaa 99be 4f71 a53e ee2c a2be
00000380: eeee 63be 93f1 e43d e94f ad3e 7fdb d8bd
00000390: c1c2 1d3e 7d91 c33d 530e e53d 42ea 9a3d
000003a0: 6a7b 37be cee2 c03d ed6c 8cbe e954 903b
000003b0: 4232 413b a63c 22bd bfc4 aabd 056a fbbd
000003c0: ac52 d6bd 873f a93e 6cce 8b3e b694 01be
000003d0: 8baf 92be 93b7 a0be e83b 673f ec89 d53d
000003e0: 0f15 2b3e f64b 023e af7d 0a3e 6d42 c73e
000003f0: fb7f a1be 24be 233f 9f83 3a3f 20cd 4e3d
0.55224645 -0.36941308 -0.1395029 0.23935439 -0.2698726 0.46447182 -0.23788059 0.25865543
-0.30143616 0.27737838 -0.3276137 -0.2736061 0.034144945 -0.36753118 -0.15069754 0.056554805
0.06419135 0.3178064 -0.029160514 0.12840664 0.51045185 -0.24872117 0.42364672 -0.25310683
0.5059784 -0.10251765 -0.014511624 -0.19217247 -0.22253911 -0.066756316 -0.0876024 0.026007177
0.14314108 -0.038031396 0.049853154 -0.09127111 -0.027087836 0.06678315 -0.045475483 -0.07765869
0.080739066 0.002429822 -0.15258266 -0.22103241 0.076230995 -0.3001813 -0.27900591 -0.15650545
-0.04692089 -0.12561539 -0.085687436 -0.4467235 -0.12404378 -0.071508475 -0.2621528 -0.20413426
0.35176763 -0.01993387 0.11305854 -0.19867635 0.1415394 -0.28254867 0.39806563 -0.3185075
0.08277226 0.013532556 -0.11688936 -0.37873182 0.053775497 0.005897703 -0.2822124 0.21346505
-0.20374347 -0.08090378 -0.2069021 -0.1386024 0.3143895 -0.0047604204 0.003188347 0.03545479
0.16017526 0.033872146 0.7100939 0.0043692146 -0.25067714 0.13650759 0.083173335 0.00307824
-0.023293564 -0.068365954 0.41547722 0.05857353 0.33456475 0.4615608 0.009118557 0.019848127
-0.04480016 0.8625015 -0.37547413 -0.16434693 0.20851389 0.15495501 0.34802267 -0.1629102
-0.51052433 -0.08611556 -0.14364702 0.03171455 0.37050337 -0.0007807317 0.038940154 0.2651591
0.23845263 0.25252473 -0.1308589 -0.09442459 0.052131787 0.38054588 0.04898302 -0.069937974
-0.020166872 -0.18344003 -0.16097952 -0.31946665 -0.023014065 0.024487713 -0.18457307 0.36161044
0.3197276 -0.18703045 0.13330528 -0.3056056 -0.1994757 -0.055182494 0.26016042 -0.45203036
-0.13599552 0.07076227 0.47092685 -0.16810966 0.17826754 -0.014891871 -0.14168411 0.010107813
0.093025014 0.37212023 -0.3939692 0.33315372 0.2026088 0.4079785 -0.40488845 0.5814457
0.03475971 -0.034278773 -0.101239935 -0.43226478 0.42742378 0.29050672 -0.44907779 0.0040888092
-0.26045266 0.03131314 -0.024462419 0.50979203 -0.08851331 -0.05759551 0.53895676 0.3278297
0.18231598 0.07818199 0.1903897 0.2732802 -0.38442275 -0.40382418 -0.07665912 -0.32235542
-0.00577689 0.38458785 -0.07838888 -0.17944935 0.05739377 -0.025474343 -0.029123345 0.077007
-0.13787076 0.34927213 0.046915866 -0.06885557 0.36638454 0.2935873 -0.14848143 -0.12230201
-0.05137836 0.19405998 0.064328104 -0.13443178 -0.19418836 -0.29468307 0.18705508 -0.11379132
-0.44262484 -0.47502354 -0.6173358 -0.3928229 0.3855165 0.12760387 -0.129641 -0.026855009
-0.09647387 -0.28024206 0.7671629 0.28870252 0.04726819 0.16022648 -0.13356335 0.086934336
0.03903533 -0.15235718 -0.01212083 -0.09289219 -0.2508223 -0.30012542 0.3231301 -0.31674904
-0.22259113 0.11178889 0.3385003 -0.105887406 0.15406324 0.09549234 0.11184373 0.075642124
-0.17918172 0.094182596 -0.27426854 0.0044046533 0.002947942 -0.03960862 -0.083383076 -0.12276081
-0.10464987 0.3305628 0.27305925 -0.12654385 -0.28649554 -0.31390056 0.90325785 0.10426697
0.16707252 0.1272429 0.13524507 0.38917866 -0.31542954 0.63962007 0.7285709 0.05048859

bias f4 [10]
00000000: 4cd0 dabe edfc b4ba 54e3 c2bd 70cf d1bd
00000010: 3454 823e 53dd bd3e 76e7 7cbd 6e85 b6bd
00000020: 1214 393e 14ea 203d
-0.42737043 -0.0013808288 -0.09516016 -0.10244644 0.25454867 0.3708292 -0.061744176 -0.089121684
0.18074062 0.039285734
