datasets/mnist/partition_noniid-#label_major_classes_num_1_clients_10_dir_alpha_None_augement_data_percent_per_class_0.01_seed_42/models/batch_size_256_com_round_25_epochs_5_lr_0.1_sample_ratio_0.9_personalization_steps_25/client_0.pt (torch, 175631 bytes, 8 tensors)

weight f4 [50, 784]
-0.0002673864 0.0191587 -0.029394465 -0.026283538 -0.013755515 0.009577049 -0.0007076137 0.028317487
-0.0031694302 0.009450449 -0.0107933255 -0.007020192 -0.034117516 -0.02364839 -0.014722252 0.0013229848
0.014119115 0.021429386 -0.024212183 -0.015552245 0.012972042 0.029656714 -0.0073500066 0.026725428
-0.0057565486 0.003779075 0.032338437 -0.033131085 -0.0224835 -0.009041617 -0.013921428 0.030857172
-0.023149224 -0.016440272 -0.02494642 -0.033436373 -0.02084139 0.030717686 0.0161381 0.017797865
0.0026423049 -0.017880972 0.0062050186 -0.033419903 -0.026662726 -0.018683428 0.022577146 0.021015598
-0.015755633 -0.0012695657 0.022849733 0.03550688 0.014174367 0.004824745 0.02394594 -0.021028655
0.0066551436 -0.027689483 -0.024753034 -0.018448878 0.016161539 0.014364061 -0.021151261 0.010854517
0.0199984 -0.0033544707 0.002977105 0.011186887 0.026246104 0.038675535 -0.025263824 -0.007748383
0.02155984 0.035531327 0.03580632 0.034232333 0.008527519 -0.030343667 0.0037852665 -0.022110224
-0.033226065 0.0317272 0.027155707 -0.035626 0.006684718 -0.006016429 -0.0058769807 -0.016352672
0.01359072 -0.020867947 0.013290685 0.01780037 0.026364641 0.01794201 -0.02961787 -0.019595973
0.01893698 0.008282506 -0.036005218 -0.024931915 0.03621409 0.017881012 -0.02579621 -0.018387567
-0.04153415 -0.0017613713 -0.02676838 -0.02715761 -0.0019050627 0.0052231736 -0.014631041 0.02119206
-0.02173354 0.03240601 0.024475668 -0.030141352 -0.008827159 0.0018457317 0.0053965505 0.0070313737
0.0149504505 0.002743702 -0.01790109 0.021203417 -0.02408024 -0.008977327 0.0043237847 -0.0028081986
-0.0014798798 -0.028464075 -0.009954411 0.009535686 -0.014434403 0.0036863557 0.027424334 -0.005353002
-0.00082910474 -0.004529631 0.006537003 0.022724615 0.03383022 0.02268057 0.034081537 -0.0027671098
-0.0320919 -0.01791393 0.021854239 -0.006001437 -0.025339123 -0.034044158 -0.04205464 -0.029975768
0.0073502907 0.031319745 0.03332668 -0.008543838 0.042762075 -0.00881994 0.0029781756 -0.003998922
0.0027486647 0.007143541 -0.026295321 -0.031271975 -0.008728038 -0.0013508201 -0.016248917 0.013590123
-0.032144945 -0.0024105608 0.031210382 -0.014959582 0.031257708 0.007729692 -0.04179837 0.011992212
-0.0155438315 -0.031496257 0.012222169 -0.03429241 0.0009947618 -0.014317491 0.025994802 0.009998922
0.021436976 0.0071221227 -0.018683387 -0.013985727 -0.027653163 0.02523317 0.030412309 0.021909209
-0.034778815 -0.006157514 -0.026895588 -0.019454923 -0.020810362 0.01216617 -0.0212428 -0.0013974106
-0.00050271006 0.017924815 -0.0350446 -0.03056234 -0.03478966 0.0019093517 -0.033487264 0.009470474
-0.0051949834 -0.012291599 -0.025337588 -0.031478 -0.011248458 -0.018433165 -0.0074398015 0.00072588056
-0.027619433 -0.009225324 0.035298895 -0.03148453 -0.015083386 0.023406237 0.010213053 0.0010539248
-0.031093795 0.017704882 -0.024685232 -0.010108798 -0.01345702 -0.0065729683 0.0029068524 0.02941115
-0.008562358 0.011034218 0.00073263055 -0.034613375 0.006423254 -0.032964263 -0.02639944 -0.010599283
-0.0055610463 0.0141532365 -0.015006902 -0.0024245966 0.016812462 -0.029945506 0.029263426 -0.03868098
-0.012192453 -0.019515835 -0.022706307 0.0047848574 0.029532779 -0.010475425 -0.021283433 -0.0139691355
00000000: ff2f 8cb9 b5f2 9c3c a9cc f0bc 9350 d7bc
00000010: d05e 61bc 0ee9 1c3c 277f 39ba 13fa e73c
00000020: 37b6 4fbb 0ed6 1a3c 7dd6 30bc a409 e6bb
00000030: cfbe 0bbd 45ba c1bc 9a35 71bc 0168 ad3a
00000040: dc53 673c ae8c af3c a158 c6bc d8ce 7ebc
00000050: b088 543c a3f2 f23c 53d8 f0bb 49ef da3c
00000060: 6ea1 bcbb 5caa 773b 4f75 043d 76b4 07bd
00000070: 512f b8bc 4a23 14bc b316 64bc 2ec8 fc3c
00000080: 71a3 bdbc c0ad 86bc 6f5c ccbc 94f4 08bd
00000090: 90bb aabc a8a3 fb3c 0c34 843c d4cc 913c
000000a0: 852a 2d3b 1e7b 92bc 7853 cb3b 4fe3 08bd
000000b0: ca6b dabc fd0d 99bc b5f3 b83c e728 ac3c
000000c0: f511 81bc 8e67 a6ba 5d2f bb3c aa6f 113d
000000d0: 9b3b 683c e518 9e3b 472a c43c 4944 acbc
000000e0: 6413 da3b 0ed5 e2bc e0c6 cabc 1a22 97bc
000000f0: 3465 843c 3d57 6b3c 6945 adbc 25d7 313c
00000100: afd3 a33c aed6 5bbb 891b 433b 3449 373c
00000110: 1202 d73c 3d6a 1e3d 14f6 cebc 26e6 fdbb
00000120: 439e b03c 4c89 113d a6a9 123d 3437 0c3d
00000130: 02b7 0b3c 4893 f8bc 3c12 783b 8020 b5bc
00000140: 0e18 08bd 61f4 013d a575 de3c 92ec 11bd
00000150: 7b0b db3b 7725 c5bb b093 c0bb 0af6 85bc
00000160: 9cab 5e3c 42f3 aabc 2cc1 593c 15d2 913c
00000170: a9fa d73c 1ffb 923c 2da1 f2bc bc87 a0bc
00000180: ba21 9b3c 59b3 073c 357a 13bd 043e ccbc
00000190: 3a55 143d 337b 923c 9352 d3bc 86a1 96bc
000001a0: b61f 2abd d0dd e6ba 5d49 dbbc a379 debc
000001b0: 4cb3 f9ba 2827 ab3b 09b7 6fbc f99a ad3c
000001c0: 890a b2bc 2abc 043d 3281 c83c ffea f6bc
000001d0: ca9f 10bc 7bec f13a 8cd5 b03b 7067 e63b
000001e0: bcf2 743c aecf 333b 4fa5 92bc cab2 ad3c
000001f0: ec43 c5bc a315 13bc 89ae 8d3b c109 38bb
00000200: 87f8 c1ba 7e2d e9bc d317 23bc 913b 1c3c
00000210: 467e 6cbc c996 713b ffa8 e03c 3c68 afbb
00000220: 4758 59ba 4d6d 94bb 5b34 d63b f928 ba3c
00000230: 8f91 0a3d 9acc b93c 1599 0b3d 6658 35bb
00000240: cc72 03bd 3cc0 92bc a907 b33c b4a7 c4bb
00000250: fe93 cfbc e371 0bbd 7c41 2cbd be8f f5bc
00000260: b5da f03b 2249 003d 8f81 083d 74fb 0bbc
00000270: 4927 2f3d 8281 10bc 7f2d 433b 6409 83bb
00000280: f122 343b 5d14 ea3b 4969 d7bc 0b17 00bd
00000290: 0b00 0fbc 000e b1ba 731c 85bc 1ba9 5e3c
000002a0: 6baa 03bd 80fa 1dbb eaac ff3c 0919 75bc
000002b0: 1508 003d 5b49 fd3b c534 2bbd fc7a 443c
000002c0: 8eab 7ebc 3802 01bd 7e3f 483c 3376 0cbd
000002d0: ab62 823a e993 6abc 0df3 d43c 85d2 233c
000002e0: 999c af3c b260 e93b e70d 99bc 6424 65bc
000002f0: e388 e2bc cbb5 ce3c 3c23 f93c f17a b33c
00000300: 3b74 0ebd f9c4 c9bb 2354 dcbc ee5f 9fbc
00000310: 7e7a aabc 9e54 473c 6105 aebc 5229 b7ba
00000320: 4dc8 03ba 10d7 923c ed8a 0fbd df5d fabc
00000330: 9a7f 0ebd 3643 fa3a f129 09bd 0c2a 1b3c
00000340: ae3a aabb b462 49bc c690 cfbc 13ef 00bd
00000350: 744b 38bc 2601 97bc 94c9 f3bb 0549 3e3a
00000360: 2642 e2bc d025 17bc 9395 103d ecf5 00bd
00000370: 4e20 77bc 70be bf3c a654 273c d923 8a3a
00000380: 6ab8 febc d409 913c af38 cabc 5f9f 25bc
00000390: d57a 5cbc 0e62 d7bb e480 3e3b a7ef f03c
000003a0: 2249 0cbc ddc8 343c 010e 403a c1c6 0dbd
000003b0: 297a d23b 8905 07bd a343 d8bc 9da8 2dbc
000003c0: 7039 b6bb fae2 673c 82df 75bc fbe5 1ebb
000003d0: 4aba 893c 4750 f5bc dab9 ef3c f36f 1ebd
000003e0: dbc2 47bc acdf 9fbc 9402 babc 4bca 9c3b
000003f0: baee f13c 1ea1 2bbc 985a aebc cdde 64bc

bias f4 [50]
-0.08378814 -0.025501693 0.23184136 0.11758362 0.11423891 0.032368675 0.2899942 -0.03728372
-0.06545838 0.17090517 -0.00502768 -0.00047407864 0.0881552 0.109162405 0.115594484 0.06660265
-0.062520795 0.059169658 0.24293877 -0.0103519745 0.086954646 -0.06945317 0.092851855 0.0885158
0.017230352 0.14737989 0.07999125 0.11849761 0.15896782 0.124889866 0.007403022 0.17018996
0.10074521 0.22223157 0.15770078 -0.092554085 0.00716937 0.11397925 0.07643646 0.17891608
0.010751919 0.14126772 0.1530612 0.0277086 -0.12479978 -0.0007420116 -0.024504729 -0.049462788
0.09541336 0.086713225
00000000: 1e99 abbd ede8 d0bc d267 6d3e aecf f03d
00000010: 17f6 e93d 0495 043d 1f7a 943e d0b6 18bd
00000020: 0b0f 86bd c401 2f3e 3dbf a4bb c28d f8b9
00000030: b78a b43d 8a90 df3d cdbc ec3d f866 883d
00000040: e70a 80bd e25b 723d f1c4 783e 549b 29bc
00000050: 4715 b23d 773d 8ebd 1d29 be3d c647 b53d
00000060: ab26 8d3c c1ea 163e 74d2 a33d e0ae f23d
00000070: 76c8 223e 42c6 ff3d 0d95 f23b 4746 2e3e
00000080: 8153 ce3d ac90 633e 507c 213e ff8c bdbd
00000090: 09ed ea3b f46d e93d b88a 9c3d c735 373e
000000a0: d128 303c 7ca8 103e 13bc 1c3e 25fd e23c
000000b0: 0797 ffbd 8e83 42ba 24be c8bc 7e99 4abd
000000c0: 1468 c33d b496 b13d

weight f4 [50, 50]
-0.019836377 -0.10508683 0.026523842 0.05059033 -0.13247097 -0.26510707 0.11028694 -0.17908528
0.15281859 0.21774538 0.020623425 -0.014095943 0.05364591 0.11185848 0.1176171 0.039286755
0.06326176 0.0972902 0.19044085 0.0989856 -0.1773388 0.14457364 -0.1313956 -0.13539684
0.042258754 0.041321967 0.016907224 0.2731993 -0.10362041 -0.16799434 -0.06187906 0.18166727
0.022198053 0.008002286 -0.0054263314 -0.053502005 0.04157439 0.099391535 0.10819145 0.30327043
0.06076719 -0.11485935 0.0009778712 0.22522701 0.16764562 0.03153222 0.12770055 -0.09963127
-0.060620394 -0.054172803 -0.093355685 0.08697293 -0.19376428 0.08655578 -0.19667682 0.06047182
-0.14731728 0.18250895 0.14976719 0.0951289 0.123562686 -0.032708537 0.050188195 0.17705622
0.020347267 0.23364247 -0.08722898 0.25487182 0.06829071 0.071837515 -0.038063336 0.054292817
0.17374942 -0.02402676 0.065846145 -0.069049835 0.00076703646 0.18298894 -0.10838554 -0.030763958
-0.078787364 -0.07767642 0.0975817 -0.05628582 -0.005451888 -0.06854845 -0.036368683 0.08697305
0.0026835753 0.12777404 -0.13915019 0.0444135 0.18053143 0.12364267 -0.18074098 0.1136309
0.103745386 -0.05133391 -0.111741945 -0.0626207 0.049385894 -0.099897064 -0.14136335 -0.04119064
0.0109988665 0.03567177 -0.022465803 0.030510714 -0.12260296 -0.04253807 0.01595608 0.13740265
-0.13970739 0.09989513 -0.11147535 -0.11196987 0.05851909 -0.07565998 -0.08233032 0.13950521
-0.11604401 0.1424543 -0.109925285 -0.029693345 -0.00440221 -0.09397354 0.09471792 0.12954551
-0.048756063 0.072589755 0.08900675 -0.1370237 0.052191038 0.00234811 -0.031987768 -0.029241605
-0.09185607 -0.025209136 -0.13176826 -0.097015925 0.0015223706 0.021536428 0.11316732 -0.09032524
-0.09808666 0.1240584 -0.066277884 0.13184106 -0.008326813 0.122073054 -0.11106215 0.10839319
0.19270073 -0.093373686 0.008550462 -0.036095716 0.061141845 -0.052568417 -0.05154192 0.013602018
0.02379813 0.14204003 -0.1424482 -0.03697152 -0.10358226 0.06952345 0.11223596 0.033016503
-0.0684567 -0.0056499518 -0.073672086 -0.11123213 0.030805215 0.0062317937 0.18158059 0.06404013
-0.0910375 -0.0061586946 -0.06279243 -0.032500673 0.0586067 0.14410834 0.05529963 -0.10553737
0.14401063 -0.15256585 0.12937225 -0.10536364 -0.07163588 -0.0059505813 -0.046406467 0.1270934
0.08820519 0.090713955 -0.10496588 0.09545789 -0.011867387 -0.11007676 0.017645057 -0.10592634
0.05787919 0.0804245 0.035679456 0.10543694 0.06331893 0.14368989 0.07646821 0.066239126
-0.08352523 0.19626899 0.0908634 0.025723672 0.11882364 0.028953645 -0.13662758 -0.21376479
-0.011282048 0.14261827 0.1603627 -0.05428082 -0.13779852 -0.1535516 0.049016956 0.030995833
-0.12275657 0.07213296 0.091367655 -0.08950962 0.118934385 -0.1787221 0.13026546 -0.10586756
0.15493828 -0.12408304 -0.03620108 -0.10487974 -0.028188981 0.1701453 -0.025080949 -0.099094234
0.15272336 0.12771657 0.021150969 -0.15092704 -0.027147518 0.04452469 -0.0716694 -0.053787995
-0.026164869 -0.08449539 -0.14004244 0.04589908 0.12974845 0.08932554 -0.077832706 -0.116467305
00000000: e67f a2bc c437 d7bd 8748 d93c ce37 4f3d
00000010: 78a6 07be 1dbc 87be 1fde e13d 2262 37be
00000020: 7a7c 1c3e a5f8 5e3e 75f2 a83c acf2 66bc
00000030: d0bb 5b3d 0f16 e53d 3ce1 f03d 26eb 203d
00000040: 628f 813d 1640 c73d ed02 433e f6b8 ca3d
00000050: 4d98 35be 1d0b 143e 918c 06be 78a5 0abe
00000060: 8417 2d3d 3941 293d 0581 8a3c c7e0 8b3e
00000070: f036 d4bd b506 2cbe e674 7dbd fc06 3a3e
00000080: b1d8 b53c 051c 033c 5ecf b1bb eb24 5bbd
00000090: e849 2a3d ca8d cb3d 7b93 dd3d 4346 9b3e
000000a0: 04e7 783d 613b ebbd ea2b 803a e9a1 663e
000000b0: 4bab 2b3e ee27 013d efc3 023e 7b0b ccbd
000000c0: 174d 78bd 4de4 5dbd 4431 bfbd dd1e b23d
000000d0: 256a 46be 2844 b13d a665 49be 4db1 773d
000000e0: 57da 16be a0e3 3a3e 925c 193e f1d2 c23d
000000f0: 6f0e fd3d 63f9 05bd 2392 4d3d 3a4e 353e
00000100: 50af a63c f93f 6f3e 1ca5 b2bd 8f7e 823e
00000110: 00dc 8b3d 8c1f 933d 4de8 1bbd 2562 5e3d
00000120: 5eeb 313e c5d3 c4bc 58da 863d 006a 8dbd
00000130: f212 493a 7461 3b3e 3df9 ddbd b204 fcbc
00000140: 455b a1bd d114 9fbd ead8 c73d f68b 66bd
00000150: c0a5 b2bb 2163 8cbd 54f7 14bd ed1e b23d
00000160: ecde 2f3b 33d7 023e 637d 0ebe eeea 353d
00000170: 3bdd 383e 5e38 fd3d 2a14 39be 51b7 e83d
00000180: 7678 d43d 8243 52bd f6d8 e4bd 483f 80bd
00000190: dd48 4a3d d596 ccbd 8ec1 10be 84b7 28bd
000001a0: 9734 343c 901c 123d 340a b8bc 9bf1 f93c
000001b0: 4317 fbbd 663c 2ebd 53b6 823c 48b3 0c3e
000001c0: 740f 0fbe d195 cc3d 304d e4bd 7650 e5bd
000001d0: b7b1 6f3d 9ff3 9abd cc9c a8bd 74da 0e3e
000001e0: 7ba8 edbd 8adf 113e 8220 e1bd 753f f3bc
000001f0: 6a40 90bb 3375 c0bd 78fb c13d 94a7 043e
00000200: 70b4 47bd f0a9 943d 2c49 b63d f14f 0cbe
00000210: 45c6 553d c0e2 193b 9b05 03bd 178c efbc
00000220: 091f bcbd 6483 cebc 42ee 06be 49b0 c6bd
00000230: 488a c73a 2a6d b03c 45c4 e73d 70fc b8bd
00000240: a9e1 c8bd 5512 fe3d b3bc 87bd 5801 073e
00000250: 2f6d 08bc 7001 fa3d 8d74 e3bd 40fd dd3d
00000260: 5753 453e b43a bfbd 3d17 0c3c 1ad9 13bd
00000270: df6f 7a3d fb51 57bd 9f1d 53bd 00db 5e3c
00000280: 4cf4 c23c f172 113e f1dd 11be 736f 17bd
00000290: f022 d4bd 5062 8e3d f8db e53d 503c 073d
000002a0: 0733 8cbd 3b23 b9bb 64e1 96bd accd e3bd
000002b0: 385b fc3c 1334 cc3b 43f0 393e 7927 833d
000002c0: de71 babd e0ce c9bb 5199 80bd 6d1f 05bd
000002d0: 940d 703d 2391 133e dd81 623d fa23 d8bd
000002e0: 8677 133e 393a 1cbe 297a 043e e4c8 d7bd
000002f0: d5b5 92bd 18fd c2bb b514 3ebd c624 023e
00000300: eca4 b43d 3dc8 b93d 5af8 d6bd 6d7f c33d
00000310: 6e6f 42bc ed6f e1bd 5e8c 903c e9ef d8bd
00000320: bb12 6d3d 9ab5 a43d 9f24 123d 53ef d73d
00000330: 5bad 813d 7123 133e 5d9b 9c3d 61a8 873d
00000340: 470f abbd bdfa 483e 9716 ba3d 73ba d23c
00000350: cf59 f33d 3230 ed3c 1ae8 0bbe 28e5 5abe
00000360: 57d8 38bc 860a 123e 1f36 243e 9155 5ebd
00000370: 0e1b 0dbe a13c 1dbe 01c6 483d f9ea fd3c
00000380: cc67 fbbd 72ba 933d f71e bb3d d250 b7bd
00000390: df93 f33d ed02 37be 4f64 053e 17d1 d8bd
000003a0: 24a8 1e3e 401f febd 9547 14bd 30cb d6bd
000003b0: 94ec e6bc 923a 2e3e 9076 cdbc ebf1 cabd
000003c0: 8363 1c3e 22c8 023e cc44 ad3c 9e8c 1abe
000003d0: 7964 debc 855f 363d 68c7 92bd cd50 5cbd
000003e0: b557 d6bc eb0b adbd 4967 0fbe ac00 3c3d
000003f0: c7dc 043e 4ff0 b63d c166 9fbd 6986 eebd

bias f4 [50]
0.071051896 0.027619746 -0.03459371 0.083545715 0.10629709 0.054139577 0.13448296 0.09084485
0.08174999 -0.02210162 0.119484484 0.31367698 0.17593288 0.08275689 -0.12238399 -0.011035048
0.13812414 0.16833572 0.116482385 -0.14090444 -0.09951758 0.02105336 0.121825784 0.025649201
0.27894673 0.1399879 -0.03048848 0.07881033 0.17869164 0.18559653 0.27169168 0.039742943
0.23759674 -0.1382216 0.107029095 0.11041199 -0.002091921 0.0051709902 -0.020162143 0.060432702
0.27517658 0.14396198 0.26725873 0.10865006 0.21453261 0.2509097 0.0775978 0.15461949
-0.14421988 0.0873075
00000000: a883 913d ce42 e23c 22b2 0dbd 041a ab3d
00000010: 4ab2 d93d 76c1 5d3d e7b5 093e dd0c ba3d
00000020: 8a6c a73d 750e b5bc 48b4 f43d 459a a03e
00000030: c027 343e 727c a93d 75a4 fabd 59cc 34bc
00000040: 6a70 0d3e 3360 2c3e 518e ee3d 4149 10be
00000050: dfcf cbbd 1978 ac3c cc7f f93d 461e d23c
00000060: 1bd2 8e3e fd58 0f3e fac2 f9bc 4f67 a13d
00000070: f1fa 363e 040d 3e3e 2c1b 8b3e 7fc9 223d
00000080: 8f4c 733e f789 0dbe 1232 db3d ae1f e23d
00000090: 9c18 09bb 6971 a93b 142b a5bc 4888 773d
000000a0: f2e3 8c3e c56a 133e 23d6 883e ec83 de3d
000000b0: 70ae 5b3e 3c77 803e 98eb 9e3d 9254 1e3e
000000c0: 60ae 13be 46ce b23d

weight f4 [20, 50]
0.24657068 -0.24710996 -0.111320555 0.13601619 0.0024761457 0.37285936 0.15133913 0.08651755
0.11208929 0.30857918 -0.30810416 0.102037914 0.21751405 -0.2042624 -0.16012143 0.08743017
0.26203766 0.3629841 0.28891197 0.12941727 0.28043097 0.0022117968 0.1981746 -0.21516393
0.29511034 -0.050022855 -0.06523415 -0.23012827 -0.27840394 -0.115799524 -0.010825509 -0.027535476
0.6197387 -0.038083564 0.10523288 0.10464068 -0.020610576 0.065849066 0.15905051 -0.18440616
0.18890874 -0.03746736 -0.10648329 -0.23625162 0.012427912 -0.14007834 -0.3205625 0.1289558
-0.024618689 -0.013941339 -0.15240462 0.044276223 -0.04821692 -0.018950688 -0.18451567 -0.121035844
0.20992945 -0.09932348 0.26484975 -0.13500595 0.14532533 0.018239854 0.24133167 -0.06147678
0.14867043 0.03903258 0.16384093 -0.19686101 0.08306614 0.007496531 -0.08875933 0.07351085
0.012003549 -0.013090848 -0.14975308 0.2300617 0.114318386 0.26349637 -0.081861354 -0.05209549
0.14029251 -0.006086076 0.3486803 0.004732752 -0.16862476 0.30723074 0.06343607 0.0011611996
0.09260296 -0.045807224 0.2223861 -0.23544623 0.049477328 0.116654865 0.03597709 0.10771245
0.16950455 0.19523604 -0.023376921 -0.026906453 0.029918432 0.16204225 -0.035662916 -0.1147346
-0.1538161 -0.0061526424 -0.11891694 0.14522366 0.22246726 0.11835905 0.058154754 0.35650775
0.10439403 0.22446239 -0.04776505 -0.12386771 0.07898294 0.45456743 -0.07727464 -0.06493825
-0.08318482 0.05337308 -0.16446579 0.067554906 -0.22269863 0.19579582 -0.07728761 0.39156702
0.053190824 0.013110195 -0.06983675 0.02551533 -0.19233352 -0.05257103 0.28200626 -0.017694272
-0.10281666 0.07001847 0.2848814 -0.024202628 -0.016361263 -0.026464785 -0.09100575 0.037026793
-0.007307635 0.2020391 -0.0894016 0.09323401 0.21419497 0.24882549 0.008516416 0.11368999
-0.08955419 -0.108444996 0.00045445136 -0.09234491 -0.078403495 -0.0766772 -0.06787557 0.068938576
0.051980425 0.08677383 -0.050739862 0.0061562746 -0.07533203 -0.054909874 0.015502677 0.0018824069
-0.044867057 0.07380905 0.09490503 -0.019836012 0.021851052 -0.09444121 -0.014763226 -0.06358385
-0.10395612 -0.06662092 -0.13540854 -0.06930648 -0.032443266 -0.03798207 -0.09367025 0.077275254
-0.10435079 0.07825014 -0.031914696 -0.06846889 0.037446633 -0.009117672 -0.13297467 -0.077354856
-0.040149078 0.10774956 0.007316019 0.09287554 0.06652764 -0.11925378 -0.013338351 -0.1082469
0.16346763 0.03306772 -0.110558964 -0.058891915 0.010412168 0.11420631 -0.17024302 -0.21091397
0.116625704 0.113724455 0.39657453 -0.06780229 0.092935465 -0.10747232 0.050809495 0.19882827
-0.07867588 -0.13636965 -0.07908704 -0.090668045 0.036400087 -0.040334154 0.3310483 0.20212492
-0.15923974 0.25852594 -0.0057384265 -0.24971451 0.03842257 0.13951546 0.040932667 -0.0033097924
0.2222256 0.09190598 -0.18666501 -0.177407 -0.009842819 -0.038416065 -0.0881062 -0.15511751
-0.009163861 0.1288296 0.13130651 0.19219263 -0.14025246 0.115889855 0.33007607 0.23230508
0.10144089 0.08068663 0.38794243 0.2302669 0.034190837 0.095210984 0.07011275 0.008488798
00000000: 067d 7c3e 650a 7dbe 08fc e3bd d447 0b3e
00000010: d546 223b 6ce7 be3e a5f8 1a3e 1d30 b13d
00000020: 128f e53d 17fe 9d3e d4bf 9dbe 41f9 d03d
00000030: 01bc 5e3e 2a2a 51be dff6 23be 970e b33d
00000040: cd29 863e 0dd9 b93e 45ec 933e f685 043e
00000050: a694 8f3e cbf3 103b 48ee 4a3e ef53 5cbe
00000060: b418 973e c4e4 4cbd 7b99 85bd bfa6 6bbe
00000070: f68a 8ebe 4d28 edbd 7a5d 31bc 1492 e1bc
00000080: 32a7 1e3f 83fd 1bbd 5684 d73d da4d d63d
00000090: 83d7 a8bc e0db 863d 23de 223e f8d4 3cbe
000000a0: 4b71 413e 6077 19bd e913 dabd f2eb 71be
000000b0: 719e 4b3c b270 0fbe c520 a4be fd0c 043e
000000c0: 22ad c9bc 376a 64bc f50f 1cbe fc5a 353d
000000d0: 1b7f 45bd 793e 9bbc adf1 3cbe a4e1 f7bd
000000e0: bff7 563e 1c6a cbbd 639a 873e 003f 0abe
000000f0: 2ad0 143e bf6b 953c a61f 773e 13cf 7bbd
00000100: 103d 183e a0e0 1f3d ebc5 273e ef95 49be
00000110: 951e aa3d 76a5 f53b 74c7 b5bd db8c 963d
00000120: 89aa 443c ff7a 56bc df58 19be 4b95 6b3e
00000130: c21f ea3d ffe8 863e eda6 a7bd 1562 55bd
00000140: d7a8 0f3e b56d c7bb 3986 b23e 3415 9b3b
00000150: f8ab 2cbe 594d 9d3e c5ea 813d 6533 983a
00000160: 9fa6 bd3d 5ba0 3bbd 2fb9 633e d118 71be
00000170: bda8 4a3d bfe8 ee3d b75c 133d 5898 dc3d
00000180: 9a92 2d3e f5eb 473e f580 bfbc ec6a dcbc
00000190: 8017 f53c 67ee 253e 4713 12bd f9f9 eabd
000001a0: f881 1dbe 1b9c c9bb ba8a f3bd 83b5 143e
000001b0: 75ce 633e 3b66 f23d ae33 6e3d 2f88 b63e
000001c0: 8acc d53d 78d9 653e 49a5 43bd 5bae fdbd
000001d0: cfc1 a13d 10bd e83e 2b42 9ebd 58fe 84bd
000001e0: ce5c aabd bb9d 5a3d b869 28be 3a5a 8a3d
000001f0: 1c0b 64be b37e 483e f748 9ebd 797b c83e
00000200: 9fde 593d 25cc 563c 9206 8fbd 8605 d13c
00000210: 14f3 44be b854 57bd 2063 903e 94f3 90bc
00000220: 8b91 d2bd d865 8f3d fadb 913e 9744 c6bc
00000230: 0e08 86bc adcc d8bc 3961 babd 68a9 173d
00000240: e374 efbb 56e3 4e3e 3018 b7bd 79f1 be3d
00000250: ed55 5b3e 1ccc 7e3e 7088 0b3c 4cd6 e83d
00000260: 3068 b7bd 6918 debd 6e43 ee39 541f bdbd
00000270: 0392 a0bd f008 9dbd 5902 8bbd ab2f 8d3d
00000280: 6de9 543d 7ab6 b13d 9ad4 4fbd 93ba c93b
00000290: ae47 9abd 2de9 60bd f1fe 7d3c 18bb f63a
000002a0: 85c6 37bd 3329 973d 925d c23d 227f a2bc
000002b0: fa00 b33c 656a c1bd 75e1 71bc 4038 82bd
000002c0: f2e6 d4bd 8d70 88bd 89a8 0abe 8ef0 8dbd
000002d0: 3be3 04bd 1693 1bbd 30d6 bfbd 7d42 9e3d
000002e0: deb5 d5bd 9c41 a03d fcb8 02bd 6b39 8cbd
000002f0: a461 193d 4a62 15bc 832a 08be 396c 9ebd
00000300: 5c73 24bd cdab dc3d 37bb ef3b 8835 be3d
00000310: a53f 883d 533b f4bd 1989 5abc 8db0 ddbd
00000320: 0f64 273e 0472 073d bd6c e2bd a638 71bd
00000330: cc97 2a3c ffe4 e93d 3054 2ebe d5f9 57be
00000340: 75d9 ee3d 5ee8 e83d d10b cb3e eddb 8abd
00000350: f354 be3d 731a dcbd 9e1d 503d a399 4b3e
00000360: d220 a1bd 7ca4 0bbe 63f8 a1bd 2bb0 b9bd
00000370: 4218 153d 6d35 25bd 2a7f a93e d6f9 4e3e
00000380: be0f 23be 835d 843e 6909 bcbb 29b5 7fbe
00000390: fc60 1d3d 24dd 0e3e 03a9 273d 1ae9 58bb
000003a0: 1c8f 633e 3439 bc3d 1d25 3fbe 2eaa 35be
000003b0: c643 21bc 2a5a 1dbd 0671 b4bd 20d7 1ebe
000003c0: 0524 16bc e8eb 033e 3775 063e 25ce 443e
000003d0: 579e 0fbe a957 ed3d bbff a83e 62e1 6d3e
000003e0: 3ec0 cf3d 083f a53d 64a0 c63e 16cb 6b3e
000003f0: b10b 0c3d fafd c23d 4697 8f3d 9914 0b3c

bias f4 [20]
0.28865114 0.20642972 0.09260947 -0.12473506 0.008918765 0.11546364 -0.030043285 0.22029196
0.17517045 0.03637138 0.16780965 0.006630115 -0.10769142 0.16677731 -0.119150676 -0.062484834
-0.06259721 -0.048070226 0.21776374 0.37266743
00000000: 15ca 933e 5062 533e 09aa bd3d 1875 ffbd
00000010: 0320 123c 3378 ec3d 561d f6bc 3794 613e
00000020: e25f 333e 28fa 143d 4bd6 2b3e 7041 d93b
00000030: 528d dcbd acc7 2a3e 4505 f4bd 19f0 7fbd
00000040: f732 80bd 49e5 44bd 75fd 5e3e 44ce be3e

weight f4 [10, 20]
0.057609998 -0.5033787 0.7723642 0.105804995 -0.22138333 -0.6020008 -0.11213649 -0.10464838
0.58886695 -0.47172228 -0.09623419 -0.27731812 -0.08745702 0.21276344 -0.21902514 0.20842415
0.356751 0.14572851 -0.6054625 -0.029236136 -0.38892484 0.2521088 -0.4356964 -0.07395096
0.2084804 -0.41520756 -0.11840917 0.39805162 -0.19392382 0.3333164 0.5686684 0.3442234
-0.15625663 -0.24984919 0.060705345 -0.69258213 -0.3890216 0.30742538 0.1930261 0.4065277
0.082906686 0.5235363 0.37441435 -0.09314351 0.3210503 0.19726476 0.20124911 0.35494092
0.39962128 -0.060203806 -0.03553558 0.1717952 -0.16998397 -0.21448334 -0.16538134 0.09812851
-0.4756889 0.123742774 -0.63569 -0.67006993 0.553159 -0.0992553 -0.20015611 0.1862044
0.307394 -0.46923247 0.0014331824 -0.10715381 0.4839352 -0.17527334 0.001965143 0.6236681
-0.084465824 -0.35142598 -0.093642935 0.31866094 -0.46304727 -0.28005058 0.34139228 -0.092314065
-0.44152844 0.014827859 -0.054681998 0.11915827 -0.103345335 0.017067531 0.17684238 0.3890568
-0.43282208 0.644746 -0.23204248 -0.4207448 -0.22329684 0.31597394 0.015041065 0.5756458
-0.10369366 0.12651978 -0.02200938 -0.18191996 0.82309335 0.08769553 -0.025698146 0.1767831
-0.46443516 -0.47173014 -0.2732628 0.23594607 0.17457357 -0.2178522 -0.0013441708 -0.22201332
0.06764309 -0.19780429 0.13844168 -0.21738929 0.405204 -0.20746346 0.357566 0.31379047
-0.21201193 0.070246436 -0.08073603 -0.14372538 -0.4531149 -0.1871331 -0.2028033 0.9590581
0.05860253 0.61882037 -0.28465706 -0.35477093 0.0767822 -0.39275303 0.13209334 -0.33898103
0.50439763 -0.11294414 -0.45247817 -0.5533664 -0.69397 -0.28121075 0.08782335 -0.023969242
0.45472133 -0.12982674 0.11843813 -0.39424047 -0.3571287 -0.22207882 0.32301474 0.360921
0.08688925 0.63067514 0.28225064 0.11433214 -0.30385825 -0.08133345 0.101788625 0.46639022
0.16816929 -0.040646743 -0.17621693 -0.121876605 0.33927298 0.7166868 -0.25837964 -0.41777882
0.4134571 0.13180582 -0.28112265 -0.0034737804 0.15545413 -0.4519761 -0.009346475 -0.40626344
0.5350479 -0.09150449 0.1865623 -0.48728877 -0.36214045 0.42182988 0.24296896 -0.117800884
0.17154218 0.41309166 0.20374285 -0.63902867 -0.5801575 -0.20619029 -0.16864967 -0.55732214
-0.0781351 -0.13351381 -0.11158634 0.5144641 0.07315501 -0.22097398 0.087907106 0.35262898
00000000: 76f8 6b3d 6ddd 00bf a9b9 453f 4ab0 d83d
00000010: 50b2 62be b91c 1abf d1a7 e5bd e451 d6bd
00000020: fcbf 163f 9585 f1be 6e16 c5bd a4fc 8dbe
00000030: ab1c b3bd a9de 593e 2048 60be 246d 553e
00000040: 11a8 b63e db39 153e 97ff 1abf 9f80 efbc
00000050: 2821 c7be 6814 813e 9913 dfbe 9a73 97bd
00000060: e37b 553e 1696 d4be 8280 f2bd 6ccd cb3e
00000070: f793 46be 72a8 aa3e 4194 113f 0d3e b03e
00000080: bd01 20be 77d8 7fbe 2ba6 783d 104d 31bf
00000090: d72d c7be dc66 9d3e a2a8 453e 6624 d03e
000000a0: fbca a93d 7a06 063f 3db3 bf3e 06c2 bebd
000000b0: b460 a43e c6ff 493e 3f14 4e3e d1ba b53e
000000c0: 299b cc3e 4498 76bd c28d 11bd 15eb 2f3e
000000d0: 4710 2ebe 85a1 5bbe ba59 29be 9af7 c83d
000000e0: 7f8d f3be da6c fd3d 94bc 22bf b489 2bbf
000000f0: d49b 0d3f 5d46 cbbd b9f5 4cbe 5eac 3e3e
00000100: bf62 9d3e 3d3f f0be 9fd9 bb3a 7573 dbbd
00000110: 5bc6 f73e db7a 33be a1c9 003b b6a8 1f3f
00000120: 6bfc acbd 1bee b3be dec7 bfbd 8727 a33e
00000130: 8814 edbe ca62 8fbe f8ca ae3e 280f bdbd
00000140: 0410 e2be 8cf0 723c 3bfa 5fbd 4009 f43d
00000150: b8a6 d3bd 35d1 8b3c 2b16 353e 7432 c73e
00000160: db9a ddbe 130e 253f 8b9c 6dbe dd6b d7be
00000170: eda7 64be 56c7 a13e cd6e 763c 865d 133f
00000180: 575d d4bd 678e 013e 044d b4bc 3a49 3abe
00000190: 3fb6 523f b799 b33d eb84 d2bc a106 353e
000001a0: 72ca edbe 9d86 f1be 1ae9 8bbe d99b 713e
000001b0: 6ac3 323e a614 5fbe e32e b0ba 7657 63be
000001c0: 7688 8a3d 358d 4abe a8c3 0d3e 4c9b 5ebe
000001d0: e676 cf3e 4d71 54be e412 b73e 25a9 a03e
000001e0: a819 59be 5ddd 8f3d ef58 a5bd bf2c 13be
000001f0: adfe e7be d29f 3fbe abab 4fbe d584 753f
00000200: 3509 703d 036b 1e3f 92be 91be 89a4 b5be
00000210: fc3f 9d3d ed16 c9be 7a43 073e ec8e adbe
00000220: 3420 013f 424f e7bd 38ab e7be 6ca9 0dbf
00000230: 05a8 31bf dbfa 8fbe bbdc b33d 255b c4bc
00000240: 3cd1 e83e 4df1 04be b18f f23d e3d9 c9be
00000250: 93d9 b6be a168 63be 3062 a53e a3ca b83e
00000260: fef2 b13d ed73 213f 2883 903e f826 ea3d
00000270: 4f93 9bbe 2792 a6bd 8e76 d03d b3ca ee3e
00000280: 9234 2c3e 337d 26bd 3672 34be 719a f9bd
00000290: 30b5 ad3e c978 373f 564a 84be 1be7 d5be
000002a0: a6b0 d33e 1bf8 063e 4fef 8fbe 5da8 63bb
000002b0: 5e2f 1f3e 6969 e7be f521 19bc c301 d0be
000002c0: e6f8 083f b566 bbbd 300a 3f3e ea7d f9be
000002d0: 796a b9be 16fa d73e dbcc 783e 9741 f1bd
000002e0: c1a8 2f3e c080 d33e f7a1 503e 6297 23bf
000002f0: 3485 14bf 8c23 53be 80b2 2cbe aaac 0ebf
00000300: 4c05 a0bd d8b7 08be 6187 e4bd ebb3 033f
00000310: 4bd2 953d 0147 62be a408 b43d c98b b43e

bias f4 [10]
-0.051827934 0.14651155 0.09584945 -0.16444822 -0.04152348 0.1813178 0.044631843 0.057234317
0.059930906 0.082564265
00000000: 8749 54bd 2007 163e b74c c43d 1d65 28be
00000010: 8614 2abd 60ab 393e e1cf 363d 886e 6a3d
00000020: 1c7a 753d 7417 a93d
