datasets/mnist/partition_noniid-#label_major_classes_num_1_clients_10_dir_alpha_None_augement_data_percent_per_class_0.01_seed_42/models/batch_size_256_com_round_25_epochs_5_lr_0.1_sample_ratio_0.9_personalization_steps_25/client_3.pt (torch, 175631 bytes, 8 tensors)

weight f4 [50, 784]
0	0xb98c2fff	-0.0002673864
1	0x3c9cf2b5	0.0191587
2	0xbcf0cca9	-0.029394465
3	0xbcd75093	-0.026283538
4	0xbc615ed0	-0.013755515
5	0x3c1ce90e	0.009577049
6	0xba397f27	-0.0007076137
7	0x3ce7fa13	0.028317487
8	0xbb4fb637	-0.0031694302
9	0x3c1ad60e	0.009450449
10	0xbc30d67d	-0.0107933255
11	0xbbe609a4	-0.007020192
12	0xbd0bbecf	-0.034117516
13	0xbcc1ba45	-0.02364839
14	0xbc71359a	-0.014722252
15	0x3aad6801	0.0013229848
16	0x3c6753dc	0.014119115
17	0x3caf8cae	0.021429386
18	0xbcc658a1	-0.024212183
19	0xbc7eced8	-0.015552245
20	0x3c5488b0	0.012972042
21	0x3cf2f2a3	0.029656714
22	0xbbf0d853	-0.0073500066
23	0x3cdaef49	0.026725428
24	0xbbbca16e	-0.0057565486
25	0x3b77aa5c	0.003779075
26	0x3d04754f	0.032338437
27	0xbd07b476	-0.033131085
28	0xbcb82f51	-0.0224835
29	0xbc14234a	-0.009041617
30	0xbc6416b3	-0.013921428
31	0x3cfcc82e	0.030857172
32	0xbcbda371	-0.023149224
33	0xbc86adc0	-0.016440272
34	0xbccc5c6f	-0.02494642
35	0xbd08f494	-0.033436373
36	0xbcaabb90	-0.02084139
37	0x3cfba3a8	0.030717686
38	0x3c84340c	0.0161381
39	0x3c91ccd4	0.017797865
40	0x3b2d2a85	0.0026423049
41	0xbc927b1e	-0.017880972
42	0x3bcb5378	0.0062050186
43	0xbd08dfec	-0.033416674
44	0xbcda575f	-0.02665299
45	0xbc99046c	-0.018678866
46	0x3cb8f3b5	0.022577146
47	0x3cac28e7	0.021015598
48	0xbc8111f5	-0.015755633
49	0xbaa6678e	-0.0012695657
50	0x3cbb2f5d	0.022849733
51	0x3d116faa	0.03550688
52	0x3c683b9b	0.014174367
53	0x3b9e18e5	0.004824745
54	0x3cc42a47	0.02394594
55	0xbcac4449	-0.021028655
56	0x3bda1364	0.0066551436
57	0xbce2d50e	-0.027689483
58	0xbccac6e0	-0.024753034
59	0xbc97221a	-0.018448878
60	0x3c846534	0.016161539
61	0x3c6b573d	0.014364061
62	0xbcad4569	-0.021151261
63	0x3c31d725	0.010854517
64	0x3ca3d3af	0.0199984
65	0xbb5bd6ae	-0.0033544707
66	0x3b4325a9	0.0029777086
67	0x3c374ecc	0.01118822
68	0x3cd7042d	0.026247108
69	0x3d1e6b19	0.038676355
70	0xbccef5ac	-0.02526363
71	0xbbfde5fa	-0.0077483626
72	0x3cb0a5b5	0.02156339
73	0x3d118b7b	0.03553341
74	0x3d12aa73	0.035807084
75	0x3d0c37a0	0.034232736
76	0x3c0bb6e8	0.008527495
77	0xbcf8934d	-0.030343676
78	0x3b78123c	0.0037852665
79	0xbcb52080	-0.022110224
80	0xbd08180e	-0.033226065
81	0x3d01f461	0.0317272
82	0x3cde75a5	0.027155707
83	0xbd11ec92	-0.035626
84	0x3bdb0b7b	0.006684718
85	0xbbc52577	-0.006016429
86	0xbbc093b0	-0.0058769807
87	0xbc85f60a	-0.016352672
88	0x3c5eab9a	0.013590718
89	0xbcaaf4dc	-0.020868711
90	0x3c59b9f3	0.013288963
91	0x3c91c663	0.017794793
92	0x3cd7eaf1	0.026357146
93	0x3c92eda5	0.017935583
94	0xbcf2bbc4	-0.02963055
95	0xbca0a434	-0.019609548
96	0x3c9b0749	0.018924372
97	0x3c076793	0.00826444
98	0xbd139687	-0.036032226
99	0xbccc71d1	-0.024956616
100	0x3d144b8d	0.036204863
101	0x3c92743a	0.017877687
102	0xbcd35faf	-0.025802461
103	0xbc96afae	-0.018394317
104	0xbd2a293a	-0.041543223
105	0xbae78dd9	-0.0017666175
106	0xbcdb4b07	-0.026769174
107	0xbcde79a3	-0.02715761
108	0xbaf9b34c	-0.0019050627
109	0x3bab2728	0.0052231736
110	0xbc6fb709	-0.014631041
111	0x3cad9af9	0.02119206
112	0xbcb20a89	-0.02173354
113	0x3d04bc2a	0.03240601
114	0x3cc88132	0.024475668
115	0xbcf6eafe	-0.03014135
116	0xbc109e21	-0.008826763
117	0x3af1664a	0.0018417325
118	0x3bb0bb09	0.00539339
119	0x3be61524	0.007021563
120	0x3c74c851	0.014940337
121	0x3b32cdc9	0.0027283302
122	0xbc92ca5c	-0.017918758
123	0x3cad8dd1	0.021185787
124	0xbcc568c7	-0.024097813
125	0xbc139254	-0.009007055
126	0x3b8c4888	0.0042811073
127	0xbb396fd2	-0.002829541
128	0xbac13e6d	-0.0014743336
129	0xbce8c0cf	-0.02841225
130	0xbc222615	-0.009896775
131	0x3c1ce34d	0.009575677
132	0xbc6c243a	-0.014412934
133	0x3b72e4a5	0.0037062552
134	0x3ce0c5b1	0.027438017
135	0xbbaf4a4b	-0.0053494326
136	0xba5945a4	-0.00082882703
137	0xbb946d5a	-0.0045296373
138	0x3bd6345b	0.006537003
139	0x3cba28f9	0.022724615
140	0x3d0a918f	0.03383022
141	0x3cb9cc9a	0.02268057
142	0x3d0b9916	0.03408154
143	0xbb356a63	-0.002768182
144	0xbd037294	-0.032091692
145	0xbc92c5b3	-0.017916536
146	0x3cb2fe3c	0.021849744
147	0xbbc51001	-0.0060138707
148	0xbccfb17f	-0.025353191
149	0xbd0b84f3	-0.034062337
150	0xbd2c5bc9	-0.04207972
151	0xbcf5d646	-0.0300094
152	0x3bef106a	0.007295658
153	0x3cfff7cb	0.031246087
154	0x3d083d4c	0.033261582
155	0xbc0cc69d	-0.008592275
156	0x3d2f08fa	0.04273317
157	0xbc0fecfe	-0.008784531
158	0x3b47551b	0.0030415717
159	0xbb814d6d	-0.0039459975
160	0x3b35b552	0.0027726484
161	0x3beaa705	0.0071610236
162	0xbcd74643	-0.02627862
163	0xbd001283	-0.031267654
164	0xbc0f00c4	-0.00872821
165	0xbab127c1	-0.0013515876
166	0xbc851dcb	-0.016249558
167	0x3c5ea87e	0.013589976
168	0xbd03aa6b	-0.032144945
169	0xbb1dfa80	-0.0024105608
170	0x3cffa75e	0.031207737
171	0xbc7526e6	-0.014962887
172	0x3d0003d2	0.031253643
173	0x3bfcd965	0.007716345
174	0xbd2b503e	-0.04182457
175	0x3c43cf85	0.011951332
176	0xbc7fae61	-0.01560554
177	0xbd015ff6	-0.031585656
178	0x3c46c931	0.012132929
179	0xbd0cdc65	-0.034389872
180	0x3a62fc93	0.00086588523
181	0xbc6d05f9	-0.014466756
182	0x3cd3b95a	0.025845218
183	0x3c2121f2	0.009834753
184	0x3caec87e	0.021335836
185	0x3be89671	0.007098012
186	0xbc98ec7b	-0.01866745
187	0xbc6485f9	-0.013947957
188	0xbce26765	-0.027637193
189	0x3cced3c9	0.025247471
190	0x3cf945cf	0.030428795
191	0x3cb39a10	0.021924049
192	0xbd0e71b4	-0.034776405
193	0xbbc9c445	-0.0061574304
194	0xbcdc542e	-0.026895609
195	0xbc9f5fee	-0.019454923
196	0xbcaa7a7e	-0.020810362
197	0x3c47548c	0.012166154
198	0xbcae0813	-0.021244084
199	0xbab7a4ac	-0.0014010868
200	0xba067c9b	-0.0005130262
201	0x3c929a61	0.01789588
202	0xbd0fc990	-0.035104334
203	0xbcfb1c7a	-0.030653227
204	0xbd0ef636	-0.034902774
205	0x3ae9a3b6	0.0017825279
206	0xbd0996cd	-0.03359108
207	0x3c1952b3	0.009358096
208	0xbbaf6e0f	-0.005353696
209	0xbc4bde9b	-0.01244321
210	0xbcd0d399	-0.025491523
211	0xbd01aa25	-0.031656403
212	0xbc3acab0	-0.0114008635
213	0xbc97b39f	-0.018518267
214	0xbbf4629f	-0.0074580456
215	0x3a420bb9	0.00074022595
216	0xbce205f0	-0.027590722
217	0xbc169ea3	-0.009193095
218	0x3d10b227	0.03532615
219	0xbd00e349	-0.031466756
220	0xbc77112e	-0.01507978
221	0x3cbfb83a	0.023403276
222	0x3c274efc	0.010211702
223	0x3a8a23d9	0.0010539248
224	0xbcfeb86a	-0.031093795
225	0x3c9109c6	0.017704856
226	0xbcca3879	-0.024685131
227	0xbc25a90b	-0.010111104
228	0xbc5cbb81	-0.013472439
229	0xbbd8b035	-0.0066128024
230	0x3b3a21ef	0.0028401574
231	0x3cf033e3	0.029321617
232	0xbc0e105c	-0.008670893
233	0x3c33189b	0.010931159
234	0x3a227095	0.00061965856
235	0xbd0e48a5	-0.034737248
236	0x3bcef6d6	0.006316046
237	0xbd074d40	-0.033032656
238	0xbcd8bd5a	-0.026457477
239	0xbc2f045f	-0.0106821945
240	0xbbb9915a	-0.005663079
241	0x3c66c518	0.014085077
242	0xbc76b72e	-0.015058322
243	0xbb1ff95e	-0.002441011
244	0x3c8a07ae	0.016849365
245	0xbcf4f601	-0.02990246
246	0x3ceffefe	0.029296394
247	0xbd1e6c4a	-0.03867749
248	0xbc47c848	-0.012193747
249	0xbc9fec0f	-0.019521741
250	0xbcba033c	-0.02270662
251	0x3b9cca4b	0.0047848574
252	0x3cf1eeba	0.029532779
253	0xbc2ba13e	-0.010475455
254	0xbcae5967	-0.021282865
255	0xbc6502cd	-0.013977719

bias f4 [50]
0	0xbdabf5f6	-0.08396523
1	0xbccc9e51	-0.024977835
2	0x3e71c4eb	0.23610274
3	0x3defc11a	0.11706753
4	0x3de8d20f	0.113681905
5	0x3d0b06c9	0.033942018
6	0x3e964aa0	0.2935381
7	0xbd296c70	-0.04136318
8	0xbd839242	-0.06424381
9	0x3e2e8021	0.17041065
10	0xbbfd5394	-0.0077309106
11	0xbb4fe9d7	-0.0031725073
12	0x3db4ec0f	0.08834087
13	0x3ddfb4ad	0.10923133
14	0x3deeef8a	0.11666782
15	0x3d80bd4b	0.06286105
16	0xbd81564b	-0.06315287
17	0x3d716bf9	0.05894086
18	0x3e7743c3	0.24146943
19	0xbc101884	-0.0087949075
20	0x3dbac86d	0.091202594
21	0xbd8cac56	-0.06868808
22	0x3dbaaa26	0.091144845
23	0x3db3b786	0.08775239
24	0x3c9f202e	0.019424524
25	0x3e17ccfd	0.1482429
26	0x3da32f0e	0.07967959
27	0x3df5da3e	0.12004517
28	0x3e23f926	0.16013011
29	0x3dfea0db	0.124330245
30	0x3befeea3	0.007322149
31	0x3e2e10a8	0.16998541
32	0x3dcc3e8a	0.09972866
33	0x3e65611a	0.22400323
34	0x3e2666ac	0.16250104
35	0xbdb71ccd	-0.0894104
36	0x3bedc4ae	0.007256112
37	0x3de0aeba	0.109708264
38	0x3d9877dd	0.07444737
39	0x3e3c2c14	0.1837619
40	0x3c207800	0.009794235
41	0x3e0fd9ec	0.14047974
42	0x3e1bd56a	0.1521813
43	0x3cd5ae30	0.026084036
44	0xbdfc4bc4	-0.12319139
45	0xba8c0891	-0.0010683705
46	0xbcc8c16b	-0.024506291
47	0xbd4ab187	-0.04948571
48	0x3dc3b86c	0.0955666
49	0x3db36154	0.08758798

weight f4 [50, 50]
0	0xbca1b883	-0.019741302
1	0xbdd71c42	-0.105034366
2	0x3cddef17	0.027091546
3	0x3d513def	0.051084455
4	0xbe0773db	-0.13227789
5	0xbe87684e	-0.26446766
6	0x3de321b4	0.11090413
7	0xbe370545	-0.17873104
8	0x3e1d2752	0.15347031
9	0x3e5f284a	0.21792713
10	0x3caa368e	0.020777967
11	0xbc5d3c4a	-0.013503144
12	0x3d5c6ab1	0.053812686
13	0x3de56d8f	0.11202537
14	0x3df12919	0.11775417
15	0x3d24e47f	0.040256973
16	0x3d82075a	0.063490584
17	0x3dc76efc	0.097379655
18	0x3e438082	0.1909199
19	0x3dcbf6d1	0.09959186
20	0xbe352b4d	-0.17692299
21	0x3e142b74	0.14469701
22	0xbe064328	-0.13111556
23	0xbe0a8167	-0.13525926
24	0x3d2e3319	0.0425292
25	0x3d2a99b0	0.041650474
26	0x3c8faaf4	0.017537571
27	0x3e8c01bc	0.27345073
28	0xbdd3a5d9	-0.10334367
29	0xbe2bc536	-0.16774449
30	0xbd7d1332	-0.061785884
31	0x3e3a64f8	0.18202579
32	0x3cb6b935	0.02230511
33	0x3c079c35	0.008276989
34	0xbba746a7	-0.005104858
35	0xbd593862	-0.053032286
36	0x3d2b65b0	0.041845024
37	0x3dccf626	0.100078866
38	0x3dde16f0	0.10844219
39	0x3e9bbb5d	0.30416384
40	0x3d7945a9	0.06085745
41	0xbdea418b	-0.114382826
42	0x3a9977d4	0.0011708685
43	0x3e676dca	0.22600475
44	0x3e2bc612	0.16774777
45	0x3d0269f3	0.031839322
46	0x3e02c3ec	0.12770051
47	0xbdcbd6f2	-0.09953107
48	0xbd762724	-0.06009592
49	0xbd5cf92f	-0.053948577
50	0xbdbf78bf	-0.09349202
51	0x3db1dc6b	0.086846195
52	0xbe47955f	-0.19490574
53	0x3daf43d8	0.08557862
54	0xbe49ba46	-0.19699964
55	0x3d71b1e4	0.05900754
56	0xbe17e909	-0.1483499
57	0x3e39e266	0.1815277
58	0x3e17b7a9	0.14816155
59	0x3dc2474f	0.09486257
60	0x3dfcaace	0.12337266
61	0xbd0a3ac3	-0.033747446
62	0x3d4ce3eb	0.050022047
63	0x3e34bbfd	0.17649837
64	0x3ca3ac78	0.0199797
65	0x3e6d19b6	0.23154339
66	0xbdb3605a	-0.08758612
67	0x3e82642e	0.25467056
68	0x3d8a546b	0.06754383
69	0x3d907307	0.0705319
70	0xbd1dd0d4	-0.038529232
71	0x3d5bc364	0.053653136
72	0x3e317fd3	0.17333917
73	0xbcc5af07	-0.024131311
74	0x3d85a4b4	0.06525555
75	0xbd8e2e09	-0.06942374
76	0xb9fd1419	-0.00048270894
77	0x3e3a7c8e	0.18211576
78	0xbddf37c1	-0.10899306
79	0xbd006c0d	-0.031353045
80	0xbda1cc6d	-0.07900319
81	0xbda10e85	-0.078640975
82	0x3dc75677	0.09733289
83	0xbd68fa07	-0.05687907
84	0xbbc03102	-0.005865217
85	0xbd8e2dfc	-0.069423646
86	0xbd16df2e	-0.036833934
87	0x3daecc52	0.08535065
88	0x3b024be0	0.001988165
89	0x3e010fe3	0.12603717
90	0xbe0eaa37	-0.1393212
91	0x3d32fe69	0.043699656
92	0x3e38a922	0.18033269
93	0x3df8df44	0.121519595
94	0xbe39a9b0	-0.18131137
95	0x3de6c11a	0.112673
96	0x3dd47869	0.10374529
97	0xbd535dbb	-0.05160306
98	0xbde6cff7	-0.11270135
99	0xbd80d61a	-0.06290837
100	0x3d4a40ad	0.049378086
101	0xbdcc9976	-0.09990208
102	0xbe10ca39	-0.14139642
103	0xbd28d86d	-0.041222025
104	0x3c342193	0.010994333
105	0x3d11d76d	0.035605837
106	0xbcb851a8	-0.022499874
107	0x3cf9d2d8	0.030496046
108	0xbdfb35de	-0.12266134
109	0xbd2e4df1	-0.0425548
110	0x3c829163	0.015938466
111	0x3e0cad8d	0.1373808
112	0xbe0f148e	-0.13972685
113	0x3dcc88a2	0.09986998
114	0xbde454ce	-0.11148988
115	0xbde55f0a	-0.11199768
116	0x3d6fa6b7	0.0585086
117	0xbd9af8ca	-0.07566984
118	0xbda8a0e5	-0.08233813
119	0x3e0ecc9b	0.13945238
120	0xbdedac17	-0.11605089
121	0x3e11d387	0.14240848
122	0xbde123fd	-0.10993192
123	0xbcf3529a	-0.029702473
124	0xbb90b93b	-0.0044166124
125	0xbdc078f1	-0.09398068
126	0x3dc1e153	0.09466805
127	0x3e049dbd	0.12950797
128	0xbd47bcb2	-0.04876394
129	0x3d94928a	0.072545126
130	0x3db642a9	0.08899433
131	0xbe0c5188	-0.13702977
132	0x3d55c5a7	0.05219045
133	0x3b17466d	0.0023082749
134	0xbd0310ec	-0.03199856
135	0xbcefb2cd	-0.029260064
136	0xbdbc2303	-0.091863655
137	0xbccee150	-0.025253922
138	0xbe06f07b	-0.13177674
139	0xbdc6d360	-0.09708285
140	0x3ac58131	0.0015068409
141	0x3cb03d17	0.021513505
142	0x3de7bef5	0.11315719
143	0xbdb91789	-0.09037692
144	0xbdc8e885	-0.098099746
145	0x3dfdfb15	0.12401406
146	0xbd87bcb3	-0.066277884
147	0x3e06f967	0.13181077
148	0xbc088bcf	-0.008334114
149	0x3df9f236	0.12204401
150	0xbde3c8b1	-0.11122263
151	0x3ddde770	0.10835159
152	0x3e448c7f	0.1919422
153	0xbdbf8a83	-0.09352591
154	0x3c070e61	0.008243174
155	0xbd14acff	-0.036297794
156	0x3d782dfc	0.06059073
157	0xbd565a00	-0.052331924
158	0xbd558bf6	-0.05213543
159	0x3c5ae06c	0.01335917
160	0x3cc17695	0.023616115
161	0x3e114f9f	0.1419053
162	0xbe121c99	-0.14268722
163	0xbd18a238	-0.03726408
164	0xbdd4300e	-0.10360728
165	0x3d8e669d	0.06953166
166	0x3de5a012	0.112121716
167	0x3d06eca7	0.032940533
168	0xbd8cebfd	-0.06880949
169	0xbbc44fc8	-0.005990956
170	0xbd97e283	-0.074162506
171	0xbde413f0	-0.11136615
172	0x3cfaf331	0.03063354
173	0x3bcafd7b	0.006194768
174	0x3e3944d8	0.18092668
175	0x3d82d966	0.06389122
176	0xbdbb6189	-0.09149463
177	0xbbdc7318	-0.0067275874
178	0xbd8124d3	-0.06305852
179	0xbd057e89	-0.032591376
180	0x3d6fd540	0.05855298
181	0x3e132133	0.14368133
182	0x3d61ff44	0.05517508
183	0xbdd86f1e	-0.10568069
184	0x3e1317a1	0.14364482
185	0xbe1cce03	-0.15312962
186	0x3e042a85	0.12906845
187	0xbdd8ceba	-0.10586305
188	0xbd930db4	-0.07180348
189	0xbbe282c6	-0.006912562
190	0xbd3e39ab	-0.046441715
191	0x3e022e27	0.12712918
192	0x3db47176	0.088107035
193	0x3db90d2e	0.09035717
194	0xbdd7ecf8	-0.10543245
195	0x3dc32a11	0.09529508
196	0xbc426f42	-0.011867346
197	0xbde1a470	-0.11017692
198	0x3c8c9094	0.017158784
199	0xbdd95c2a	-0.10613282
200	0x3d6d2536	0.057896815
201	0x3da4cb18	0.080465496
202	0x3d1261da	0.03573785
203	0x3dd89078	0.1057443
204	0x3d81ed8e	0.06344138
205	0x3e135ad4	0.14390117
206	0x3d9cfa3e	0.076649174
207	0x3d88a937	0.066729
208	0xbdaa95fa	-0.08329387
209	0x3e490cc7	0.1963378
210	0x3dba1bb9	0.09087319
211	0x3cd5b8de	0.026089128
212	0x3df360fa	0.11883731
213	0x3ceda196	0.029007714
214	0xbe0bde9a	-0.13659135
215	0xbe5a666c	-0.21328133
216	0xbc37fb06	-0.011229282
217	0x3e12175c	0.14266723
218	0x3e248d5a	0.16069546
219	0xbd5d0d76	-0.053967915
220	0xbe0d18cd	-0.13778992
221	0xbe1d3824	-0.15353447
222	0x3d497c32	0.049190708
223	0x3cfdf482	0.03100038
224	0xbdfb55aa	-0.122721985
225	0x3d940e8b	0.07229336
226	0x3dbbf7e7	0.09178143
227	0xbdb726a5	-0.08942918
228	0x3df3cc46	0.119041964
229	0xbe36f644	-0.1786738
230	0x3e0568ef	0.1302831
231	0xbdd89829	-0.10575897
232	0x3e1ec297	0.15503918
233	0xbdfe1d5f	-0.12407946
234	0xbd144d4e	-0.036206536
235	0xbdd69dd5	-0.10479323
236	0xbce5535e	-0.027993854
237	0x3e2ebdd6	0.17064604
238	0xbccb46b5	-0.02481399
239	0xbdca8656	-0.09888904
240	0x3e1c7916	0.15280566
241	0x3e03059a	0.12795106
242	0x3cae253f	0.021257995
243	0xbe1a25e6	-0.1505352
244	0xbcddff11	-0.027099164
245	0x3d36aeb2	0.044600196
246	0xbd92c75b	-0.0716693
247	0xbd5c2bb0	-0.0537526
248	0xbcd481a1	-0.025940718
249	0xbdacfc6f	-0.084465854
250	0xbe0f1019	-0.13970985
251	0x3d3c79c8	0.046014577
252	0x3e06c67d	0.13161655
253	0x3db8a73b	0.09016272
254	0xbd9e7b19	-0.07738323
255	0xbdeb5e1e	-0.11492561

bias f4 [50]
0	0x3d92d3d7	0.071693115
1	0x3cd7dd4b	0.026350638
2	0xbd0ddf3f	-0.034636732
3	0x3da9f7c8	0.08299214
4	0x3dda4092	0.10656847
5	0x3d63fad6	0.055659138
6	0x3e093c8f	0.13402008
7	0x3db6a4ff	0.08918189
8	0x3da67d37	0.081293516
9	0xbcb120b1	-0.021622034
10	0x3df7567c	0.120770425
11	0x3ea0dfaa	0.31420642
12	0x3e35eec4	0.17766863
13	0x3da5fd3e	0.08104943
14	0xbdfbcae3	-0.12294557
15	0xbc0fbb6c	-0.008772712
16	0x3e0da1a6	0.13831195
17	0x3e2b47fe	0.16726682
18	0x3df00a63	0.11720731
19	0xbe104941	-0.14090444
20	0xbdcad4c4	-0.09903863
21	0x3ca783d1	0.020448597
22	0x3dff368c	0.12461576
23	0x3ccc811f	0.024963913
24	0x3e8efd8f	0.27927825
25	0x3e1080a2	0.1411157
26	0xbcfad675	-0.03061984
27	0x3d98524a	0.074375704
28	0x3e36d673	0.17855243
29	0x3e3e93a4	0.18611008
30	0x3e8bdac4	0.27315342
31	0x3d1ce26b	0.038301867
32	0x3e784a27	0.24247037
33	0xbe0d8a12	-0.13822201
34	0x3ddc23db	0.107490264
35	0x3de101b9	0.10986657
36	0xbb065641	-0.0020498189
37	0x3ba9900f	0.005174644
38	0xbcab29ed	-0.020894015
39	0x3d71a709	0.058997188
40	0x3e8ca50b	0.27469668
41	0x3e147620	0.14498186
42	0x3e898557	0.26859543
43	0x3ddfa37e	0.109198555
44	0x3e5bbb21	0.21458103
45	0x3e8053b0	0.25063848
46	0x3d9f2062	0.077698484
47	0x3e1fc8cf	0.15603946
48	0xbe13ed19	-0.14445914
49	0x3db0ea6e	0.08638464

weight f4 [20, 50]
0	0x3e7f41bf	0.24927424
1	0xbe7b2065	-0.24524076
2	0xbde3e8ff	-0.11128425
3	0x3e0bd77a	0.13656417
4	0x3b28d9d0	0.0025764592
5	0x3ec002c6	0.37502116
6	0x3e1bed67	0.1522728
7	0x3db35755	0.08756892
8	0x3de7ef85	0.113249816
9	0x3e9fa1a1	0.31178
10	0xbe9c1826	-0.30487174
11	0x3dd5c0ad	0.104371406
12	0x3e6003e6	0.21876487
13	0xbe5027d2	-0.2032769
14	0xbe22fbb1	-0.15916325
15	0x3db68be5	0.089134015
16	0x3e86c4a3	0.26321897
17	0x3ebbcb02	0.3667832
18	0x3e942dc0	0.28941154
19	0x3e0485f6	0.12941727
20	0x3e906b31	0.2820678
21	0x3b630493	0.0034640178
22	0x3e4e22af	0.20130418
23	0xbe5abbc7	-0.21360694
24	0x3e97e803	0.29669198
25	0xbd4241e7	-0.04742613
26	0xbd848204	-0.06470111
27	0xbe688ff8	-0.2271117
28	0xbe8dce59	-0.27696493
29	0xbdec7661	-0.115460165
30	0xbc1b34e8	-0.009473063
31	0xbcd5cd1a	-0.026098777
32	0x3f1fbb1c	0.6239488
33	0xbd1bfd7c	-0.03808354
34	0x3ddb88ad	0.10719428
35	0x3dd9e944	0.10640195
36	0xbca8d237	-0.02060805
37	0x3d86dceb	0.065851055
38	0x3e259d17	0.16173206
39	0xbe3c6364	-0.1839729
40	0x3e429aeb	0.19004409
41	0xbd136910	-0.035988867
42	0xbdd82373	-0.105536364
43	0xbe701019	-0.23443641
44	0x3c5056d5	0.012716015
45	0xbe0cb467	-0.13740693
46	0xbea2d5f8	-0.3180387
47	0x3e060a4c	0.13089865
48	0xbcbcf9bc	-0.023068301
49	0xbc2c6e1c	-0.010524299
50	0xbe1bb46b	-0.15205543
51	0x3d395de3	0.045255553
52	0xbd45845e	-0.04822194
53	0xbc9980a0	-0.018738091
54	0xbe3ca81a	-0.184235
55	0xbdf7823e	-0.120853886
56	0x3e574a8a	0.21024528
57	0xbdc84de4	-0.097804815
58	0x3e87ae70	0.26500273
59	0xbe0992ee	-0.13434955
60	0x3e1452fd	0.14484783
61	0x3c9c47f8	0.019077286
62	0x3e768497	0.24074017
63	0xbd75ec4f	-0.060039815
64	0x3e1888bd	0.14895912
65	0x3d1d5cb0	0.03841847
66	0x3e28054c	0.1640827
67	0xbe478dfa	-0.19487754
68	0x3da9dfb2	0.082946196
69	0x3bf5a576	0.007496531
70	0xbdb5019c	-0.088381976
71	0x3d978c14	0.07399765
72	0x3c38b2f2	0.011273133
73	0xbc4c0b58	-0.012453876
74	0xbe18bfcd	-0.14916916
75	0x3e6b26df	0.22964047
76	0x3dea2fef	0.11434924
77	0x3e881cbf	0.26584432
78	0xbda7a6a7	-0.08186083
79	0xbd554370	-0.052066267
80	0x3e0fb72c	0.14034718
81	0xbb9f0cc4	-0.0048538167
82	0x3eb1d61c	0.34733665
83	0x3b9b1823	0.004733102
84	0xbe2ba198	-0.16760862
85	0x3e9d9151	0.3077493
86	0x3d81ef38	0.063444555
87	0x3a983e5a	0.0011615262
88	0x3dc071d4	0.09396711
89	0xbd3a082d	-0.045417953
90	0x3e63c1e3	0.2224193
91	0xbe70bb7b	-0.23509018
92	0x3d48d086	0.04902699
93	0x3ded9a07	0.11601644
94	0x3d1337dc	0.035941944
95	0x3dddefd0	0.10836756
96	0x3e2d8b4d	0.1694767
97	0x3e47b90c	0.19504184
98	0xbcbbbb97	-0.022916598
99	0xbcd09b46	-0.025464665
100	0x3cda2376	0.026628237
101	0x3e2316d7	0.15926681
102	0xbd122730	-0.035681903
103	0xbdec96f7	-0.11552232
104	0xbe1e0ba4	-0.15434128
105	0xbc157190	-0.009121314
106	0xbdf6cd4f	-0.12050878
107	0x3e11d9b4	0.14243203
108	0x3e62c967	0.22147141
109	0x3de9e4be	0.11420582
110	0x3d63607f	0.055511948
111	0x3eb454ec	0.3522104
112	0x3dd31df7	0.1030845
113	0x3e6360bb	0.22204868
114	0xbd484695	-0.048895437
115	0xbe008299	-0.12549819
116	0x3d9d8807	0.07691961
117	0x3ee58717	0.44829628
118	0xbda01705	-0.078168906
119	0xbd84fe58	-0.06493825
120	0xbdb00615	-0.0859491
121	0x3d5301eb	0.0515155
122	0xbe2bdc83	-0.16783337
123	0x3d86745d	0.06565163
124	0xbe671f74	-0.22570592
125	0x3e4609d5	0.19339688
126	0xbd9fd786	-0.0780478
127	0x3ec5899c	0.3858155
128	0x3d54cdcb	0.051954072
129	0x3c4fdbb1	0.012686656
130	0xbd92b7f0	-0.071639895
131	0x3cbc46dc	0.022983007
132	0xbe496ade	-0.19669673
133	0xbd57547c	-0.052570805
134	0x3e8eade7	0.27867052
135	0xbcaa309b	-0.02077513
136	0xbdd296b7	-0.10282653
137	0x3d8f6596	0.07001798
138	0x3e8f76db	0.28020367
139	0xbcce81c0	-0.025208354
140	0xbc93fbee	-0.018064465
141	0xbcea73f9	-0.028619753
142	0xbdbbf56e	-0.091776714
143	0x3d12d477	0.035847154
144	0xbbfc1685	-0.007693114
145	0x3e4bd81c	0.19906658
146	0xbdbcedce	-0.09225045
147	0x3dbadcfd	0.091241814
148	0x3e592b93	0.21208028
149	0x3e7a3641	0.24434759
150	0x3c0b8870	0.008516416
151	0x3de8d64c	0.11368999
152	0xbdb76830	-0.08955419
153	0xbdde1869	-0.108444996
154	0x39ee436e	0.00045445136
155	0xbdbd1f54	-0.09234491
156	0xbda09203	-0.078403495
157	0xbd9d08f0	-0.0766772
158	0xbd8b0259	-0.06787557
159	0x3d8d2fab	0.068938576
160	0x3d54e96d	0.051980425
161	0x3db1b67a	0.08677383
162	0xbd4fd49a	-0.050739862
163	0x3bc9ba93	0.0061562746
164	0xbd9a47ae	-0.07533203
165	0xbd60e92d	-0.054909874
166	0x3c7dfef1	0.015502677
167	0x3af6bb18	0.0018824069
168	0xbd37c685	-0.044867057
169	0x3d972933	0.07380905
170	0x3dc25d92	0.09490503
171	0xbca27f22	-0.019836012
172	0x3cb300fa	0.021851052
173	0xbdc16a65	-0.09444121
174	0xbc71e175	-0.014763226
175	0xbd823840	-0.06358385
176	0xbdd4e6f2	-0.10395612
177	0xbd88708d	-0.06662092
178	0xbe0aa889	-0.13540854
179	0xbd8df08e	-0.06930648
180	0xbd04e33b	-0.032443266
181	0xbd1b9316	-0.03798207
182	0xbdbfd630	-0.09367025
183	0x3d9e427d	0.077275254
184	0xbdd5b5de	-0.10435079
185	0x3da0419c	0.07825014
186	0xbd02b8fc	-0.031914696
187	0xbd8c396b	-0.06846889
188	0x3d1961a4	0.037446633
189	0xbc15624a	-0.009117672
190	0xbe082a83	-0.13297467
191	0xbd9e6c39	-0.077354856
192	0xbd24735c	-0.040149078
193	0x3ddcabcd	0.10774956
194	0x3befbb37	0.007316019
195	0x3dbe3588	0.09287554
196	0x3d883fa5	0.06652764
197	0xbdf43b53	-0.11925378
198	0xbc5a8919	-0.013338351
199	0xbdddb08d	-0.1082469
200	0x3e299407	0.16560374
201	0x3d0b46fb	0.03400324
202	0xbde26bed	-0.110557415
203	0xbd6f6c10	-0.058452666
204	0x3c2e8482	0.0106517095
205	0x3dee6ea1	0.116421945
206	0xbe2cf6e1	-0.16891052
207	0xbe56c987	-0.20975314
208	0x3defd57e	0.11710642
209	0x3dedba98	0.116078556
210	0x3ecbe367	0.39821932
211	0xbd867ea2	-0.06567122
212	0x3dc0eaf5	0.094198145
213	0xbddaa2e6	-0.10675602
214	0x3d5267a2	0.051368363
215	0x3e4c8836	0.19973835
216	0xbd9e7721	-0.07737566
217	0xbe088567	-0.13332139
218	0xbd9f6662	-0.077832
219	0xbdb9b02b	-0.090668045
220	0x3d1b84ab	0.03796832
221	0xbd217809	-0.039421115
222	0x3eaa8270	0.3330264
223	0x3e4fe6e5	0.20302923
224	0xbe20bea9	-0.15697731
225	0x3e84ded7	0.25951263
226	0xbbb4e50e	-0.0055204695
227	0xbe7d5b27	-0.24741803
228	0x3d1f77cc	0.038932607
229	0x3e0f240c	0.13978595
230	0x3d2d5d31	0.042325202
231	0xbb0e2735	-0.002169085
232	0x3e672902	0.22574237
233	0x3dbc3931	0.09190596
234	0xbe3d3a70	-0.18479323
235	0xbe343e62	-0.17601922
236	0xbc211ec1	-0.009833992
237	0xbd1d5a68	-0.038416296
238	0xbdaf9d78	-0.08574957
239	0xbe1e29e8	-0.15445673
240	0xbbfe3bc3	-0.007758589
241	0x3e054507	0.13014613
242	0x3e0766ae	0.13222763
243	0x3e456716	0.19277605
244	0xbe0f1a38	-0.13974845
245	0x3df06f66	0.117399976
246	0x3ea9b146	0.3314306
247	0x3e6eec00	0.23332214
248	0x3dd15db9	0.10222954
249	0x3da94a1d	0.08266089
250	0x3ec5da72	0.38643223
251	0x3e6bb079	0.23016538
252	0x3d0bf4b9	0.034168933
253	0x3dc2df3d	0.095152356
254	0x3d9002f9	0.07031817
255	0x3bee585c	0.007273717

bias f4 [20]
0	0x3e94afed	0.2904047
1	0x3e53cdc6	0.20683965
2	0x3db8a5fb	0.09016033
3	0xbdff7518	-0.12473506
4	0x3c29a637	0.01035457
5	0x3deb5c69	0.11492235
6	0xbcf31c73	-0.029676652
7	0x3e616ad9	0.22013415
8	0x3e33d6a9	0.17562355
9	0x3d16f031	0.036850158
10	0x3e2be4d5	0.16786511
11	0x3c1bba5b	0.00950488
12	0xbddc8d52	-0.10769142
13	0x3e292371	0.16517426
14	0xbdf42003	-0.11920168
15	0xbd7b7183	-0.06138755
16	0xbd85301c	-0.06503317
17	0xbd4747c5	-0.04865243
18	0x3e613e9d	0.21996541
19	0x3ebea441	0.3723469

weight f4 [10, 20]
0	0x3d5017ac	0.050803825
1	0xbf019a93	-0.50626487
2	0x3f42d410	0.7610483
3	0x3dd8b04a	0.105804995
4	0xbe6410b8	-0.22272003
5	0xbf1b64f8	-0.6070094
6	0xbde744de	-0.11292432
7	0xbddf7055	-0.109100975
8	0x3f141c28	0.57855463
9	0xbef304e4	-0.4746467
10	0xbdc708b5	-0.097184576
11	0xbe8fa460	-0.28055096
12	0xbdb31cab	-0.08745702
13	0x3e540ef5	0.2070883
14	0xbe606981	-0.21915247
15	0x3e4f587c	0.20248598
16	0x3eb21ebd	0.34789076
17	0x3e153289	0.14570059
18	0xbf1bb457	-0.6082205
19	0xbd09a66e	-0.033605985
20	0xbec779f9	-0.38960245
21	0x3e80aedd	0.2513341
22	0xbedf31a7	-0.4359257
23	0xbd97739a	-0.07395096
24	0x3e54b176	0.20770821
25	0xbed4f45f	-0.4159269
26	0xbdf2d4a8	-0.11856967
27	0x3ecb6ed9	0.39733008
28	0xbe4734fe	-0.19453809
29	0x3eaa4132	0.33252865
30	0x3f116e79	0.5680919
31	0x3eafbc4d	0.3432335
32	0xbe2001bd	-0.15625663
33	0xbe7ffd2d	-0.24998923
34	0x3d7899b0	0.060693443
35	0xbf315f92	-0.69286454
36	0xbec7471d	-0.38921443
37	0x3e9d4f1d	0.3072442
38	0x3e44c5a3	0.19216017
39	0x3ecfc5a7	0.40580484
40	0x3da45f53	0.08025994
41	0x3f0574f5	0.5213159
42	0x3ebf4b16	0.37361974
43	0xbdbec206	-0.09314351
44	0x3ea2e122	0.31812388
45	0x3e47b65a	0.19503155
46	0x3e4d75f6	0.2006453
47	0x3eb511bc	0.35365093
48	0x3ecb28ad	0.3967947
49	0xbd7c26ac	-0.061560318
50	0xbd1725cf	-0.03690129
51	0x3e2bd5d8	0.16780794
52	0xbe2e1047	-0.16998397
53	0xbe5b7fa6	-0.21435413
54	0xbe2975a3	-0.16548781
55	0x3dc71185	0.097201385
56	0xbef33829	-0.47503784
57	0x3dfc700a	0.12326057
58	0xbf233129	-0.6374689
59	0xbf2bc980	-0.6710434
60	0x3f121eef	0.5707845
61	0xbdb5a43d	-0.088692166
62	0xbe41771f	-0.18893097
63	0x3e3eac5e	0.1862044
64	0x3ea3857c	0.31937778
65	0xbee95b1f	-0.45577332
66	0x3b8e9335	0.0043510445
67	0xbdccf126	-0.10006933
68	0x3f00643a	0.50152934
69	0xbe2bc5aa	-0.16774622
70	0x3c060bbc	0.008181509
71	0x3f23dc18	0.6400771
72	0xbdacfc6b	-0.084465824
73	0xbeb119ce	-0.3459
74	0xbdbecd16	-0.09316461
75	0x3ea8ca65	0.32966915
76	0xbee98720	-0.45610905
77	0xbe8ed2b5	-0.27895132
78	0x3eb683ad	0.35647336
79	0xbda4b498	-0.08042258
80	0xbee20b2e	-0.44149154
81	0x3c751f3f	0.014961063
82	0xbd5e7441	-0.054310087
83	0x3df40940	0.11915827
84	0xbdd38c4b	-0.10329493
85	0x3c8de01d	0.01731878
86	0x3e3527bc	0.17690939
87	0x3ec74e6d	0.38927022
88	0xbedd8289	-0.43263653
89	0x3f251bda	0.64495623
90	0xbe6d8f59	-0.23199214
91	0xbed765f9	-0.42069986
92	0xbe64a7ed	-0.22329684
93	0x3ea1ebcf	0.3162522
94	0x3c767cd8	0.0150444135
95	0x3f136e77	0.5759043
96	0xbdd3b57a	-0.10337348
97	0x3e01914b	0.12653081
98	0xbcb39922	-0.021923605
99	0xbe3a11fe	-0.18170926
100	0x3f5183b3	0.8184158
101	0x3daef425	0.085426606
102	0xbcca97b3	-0.024730539
103	0x3e3506a1	0.1767831
104	0xbeeef0ae	-0.46668
105	0xbef25903	-0.47333536
106	0xbe8c21a1	-0.27369407
107	0x3e6ff334	0.23432618
108	0x3e307642	0.17232612
109	0xbe6149a7	-0.22000752
110	0xbb43d8cc	-0.002988386
111	0xbe6750b4	-0.2258938
112	0x3d8a8876	0.06764309
113	0xbe4a32bb	-0.19745915
114	0x3e0dc50c	0.13844699
115	0xbe604323	-0.2190061
116	0x3ecf8c42	0.40536696
117	0xbe548725	-0.20754679
118	0x3eb4845d	0.35257235
119	0x3e9f3bba	0.31100255
120	0xbe58a474	-0.21156484
121	0x3d909bb0	0.07060945
122	0xbda352e3	-0.07974794
123	0xbe132cbf	-0.14372538
124	0xbee7fbd1	-0.45309308
125	0xbe3f2e75	-0.18670066
126	0xbe4f981c	-0.20272869
127	0x3f75c7a0	0.9600773
128	0x3d739406	0.059467338
129	0x3f1e966c	0.61948276
130	0xbe91bae1	-0.2846289
131	0xbeb598bd	-0.35468093
132	0x3d9d3ffc	0.0767822
133	0xbec8ddab	-0.3923162
134	0x3e074381	0.13209344
135	0xbead5960	-0.3385725
136	0x3f015f96	0.5053648
137	0xbde74d60	-0.11294055
138	0xbee7a347	-0.45241758
139	0xbf0da186	-0.5532459
140	0xbf31e1ef	-0.6948537
141	0xbe907cef	-0.28220317
142	0x3db1fd1e	0.086908564
143	0xbcc45b25	-0.023969242
144	0x3ee7da3d	0.4528369
145	0xbe069427	-0.13142453
146	0x3df1926e	0.11795507
147	0xbec9e508	-0.3943255
148	0xbeb756a4	-0.3580829
149	0xbe63bcd3	-0.2224
150	0x3ea4e9f8	0.32209754
151	0x3eb7d63d	0.35905638
152	0x3db1f2fe	0.08688925
153	0x3f213593	0.6297237
154	0x3e9068d4	0.28204978
155	0x3de74064	0.112915784
156	0xbe9b9847	-0.30389616
157	0xbda6bfc0	-0.08142042
158	0x3dccdd0a	0.10003097
159	0x3eede1c8	0.4646132
160	0x3e2a0762	0.16604379
161	0xbd2cab72	-0.04215569
162	0xbe34d3b7	-0.17658888
163	0xbdf99a71	-0.121876605
164	0x3eac874e	0.3369698
165	0x3f36de10	0.7143259
166	0xbe848408	-0.25881982
167	0xbed5fbd8	-0.41793704
168	0x3ed2de5d	0.41185275
169	0x3e063c19	0.13108863
170	0xbe904bfc	-0.2818297
171	0xbbb9a3e9	-0.0056652916
172	0x3e1f2f5e	0.15545413
173	0xbee76c5b	-0.45199856
174	0xbc19881b	-0.009370829
175	0xbed09f9f	-0.4074678
176	0x3f08f30e	0.5349587
177	0xbdbbdcfa	-0.09173007
178	0x3e3c762d	0.18404455
179	0xbefa2cbb	-0.48862252
180	0xbeb990c0	-0.36243248
181	0x3ed7c4a0	0.421422
182	0x3e78e042	0.24304298
183	0xbdf14197	-0.117800884
184	0x3e2f0e89	0.17095388
185	0x3ed32fbc	0.41247356
186	0x3e5079db	0.20358984
187	0xbf2396be	-0.6390189
188	0xbf148ac8	-0.58024263
189	0xbe5347a7	-0.20632802
190	0xbe2cd59a	-0.16878358
191	0xbf0ec6b0	-0.55771923
192	0xbda0054c	-0.0781351
193	0xbe08a47b	-0.13343994
194	0xbde48fe5	-0.11160258
195	0x3f03a0eb	0.51417416
196	0x3d961be0	0.073295355
197	0xbe624dff	-0.22100066
198	0x3db2e57d	0.08735178
199	0x3eb46a04	0.35237134

bias f4 [10]
0	0xbd5ceeb5	-0.053938586
1	0x3e15cff5	0.1463011
2	0x3dc3610e	0.09539996
3	0xbe245bea	-0.16050687
4	0xbd29d059	-0.04145846
5	0x3e38fe7a	0.18065825
6	0x3d37a542	0.044835337
7	0x3d68f9a4	0.0568787
8	0x3d73fbc5	0.059566278
9	0x3da8f846	0.082504794
