datasets/mnist/partition_noniid-#label_major_classes_num_1_clients_10_dir_alpha_None_augement_data_percent_per_class_0.01_seed_42/models/batch_size_256_com_round_25_epochs_5_lr_0.1_sample_ratio_0.9_personalization_steps_25/client_8.pt (torch, 175631 bytes, 8 tensors)

weight f4 [50, 784]
-0.0002673864 0.0191587 -0.029394465 -0.026283538 -0.013755515 0.009577049 -0.0007076137 0.028317487
-0.0031694302 0.009450449 -0.0107933255 -0.007020192 -0.034117516 -0.02364839 -0.014722252 0.0013229848
0.014119115 0.021429386 -0.024212183 -0.015552245 0.012972042 0.029656714 -0.0073500066 0.026725428
-0.0057565486 0.003779075 0.032338437 -0.033131085 -0.0224835 -0.009041617 -0.013921428 0.030857172
-0.023149224 -0.016440272 -0.02494642 -0.033436373 -0.02084139 0.030717686 0.0161381 0.017797865
0.0026423049 -0.017880972 0.0062050186 -0.033416674 -0.02665299 -0.018678866 0.022577146 0.021015598
-0.015755633 -0.0012695657 0.022849733 0.03550688 0.014174367 0.004824745 0.02394594 -0.021028655
0.0066551436 -0.027689483 -0.024753034 -0.018448878 0.016161539 0.014364061 -0.021151261 0.010854517
0.019998401 -0.003354577 0.0029766043 0.011186384 0.02624617 0.038676668 -0.02526326 -0.007748239
0.021563187 0.035532843 0.03580639 0.034232385 0.008527519 -0.03034367 0.0037852665 -0.022110224
-0.033226065 0.0317272 0.027155707 -0.035626 0.006684718 -0.006016429 -0.0058769807 -0.016352672
0.01359072 -0.020867947 0.013290685 0.01780037 0.026364991 0.017943125 -0.029617777 -0.019593678
0.01894271 0.008292754 -0.03599326 -0.024917845 0.03622614 0.017887468 -0.025792615 -0.018383784
-0.041533522 -0.0017631304 -0.026767824 -0.02715686 -0.0019051558 0.0052231364 -0.014631041 0.02119206
-0.02173354 0.03240601 0.024475668 -0.030141352 -0.008827159 0.0018457356 0.005400424 0.0070430026
0.014964503 0.0027638418 -0.017857369 0.021291766 -0.02394025 -0.008771775 0.0045691673 -0.0025678368
-0.0012692413 -0.028275935 -0.009788834 0.00968155 -0.014330268 0.0037455917 0.027450327 -0.0053416146
-0.00082086347 -0.0045285053 0.006537276 0.022724673 0.03383022 0.02268057 0.034081537 -0.0027671128
-0.032091897 -0.017913036 0.02186683 -0.0059771813 -0.025296625 -0.033944923 -0.04185676 -0.02965372
0.0077731367 0.0318338 0.03390854 -0.007950457 0.043314222 -0.008302641 0.0034141568 -0.0036726769
0.002976654 0.007291573 -0.026215663 -0.031239089 -0.008708982 -0.0013446301 -0.016249 0.013590028
-0.032144945 -0.0024105608 0.031210382 -0.014959627 0.031258006 0.0077356533 -0.04177377 0.012044256
-0.01543427 -0.031291466 0.012608526 -0.033767514 0.0015884386 -0.013668756 0.026664464 0.010689458
0.022143546 0.0078057195 -0.018099364 -0.013517114 -0.02730117 0.025485514 0.030569982 0.021984056
-0.03474965 -0.00614529 -0.026893858 -0.019454125 -0.020810362 0.01216617 -0.0212428 -0.0013972834
-0.0005012533 0.01793608 -0.035007793 -0.030474616 -0.03460365 0.0022453505 -0.032974668 0.010051054
-0.0046016662 -0.011685276 -0.024725828 -0.030839378 -0.010572071 -0.017749583 -0.006808494 0.001250956
-0.02718367 -0.008910908 0.03549317 -0.031374294 -0.015031429 0.023426643 0.010216128 0.0010542137
-0.031093795 0.017704882 -0.024685232 -0.010107246 -0.013454085 -0.006558922 0.002967255 0.029548692
-0.008316352 0.01145768 0.0012691055 -0.034038644 0.007029002 -0.03238428 -0.025862437 -0.010037516
-0.004919805 0.014848918 -0.014378398 -0.0018778824 0.01729044 -0.02959429 0.029494565 -0.038557906
-0.012133973 -0.019498141 -0.02270466 0.004784917 0.029532779 -0.010475425 -0.02128275 -0.013966771
00000000: ff2f 8cb9 b5f2 9c3c a9cc f0bc 9350 d7bc
00000010: d05e 61bc 0ee9 1c3c 277f 39ba 13fa e73c
00000020: 37b6 4fbb 0ed6 1a3c 7dd6 30bc a409 e6bb
00000030: cfbe 0bbd 45ba c1bc 9a35 71bc 0168 ad3a
00000040: dc53 673c ae8c af3c a158 c6bc d8ce 7ebc
00000050: b088 543c a3f2 f23c 53d8 f0bb 49ef da3c
00000060: 6ea1 bcbb 5caa 773b 4f75 043d 76b4 07bd
00000070: 512f b8bc 4a23 14bc b316 64bc 2ec8 fc3c
00000080: 71a3 bdbc c0ad 86bc 6f5c ccbc 94f4 08bd
00000090: 90bb aabc a8a3 fb3c 0c34 843c d4cc 913c
000000a0: 852a 2d3b 1e7b 92bc 7853 cb3b ecdf 08bd
000000b0: 5f57 dabc 6c04 99bc b5f3 b83c e728 ac3c
000000c0: f511 81bc 8e67 a6ba 5d2f bb3c aa6f 113d
000000d0: 9b3b 683c e518 9e3b 472a c43c 4944 acbc
000000e0: 6413 da3b 0ed5 e2bc e0c6 cabc 1a22 97bc
000000f0: 3465 843c 3d57 6b3c 6945 adbc 25d7 313c
00000100: b0d3 a33c 77d8 5bbb 2213 433b 1847 373c
00000110: 3502 d73c 6d6b 1e3d e5f4 cebc f1e4 fdbb
00000120: 48a5 b03c e38a 113d b9a9 123d 4237 0c3d
00000130: 02b7 0b3c 4a93 f8bc 3c12 783b 8020 b5bc
00000140: 0e18 08bd 61f4 013d a575 de3c 92ec 11bd
00000150: 7b0b db3b 7725 c5bb b093 c0bb 0af6 85bc
00000160: 9cab 5e3c 42f3 aabc 2cc1 593c 15d2 913c
00000170: 65fb d73c 76fd 923c fba0 f2bc ec82 a0bc
00000180: be2d 9b3c 55de 073c ab6d 13bd 8220 ccbc
00000190: dc61 143d bd88 923c 094b d3bc 9799 96bc
000001a0: 0e1f 2abd d718 e7ba 3248 dbbc 1078 debc
000001b0: 6cb6 f9ba d826 ab3b 09b7 6fbc f99a ad3c
000001c0: 890a b2bc 2abc 043d 3281 c83c ffea f6bc
000001d0: ca9f 10bc 9cec f13a 0af6 b03b fdc8 e63b
000001e0: ad2d 753c 9221 353b 9e49 92bc 126c ae3c
000001f0: 581e c4bc 7eb7 0fbc f4b8 953b 2749 28bb
00000200: ac5c a6ba efa2 e7bc 5861 20bc 5d9f 1e3c
00000210: 80c9 6abc 9a78 753b 82df e03c b608 afbb
00000220: 372f 57ba db63 94bb a536 d63b 1829 ba3c
00000230: 8f91 0a3d 9acc b93c 1599 0b3d 7358 35bb
00000240: cb72 03bd 5cbe 92bc 1122 b33c 3bdc c3bb
00000250: de3a cfbc d509 0bbd fe71 2bbd 5cec f2bc
00000260: ccb5 fe3b 2964 023d aee3 0a3d a242 02bc
00000270: 416a 313d cd07 08bc 0cc0 5f3b 4bb1 70bb
00000280: f813 433b 26ee ee3b 3bc2 d6bc 1ee9 ffbc
00000290: 1eb0 0ebc 4d3e b0ba 9f1c 85bc b5a8 5e3c
000002a0: 6baa 03bd 80fa 1dbb eaac ff3c 3919 75bc
000002b0: 6508 003d 5d7b fd3b f91a 2bbd 4555 453c
000002c0: 05e0 7cbc 7b2b 00bd fe93 4e3c ce4f 0abd
000002d0: 2833 d03a ebf2 5fbc 6f6f da3c d622 2f3c
000002e0: 6266 b53c 1fc7 ff3b 1e45 94bc e376 5dbc
000002f0: b4a6 dfbc ffc6 d03c e66d fa3c e817 b43c
00000300: a655 0ebd 6e5e c9bb 8250 dcbc 425e 9fbc
00000310: 7e7a aabc 9e54 473c 6105 aebc 0d25 b7ba
00000320: 8a66 03ba b0ee 923c 5564 0fbd e7a5 f9bc
00000330: 8fbc 0dbd bb26 133b 7210 07bd 2dad 243c
00000340: 93c9 96bb 9a73 3fbc d28d cabc dda2 fcbc
00000350: 7b36 2dbc 9367 91bc ca19 dfbb 1ef7 a33a
00000360: 4ab0 debc 0fff 11bc 4961 113d 5582 00bd
00000370: 6246 76bc 3be9 bf3c 8c61 273c 8b2d 8a3a
00000380: 6ab8 febc d409 913c af38 cabc dd98 25bc
00000390: 866e 5cbc 3aec d6bb 4776 423b 1910 f23c
000003a0: 4f41 08bc feb8 3b3c 1d58 a63a 1b6c 0bbd
000003b0: 8b53 e63b 61a5 04bd 76dd d3bc 6574 24bc
000003c0: 5136 a1bb e048 733c 5f93 6bbc 4723 f6ba
000003d0: aea4 8d3c b96f f2bc 969e f13c e5ee 1dbd
000003e0: 92cd 46bc 91ba 9fbc 20ff b9bc cbca 9c3b
000003f0: baee f13c 1ea1 2bbc 2959 aebc e2d4 64bc

bias f4 [50]
-0.08253439 -0.02525154 0.23394823 0.11756892 0.11532388 0.031361766 0.29228163 -0.040532473
-0.06033971 0.17164998 -0.0042243786 0.00010519255 0.08792083 0.10966597 0.11502294 0.06215706
-0.060842518 0.058411162 0.24195004 -0.0038927847 0.08617845 -0.06971489 0.09006795 0.08762842
0.019967781 0.14672351 0.08256731 0.12046675 0.15668306 0.12324095 0.0057932776 0.17068622
0.09888758 0.22008987 0.15689397 -0.094204225 0.006253137 0.11451928 0.07711658 0.18056847
0.012440614 0.13989247 0.15162344 0.030141328 -0.12351976 0.0012992644 -0.024504729 -0.049363405
0.09375337 0.08595399
00000000: ca07 a9bd 51dc cebc 2090 6f3e f9c7 f03d
00000010: ed2e ec3d 3275 003d f0a5 953e 6105 26bd
00000020: c626 77bd 03c5 2f3e a86c 8abb d29a dc38
00000030: d60f b43d 8d98 e03d 2691 eb3d 6798 7e3d
00000040: 0136 79bd 8b40 6f3d c0c1 773e 171e 7fbb
00000050: 547e b03d aec6 8ebd 8c75 b83d 8776 b33d
00000060: 7993 a33c b03e 163e 0d19 a93d 45b7 f63d
00000070: 8671 203e c065 fc3d 89d5 bd3b 5ec8 2e3e
00000080: 9285 ca3d 3d5f 613e d0a8 203e 25ee c0bd
00000090: 1de7 cc3b 1689 ea3d 4cef 9d3d f1e6 383e
000000a0: b8d3 4b3c f93f 0f3e 2d43 1b3e f2ea f63c
000000b0: eef7 fcbd 144c aa3a 24be c8bc 4831 4abd
000000c0: c401 c03d a508 b03d

weight f4 [50, 50]
-0.018745683 -0.1049963 0.029412484 0.052396554 -0.13147108 -0.26291162 0.11321491 -0.17817017
0.15685955 0.21897385 0.022230912 -0.011604547 0.053959507 0.11315353 0.11807964 0.04174929
0.06473236 0.09764029 0.19255109 0.10291821 -0.17590457 0.14507483 -0.13069032 -0.13434613
0.044280082 0.042063877 0.020295925 0.2754153 -0.10316342 -0.16685955 -0.061505422 0.18345925
0.022535004 0.008732787 -0.004739782 -0.05236302 0.042144727 0.103153646 0.10989922 0.30719906
0.061826058 -0.11332901 0.001584999 0.22967894 0.1687491 0.03350221 0.12770055 -0.09918565
-0.059124526 -0.05372153 -0.093197815 0.08688217 -0.19389337 0.08613391 -0.19687545 0.060293354
-0.14739996 0.18179074 0.14958489 0.09500656 0.12371126 -0.033181954 0.05012083 0.1768832
0.020280585 0.23250733 -0.08726517 0.25466523 0.06771365 0.07163482 -0.03787917 0.0541679
0.17343564 -0.02388721 0.06588451 -0.06915478 0.00046364113 0.18268918 -0.10874576 -0.030878425
-0.078809544 -0.07822319 0.097304635 -0.05627663 -0.0054010637 -0.06869584 -0.03667653 0.086096555
0.0022096247 0.12737212 -0.13915896 0.044152908 0.1804531 0.122715965 -0.18097895 0.11346469
0.103745386 -0.051387176 -0.11220415 -0.06273355 0.04935383 -0.09989985 -0.14141148 -0.041239075
0.010970839 0.035599526 -0.022542244 0.030477867 -0.122701645 -0.04257393 0.015895177 0.13732964
-0.1397146 0.09987467 -0.11148727 -0.112004496 0.058478795 -0.075661846 -0.082374714 0.13938196
-0.11606523 0.14244245 -0.109933816 -0.029729981 -0.004433419 -0.093998924 0.09461225 0.12950698
-0.048759285 0.072546475 0.088990614 -0.13703194 0.052190427 0.0023303027 -0.031994674 -0.029253766
-0.09186246 -0.025289875 -0.13180324 -0.09708693 0.0014682178 0.021474324 0.11314485 -0.09041342
-0.09809065 0.12400418 -0.066277884 0.1318231 -0.008343809 0.12205846 -0.110882364 0.10843357
0.1933604 -0.09285953 0.008788522 -0.03553062 0.061761376 -0.052091707 -0.050684106 0.013812529
0.024053402 0.14274289 -0.1423917 -0.036727257 -0.10346181 0.07062366 0.11256961 0.03310302
-0.06788794 -0.0048501203 -0.07335709 -0.11109179 0.031039732 0.006408761 0.18202595 0.06426649
-0.090336695 -0.005659523 -0.062536046 -0.032246627 0.058691993 0.14477095 0.05547973 -0.10538842
0.14417732 -0.15219627 0.12960596 -0.10437692 -0.071181975 -0.0049796957 -0.046247046 0.1275713
0.08831249 0.09198006 -0.104663916 0.0959139 -0.011867387 -0.11001171 0.018208483 -0.105826825
0.057944518 0.080499746 0.03601825 0.10592857 0.06351603 0.14406164 0.07689053 0.066788994
-0.08292423 0.19650748 0.09096442 0.02627249 0.118917346 0.029217914 -0.13656056 -0.21306911
-0.0111526055 0.14280234 0.16094242 -0.053659208 -0.13770254 -0.15347032 0.049320184 0.031044202
-0.12254506 0.07233788 0.09209299 -0.08912674 0.11908178 -0.17854084 0.13030523 -0.10559874
0.15509823 -0.12399002 -0.036144987 -0.104691796 -0.027910383 0.17110099 -0.024607116 -0.09843668
0.15285507 0.12803513 0.021338388 -0.1501005 -0.026948186 0.04479291 -0.0716694 -0.05368351
-0.025842456 -0.0843659 -0.14005488 0.045868937 0.1295785 0.08907416 -0.07787078 -0.11662497
00000000: 8c90 99bc 4d08 d7bd 73f2 f03c c59d 563d
00000010: 5ba0 06be 5a9c 86be 38dd e73d 3e72 36be
00000020: ca9f 203e ae3a 603e 9a1d b63c ff20 3ebc
00000030: a504 5d3d 0abd e73d bdd3 f13d 4e01 2b3d
00000040: 6692 843d a2f7 c73d 1d2c 453e c8c6 d23d
00000050: 5420 34be 7f8e 143e afd3 05be 0892 09be
00000060: 085f 353d 2c4b 2c3d a443 a63c 3c03 8d3e
00000070: 5847 d3bd 3bdd 2abe 1ced 7bbd bedc 3b3e
00000080: 549b b83c f713 0f3c 2c50 9bbb 9b7a 56bd
00000090: f39f 2c3d 3842 d33d d812 e13d 3249 9d3e
000000a0: 523d 7d3d 0a19 e8bd bebf cf3a f530 6b3e
000000b0: 90cc 2c3e 9d39 093d efc3 023e d921 cbbd
000000c0: 8f2c 72bd 1b0b 5cbd 7fde bebd 47ef b13d
000000d0: fc8b 46be fa66 b03d b899 49be 2af6 763d
000000e0: 04f0 16be 5a27 3a3e c82c 193e cd92 c23d
000000f0: 545c fd3d cde9 07bd 804b 4d3d df20 353e
00000100: 7823 a63c 6716 6e3e 15b8 b2bd 7b63 823e
00000110: 74ad 8a3d 47b5 923d 3027 1bbd 29df 5d3d
00000120: 1d99 313e 1caf c3bc 75ee 863d 05a1 8dbd
00000130: dc14 f339 df12 3b3e 19b6 debd c0f4 fcbc
00000140: e666 a1bd 7b33 a0bd a747 c73d 5382 66bd
00000150: 68fb b0bb 68b0 8cbd 213a 16bd 6453 b03d
00000160: 5acf 103b d66d 023e b07f 0ebe aed9 343d
00000170: b3c8 383e 8252 fb3d 8c52 39be 2d60 e83d
00000180: 7678 d43d 5c7b 52bd 4acb e5bd 737a 80bd
00000190: 3e27 4a3d 4b98 ccbd 2cce 10be 4eea 28bd
000001a0: 09bf 333c cfd0 113d 83aa b8bc b8ac f93c
000001b0: 004b fbbd 0062 2ebd 9a36 823c 24a0 0c3e
000001c0: 5811 0fbe 178b cc3d 7053 e4bd 9d62 e5bd
000001d0: 7687 6f3d 99f4 9abd 13b4 a8bd 25ba 0e3e
000001e0: 9bb3 edbd 6fdc 113e fb24 e1bd 4a8c f3bc
000001f0: 3746 91bb 8282 c0bd 11c4 c13d 7a9d 043e
00000200: d1b7 47bd 3f93 943d b640 b63d 1a52 0cbe
00000210: a1c5 553d feb7 183b d90c 03bd 98a5 efbc
00000220: 6322 bcbd b62c cfbc 6ef7 06be 83d5 c6bd
00000230: 3771 c03a ecea af3c 7db8 e73d ac2a b9bd
00000240: c0e3 c8bd e7f5 fd3d b3bc 87bd a2fc 063e
00000250: 79b4 08bc c9f9 f93d 4b16 e3bd 6b12 de3d
00000260: 4500 463e 232d bebd bcfd 0f3c 8e88 11bd
00000270: 7ff9 7c3d 1d5e 55bd 239a 4fbd f24d 623c
00000280: a40b c53c 312b 123e 21cf 11be 526f 16bd
00000290: c9e3 d3bd 23a3 903d e58a e63d 0897 073d
000002a0: d508 8bbd c2ed 9ebb 3e3c 96bd 1884 e3bd
000002b0: 0947 fe3c 9500 d23b 0365 3a3e 269e 833d
000002c0: 7202 b9bd 8573 b9bb e612 80bd 0a15 04bd
000002d0: 0467 703d d63e 143e b73e 633d e2d5 d7bd
000002e0: 38a3 133e 57d9 1bbe 6db7 043e 91c3 d5bd
000002f0: dbc7 91bd b72c a3bb 8b6d 3dbd 0da2 023e
00000300: 2edd b43d 0b60 bc3d 095a d6bd 826e c43d
00000310: 6e6f 42bc d24d e1bd f529 953c bcbb d8bd
00000320: 3b57 6d3d 0ddd a43d df87 133d 14f1 d83d
00000330: b114 823d e584 133e c878 9d3d abc8 883d
00000340: 2ed4 a9bd 4239 493e 8e4b ba3d 6839 d73c
00000350: f08a f33d 685a ef3c 88d6 0bbe ca2e 5abe
00000360: 6bb9 36bc c73a 123e 17ce 243e c2c9 5bbd
00000370: e501 0dbe 5327 1dbe f603 4a3d 6950 fe3c
00000380: e8f8 fabd e225 943d 409b bc3d 1588 b6bd
00000390: 26e1 f33d 69d3 36be bc6e 053e 2744 d8bd
000003a0: 12d2 1e3e 7bee fdbd c40c 14bd a768 d6bd
000003b0: 51a4 e4bc 1935 2f3e dd94 c9bc 2c99 c9bd
000003c0: 0a86 1c3e a41b 033e d8cd ae3c f2b3 19be
000003d0: 71c2 dcbc c578 373d 68c7 92bd 3de3 5bbd
000003e0: 8fb3 d3bc 07c8 acbd 8c6a 0fbe 11e1 3b3d
000003f0: 3ab0 043e 836c b63d b77a 9fbd 13d9 eebd

bias f4 [50]
0.07388088 0.02722162 -0.03466152 0.0842626 0.10683265 0.053878315 0.13584207 0.08970539
0.08081534 -0.020708011 0.11970043 0.3098905 0.17468344 0.081024595 -0.1206673 -0.011075326
0.13773404 0.16647023 0.11578891 -0.14090444 -0.098162994 0.023060372 0.12557398 0.026480436
0.28039515 0.14045016 -0.030687213 0.07891978 0.17739683 0.18534428 0.2700789 0.038344864
0.24098364 -0.13822165 0.10404956 0.11161779 -0.0020661722 0.0051709455 -0.019569501 0.0604232
0.2760808 0.14378132 0.2661915 0.109412715 0.21352178 0.25065312 0.080068424 0.1533213
-0.14346312 0.08605798
00000000: dc4e 973d e0ff de3c 3df9 0dbd df91 ac3d
00000010: 14cb da3d 82af 5c3d 2f1a 0b3e 76b7 b73d
00000020: 8382 a53d d9a3 a9bc 8025 f53d f8a9 9e3e
00000030: 37e0 323e 39f0 a53d 6b20 f7bd 4975 35bc
00000040: 270a 0d3e 2c77 2a3e bc22 ed3d 4149 10be
00000050: ae09 c9bd 1be9 bc3c 7796 003e 80ed d83c
00000060: f48f 8f3e 2bd2 0f3e c063 fbbc b2a0 a13d
00000070: 84a7 353e e4ca 3d3e c847 8a3e 810f 1d3d
00000080: 6ac4 763e fa89 0dbe f017 d53d de97 e43d
00000090: 9e68 07bb 0971 a93b 3850 a0bc 517e 773d
000000a0: 765a 8d3e 693b 133e 414a 883e c613 e03d
000000b0: 74a5 5a3e 9b55 803e eafa a33d 4200 1d3e
000000c0: ffe7 12be 2b3f b03d

weight f4 [20, 50]
0.24720867 -0.24646692 -0.11131194 0.1363139 0.0026888733 0.3732914 0.15190418 0.0873732
0.112378165 0.30940035 -0.3074699 0.10289776 0.21758698 -0.20356192 -0.15981053 0.08758999
0.26255965 0.3643857 0.28904155 0.12941727 0.28100902 0.0026261588 0.19865745 -0.21464498
0.29596537 -0.049589097 -0.06499678 -0.22843795 -0.2779221 -0.11571696 -0.010435554 -0.026925527
0.6202741 -0.038083557 0.105926536 0.10543992 -0.0206032 0.06584906 0.16002703 -0.18408804
0.18960124 -0.037108358 -0.10627951 -0.23594598 0.012541549 -0.13941005 -0.31973922 0.12930457
-0.024167541 -0.0129829105 -0.15217376 0.045216873 -0.048215743 -0.018735452 -0.18426692 -0.12048853
0.21007188 -0.097701825 0.2649079 -0.13395473 0.14499874 0.020130092 0.24125493 -0.059973318
0.14868371 0.03903478 0.16443267 -0.1940698 0.08320786 0.007496531 -0.08801527 0.07392041
0.011740522 -0.0126871895 -0.14917451 0.22998387 0.11447825 0.26575062 -0.08176687 -0.052009117
0.14056817 -0.004792805 0.34823897 0.0047327285 -0.16709667 0.30787534 0.063441135 0.0011611829
0.094327025 -0.04557171 0.22224781 -0.2348672 0.049347114 0.116148636 0.035874266 0.10837676
0.16943806 0.19570927 -0.022734366 -0.025289973 0.026556741 0.15929858 -0.035668872 -0.11548567
-0.1543465 -0.008729827 -0.1206691 0.14246747 0.22143778 0.114736386 0.056165297 0.35339633
0.103667326 0.22208375 -0.049135216 -0.124673665 0.07729871 0.44912007 -0.077896155 -0.06493825
-0.08554727 0.05144826 -0.16713433 0.06556252 -0.22566526 0.19397652 -0.07779214 0.38571745
0.052412026 0.012807407 -0.071270466 0.023094576 -0.19544949 -0.052571047 0.27922833 -0.020613076
-0.10282901 0.07001847 0.2804953 -0.025329756 -0.018111685 -0.02833596 -0.09125329 0.036265247
-0.007717986 0.1992784 -0.09192814 0.09215281 0.212335 0.24465199 0.008516416 0.11368999
-0.08955419 -0.108444996 0.00045445136 -0.09234491 -0.078403495 -0.0766772 -0.06787557 0.068938576
0.051980425 0.08677383 -0.050739862 0.0061562746 -0.07533203 -0.054909874 0.015502677 0.0018824069
-0.044867057 0.07380905 0.09490503 -0.019836012 0.021851052 -0.09444121 -0.014763226 -0.06358385
-0.10395612 -0.06662092 -0.13540854 -0.06930648 -0.032443266 -0.03798207 -0.09367025 0.077275254
-0.10435079 0.07825014 -0.031914696 -0.06846889 0.037446633 -0.009117672 -0.13297467 -0.077354856
-0.040149078 0.10774956 0.007316019 0.09287554 0.06652764 -0.11925378 -0.013338351 -0.1082469
0.16609009 0.034616165 -0.110546 -0.05841783 0.010766103 0.11591562 -0.16868728 -0.20965187
0.117319144 0.11594213 0.39838558 -0.06648033 0.09359703 -0.10646784 0.05194717 0.1994831
-0.0775915 -0.1338828 -0.07859562 -0.090668045 0.03796783 -0.038941585 0.33359277 0.20343222
-0.15691695 0.26002663 -0.0053961608 -0.24625236 0.039033584 0.13968424 0.041968513 -0.0022094145
0.22515538 0.09190598 -0.18550427 -0.17525537 -0.009834616 -0.038416058 -0.08559606 -0.15421163
-0.00736639 0.12996848 0.13160457 0.19310167 -0.13983378 0.117604226 0.33238006 0.23283473
0.102539144 0.0828382 0.39523003 0.2346613 0.034214143 0.09665289 0.07097437 0.013285659
00000000: 4524 7d3e d361 7cbe 84f7 e3bd df95 0b3e
00000010: cf37 303b 0d20 bf3e c58c 1b3e b8f0 b23d
00000020: 8626 e63d b969 9e3e b26c 9dbe 10bc d23d
00000030: 1fcf 5e3e 8972 50be 5fa5 23be 6162 b33d
00000040: 386e 863e c390 ba3e 41fd 933e f685 043e
00000050: 6ae0 8f3e a21b 2c3b dc6c 4b3e e5cb 5bbe
00000060: c688 973e f01d 4bbd 081d 85bd a3eb 69be
00000070: ce4b 8ebe 03fd ecbd e3f9 2abc ec92 dcbc
00000080: 49ca 1e3f 81fd 1bbd 03f0 d83d e3f0 d73d
00000090: 0bc8 a8bc dfdb 863d 20de 233e 9381 3cbe
000000a0: d426 423e effe 17bd 12a9 d9bd d39b 71be
000000b0: 127b 4d3c 82c1 0ebe dcb4 a3be 6b68 043e
000000c0: 02fb c5bc 46b6 54bc 70d3 1bbe 5435 393d
000000d0: df7d 45bd 177b 99bc 78b0 3cbe b1c2 f6bd
000000e0: 151d 573e e517 c8bd 02a2 873e 6e2b 09be
000000f0: 8d7a 143e dde7 a43c 880b 773e 95a6 75bd
00000100: 8b40 183e efe2 1f3d 0a61 283e 3cba 46be
00000110: e268 aa3d 76a5 f53b 5a41 b4bd 9563 973d
00000120: 525b 403c eedd 4fbc 34c1 18be e480 6b3e
00000130: 9373 ea3d 7710 883e 6475 a7bd 8307 55bd
00000140: 1af1 0f3e f60c 9dbb 614c b23e 0115 9b3b
00000150: 641b 2bbe d6a1 9d3e 6ded 813d d532 983a
00000160: 872e c13d 67a9 3abd ee94 633e 0781 70be
00000170: 3320 4a3d 56df ed3d e5f0 123d a2f4 dd3d
00000180: 2c81 2d3e 0368 483e 6c3d babc eb2c cfbc
00000190: 868d d93c 2b1f 233e 8619 12bd c083 ecbd
000001a0: 020d 1ebe 8c07 0fbc 5c21 f7bd fee2 113e
000001b0: 96c0 623e e9fa ea3d 950d 663d 5df0 b43e
000001c0: 894f d43d ec69 633e 0242 49bd e854 ffbd
000001d0: c94e 9e3d 11f3 e53e 0588 9fbd 58fe 84bd
000001e0: 6833 afbd 69bb 523d 4325 2bbe a445 863d
000001f0: cb14 67be c8a1 463e 7c51 9fbd c27c c53e
00000200: fead 563d 29d6 513c 40f6 91bd d630 bd3c
00000210: e923 48be bd54 57bd 04f7 8e3e c1dc a8bc
00000220: 0498 d2bd d865 8f3d 149d 8f3e 5980 cfbc
00000230: f55e 94bc d120 e8bc 01e3 babd de8a 143d
00000240: 29e7 fcbb a30f 4c3e d244 bcbd 9dba bc3d
00000250: 596e 593e 0d86 7a3e 7088 0b3c 4cd6 e83d
00000260: 3068 b7bd 6918 debd 6e43 ee39 541f bdbd
00000270: 0392 a0bd f008 9dbd 5902 8bbd ab2f 8d3d
00000280: 6de9 543d 7ab6 b13d 9ad4 4fbd 93ba c93b
00000290: ae47 9abd 2de9 60bd f1fe 7d3c 18bb f63a
000002a0: 85c6 37bd 3329 973d 925d c23d 227f a2bc
000002b0: fa00 b33c 656a c1bd 75e1 71bc 4038 82bd
000002c0: f2e6 d4bd 8d70 88bd 89a8 0abe 8ef0 8dbd
000002d0: 3be3 04bd 1693 1bbd 30d6 bfbd 7d42 9e3d
000002e0: deb5 d5bd 9c41 a03d fcb8 02bd 6b39 8cbd
000002f0: a461 193d 4a62 15bc 832a 08be 396c 9ebd
00000300: 5c73 24bd cdab dc3d 37bb ef3b 8835 be3d
00000310: a53f 883d 533b f4bd 1989 5abc 8db0 ddbd
00000320: 8513 2a3e aec9 0d3d f165 e2bd 8947 6fbd
00000330: 4f64 303c 2b65 ed3d 5cbc 2cbe fbae 56be
00000340: 0545 f03d 1173 ed3d 32f9 cb3e d726 88bd
00000350: cdaf bf3d d00b dabd 8ec6 543d 4c45 4c3e
00000360: 4be8 9ebd 9318 09be bef6 a0bd 2bb0 b9bd
00000370: 2884 1b3d 3681 1fbd accc aa3e 8950 503e
00000380: d6ae 20be 3622 853e 47d2 b0bb 9429 7cbe
00000390: aee1 1f3d 6309 0f3e 2de7 2b3d d3cb 10bb
000003a0: 228f 663e 3439 bc3d d5f4 3dbe 2576 33be
000003b0: 5f21 21bc 285a 1dbd fd4c afbd a7e9 1dbe
000003c0: c261 f1bb 7516 053e 59c3 063e 72bc 453e
000003d0: 9630 0fbe 7cda f03d b82d aa3e 3a6c 6e3e
000003e0: 0b00 d23d 13a7 a93d 975b ca3e 0d4b 703e
000003f0: 2124 0c3d f3f1 c53d 035b 913d 18ac 593c

bias f4 [20]
0.28921282 0.2070365 0.090499066 -0.12473506 0.01031654 0.11956053 -0.03066921 0.21920884
0.17544578 0.037572287 0.16698603 0.006954957 -0.10769142 0.165252 -0.11901206 -0.06448432
-0.061005432 -0.04820769 0.2194151 0.37099868
00000000: b413 943e 6001 543e 9357 b93d 1875 ffbd
00000010: b406 293c 27dc f43d ff3d fbbc 4878 603e
00000020: 0fa8 333e 66e5 193d 63fe 2a3e 68e6 e33b
00000030: 528d dcbd d237 293e 98bc f3bd 5b10 84bd
00000040: d5e0 79bd 6d75 45bd 5aae 603e 8af3 bd3e

weight f4 [10, 20]
0.050747182 -0.50628626 0.76089376 0.105804995 -0.22271696 -0.60732925 -0.11292489 -0.10903813
0.5784954 -0.4746571 -0.09708721 -0.28034768 -0.08745702 0.2070264 -0.21914017 0.20238592
0.3475244 0.14570148 -0.6083105 -0.033615638 -0.38982475 0.25054917 -0.43601206 -0.07395096
0.20708555 -0.4172289 -0.11854562 0.3967139 -0.19487157 0.3315771 0.5676994 0.34283274
-0.15625663 -0.2499373 0.06070356 -0.69271857 -0.38983628 0.3068996 0.19155899 0.40538424
0.081964895 0.5223068 0.37523782 -0.09314351 0.31948245 0.19521685 0.2010831 0.35462508
0.39926073 -0.061336204 -0.03599173 0.17066053 -0.16998397 -0.21389708 -0.16537902 0.098203965
-0.47568867 0.123345725 -0.6370295 -0.67040974 0.5503665 -0.10098839 -0.2015014 0.1862044
0.30522838 -0.47224423 0.0010604888 -0.10777732 0.48123878 -0.176392 0.0013232478 0.6214024
-0.084465824 -0.3517542 -0.0936534 0.3172733 -0.46428075 -0.28028926 0.33884862 -0.093667574
-0.44176066 0.014537475 -0.05453585 0.11915827 -0.1035649 0.01658529 0.17678726 0.3888237
-0.4328867 0.6443507 -0.23209268 -0.4208557 -0.22329684 0.31607682 0.0150431525 0.57558274
-0.103854395 0.12650146 -0.022380808 -0.181975 0.82315695 0.08646953 -0.023386678 0.1767831
-0.46550277 -0.47399274 -0.2733794 0.23587301 0.17580377 -0.21909495 -0.001495437 -0.22232032
0.06764309 -0.1964239 0.13845894 -0.21682525 0.40569842 -0.20758218 0.35586897 0.31400308
-0.21241736 0.069588386 -0.08026954 -0.14372538 -0.45342457 -0.18823816 -0.2028386 0.95853686
0.058569223 0.61793673 -0.28479213 -0.35497025 0.0767822 -0.3924709 0.13209331 -0.33884525
0.5039937 -0.11308972 -0.4531359 -0.5534995 -0.6939003 -0.28123546 0.08814102 -0.023969242
0.45471478 -0.12980954 0.11849542 -0.39421973 -0.3569389 -0.22210887 0.3229946 0.36098194
0.08688925 0.63091046 0.2822774 0.11458562 -0.30377486 -0.081367694 0.101762585 0.4664757
0.18140379 -0.029650984 -0.1659447 -0.121876605 0.34875986 0.73579264 -0.2562825 -0.40995705
0.42762727 0.1423031 -0.2776221 0.0056561898 0.15545413 -0.4476178 -0.009264011 -0.39801586
0.54783535 -0.0899534 0.1994346 -0.4789183 -0.36337385 0.42046317 0.24176285 -0.117800884
0.17012072 0.41022795 0.20325893 -0.63937706 -0.58127326 -0.20721091 -0.16887349 -0.55807525
-0.0781351 -0.1343055 -0.11158995 0.51281315 0.07162895 -0.22101961 0.085985534 0.35136515
00000000: 47dc 4f3d fa9b 01bf efc9 423f 4ab0 d83d
00000010: ea0f 64be ee79 1bbf 2a45 e7bd 624f dfbd
00000020: 4618 143f 4106 f3be a9d5 c6bd bb89 8fbe
00000030: ab1c b3bd bbfe 533e 4866 60be 413e 4f3e
00000040: b8ee b13e c532 153e 3dba 1bbf 8db0 09bd
00000050: 1c97 c7be fb47 803e f93c dfbe 9a73 97bd
00000060: 3c0e 543e 079f d5be 0cc8 f2bd 161e cb3e
00000070: 6a8c 47be 79c4 a93e bf54 113f c687 af3e
00000080: bd01 20be 90ef 7fbe 4ca4 783d 0156 31bf
00000090: 9f98 c7be f221 9d3e 0a28 443e 868e cf3e
000000a0: 36dd a73d e6b5 053f 2c1f c03e 06c2 bebd
000000b0: 3493 a33e ede6 473e bae8 4d3e 6b91 b53e
000000c0: e76b cc3e ac3b 7bbd 106c 13bd a2c1 2e3e
000000d0: 4710 2ebe d607 5bbe 1e59 29be 291f c93d
000000e0: 778d f3be af9c fc3d 5e14 23bf f99f 2bbf
000000f0: d2e4 0c3f 00d3 cebd 6256 4ebe 5eac 3e3e
00000100: e546 9c3e ffc9 f1be 1900 8b3a 5bba dcbd
00000110: ee64 f63e 1ba0 34be d470 ad3a 3a14 1f3f
00000120: 6bfc acbd 2019 b4be 5bcd bfbd a571 a23e
00000130: 35b6 edbe 1382 8fbe 917d ad3e c9d4 bfbd
00000140: 742e e2be 972e 6e3c fc60 5fbd 4009 f43d
00000150: d619 d4bd e0dd 873c b807 353e e613 c73e
00000160: 53a3 ddbe 2bf4 243f b4a9 6dbe 667a d7be
00000170: eda7 64be d2d4 a13e 8e77 763c 6459 133f
00000180: 9db1 d4bd 9989 013e f557 b7bc a857 3abe
00000190: 6aba 523f f016 b13d 6b95 bfbc a106 353e
000001a0: 6156 eebe 2daf f2be 62f8 8bbe b288 713e
000001b0: e705 343e 6d5a 60be 8a02 c4ba f0a7 63be
000001c0: 7688 8a3d 5923 49be 2ec8 0d3e 7007 5ebe
000001d0: b4b7 cf3e 6c90 54be 7534 b63e 03c5 a03e
000001e0: f083 59be 5b84 8e3d 5b64 a4bd bf2c 13be
000001f0: 4427 e8be 81c1 40be ecb4 4fbe ac62 753f
00000200: 48e6 6f3d 1a31 1e3f 46d0 91be a9be b5be
00000210: fc3f 9d3d f2f1 c8be 7843 073e 207d adbe
00000220: bb05 013f 959b e7bd 6e01 e8be 25b2 0dbf
00000230: 73a3 31bf 18fe 8fbe 4783 b43d 255b c4bc
00000240: 60d0 e83e cbec 04be baad f23d 2bd7 c9be
00000250: b2c0 b6be 8270 63be 8c5f a53e a0d2 b83e
00000260: fef2 b13d 5983 213f aa86 903e deab ea3d
00000270: 6188 9bbe 1ba4 a6bd e768 d03d e7d5 ee3e
00000280: eac1 393e 9fe6 f2bc 68ed 29be 719a f9bd
00000290: a790 b23e e85c 3c3f 7637 83be e4e5 d1be
000002a0: f6f1 da3e e7b7 113e 7c24 8ebe 8f57 b93b
000002b0: 5e2f 1f3e 292e e5be 14c8 17bc bcc8 cbbe
000002c0: f03e 0c3f 7d39 b8bd 9538 4c3e c834 f5be
000002d0: 230c babe f346 d73e ae90 773e 9741 f1bd
000002e0: 2034 2e3e 6609 d23e 1c23 503e 37ae 23bf
000002f0: 53ce 14bf 192f 54be 2ced 2cbe 05de 0ebf
00000300: 4c05 a0bd 6287 09be 4689 e4bd b947 033f
00000310: 33b2 923d f752 62be 2f19 b03d 22e6 b33e

bias f4 [10]
-0.053951174 0.14612097 0.095709115 -0.16498516 -0.041570533 0.18135814 0.044553343 0.05726868
0.06355273 0.08218441
00000000: e8fb 5cbd bca0 153e 2403 c43d dff1 28be
00000010: dd45 2abd f3b5 393e 917d 363d 9092 6a3d
00000020: ef27 823d 4d50 a83d
