datasets/mnist/partition_noniid-#label_major_classes_num_1_clients_10_dir_alpha_None_augement_data_percent_per_class_0.01_seed_42/models/batch_size_256_com_round_25_epochs_5_lr_0.1_sample_ratio_0.9_personalization_steps_25/client_1.pt (torch, 175631 bytes, 8 tensors)

weight f4 [50, 784]
00000000: ff2f 8cb9 b5f2 9c3c a9cc f0bc 9350 d7bc
00000010: d05e 61bc 0ee9 1c3c 277f 39ba 13fa e73c
00000020: 37b6 4fbb 0ed6 1a3c 7dd6 30bc a409 e6bb
00000030: cfbe 0bbd 45ba c1bc 9a35 71bc 0168 ad3a
00000040: dc53 673c ae8c af3c a158 c6bc d8ce 7ebc
00000050: b088 543c a3f2 f23c 53d8 f0bb 49ef da3c
00000060: 6ea1 bcbb 5caa 773b 4f75 043d 76b4 07bd
00000070: 512f b8bc 4a23 14bc b316 64bc 2ec8 fc3c
00000080: 71a3 bdbc c0ad 86bc 6f5c ccbc 94f4 08bd
00000090: 90bb aabc a8a3 fb3c 0c34 843c d4cc 913c
000000a0: 852a 2d3b 1e7b 92bc 6054 cb3b a3df 08bd
000000b0: 4c57 dabc 6c04 99bc b5f3 b83c e728 ac3c
000000c0: f511 81bc 8e67 a6ba 5d2f bb3c aa6f 113d
000000d0: 9b3b 683c e518 9e3b 472a c43c 4944 acbc
000000e0: 6413 da3b 0ed5 e2bc e0c6 cabc 1a22 97bc
000000f0: 3465 843c 3d57 6b3c 6945 adbc 25d7 313c
00000100: b0d3 a33c a5d6 5bbb c31b 433b 2c4a 373c
00000110: 9408 d73c 0872 1e3d 9eec cebc b298 fdbb
00000120: 25b1 b03c da8b 113d d4ab 123d df3b 0c3d
00000130: 56bb 0b3c 4d93 f8bc 3c12 783b 8020 b5bc
00000140: 0e18 08bd 61f4 013d a575 de3c 92ec 11bd
00000150: 7b0b db3b 7725 c5bb b093 c0bb 0af6 85bc
00000160: 9cab 5e3c 42f3 aabc 43c1 593c 3cd2 913c
00000170: f4fa d73c 6b11 933c 2f87 f2bc 5b71 a0bc
00000180: e55a 9b3c 287f 083c a636 13bd c5c3 cbbc
00000190: 9c89 143d 96d9 923c 6d13 d3bc 2f8d 96bc
000001a0: ef1d 2abd 1ed7 e6ba 7e48 dbbc 6b79 debc
000001b0: 4cb3 f9ba 2827 ab3b 09b7 6fbc f99a ad3c
000001c0: 890a b2bc 2abc 043d 3281 c83c ffea f6bc
000001d0: bf9b 10bc 66d1 f23a fc19 b13b 32ce e63b
000001e0: d05d 753c 27bc 373b bfd3 91bc 5974 ae3c
000001f0: aa27 c4bc 3874 0fbc a3b6 963b 6060 23bb
00000200: 42aa 9bba 6122 e7bc 4111 20bc 2f28 1e3c
00000210: 5d3b 6bbc d7a9 743b 61ed e03c c7ee aebb
00000220: 7290 58ba 546d 94bb 5b34 d63b f928 ba3c
00000230: 8f91 0a3d 9acc b93c 1f99 0b3d 2754 35bb
00000240: 0471 03bd 14a5 92bc 3e35 b33c 959d c3bb
00000250: 0d30 cfbc 680a 0bbd 7777 2bbd 5d89 f3bc
00000260: dd2e fb3b ca0e 023d 22af 0a3d 4821 02bc
00000270: 026a 313d d28a 08bc 08e9 5c3b 003e 75bb
00000280: 4878 3f3b 21f2 ed3b e4cb d6bc 07e4 ffbc
00000290: facc 0ebc 991e b1ba 9e1d 85bc 14a9 5e3c
000002a0: 6baa 03bd 80fa 1dbb efac ff3c 3616 75bc
000002b0: a50a 003d 93a3 fd3b f01b 2bbd 5104 453c
000002c0: 75a1 7dbc 7373 00bd 7f29 4d3c 19c6 0abd
000002d0: cf10 c13a 4103 61bc 70a0 da3c eaee 2f3c
000002e0: b95d b53c 8190 fd3b 8df7 94bc 3912 5fbc
000002f0: 4a51 e0bc 8126 d03c ceff f93c ffe9 b33c
00000300: 5060 0ebd 4ac0 c9bb 5853 dcbc 435f 9fbc
00000310: 7e7a aabc 9e54 473c 5e05 aebc 3129 b7ba
00000320: 40b3 03ba efe0 923c 537b 0fbd df07 fabc
00000330: 9022 0ebd f4b9 093b de9f 07bd 05a0 233c
00000340: cf0f 97bb 5ec9 3ebc 1545 c9bc d863 fbbc
00000350: 4c1d 2cbc 73e7 91bc f5b6 e2bb 4868 973a
00000360: 6fa1 dfbc 62b8 13bc 6b15 113d a2b2 00bd
00000370: 3ec9 76bc 8dc0 bf3c 174f 273c d923 8a3a
00000380: 6ab8 febc d409 913c ae38 cabc ea9f 25bc
00000390: 947e 5cbc 5263 d7bb c5bc 3f3b 0659 f13c
000003a0: 5287 0abc ca81 383c 778c 923a 418e 0bbd
000003b0: 61a4 e73b c919 04bd 71db d1bc be2a 20bc
000003c0: 0fcb 9cbb f4c4 723c 0216 6dbc d604 03bb
000003d0: 5a66 8c3c fc7e f3bc 69c2 f03c 343e 1ebd
000003e0: a28b 47bc 21e1 9fbc 4403 babc 4bca 9c3b
000003f0: baee f13c f1a0 2bbc 9a59 aebc 4fdf 64bc
-0.0002673864 0.0191587 -0.029394465 -0.026283538 -0.013755515 0.009577049 -0.0007076137 0.028317487
-0.0031694302 0.009450449 -0.0107933255 -0.007020192 -0.034117516 -0.02364839 -0.014722252 0.0013229848
0.014119115 0.021429386 -0.024212183 -0.015552245 0.012972042 0.029656714 -0.0073500066 0.026725428
-0.0057565486 0.003779075 0.032338437 -0.033131085 -0.0224835 -0.009041617 -0.013921428 0.030857172
-0.023149224 -0.016440272 -0.02494642 -0.033436373 -0.02084139 0.030717686 0.0161381 0.017797865
0.0026423049 -0.017880972 0.0062051266 -0.0334164 -0.026652955 -0.018678866 0.022577146 0.021015598
-0.015755633 -0.0012695657 0.022849733 0.03550688 0.014174367 0.004824745 0.02394594 -0.021028655
0.0066551436 -0.027689483 -0.024753034 -0.018448878 0.016161539 0.014364061 -0.021151261 0.010854517
0.019998401 -0.0033544686 0.0029771186 0.011187118 0.026249208 0.038682967 -0.025259312 -0.00773915
0.021568844 0.035533763 0.0358084 0.034236785 0.008528551 -0.030343676 0.0037852665 -0.022110224
-0.033226065 0.0317272 0.027155707 -0.035626 0.006684718 -0.006016429 -0.0058769807 -0.016352672
0.01359072 -0.020867947 0.013290706 0.017800443 0.026364781 0.017952641 -0.029605476 -0.019585302
0.01896424 0.008331098 -0.03594079 -0.024873624 0.036264047 0.017926019 -0.025766099 -0.018377868
-0.041532453 -0.0017611717 -0.026767965 -0.027157506 -0.0019050627 0.0052231736 -0.014631041 0.02119206
-0.02173354 0.03240601 0.024475668 -0.030141352 -0.008826195 0.001852554 0.005404709 0.0070436234
0.01497598 0.0028035732 -0.017801164 0.021295713 -0.023944695 -0.008755736 0.0045994087 -0.002492927
-0.0011876302 -0.028214635 -0.009769739 0.009653135 -0.014357415 0.0037332678 0.027456941 -0.005338523
-0.000826127 -0.0045296345 0.006537003 0.022724615 0.03383022 0.02268057 0.034081575 -0.0027668567
-0.032090202 -0.017900981 0.021875974 -0.005969713 -0.025291467 -0.03394547 -0.041861977 -0.029728586
0.0076654986 0.031752385 0.033858426 -0.007942505 0.043313988 -0.008333879 0.0033708233 -0.0037420988
0.002921598 0.00726153 -0.02622027 -0.031236662 -0.008715862 -0.0013513147 -0.016249474 0.013590116
-0.032144945 -0.0024105608 0.03121039 -0.014958909 0.03126015 0.007740447 -0.04177469 0.012024955
-0.015480389 -0.0313601 0.0125221005 -0.033880327 0.0014729741 -0.013733686 0.02668783 0.010738114
0.022139417 0.0077381735 -0.018184448 -0.013615184 -0.027382512 0.025408985 0.030517485 0.021962164
-0.03475982 -0.006156956 -0.02689521 -0.019454604 -0.020810362 0.01216617 -0.021242794 -0.0013974068
-0.0005023964 0.017929522 -0.03502972 -0.030521331 -0.03470093 0.0021015378 -0.033111446 0.009986882
-0.004610039 -0.011644689 -0.024569074 -0.030687258 -0.010505032 -0.017810559 -0.006918783 0.0011551464
-0.027298657 -0.009016128 0.035420816 -0.031420358 -0.015062628 0.023407245 0.010211728 0.0010539248
-0.031093795 0.017704882 -0.02468523 -0.010108927 -0.013457913 -0.006573119 0.0029256803 0.029461395
-0.008455114 0.011261413 0.0011180778 -0.03407121 0.007069156 -0.032251153 -0.025617333 -0.0097758155
-0.0047849487 0.014817465 -0.014470579 -0.0019991896 0.017138649 -0.029723637 0.029389577 -0.03863354
-0.012179287 -0.01951653 -0.022706635 0.0047848574 0.029532779 -0.010475383 -0.02128296 -0.013969257

bias f4 [50]
00000000: 0467 a8bd 4011 ccbc 58c9 6f3e 3814 ef3d
00000010: 3fcd ec3d edc3 093d 6e11 963e bcdf 22bd
00000020: 12e5 81bd 1ede 2f3e b6dc 6bbb 4516 02bb
00000030: 6f32 b53d 7eec e03d e284 ee3d d5c5 783d
00000040: 471c 7dbd b72e 743d 0dd7 773e b02d 02bc
00000050: 9092 b83d df28 90bd 8253 bc3d f3ca b73d
00000060: 09e8 923c 5ebe 163e 04ad a43d f4da f23d
00000070: e450 223e 86b5 003e 123c f43b 4d0f 2c3e
00000080: 31df cc3d 2bd7 643e 66ae 223e ce90 c1bd
00000090: 02c7 f93b 93c1 e33d 14b4 993d 868b 383e
000000a0: e22d 4d3c c971 113e 48b6 1c3e f457 c73c
000000b0: 0d93 00be 82ba 6bba 07c3 c8bc 54a6 4ebd
000000c0: 6b95 c03d 2f43 b33d
-0.08222774 -0.02491057 0.2341665 0.11673778 0.11562585 0.033634115 0.29310173 -0.03976415
-0.0634252 0.17174575 -0.0035989708 -0.00198497 0.0884751 0.10982607 0.11646439 0.060735542
-0.061794546 0.059614863 0.24203129 -0.007945463 0.090123296 -0.070390455 0.09195615 0.08974256
0.017932909 0.14721057 0.080408126 0.11858168 0.1585117 0.12569246 0.00745345 0.16802712
0.10003508 0.22347705 0.1588684 -0.094514474 0.0076226005 0.11120906 0.0750505 0.18021974
0.012523146 0.14203562 0.1530391 0.024333932 -0.12556095 -0.00089923304 -0.024507059 -0.05045159
0.09403499 0.08753049

weight f4 [50, 50]
00000000: 8698 a8bc 1a68 d7bd af5b cc3c 1cdc 4d3d
00000010: a84c 08be cd4e 88be a5a9 de3d d53e 37be
00000020: 40ec 1a3e c066 5e3e aeed 9c3c 6be4 6ebc
00000030: f8fc 593d da1c e43d 5763 f03d f645 213d
00000040: c311 803d 072d c73d b994 423e ed78 c73d
00000050: de92 36be 00f2 133e a199 06be 08bf 0bbe
00000060: f950 293d e872 283d 4787 803c 0987 8b3e
00000070: 9f89 d4bd 17db 2cbe 42da 7ebd e0ed 393e
00000080: b465 b63c d3a1 ef3b deb5 c1bb 8252 5cbd
00000090: 854d 293d a675 ca3d 9543 dd3d 718f 9a3e
000000a0: 9732 763d 92ae ecbd 7926 1f3a 6df7 653e
000000b0: dfb4 2b3e 7cd1 fc3c e8c3 023e 117e ccbd
000000c0: 8869 79bd d512 60bd 3b1b c0bd 43f3 b13d
000000d0: e7b8 47be b0c7 af3d 73f0 49be 9c89 733d
000000e0: 9522 18be a928 3a3e ef16 183e 8a03 c23d
000000f0: ea62 fb3d ac37 0abd d67f 4c3d c9f5 343e
00000100: 9e9a a43c f2c5 6d3e cdee b3bd aa72 823e
00000110: 3fd3 893d 1b8c 903d 4852 1ebd ddd6 5d3d
00000120: e08e 313e c48c cabc c854 853d bb44 8ebd
00000130: 80c8 a1b9 80a4 3a3e c1f5 debd 0ea2 00bd
00000140: 4fff a1bd 2307 a1bd b93d c73d c973 68bd
00000150: 4886 bbbb 7044 8dbd d2e9 16bd 0169 af3d
00000160: fff8 043b 8944 013e 7cd7 0ebe 240d 323d
00000170: 2890 383e 5ddd f93d 945f 39be 4f81 e73d
00000180: 6478 d43d 1bcb 52bd 0fcc e6bd 6e00 81bd
00000190: 1e6e 4a3d d696 ccbd 55b2 10be 7ba3 28bd
000001a0: fd67 343c 3b5c 123d 9a89 b7bc 2edf f93c
000001b0: 4aee fabd 3523 2ebd f43c 833c cbbd 0c3e
000001c0: 860d 0fbe 2d9d cc3d fb46 e4bd a649 e5bd
000001d0: 13dd 6f3d cbf3 9abd 3e96 a8bd ecee 0e3e
000001e0: 9296 edbd 87e2 113e 251f e1bd bcc7 f2bc
000001f0: 5404 8fbb 6d6d c0bd 0617 c23d 16af 043e
00000200: fdb4 47bd b6be 943d 0656 b63d 134f 0cbe
00000210: f1c5 553d 1cc0 1b3b 91f7 02bd f46b efbc
00000220: 2d20 bcbd cd42 cebc 42ec 06be b68c c6bd
00000230: eb71 cb3a dcc7 b03c d9cb e73d 60e0 b8bd
00000240: e2e1 c8bd db2c fe3d b3bc 87bd cc03 073e
00000250: ad3b 08bc 7705 fa3d fa75 e3bd d407 de3d
00000260: fc7a 453e b8b5 bebd cc5e 0d3c 9325 13bd
00000270: 8d1a 7b3d 23c7 55bd 6077 52bd 1c79 5f3c
00000280: 12b6 c23c b8cc 113e 8cdc 11be 1a52 17bd
00000290: 0d07 d4bd 83c3 8f3d 3d0c e63d 616f 073d
000002a0: 667b 8bbd 7de6 b3bb 7cd6 96bd 98bb e3bd
000002b0: 6ea1 fd3c f8ec cc3b af06 3a3e 3b7a 833d
000002c0: 1517 babd 5d67 c5bb ad3c 80bd a6ca 04bd
000002d0: c641 703d 36f4 133e 9617 633d 7013 d8bd
000002e0: 4e77 133e 111a 1cbe dba2 043e 52dc d6bd
000002f0: 5232 92bd 1e2e b8bb 2624 3ebd 3f69 023e
00000300: e8bb b43d dbe5 ba3d 11bc d6bd 81b3 c33d
00000310: 446f 42bc 8f71 e1bd e14e 933c c7e0 d8bd
00000320: c6aa 6d3d 21db a43d c9f2 133d 23d6 d83d
00000330: 5b3d 823d afad 133e 78c8 9d3d 4ab5 883d
00000340: d4da a9bd 8d31 493e 34aa ba3d 3429 d73c
00000350: 179b f33d c785 ee3c 77cc 0bbe 8e46 5abe
00000360: 9f86 35bc cd1d 123e f9bd 243e 4188 5bbd
00000370: bce1 0cbe f332 1dbe d3b3 493d b986 ff3c
00000380: 69ee fabd be41 943d 0e98 bc3d 82ca b6bd
00000390: cef3 f33d 98c0 36be 817b 053e b96c d8bd
000003a0: 0dc2 1e3e afbf fdbd d8cb 13bd 3d63 d6bd
000003b0: d59b e4bc e3f3 2e3e bba3 cabc bdb1 c9bd
000003c0: a19c 1c3e 5841 033e 3ffa ae3c 7fed 19be
000003d0: 66d7 ddbc 8e51 373d 61c7 92bd 22fd 5bbd
000003e0: 4084 d3bc d9ad acbd 85d7 0fbe a07f 3b3d
000003f0: 26a3 033e e3d9 b53d 70a5 a0bd b1ab f0bd
-0.020580541 -0.10517903 0.024946062 0.05025874 -0.13310492 -0.2662262 0.10872201 -0.17895062
0.15129185 0.21718884 0.019156303 -0.014580826 0.053219765 0.111383155 0.117376976 0.03937336
0.06253388 0.09725385 0.19002046 0.09739862 -0.17829463 0.14447784 -0.13144542 -0.13647091
0.041336987 0.04112521 0.015689505 0.2725146 -0.10377812 -0.16880451 -0.062219866 0.18157148
0.022265293 0.007312992 -0.005911573 -0.053789623 0.041333694 0.09885721 0.10803906 0.30187562
0.06010684 -0.11556734 0.00060711015 0.22457667 0.16768216 0.030861609 0.12770045 -0.09984983
-0.060891658 -0.05470546 -0.09380194 0.086889766 -0.19504128 0.08583009 -0.1972063 0.059457406
-0.14856942 0.18179573 0.14852498 0.09473331 0.12274726 -0.0337445 0.0499266 0.17671885
0.020093258 0.23220041 -0.08785782 0.25478107 0.06729745 0.07057973 -0.03865269 0.054159988
0.17339659 -0.024725325 0.06510311 -0.06946703 -0.00030857697 0.18226814 -0.108867176 -0.031404547
-0.079100244 -0.07862689 0.097285695 -0.056751046 -0.0057227947 -0.06897819 -0.036844082 0.0856495
0.0020290015 0.126238 -0.13949388 0.043469563 0.18023741 0.12200425 -0.18102866 0.113039605
0.10374525 -0.051463228 -0.1126939 -0.0629891 0.049421422 -0.09989707 -0.14130528 -0.041171532
0.011011121 0.03573249 -0.02240448 0.030501928 -0.12252481 -0.042514045 0.016020276 0.13744275
-0.13970003 0.099909164 -0.11146351 -0.11195688 0.058560442 -0.07566031 -0.082317814 0.13958329
-0.11600985 0.1424657 -0.109922685 -0.029636256 -0.0043645296 -0.09395871 0.094770476 0.12957415
-0.04875659 0.07262938 0.089031264 -0.1370204 0.052190725 0.002376563 -0.03197438 -0.02922628
-0.091858245 -0.025178337 -0.13176063 -0.09694807 0.0015521621 0.021579675 0.11318178 -0.09027171
-0.09808709 0.12410899 -0.066277884 0.13185042 -0.008315009 0.122080736 -0.111064866 0.10841337
0.19285196 -0.09312004 0.008628558 -0.035924505 0.061304618 -0.052191865 -0.051383376 0.013639715
0.023768459 0.1423825 -0.14244288 -0.036943533 -0.10352907 0.07019713 0.11232803 0.033065204
-0.06810646 -0.005490123 -0.073651284 -0.11119765 0.030960765 0.006253835 0.18166612 0.06419798
-0.09086434 -0.0060242848 -0.06261573 -0.032419823 0.058656476 0.14448628 0.055442415 -0.105505824
0.1440098 -0.15244319 0.1295275 -0.104912415 -0.07138504 -0.005620732 -0.046421193 0.1273546
0.08824903 0.09125873 -0.104850896 0.09555722 -0.011867348 -0.11007988 0.017981948 -0.10589748
0.05802419 0.08049608 0.03612021 0.10587718 0.06359359 0.14421724 0.07704252 0.06675203
-0.08293691 0.19647808 0.09114495 0.026264764 0.118948154 0.029116524 -0.13652216 -0.21315977
-0.011079459 0.1426918 0.16088094 -0.05359674 -0.13757986 -0.15351467 0.04924376 0.03119217
-0.122525044 0.07239102 0.0920869 -0.08925344 0.119117364 -0.17846906 0.13035394 -0.10567612
0.15503712 -0.12390076 -0.036083072 -0.10468147 -0.027906338 0.17085223 -0.024736276 -0.09848354
0.15294124 0.12817895 0.021359561 -0.15032004 -0.027080249 0.04475551 -0.07166935 -0.053708203
-0.025819898 -0.08431596 -0.14047058 0.04577601 0.12855205 0.08879449 -0.07844055 -0.117514975

bias f4 [50]
00000000: 7552 8f3d 4cf1 d73c 8788 0dbd 63b1 ab3d
00000010: 7dde da3d 077b 593d cee1 0a3e a835 b83d
00000020: 3036 a63d 3507 bfbc 78c6 f83d db25 a03e
00000030: 3e10 353e a2f2 a73d 0c82 fabd 72e3 24bc
00000040: 9917 0e3e 7a49 293e 5ee9 ef3d 4149 10be
00000050: 1c25 cbbd c8d7 a83c d1f6 fb3d 8ca4 cf3c
00000060: 846f 8f3e a615 103e 92b4 f2bc 4eb5 9f3d
00000070: 0fc1 383e 7b38 3e3e 30c9 8b3e 5bd5 1d3d
00000080: c636 753e ab89 0dbe 152b d83d fe10 e33d
00000090: bc1e 07bb 826f a93b fa08 b6bc a6c9 773d
000000a0: e4f7 8d3e 2091 123e 7580 893e 98ba df3d
000000b0: 1cb6 5b3e c21b 803e 5805 a43d 0d53 1e3e
000000c0: 2d7b 14be b3c2 ad3d
0.06998149 0.026360177 -0.03455403 0.08383443 0.106869675 0.053095844 0.135627 0.08994609
0.08115804 -0.023318866 0.1214723 0.3127888 0.17681977 0.082005754 -0.12231836 -0.010063993
0.1387619 0.16531935 0.11714433 -0.14090444 -0.099191874 0.020610705 0.12302936 0.025347017
0.28014767 0.14070758 -0.029627118 0.07798253 0.18042396 0.18576233 0.2730193 0.03853355
0.23946676 -0.13822047 0.10555092 0.110872254 -0.0020617684 0.0051707635 -0.022221077 0.06049504
0.27728188 0.14313173 0.26855817 0.10924262 0.21456188 0.25021178 0.08008832 0.15461369
-0.14500113 0.084844016

weight f4 [20, 50]
00000000: fa48 7c3e c0ed 7cbe 35ff e3bd a34c 0b3e
00000010: e345 173b 0be8 be3e 0959 1a3e 2762 b23d
00000020: 3256 e53d 0312 9e3e 5685 9ebe 60be d03d
00000030: 4506 5e3e 19b7 50be d833 24be e983 b13d
00000040: 29f2 853e 9979 ba3e e4c6 933e f685 043e
00000050: a956 8f3e 18e6 0c3b a538 493e e466 5cbe
00000060: 0cc1 963e 6e71 51bd bc7a 86bd 2df3 6bbe
00000070: acf5 8ebe a233 edbd a624 3cbc 2c55 ddbc
00000080: 2130 1e3f 9afd 1bbd f4d0 d83d e8ff d33d
00000090: 6ad2 a8bc e1db 863d b954 233e 8124 3dbe
000000a0: 1e02 403e 48ce 18bd f9ab dbbd 7007 73be
000000b0: dcd2 483c 9d79 0fbe 6d09 a5be dba6 033e
000000c0: 3ee6 cbbc f136 5abc 910b 1abe ec0e 3d3d
000000d0: be74 45bd e3c0 96bc 0276 3cbe 4192 f4bd
000000e0: 2c48 583e 2057 c7bd 4ef4 873e e3c8 07be
000000f0: afb3 163e 7afc aa3c 34c6 773e de43 74bd
00000100: 1521 193e e210 233d 3d29 293e f3bd 45be
00000110: 3532 ab3d 76a5 f53b 4b37 b2bd 9411 993d
00000120: 9f30 653c eb45 40bc 4c1d 17be 811a 6d3e
00000130: f15d eb3d 1623 893e 936f a5bd 8a6f 54bd
00000140: a4f2 103e cf48 8ebb 81ad b33e 5416 9b3b
00000150: f0a4 2abe d075 9e3e 6bf1 813d 9c33 983a
00000160: 83a3 c33d 20fc 37bd 4547 653e 4fda 6fbe
00000170: 22f4 4c3d a783 f03d 4d74 143d ec92 e03d
00000180: 26dd 2f3e 5904 493e 9607 b4bc 3751 c5bc
00000190: 5f9b df3c 26b0 233e 5820 12bd b5a8 ecbd
000001a0: c21c 1ebe 8cbd 07bc d060 f7bd c427 123e
000001b0: 03e6 623e 92dc eb3d 2769 633d 57d0 b43e
000001c0: 69c0 d33d 5aad 633e ba60 48bd 170d 00be
000001d0: 2ac0 9d3d 494e e63e eaf0 9fbd 58fe 84bd
000001e0: 553b afbd c440 543d 1649 2bbe f2f1 863d
000001f0: 923e 67be 1f70 463e 87e6 9fbd 1bb9 c53e
00000200: 9c73 533d 030c 523c 878c 92bd a733 c03c
00000210: 608b 48be a154 57bd 2620 8f3e 81c0 a8bc
00000220: ff95 d2bd d765 8f3d 18f7 8f3e e5d4 cfbc
00000230: fb26 99bc 276e e5bc 4f43 bcbd 7dbc 123d
00000240: 183f fabb 7f6f 4c3e bf5e bdbd 8e00 bc3d
00000250: 539f 593e a056 7b3e 7088 0b3c 4cd6 e83d
00000260: 3068 b7bd 6918 debd 6e43 ee39 541f bdbd
00000270: 0392 a0bd f008 9dbd 5902 8bbd ab2f 8d3d
00000280: 6de9 543d 7ab6 b13d 9ad4 4fbd 93ba c93b
00000290: ae47 9abd 2de9 60bd f1fe 7d3c 18bb f63a
000002a0: 85c6 37bd 3329 973d 925d c23d 227f a2bc
000002b0: fa00 b33c 656a c1bd 75e1 71bc 4038 82bd
000002c0: f2e6 d4bd 8d70 88bd 89a8 0abe 8ef0 8dbd
000002d0: 3be3 04bd 1693 1bbd 30d6 bfbd 7d42 9e3d
000002e0: deb5 d5bd 9c41 a03d fcb8 02bd 6b39 8cbd
000002f0: a461 193d 4a62 15bc 832a 08be 396c 9ebd
00000300: 5c73 24bd cdab dc3d 37bb ef3b 8835 be3d
00000310: a53f 883d 533b f4bd 1989 5abc 8db0 ddbd
00000320: b0fa 273e af94 093d 346c e2bd 7cd1 70bd
00000330: 204c 2c3c 3ad6 ea3d 60fa 2dbe fe88 57be
00000340: bd37 ef3d f711 ea3d f13c cb3e fb9c 89bd
00000350: 88b7 be3d a53c dbbd 4007 513d 41c7 4b3e
00000360: 1172 a0bd 20c5 0abe 10a8 a1bd 2bb0 b9bd
00000370: 2703 173d c8d8 23bd 60cd a93e 5b54 4f3e
00000380: 2c87 22be 0d92 843e 456e b8bb 378a 7ebe
00000390: 86d8 1d3d 65eb 0e3e bcf8 283d 2f62 3dbb
000003a0: 362c 643e 3739 bc3d 66ab 3ebe 40f5 34be
000003b0: f636 21bc 2b5a 1dbd 5be3 b2bd 679b 1ebe
000003c0: f89b 0fbc b139 043e 0981 063e 7af6 443e
000003d0: 7580 0fbe 004e ee3d 2947 a93e 471a 6e3e
000003e0: cc92 d03d 38b5 a63d 3de2 c63e 43ef 6c3e
000003f0: e201 0c3d 40e0 c23d 16d4 8f3d 0126 153c
0.24637213 -0.2470007 -0.11132661 0.13603453 0.0023082427 0.3728641 0.15073027 0.08710127
0.11198081 0.30873117 -0.30961102 0.10192561 0.21682079 -0.20382346 -0.16035402 0.08667738
0.26161316 0.36420897 0.2886268 0.12941727 0.27995804 0.0021499451 0.19650514 -0.21523625
0.29444158 -0.051133566 -0.065663785 -0.23041983 -0.27921808 -0.11582114 -0.011483347 -0.027018152
0.6179219 -0.03808365 0.1058673 0.103515446 -0.020608146 0.06584907 0.15950288 -0.18470956
0.18750808 -0.0373061 -0.107261606 -0.23733306 0.012257304 -0.14011236 -0.32233754 0.12856619
-0.024890061 -0.013318763 -0.15043475 0.04615681 -0.048207037 -0.018402522 -0.18404391 -0.11941958
0.21121281 -0.09733415 0.26553577 -0.13260226 0.14716981 0.020872343 0.24196702 -0.059635036
0.14954026 0.039811023 0.16519637 -0.19310741 0.083591856 0.007496531 -0.087019525 0.07474056
0.013988643 -0.01173542 -0.1475727 0.23154642 0.11492527 0.2678458 -0.08077922 -0.051864184
0.1415506 -0.0043421756 0.3509331 0.0047328863 -0.16664481 0.3094926 0.06344875 0.001161206
0.09552672 -0.04491818 0.22390468 -0.23423122 0.05003751 0.11743861 0.036243726 0.10965523
0.17174205 0.19630565 -0.021976274 -0.024086578 0.027295766 0.15985164 -0.035675377 -0.11555616
-0.15440658 -0.008284938 -0.120790124 0.14272982 0.22158055 0.1151668 0.055520203 0.353152
0.10339434 0.22234097 -0.04892037 -0.12504993 0.07702668 0.44981602 -0.078096226 -0.06493825
-0.085562386 0.051819578 -0.16727099 0.06589116 -0.22582462 0.19378708 -0.078076415 0.38617787
0.051623926 0.012820247 -0.0715571 0.02346213 -0.19584417 -0.052570943 0.27954215 -0.020599606
-0.10282516 0.07001846 0.28118205 -0.02537007 -0.018695345 -0.028006626 -0.091925256 0.035824288
-0.007636916 0.19964407 -0.09246587 0.09179793 0.21252184 0.24544764 0.008516416 0.11368999
-0.08955419 -0.108444996 0.00045445136 -0.09234491 -0.078403495 -0.0766772 -0.06787557 0.068938576
0.051980425 0.08677383 -0.050739862 0.0061562746 -0.07533203 -0.054909874 0.015502677 0.0018824069
-0.044867057 0.07380905 0.09490503 -0.019836012 0.021851052 -0.09444121 -0.014763226 -0.06358385
-0.10395612 -0.06662092 -0.13540854 -0.06930648 -0.032443266 -0.03798207 -0.09367025 0.077275254
-0.10435079 0.07825014 -0.031914696 -0.06846889 0.037446633 -0.009117672 -0.13297467 -0.077354856
-0.040149078 0.10774956 0.007316019 0.09287554 0.06652764 -0.11925378 -0.013338351 -0.1082469
0.16404223 0.03358906 -0.11055794 -0.05879353 0.0105161965 0.11466642 -0.16990042 -0.21048352
0.11680553 0.11429208 0.39694932 -0.06719395 0.093123496 -0.107049264 0.051032305 0.19900228
-0.078342564 -0.1355176 -0.078933835 -0.090668045 0.03686824 -0.04000166 0.331645 0.20247023
-0.15871876 0.25892678 -0.0056283795 -0.24857412 0.03853657 0.13956983 0.041252837 -0.0028897633
0.2228249 0.091906 -0.18620071 -0.1767168 -0.009839764 -0.03841607 -0.08734771 -0.15488969
-0.008765213 0.12912633 0.1313516 0.19234648 -0.14013846 0.11635971 0.33062103 0.23252212
0.10184249 0.081400335 0.3884448 0.23138146 0.034181483 0.095154285 0.07022874 0.009103299

bias f4 [20]
00000000: 6699 933e 6e14 553e 0637 b93d 1875 ffbd
00000010: 70af 183c caf5 ec3d 3086 f6bc eaf5 623e
00000020: 4bde 313e 4eca 1a3d 4efb 2c3e cb2e f33b
00000030: 528d dcbd 82a2 293e efd7 f3bd aa4f 83bd
00000040: 0758 82bd 933d 42bd e455 603e fe3f bf3e
0.2882797 0.20808575 0.09043698 -0.12473506 0.009319171 0.11570318 -0.030093282 0.22164121
0.17369954 0.03779059 0.1689274 0.0074213496 -0.10769142 0.16565898 -0.119064204 -0.06411679
-0.06364446 -0.047422003 0.21907765 0.3735351

weight f4 [10, 20]
00000000: 866f 513d ab92 01bf 92f5 423f 4ab0 d83d
00000010: 5ff3 63be ba5b 1bbf dc37 e7bd 1f2d dfbd
00000020: 1d3f 143f 46fe f2be 9aca c6bd 0e77 8fbe
00000030: ab1c b3bd 2950 543e 2465 60be ad96 4f3e
00000040: 4b3b b23e bc32 153e 87ad 1bbf 3eb5 08bd
00000050: 45c0 c4be 75c4 843e c802 debe 9a73 97bd
00000060: fb93 5b3e fab5 d0be a4f4 efbd 9b4d cf3e
00000070: eb6f 42be 7a90 ae3e 17be 123f a48e b33e
00000080: bd01 20be 566c 7ebe 39e5 783d 20b7 30bf
00000090: 3b92 c5be eb57 9e3e 16ec 4c3e 735d d33e
000000a0: 9ec3 a93d 7ae6 053f cfa5 c03e 06c2 bebd
000000b0: a903 a43e 0d07 4a3e 221c 4e3e d08e b53e
000000c0: 331c cd3e 8040 79bd a009 14bd 874d 2f3e
000000d0: 4710 2ebe c3c9 5abe 9453 29be 47a9 ca3d
000000e0: 9209 f3be 01af fc3d 01e7 22bf ea9c 2bbf
000000f0: 596f 0d3f a51d cdbd 9cfd 4cbe 5eac 3e3e
00000100: 2dfb 9c3e c696 f0be a9d2 a73a af4f ddbd
00000110: 7f84 f73e a35b 34be 6f4b af3a 4166 1f3f
00000120: 6bfc acbd 76ec b3be f9c8 bfbd 6414 a33e
00000130: a91e edbe d780 8fbe f65c ae3e fb6d bebd
00000140: 091c e2be 8a0f 6e3c 60df 5ebd 4009 f43d
00000150: ce32 d4bd 1df7 893c 3e07 353e 9a1a c73e
00000160: f28b ddbe 56fc 243f e7ca 6dbe c186 d7be
00000170: eda7 64be f1da a13e 2576 763c 2d5f 133f
00000180: e103 d4bd 807e 013e dff9 b6bc 1279 3abe
00000190: 2e5a 533f 78a2 b23d 1eb3 b0bc a106 353e
000001a0: 7b04 eebe c37c f1be 69f1 8bbe b8a6 713e
000001b0: 678f 363e 32b8 5fbe 15f6 cfba d90b 63be
000001c0: 7688 8a3d 6365 48be b4c8 0d3e 80c0 5cbe
000001d0: 1712 d13e 85a4 54be 5d20 b73e eb41 a13e
000001e0: f3b8 58be eb4c 903d 443b a3bd bf2c 13be
000001f0: bc06 e8be 0251 3fbe 1c9a 4fbe 62be 753f
00000200: 7071 733d cf8d 1e3f a4c2 91be 56a2 b5be
00000210: fc3f 9d3d 0ad5 c8be 8043 073e ce55 adbe
00000220: b15e 013f 1665 e7bd 10b0 e7be 06a4 0dbf
00000230: 50af 31bf b27c 90be 1de1 b33d 255b c4bc
00000240: 9d3f e83e cf06 06be a60b f23d df29 cabe
00000250: 37d7 b6be 8b7a 64be 00ed a43e 2f4b b83e
00000260: fef2 b13d e95c 213f ca81 903e 9270 e93d
00000270: 089d 9bbe ea25 a7bd bff8 cd3d de1e ee3e
00000280: cd01 2c3e fd7b 2cbd 987c 33be 719a f9bd
00000290: 3807 ad3e 2823 373f d05c 84be 0896 d6be
000002a0: 9fdc d33e 9b33 053e c576 90be 709f 95bb
000002b0: 5e2f 1f3e 1231 e7be 4913 19bc 98cf cfbe
000002c0: b904 093f eba0 bcbd 0a98 3d3e cc04 fabe
000002d0: b263 b9be 03f5 d73e c256 793e 9741 f1bd
000002e0: 57a4 2f3e e594 d33e 2cb9 503e 719b 23bf
000002f0: 1475 14bf b041 53be e3cc 2cbe 28ad 0ebf
00000300: 4c05 a0bd de57 08be 8a7f e4bd c2cf 033f
00000310: e83d 963d f251 62be 7de7 b33d 9196 b43e
0.051131748 -0.5061442 0.7615596 0.105804995 -0.22260807 -0.6068684 -0.11289951 -0.10897278
0.57908803 -0.4745962 -0.09706612 -0.2802052 -0.08745702 0.20733704 -0.21913582 0.20272322
0.34810862 0.14570135 -0.60811657 -0.03337597 -0.3842794 0.25931135 -0.43361497 -0.07395096
0.21443169 -0.40763837 -0.11716583 0.40488896 -0.18988006 0.34094602 0.57321304 0.35069764
-0.15625663 -0.24846014 0.06076548 -0.69029427 -0.38588127 0.3092645 0.20011935 0.41282234
0.08289264 0.52304804 0.37626502 -0.09314351 0.32034042 0.19729252 0.2012792 0.3546052
0.40060577 -0.060852528 -0.03614199 0.17119418 -0.16998397 -0.21366028 -0.16535789 0.09895568
-0.4746824 0.12338067 -0.63633734 -0.67036307 0.5524803 -0.1001542 -0.2001862 0.1862044
0.30660382 -0.4699003 0.001280387 -0.10806214 0.48343274 -0.17613082 0.0013373921 0.622654
-0.084465824 -0.35141343 -0.09364504 0.31851494 -0.46312454 -0.28027984 0.340553 -0.09298321
-0.44162014 0.014530072 -0.054412246 0.11915827 -0.10361253 0.016841466 0.17678544 0.38887483
-0.43270832 0.64447534 -0.23221932 -0.42094997 -0.22329684 0.31612352 0.015042816 0.575671
-0.10352302 0.12645912 -0.022335945 -0.18210247 0.8255948 0.08722395 -0.021569785 0.1767831
-0.46487793 -0.47165498 -0.2733262 0.23598754 0.17828141 -0.21847609 -0.0015866185 -0.22172488
0.06764309 -0.19569926 0.13846093 -0.21557808 0.40834114 -0.20765884 0.3576688 0.31495604
-0.21164303 0.07045921 -0.079702884 -0.14372538 -0.45317638 -0.18683246 -0.20273632 0.95993626
0.059434354 0.6193513 -0.28468812 -0.35475415 0.0767822 -0.39225036 0.13209343 -0.33854526
0.5053511 -0.112985775 -0.45251513 -0.55328405 -0.6940813 -0.28220135 0.08783171 -0.023969242
0.45361033 -0.13088535 0.11818628 -0.3948507 -0.3571107 -0.22312371 0.32212067 0.3599486
0.08688925 0.63032395 0.2822402 0.11398424 -0.30393243 -0.081615284 0.1005721 0.46507925
0.16797562 -0.042110432 -0.17527997 -0.121876605 0.3379457 0.7153802 -0.2585206 -0.4191134
0.41379258 0.13007967 -0.28215614 -0.0045661256 0.15545413 -0.45154625 -0.009342977 -0.4058807
0.5352283 -0.0921038 0.1851503 -0.48831785 -0.36208874 0.42179117 0.24349502 -0.117800884
0.17152534 0.41324535 0.20383137 -0.6390906 -0.5799115 -0.20630527 -0.16875033 -0.55732965
-0.0781351 -0.13314769 -0.11157139 0.5148889 0.073360264 -0.22101572 0.08784387 0.35271123

bias f4 [10]
00000000: 8587 5cbd 2ed6 173e 008a c43d cd97 28be
00000010: fe34 2abd 8b30 3a3e 4888 373d 6c74 693d
00000020: cdda 743d d136 a93d
-0.05384018 0.14827797 0.09596634 -0.16464157 -0.041554444 0.1818258 0.044807702 0.056995794
0.059778977 0.082624085
