datasets/mnist/partition_noniid-#label_major_classes_num_1_clients_10_dir_alpha_None_augement_data_percent_per_class_0.01_seed_42/models/batch_size_256_com_round_25_epochs_5_lr_0.1_sample_ratio_0.9_personalization_steps_25/global.pt (torch, 175631 bytes, 8 tensors)

weight f4 [50, 784]
00000000: ff2f 8cb9 b5f2 9c3c a9cc f0bc 9350 d7bc
00000010: d05e 61bc 0ee9 1c3c 277f 39ba 13fa e73c
00000020: 37b6 4fbb 0ed6 1a3c 7dd6 30bc a409 e6bb
00000030: cfbe 0bbd 45ba c1bc 9a35 71bc 0168 ad3a
00000040: dc53 673c ae8c af3c a158 c6bc d8ce 7ebc
00000050: b088 543c a3f2 f23c 53d8 f0bb 49ef da3c
00000060: 6ea1 bcbb 5caa 773b 4f75 043d 76b4 07bd
00000070: 512f b8bc 4a23 14bc b316 64bc 2ec8 fc3c
00000080: 71a3 bdbc c0ad 86bc 6f5c ccbc 94f4 08bd
00000090: 90bb aabc a8a3 fb3c 0c34 843c d4cc 913c
000000a0: 852a 2d3b 1e7b 92bc 7853 cb3b ecdf 08bd
000000b0: 5f57 dabc 6c04 99bc b5f3 b83c e728 ac3c
000000c0: f511 81bc 8e67 a6ba 5d2f bb3c aa6f 113d
000000d0: 9b3b 683c e518 9e3b 472a c43c 4944 acbc
000000e0: 6413 da3b 0ed5 e2bc e0c6 cabc 1a22 97bc
000000f0: 3465 843c 3d57 6b3c 6945 adbc 25d7 313c
00000100: afd3 a33c aed6 5bbb 891b 433b 3449 373c
00000110: 0103 d73c 706b 1e3d ecf4 cebc 4fe5 fdbb
00000120: 1ba5 b03c e08a 113d a6a9 123d 3337 0c3d
00000130: e8b6 0b3c 4d93 f8bc 3c12 783b 8020 b5bc
00000140: 0e18 08bd 61f4 013d a575 de3c 92ec 11bd
00000150: 7b0b db3b 7725 c5bb b093 c0bb 0af6 85bc
00000160: 9cab 5e3c 42f3 aabc 2bc1 593c 14d2 913c
00000170: cefa d73c c8fd 923c 4ea0 f2bc 1f82 a0bc
00000180: d529 9b3c 6fc2 073c be72 13bd 7b2e ccbc
00000190: 845d 143d 928b 923c a04c d3bc f39f 96bc
000001a0: e520 2abd 28f2 e6ba 9049 dbbc a379 debc
000001b0: 4cb3 f9ba 2827 ab3b 09b7 6fbc f99a ad3c
000001c0: 890a b2bc 2abc 043d 3281 c83c ffea f6bc
000001d0: ca9f 10bc 7bec f13a 79d5 b03b 426e e63b
000001e0: bcf5 743c 06e9 333b 278d 92bc bdef ad3c
000001f0: d7e7 c4bc 15e7 11bc 61be 903b 182b 31bb
00000200: b71a b5ba 2d59 e8bc a8b1 21bc 5445 1d3c
00000210: 68e3 6bbc 4140 733b 80c9 e03c 794a afbb
00000220: e443 59ba 4d6d 94bb 5b34 d63b f928 ba3c
00000230: 8f91 0a3d 9acc b93c 1599 0b3d 6658 35bb
00000240: c672 03bd 27c0 92bc aa07 b33c b690 c4bb
00000250: 4a90 cfbc bc63 0bbd ce0d 2cbd d5e7 f4bc
00000260: 0f46 f43b e4e7 003d 014e 093d 3b50 08bc
00000270: 0615 303d 47e5 0cbc 62e4 4f3b b04b 7dbb
00000280: 9054 393b 97a3 eb3b e235 d7bc f511 00bd
00000290: 4900 0fbc 3327 b1ba c11d 85bc 7ea8 5e3c
000002a0: 6baa 03bd 80fa 1dbb eaac ff3c 0919 75bc
000002b0: 4c08 003d a84d fd3b 4433 2bbd a07f 443c
000002c0: c195 7ebc b1ea 00bd 4bb5 493c c6e6 0bbd
000002d0: e9df 963a 2011 67bc d913 d73c 0d39 283c
000002e0: 6bf1 b13c 105e f23b ac18 97bc 45e7 61bc
000002f0: 3d71 e1bc 3065 cf3c 9d7f f93c e59e b33c
00000300: 2f71 0ebd e6c3 c9bb 2554 dcbc ee5f 9fbc
00000310: 7e7a aabc 9e54 473c 6105 aebc 5229 b7ba
00000320: cdc3 03ba 2ed8 923c fc89 0fbd c75c fabc
00000330: 1b68 0ebd 1373 013b ed95 08bd 8536 1e3c
00000340: d8c7 a3bb 8859 45bc dd2c cdbc d88c ffbc
00000350: 12b8 33bc 0ad5 94bc b288 ebbb 2a29 7a3a
00000360: 67c2 e0bc 5030 15bc b8d7 103d 86d7 00bd
00000370: 64fb 76bc 4ac0 bf3c 034f 273c d923 8a3a
00000380: 6ab8 febc d409 913c af38 cabc 5f9f 25bc
00000390: f37e 5cbc ab78 d7bb e3d7 3e3b 3018 f13c
000003a0: 547b 0bbc 6bb9 363c b55d 6d3a 8ff4 0cbd
000003b0: be00 da3b faef 05bd 2cec d5bc c1ed 28bc
000003c0: 8984 acbb 32b2 6c3c eba3 71bc 37b2 0fbb
000003d0: e27a 8b3c 1514 f4bc 5167 f03c 8956 1ebd
000003e0: 63aa 47bc 29e1 9fbc 3c03 babc 4bca 9c3b
000003f0: baee f13c 1ea1 2bbc 2959 aebc 2ade 64bc
-0.0002673864 0.0191587 -0.029394465 -0.026283538 -0.013755515 0.009577049 -0.0007076137 0.028317487
-0.0031694302 0.009450449 -0.0107933255 -0.007020192 -0.034117516 -0.02364839 -0.014722252 0.0013229848
0.014119115 0.021429386 -0.024212183 -0.015552245 0.012972042 0.029656714 -0.0073500066 0.026725428
-0.0057565486 0.003779075 0.032338437 -0.033131085 -0.0224835 -0.009041617 -0.013921428 0.030857172
-0.023149224 -0.016440272 -0.02494642 -0.033436373 -0.02084139 0.030717686 0.0161381 0.017797865
0.0026423049 -0.017880972 0.0062050186 -0.033416674 -0.02665299 -0.018678866 0.022577146 0.021015598
-0.015755633 -0.0012695657 0.022849733 0.03550688 0.014174367 0.004824745 0.02394594 -0.021028655
0.0066551436 -0.027689483 -0.024753034 -0.018448878 0.016161539 0.014364061 -0.021151261 0.010854517
0.0199984 -0.0033544707 0.002977105 0.011186887 0.02624655 0.03867668 -0.025263272 -0.007748283
0.021563103 0.035532832 0.03580632 0.03423233 0.008527495 -0.030343676 0.0037852665 -0.022110224
-0.033226065 0.0317272 0.027155707 -0.035626 0.006684718 -0.006016429 -0.0058769807 -0.016352672
0.01359072 -0.020867947 0.013290684 0.017800368 0.02636471 0.017943278 -0.029617455 -0.019593297
0.018940846 0.008286103 -0.0359981 -0.024924507 0.036221996 0.017888818 -0.025793374 -0.018386817
-0.041535277 -0.0017619776 -0.026768476 -0.02715761 -0.0019050627 0.0052231736 -0.014631041 0.02119206
-0.02173354 0.03240601 0.024475668 -0.030141352 -0.008827159 0.0018457317 0.0053965417 0.0070321867
0.014951166 0.0027452125 -0.017889572 0.02123248 -0.024036331 -0.008905192 0.004417226 -0.0027033743
-0.0013817166 -0.028362835 -0.009869017 0.009599049 -0.01439748 0.0037117156 0.027439833 -0.005349454
-0.00082880096 -0.004529631 0.006537003 0.022724615 0.03383022 0.02268057 0.034081537 -0.0027671098
-0.03209188 -0.017913891 0.02185424 -0.005998696 -0.025337357 -0.03403066 -0.042005353 -0.029895702
0.0074546407 0.031471148 0.033521656 -0.00831991 0.0429888 -0.008599586 0.003172182 -0.003864985
0.0028279163 0.0071911323 -0.02627081 -0.031267125 -0.008728095 -0.0013515711 -0.01624954 0.013589976
-0.032144945 -0.0024105608 0.031210382 -0.014959582 0.031257913 0.0077302046 -0.041796938 0.011993319
-0.015538634 -0.03147382 0.01231129 -0.03415563 0.0011510822 -0.014103204 0.026254581 0.010267508
0.021721562 0.007396467 -0.018444382 -0.013788049 -0.027519817 0.025316805 0.030456359 0.021926353
-0.03477591 -0.006157386 -0.026895592 -0.019454923 -0.020810362 0.01216617 -0.0212428 -0.0013974106
-0.000502643 0.017925348 -0.0350437 -0.030561818 -0.03476725 0.0019752427 -0.033346105 0.009656553
-0.0049981885 -0.012045272 -0.025045807 -0.03119509 -0.010969179 -0.018167991 -0.007187926 0.0009542877
-0.027436448 -0.009105757 0.035361975 -0.03145554 -0.015074585 0.02340712 0.010211709 0.0010539248
-0.031093795 0.017704882 -0.024685232 -0.010108798 -0.013458001 -0.006575664 0.0029120378 0.029430479
-0.00851329 0.0111526055 0.0009054796 -0.034412917 0.0066529205 -0.032699563 -0.026113592 -0.010310591
-0.005264823 0.014446782 -0.014748554 -0.0021926293 0.017026369 -0.029794732 0.02934614 -0.038656745
-0.012186619 -0.019516544 -0.02270662 0.0047848574 0.029532779 -0.010475425 -0.02128275 -0.013968984

bias f4 [50]
00000000: 249b aabd 8fbc cebc 726a 6f3e bd1b f03d
00000010: 5c52 ec3d ee09 053d a17e 953e 6d1e 22bd
00000020: 05db 81bd c398 2f3e 87eb 95bb fab1 c8ba
00000030: 89e0 b43d 8a62 e13d e5a6 ed3d 75c2 7f3d
00000040: 55c0 7dbd 65ef 733d 9b7e 783e 314d 03bc
00000050: 90d6 b33d e8a5 8ebd 33cb bc3d 9a76 b53d
00000060: 0c24 963c 42ab 163e 765f a53d ff43 f43d
00000070: 7163 223e 8683 ff3d fff8 ec3b aab4 2d3e
00000080: 0f12 cd3d dfd0 633e f714 223e e7c0 bfbd
00000090: d1d3 e43b 568e e73d 371a 9c3d 6335 383e
000000a0: af5e 3f3c cd36 103e 9fd4 1c3e 94ac da3c
000000b0: 26b0 ffbd a031 abb9 24be c8bc 37d4 4bbd
000000c0: eec1 c13d 06d0 b13d
-0.08330372 -0.025236396 0.2338045 0.11724041 0.11539146 0.032480173 0.29198173 -0.039579798
-0.06340603 0.17148118 -0.004575196 -0.001531183 0.08831889 0.11005123 0.11604098 0.062441308
-0.061951 0.059554476 0.24267046 -0.008014009 0.08781159 -0.06965238 0.09218445 0.08860512
0.018327735 0.14713767 0.08074848 0.11927032 0.15858246 0.12476258 0.007231831 0.16963449
0.1001321 0.22247647 0.1582831 -0.09362965 0.0069832583 0.11306445 0.076221876 0.17989115
0.011680289 0.14083405 0.15315484 0.02669362 -0.124847695 -0.00032652635 -0.024504729 -0.04976293
0.09460817 0.086822554

weight f4 [50, 50]
00000000: c1f2 a1bc 0233 d7bd 8f5f db3c 5f42 503d
00000010: 6290 07be d6a9 87be 1e4d e23d 4e2f 37be
00000020: 75cc 1c3e 9010 5f3e 4b82 a93c bda6 60bc
00000030: def7 5b3d 1f42 e53d 60f1 f03d 0a46 233d
00000040: 30e1 813d 1161 c73d 8255 433e b64e cb3d
00000050: bb8c 35be c81b 143e 9453 06be 2299 0abe
00000060: 47c4 2d3d c5da 293d 48a8 8c3c 8301 8c3e
00000070: 6403 d4bd b1e3 2bbe ff44 7dbd d461 3a3e
00000080: 0d97 b63c a69e 033c 7d80 b1bb 38be 5abd
00000090: d5c1 2a3d 7e9f cc3d 9f0f de3d f289 9b3e
000000a0: b8f3 783d 09c6 eabd 907f 8e3a 5e52 673e
000000b0: e4d3 2b3e 14ad 013d efc3 023e 41fa cbbd
000000c0: 1134 77bd 5a83 5dbd b54c bfbd e608 b23d
000000d0: 9ee0 46be bc5c b03d 5fb6 49be fe8a 763d
000000e0: 6047 17be b92e 3a3e 3e03 193e 21b4 c23d
000000f0: 17f4 fc3d e67f 08bd b186 4d3d 373b 353e
00000100: d400 a63c 5604 6e3e 530f b3bd e77a 823e
00000110: 2d7a 8a3d e740 923d 7061 1cbd dd46 5e3d
00000120: 2db1 313e 1c35 c5bc 8663 863d 92d3 8dbd
00000130: f415 a639 c425 3b3e 38c1 debd 15aa fcbc
00000140: 656a a1bd 08ad a0bd 353f c73d 6c9f 66bd
00000150: de6f b4bb 2ad8 8cbd 836a 16bd 3d65 b03d
00000160: aa78 0f3b 464d 023e f288 0ebe 6149 343d
00000170: f3d3 383e 4238 fb3d da58 39be 6a91 e83d
00000180: 7678 d43d 7c61 52bd b268 e6bd a85e 80bd
00000190: a947 4a3d 9597 ccbd 7dc1 10be 6dc1 28bd
000001a0: 4736 343c c30f 123d 5912 b8bc e3d8 f93c
000001b0: bb1b fbbd 013e 2ebd 2bb5 823c fcb0 0c3e
000001c0: a20f 0fbe e494 cc3d 284e e4bd d256 e5bd
000001d0: 83b1 6f3d ccf3 9abd 2f9e a8bd bad7 0e3e
000001e0: c1a8 edbd f0de 113e 5c20 e1bd 6042 f3bc
000001f0: 7046 90bb 9977 c0bd acf3 c13d faa6 043e
00000200: 9eb6 47bd 65a7 943d 4248 b63d e14f 0cbe
00000210: e4c5 553d 8ab0 193b 4605 03bd 308f efbc
00000220: 0f21 bcbd 449b cebc 4bef 06be 13b3 c6bd
00000230: 66ed c63a 1459 b03c e0c3 e73d 8102 b9bd
00000240: 0ee2 c8bd e80f fe3d b3bc 87bd 8400 073e
00000250: 437a 08bc 3c00 fa3d 2963 e3bd 690a de3d
00000260: df93 453e 3eac bebd a6b6 0e3c 5742 13bd
00000270: d56c 7b3d 2dc0 55bd 643c 52bd 20cb 5f3c
00000280: 5042 c33c 73d6 113e 4dd9 11be fb37 17bd
00000290: ed0b d4bd 27c3 8f3d af1f e63d 1269 073d
000002a0: de5f 8bbd 0a49 b0bb a5c4 96bd 90c1 e3bd
000002b0: babf fd3c b412 cd3b d312 3a3e 4374 833d
000002c0: 92e1 b9bd b3b4 c4bb 6838 80bd 1ed3 04bd
000002d0: 2b25 703d 1ffc 133e 311f 633d 971f d8bd
000002e0: d97c 133e f51c 1cbe aeab 043e 63bb d6bd
000002f0: d91d 92bd 70a6 b7bb 61fb 3dbd a067 023e
00000300: 0bc5 b43d b0fa ba3d 9cb2 d6bd 4f9f c33d
00000310: 6e6f 42bc 8268 e1bd 66b4 933c c5d5 d8bd
00000320: f630 6d3d 26cb a43d 4b86 123d a69c d83d
00000330: 0aee 813d dd65 133e 8115 9d3d f6b0 883d
00000340: 997f aabd c90f 493e 3524 ba3d 5aff d53c
00000350: e263 f33d e3a5 ed3c 0bdc 0bbe fb5f 5abe
00000360: 0cd2 37bc 2a14 123e af8f 243e d4d2 5cbd
00000370: 1012 0dbe 0337 1dbe b379 493d f11c fe3c
00000380: 704f fbbd 761b 943d 5812 bc3d ca26 b7bd
00000390: 68c8 f33d caef 36be 0169 053e 879c d8bd
000003a0: a7c0 1e3e 9313 febd 923a 14bd b499 d6bd
000003b0: 164c e5bc 23c2 2e3e c238 cbbc 9672 cabd
000003c0: a87c 1c3e 1810 033e a246 ae3c 7720 1abe
000003d0: bcfd ddbc 56bb 363d 68c7 92bd 2e23 5cbd
000003e0: de72 d4bc 22f3 acbd 4769 0fbe 4ee9 3b3d
000003f0: f6ea 043e ffa7 b63d 0474 9fbd d5e6 eebd
-0.019769074 -0.10507776 0.026778964 0.050844546 -0.13238671 -0.26496762 0.11049865 -0.17889139
0.15312369 0.21783662 0.020692011 -0.0137116285 0.05370318 0.11194252 0.11764789 0.039861716
0.06341779 0.09735311 0.19075587 0.09927122 -0.17729466 0.14463723 -0.1311782 -0.13534978
0.042423513 0.0414684 0.017170087 0.27344903 -0.10352209 -0.16786076 -0.061833378 0.18201381
0.022288824 0.00803343 -0.0054169283 -0.053404063 0.04168876 0.09991358 0.10842823 0.3037868
0.060779303 -0.114635535 0.0010871757 0.22590014 0.16780049 0.0316592 0.12770055 -0.099598415
-0.06035239 -0.054080345 -0.093408026 0.086931035 -0.19421622 0.08611438 -0.19698475 0.060191147
-0.14773321 0.18181886 0.14942643 0.09507013 0.12351244 -0.0333251 0.05017728 0.1769837
0.020264067 0.23243842 -0.08743157 0.25484392 0.067615844 0.071412854 -0.03817886 0.0542668
0.17352743 -0.024073176 0.06561951 -0.069251195 0.00031678344 0.18276125 -0.10876697 -0.03084282
-0.07881621 -0.07845503 0.09728853 -0.05630438 -0.0055064997 -0.068771675 -0.03672267 0.0861306
0.002189199 0.1272479 -0.13919428 0.044015292 0.18049602 0.1226659 -0.181003 0.113558605
0.103745386 -0.0513625 -0.11250438 -0.06268054 0.049384747 -0.099898495 -0.1413631 -0.04120009
0.010999269 0.035659563 -0.022469686 0.030498927 -0.122611485 -0.0425396 0.015955528 0.13739389
-0.13970807 0.09989336 -0.111477196 -0.111982 0.058518898 -0.07566032 -0.08233296 0.1394948
-0.11604453 0.142452 -0.109925 -0.029694736 -0.004402928 -0.093978114 0.09470305 0.12954322
-0.04875814 0.072584905 0.08900501 -0.13702346 0.052190676 0.0023451173 -0.03198745 -0.029243082
-0.09185993 -0.02522052 -0.1317722 -0.097021244 0.0015176951 0.02152685 0.11316657 -0.09033681
-0.098087415 0.124053776 -0.066277884 0.1318379 -0.008329931 0.12207076 -0.11102898 0.10841829
0.1929469 -0.09310196 0.008710539 -0.03595194 0.061383087 -0.052185226 -0.051327124 0.013659269
0.023835331 0.14241962 -0.1424305 -0.03691862 -0.10353837 0.07019644 0.11236512 0.033059187
-0.068053946 -0.0053798007 -0.07361726 -0.111209035 0.030975211 0.006258333 0.18171243 0.064186595
-0.09076227 -0.0060029863 -0.06260759 -0.0324279 0.058629196 0.14451645 0.05544967 -0.105529
0.14403094 -0.15245421 0.12956116 -0.1048496 -0.07134599 -0.0056045577 -0.04638231 0.12734842
0.088266455 0.09129846 -0.10483286 0.0955187 -0.011867387 -0.110062614 0.018030357 -0.10587648
0.05790802 0.0804656 0.035772603 0.10576753 0.063442305 0.14394327 0.07670117 0.066743776
-0.083251186 0.19634928 0.09088937 0.026122738 0.118842855 0.029009765 -0.13658158 -0.21325676
-0.011219513 0.14265504 0.16070436 -0.053912 -0.13776422 -0.15353017 0.049188327 0.03101966
-0.12271011 0.072318 0.09183186 -0.08942945 0.11903459 -0.1786491 0.13028337 -0.1057673
0.15503179 -0.12406077 -0.03618867 -0.10478535 -0.027990382 0.17066245 -0.024807338 -0.09885137
0.15281928 0.12799108 0.021273915 -0.15051447 -0.027098529 0.04461225 -0.0716694 -0.053744487
-0.02593368 -0.084448114 -0.14005004 0.045876794 0.12980255 0.089187615 -0.077858 -0.116651215

bias f4 [50]
00000000: 0e1d 923d 1185 dd3c 5eb8 0dbd 00c5 ab3d
00000010: 194e da3d 1861 5d3d bfb9 0a3e 1582 b83d
00000020: 845f a73d 8242 b8bc 4338 f63d 5f0f a03e
00000030: 9ca8 343e 00a0 a73d 5ec3 f9bd 80fb 2cbc
00000040: 63b7 0d3e 6b57 2a3e de94 ef3d 4149 10be
00000050: b72c cbbd 2a85 ad3c 2b18 fc3d 1bb9 d13c
00000060: ec44 8f3e 6a01 103e 58d1 f6bc 5ca4 a03d
00000070: a9f9 363e 3117 3e3e 8367 8b3e 530e 1f3d
00000080: 152c 753e fb89 0dbe 54d0 d83d ccdf e33d
00000090: a367 07bb ab71 a93b eb12 abbc 0881 773d
000000a0: e585 8d3e 5ee8 123e b8ed 883e c120 df3d
000000b0: 86d1 5b3e b849 803e 226a a13d fb24 1e3e
000000c0: 6bd7 13be 6d53 b03d
0.07134448 0.02704099 -0.034599654 0.08387184 0.10659427 0.054047674 0.13547419 0.09009186
0.08172515 -0.02249265 0.1202245 0.31261727 0.17642444 0.081848145 -0.121954665 -0.010558009
0.13839488 0.1663491 0.11698316 -0.14090444 -0.09920638 0.021181662 0.12309297 0.02560096
0.2798227 0.1406304 -0.03012912 0.07843849 0.17868675 0.18563534 0.2722741 0.03883202
0.23942597 -0.13822167 0.105866104 0.1112667 -0.0020661138 0.005171021 -0.020883044 0.06042579
0.27641216 0.14346454 0.26743865 0.10894919 0.21466646 0.25056243 0.07881571 0.15443794
-0.14437644 0.08609662

weight f4 [20, 50]
00000000: 2a4b 7d3e 6293 7cbe 70fc e3bd 30a1 0b3e
00000010: 3b5f 263b 6b48 bf3e 0e89 1b3e cf11 b33d
00000020: baea e53d af92 9e3e 4b9e 9dbe d5dd d23d
00000030: 81f4 5e3e de7d 50be d1bc 23be fc65 b33d
00000040: a578 863e cbdb ba3e a01a 943e f685 043e
00000050: b1e9 8f3e b921 2e3b 2547 4b3e edfa 5bbe
00000060: b38c 973e f864 4cbd 9b81 85bd 203c 6abe
00000070: 6e7b 8ebe 710e edbd c999 2cbc 4ca7 dbbc
00000080: b1de 1e3f 80fd 1bbd c78f d93d fb26 d73d
00000090: e8d3 a8bc e0db 863d 033a 243e 1ca0 3cbe
000000a0: 53e3 413e 9a72 17bd a3e7 d9bd d4e0 71be
000000b0: b52c 4c3c 44d7 0ebe a203 a4be 3a68 043e
000000c0: 52f6 c6bc 9ce2 52bc 8e77 1abe 4e5c 3c3d
000000d0: 5e78 45bd 6adc 97bc 608a 3cbe 8422 f5bd
000000e0: 5ad7 573e 5979 c7bd d9d8 873e dd22 08be
000000f0: ecc0 153e afe4 a83c 8c79 773e b775 74bd
00000100: 04e4 183e 32df 213d 65dc 283e 6de4 45be
00000110: 60c9 aa3d 76a5 f53b 26c7 b2bd edbc 983d
00000120: 0c4b 5a3c fd7b 44bc a2b8 17be c997 6c3e
00000130: 0a02 eb3d cddc 883e 7596 a6bd 72a8 54bd
00000140: da7e 103e 4858 91bb 6a35 b33e 0815 9b3b
00000150: 76bf 2abe c73c 9e3e ccf0 813d 8233 983a
00000160: b438 c33d e404 39bd d292 643e 1100 70be
00000170: d52d 4b3d 797c ef3d 3103 143d 42c7 df3d
00000180: f501 2f3e 23c0 483e c166 b5bc 6c75 c7bc
00000190: 6c21 e53c 4106 243e b817 12bd 7c28 ecbd
000001a0: 98f2 1dbe 0844 00bc f8d9 f5bd e958 123e
000001b0: 2b3a 633e c44b ed3d 9fcd 693d 9f2f b53e
000001c0: e600 d53d 28d6 633e d4bb 46bd b4b1 febd
000001d0: da18 9f3d 868e e63e e533 9fbd 58fe 84bd
000001e0: f0cd adbd 7695 553d 66d2 29be aac8 873d
000001f0: b02b 66be a585 473e 620c 9fbd 8e50 c63e
00000200: 9854 573d ba1e 533c fc0e 91bd 807d c13c
00000210: c0a8 46be bd54 57bd 4a3c 8f3e 919a a0bc
00000220: 5495 d2bd d865 8f3d ca38 903e 40b7 ccbc
00000230: 05c8 8ebc f85e e3bc 77ba babd 4395 163d
00000240: 2bbb f4bb 4611 4d3e ac07 babd 003e bd3d
00000250: 330c 5a3e 8fc8 7b3e 7088 0b3c 4cd6 e83d
00000260: 3068 b7bd 6918 debd 6e43 ee39 541f bdbd
00000270: 0392 a0bd f008 9dbd 5902 8bbd ab2f 8d3d
00000280: 6de9 543d 7ab6 b13d 9ad4 4fbd 93ba c93b
00000290: ae47 9abd 2de9 60bd f1fe 7d3c 18bb f63a
000002a0: 85c6 37bd 3329 973d 925d c23d 227f a2bc
000002b0: fa00 b33c 656a c1bd 75e1 71bc 4038 82bd
000002c0: f2e6 d4bd 8d70 88bd 89a8 0abe 8ef0 8dbd
000002d0: 3be3 04bd 1693 1bbd 30d6 bfbd 7d42 9e3d
000002e0: deb5 d5bd 9c41 a03d fcb8 02bd 6b39 8cbd
000002f0: a461 193d 4a62 15bc 832a 08be 396c 9ebd
00000300: 5c73 24bd cdab dc3d 37bb ef3b 8835 be3d
00000310: a53f 883d 533b f4bd 1989 5abc 8db0 ddbd
00000320: f0d5 273e 7e98 093d 396b e2bd e7ef 70bd
00000330: aa9a 2b3c 8b8a ea3d 3c30 2ebe e597 57be
00000340: 1223 ef3d e103 ea3d 2c3a cb3e 99b8 89bd
00000350: 9f7f be3d ce38 dbbd b8fc 503d bec9 4b3e
00000360: ccb8 a0bd d0c7 0abe 27f0 a1bd 2bb0 b9bd
00000370: 8c94 163d 2404 24bd 4ec0 a93e 9657 4f3e
00000380: 7ac6 22be c393 843e 8c26 b7bb c4b7 7ebe
00000390: 881a 1e3d f4e9 0e3e 766d 283d 8599 3dbb
000003a0: ddf5 633e 3439 bc3d 6dba 3ebe db28 35be
000003b0: 1d39 21bc 2a5a 1dbd 811b b3bd c4af 1ebe
000003c0: 9aa6 13bc 8233 043e 717d 063e bff4 443e
000003d0: e893 0fbe 5e54 ee3d 5942 a93e ee23 6e3e
000003e0: ca8d d03d cfb9 a63d c958 c73e 3b66 6d3e
000003f0: e610 0c3d 5292 c33d dc32 903d d370 1c3c
0.24735704 -0.24665597 -0.11132133 0.13635707 0.0025386352 0.37359938 0.15189001 0.08743631
0.11226411 0.30971286 -0.3078483 0.10296217 0.21772958 -0.20360515 -0.15989996 0.08759686
0.2626392 0.36495814 0.28926563 0.12941727 0.2810798 0.0026570393 0.19851358 -0.2148244
0.29599532 -0.04990098 -0.06518861 -0.22874498 -0.27828544 -0.1157502 -0.010534712 -0.026813172
0.6205855 -0.038083553 0.106231265 0.10505482 -0.020608857 0.065849066 0.16037755 -0.18420452
0.18934374 -0.036974527 -0.10639884 -0.23620921 0.012461831 -0.13949305 -0.32034022 0.12930384
-0.024287377 -0.012871411 -0.15084669 0.045986466 -0.048210494 -0.018537719 -0.18412161 -0.11969474
0.21078244 -0.09739942 0.2653263 -0.1329455 0.14624375 0.020616857 0.2416746 -0.059682574
0.14930731 0.039519496 0.16490324 -0.19325419 0.083391905 0.007496531 -0.08729391 0.0745791
0.013323557 -0.011992452 -0.14816526 0.23104776 0.11474998 0.26730958 -0.08134166 -0.051918454
0.1411089 -0.004435573 0.3500169 0.0047327317 -0.16674599 0.30905744 0.063447565 0.001161203
0.095323 -0.04517068 0.22321633 -0.23437525 0.049604256 0.11693663 0.036135856 0.10926677
0.1709059 0.19604544 -0.022143723 -0.024347983 0.027970038 0.1601801 -0.03566715 -0.11531159
-0.15424573 -0.00782872 -0.12004465 0.14291729 0.22190158 0.11586717 0.05708086 0.35387895
0.10400562 0.22249663 -0.04851897 -0.12436238 0.07768412 0.45030612 -0.0777357 -0.06493825
-0.08486545 0.05214449 -0.16584167 0.066300705 -0.22477603 0.19484575 -0.07766034 0.38733333
0.05257091 0.012885744 -0.07082936 0.023619413 -0.1940031 -0.052571047 0.27975684 -0.019604953
-0.10282388 0.07001847 0.28168327 -0.024989724 -0.017429361 -0.027755246 -0.091175966 0.03676344
-0.007468601 0.2002612 -0.090834945 0.09240341 0.21293716 0.24588226 0.008516416 0.11368999
-0.08955419 -0.108444996 0.00045445136 -0.09234491 -0.078403495 -0.0766772 -0.06787557 0.068938576
0.051980425 0.08677383 -0.050739862 0.0061562746 -0.07533203 -0.054909874 0.015502677 0.0018824069
-0.044867057 0.07380905 0.09490503 -0.019836012 0.021851052 -0.09444121 -0.014763226 -0.06358385
-0.10395612 -0.06662092 -0.13540854 -0.06930648 -0.032443266 -0.03798207 -0.09367025 0.077275254
-0.10435079 0.07825014 -0.031914696 -0.06846889 0.037446633 -0.009117672 -0.13297467 -0.077354856
-0.040149078 0.10774956 0.007316019 0.09287554 0.06652764 -0.11925378 -0.013338351 -0.1082469
0.16390204 0.033592694 -0.11055607 -0.05882254 0.0104738865 0.11452206 -0.17010587 -0.21054037
0.11676611 0.11426521 0.3969282 -0.06724662 0.093016855 -0.10704194 0.05102226 0.19901177
-0.07847747 -0.13552785 -0.079071335 -0.090668045 0.03676276 -0.04004301 0.3315453 0.20248255
-0.15896025 0.25893983 -0.005589312 -0.24874789 0.03859952 0.13956434 0.041120015 -0.0028930616
0.22261758 0.09190598 -0.18625803 -0.17691366 -0.009840277 -0.038416065 -0.0874548 -0.15496737
-0.009011889 0.12910274 0.1313379 0.19233988 -0.14021266 0.116371855 0.33058432 0.23255894
0.10183294 0.08140909 0.38934925 0.23183529 0.034195803 0.09549393 0.07040951 0.009548384

bias f4 [20]
00000000: 5012 943e 55b4 543e 259f ba3d 1875 ffbd
00000010: e35a 173c f990 ee3d 2a57 f5bc 441f 623e
00000020: 6b85 323e 3120 183d 22e2 2b3e bf01 e53b
00000030: 528d dcbd 97e3 293e b4d0 f3bd d731 81bd
00000040: 9df5 80bd c8f3 44bd 6f1e 603e f1c8 be3e
0.2892022 0.20771916 0.09112386 -0.12473506 0.009237978 0.11648745 -0.02994879 0.2208224
0.17433707 0.037140075 0.16785482 0.0069887335 -0.10769142 0.16590725 -0.11905041 -0.06308334
-0.06296847 -0.04808405 0.2188661 0.3726268

weight f4 [10, 20]
00000000: bf35 513d e493 01bf 8eee 423f 4ab0 d83d
00000010: fef4 63be a85d 1bbf 3438 e7bd 533c dfbd
00000020: 9238 143f 1dff f2be 43cc c6bd 1b7b 8fbe
00000030: ab1c b3bd 8245 543e 8165 60be b98b 4f3e
00000040: e432 b23e cc32 153e ebad 1bbf 0cca 08bd
00000050: 4c20 c7be 1118 813e 8010 dfbe 9a73 97bd
00000060: 5f86 553e 2990 d4be 1b7c f2bd cacd cb3e
00000070: e18d 46be ecaa aa3e b895 113f 0a43 b03e
00000080: bd01 20be 0ed4 7fbe 1ca7 783d b04b 31bf
00000090: 6b2d c7be df67 9d3e 55af 453e bf28 d03e
000000a0: 458d ab3d d634 063f b4e0 c03e 06c2 bebd
000000b0: fd86 a43e a026 4b3e 6948 4e3e 9232 b63e
000000c0: e79c cd3e 33b6 74bd de12 11bd eda5 303e
000000d0: 4710 2ebe 58b8 5abe e352 29be 9405 cb3d
000000e0: 57e6 f2be 4972 fd3d 6eb3 22bf 0272 2bbf
000000f0: 26ae 0d3f abfc cabd 648c 4cbe 5eac 3e3e
00000100: 8776 9d3e 1a27 f0be 802f c33a 223c dbbd
00000110: 18fb f73e 495e 33be aaef 073b d9ba 1f3f
00000120: 6bfc acbd 51cf b3be d9ba bfbd 6d49 a33e
00000130: 6efd ecbe 1861 8fbe 14e0 ae3e 9890 bcbd
00000140: b504 e2be 07da 743c 9840 5ebd 4009 f43d
00000150: 3596 d3bd 0a9b 8d3c 6128 353e 4954 c73e
00000160: 527b ddbe 5e1d 253f 1b8e 6dbe 7863 d7be
00000170: eda7 64be 1df2 a13e f87a 763c 1971 133f
00000180: 9a9e d3bd 158f 013e 1c78 b3bc 650c 3abe
00000190: 10aa 533f 9c01 b53d 5e20 aebc a106 353e
000001a0: 54af edbe b8e9 f0be 71dc 8bbe ae1a 733e
000001b0: da63 373e 9d49 5ebe 5469 87ba 503b 62be
000001c0: 7688 8a3d 5737 48be 71c8 0d3e 784a 5cbe
000001d0: 4087 d13e ff6f 54be 68ce b73e 56be a13e
000001e0: fda0 58be 1797 903d be39 a3bd bf2c 13be
000001f0: b2fb e7be 8d2f 3fbe 2497 4fbe 3fc7 753f
00000200: f1b1 733d e295 1e3f c8b9 91be b296 b5be
00000210: fc3f 9d3d 54d8 c8be 8143 073e 8055 adbe
00000220: 8661 013f 624f e7bd 42a2 e7be 879f 0dbf
00000230: 62a0 31bf a0fa 8fbe 248a b43d 255b c4bc
00000240: ebd1 e83e 61de 04be 5899 f23d 20d9 c9be
00000250: ccb9 b6be 6d72 63be d662 a53e 1dd4 b83e
00000260: fef2 b13d 9c80 213f 7885 903e 5284 ea3d
00000270: 8c7d 9bbe 9b99 a6bd 7c77 d03d b7d9 ee3e
00000280: 380e 2d3e 6452 24bd 470d 33be 719a f9bd
00000290: 8eda ad3e d2c4 373f 093d 84be 7bac d5be
000002a0: d457 d43e fb70 073e 0ae4 8fbe e223 4abb
000002b0: 5e2f 1f3e 4b21 e7be 8b14 19bc 82a3 cfbe
000002c0: bd4c 093f 6867 bbbd a379 3f3e 2942 f9be
000002d0: 9853 b9be ee16 d83e 9768 793e 9741 f1bd
000002e0: 45dc 2f3e eebd d33e 9ec5 503e ca8d 23bf
000002f0: 7270 14bf 5fed 52be 269a 2cbe 30a1 0ebf
00000300: 4c05 a0bd 6a35 08be ef7d e4bd ead8 033f
00000310: bcab 963d ee45 62be 5ca9 b43d 7cc7 b43e
0.051076647 -0.5061629 0.76145256 0.105804995 -0.22261426 -0.60689783 -0.11290017 -0.10900178
0.5789882 -0.4746026 -0.097069286 -0.2802361 -0.08745702 0.2072964 -0.2191372 0.20268144
0.3480445 0.14570159 -0.6081225 -0.033395812 -0.38891828 0.25213674 -0.43567276 -0.07395096
0.2085204 -0.41516235 -0.118400775 0.39805442 -0.1939006 0.33333528 0.5686908 0.34426147
-0.15625663 -0.24983236 0.060706243 -0.69256115 -0.3890184 0.3074331 0.19305165 0.40656087
0.083765544 0.5242437 0.37671435 -0.09314351 0.32134238 0.19838953 0.2014481 0.35585457
0.4015877 -0.05974407 -0.035418384 0.17250796 -0.16998397 -0.21359384 -0.16535525 0.09913173
-0.4744136 0.12375314 -0.6355504 -0.6697084 0.55343854 -0.09911474 -0.1997543 0.1862044
0.30754492 -0.46904832 0.0014891475 -0.10704829 0.48433757 -0.17516436 0.0020742216 0.6239448
-0.084465824 -0.35119107 -0.0936181 0.31891957 -0.46287102 -0.28003764 0.34155333 -0.092072666
-0.44144216 0.01494456 -0.05426082 0.11915827 -0.10331384 0.017285842 0.17691185 0.38931492
-0.43258148 0.64497936 -0.2319874 -0.42068076 -0.22329684 0.3163003 0.0150439665 0.5759445
-0.10332985 0.12652238 -0.021907859 -0.1816879 0.8268137 0.088381976 -0.021255668 0.1767831
-0.46422827 -0.47053313 -0.2731662 0.23740646 0.17909184 -0.21707769 -0.0010331073 -0.22092938
0.06764309 -0.1955236 0.13845994 -0.21512783 0.409235 -0.20745848 0.35899663 0.31590527
-0.21155162 0.07060068 -0.07969998 -0.14372538 -0.45309216 -0.18670483 -0.202725 0.9600715
0.05949587 0.61947453 -0.28462052 -0.35466534 0.0767822 -0.39227545 0.13209344 -0.33854294
0.50539434 -0.11294438 -0.4524098 -0.55321544 -0.6938535 -0.281209 0.08815411 -0.023969242
0.45472655 -0.12975456 0.11845654 -0.39423466 -0.35688627 -0.22211619 0.32301968 0.3609933
0.08688925 0.6308687 0.2822683 0.11451019 -0.30369222 -0.08134767 0.1017904 0.46650478
0.16899955 -0.040117636 -0.17485534 -0.121876605 0.33955806 0.717847 -0.25827816 -0.41733155
0.41473258 0.13226692 -0.28103667 -0.0030844142 0.15545413 -0.45142588 -0.009343277 -0.40554434
0.5363272 -0.091505826 0.18698744 -0.4868329 -0.3619659 0.42204994 0.24356304 -0.117800884
0.1717387 0.41355842 0.20387885 -0.6388823 -0.5798408 -0.20598362 -0.16855678 -0.557147
-0.0781351 -0.13301626 -0.111568324 0.5150286 0.073569745 -0.22096989 0.08821365 0.35308444

bias f4 [10]
00000000: c597 5cbd 2d0a 163e 761a c53d 714c 28be
00000010: 77c2 29bd f581 3a3e ada8 373d 849e 6a3d
00000020: f78c 763d 6255 a93d
-0.053855676 0.14652319 0.09624188 -0.1643541 -0.04144522 0.18213637 0.044838596 0.05728008
0.06019303 0.082682386
