datasets/mnist/partition_noniid-#label_major_classes_num_1_clients_10_dir_alpha_None_augement_data_percent_per_class_0.005_augement_data_with_zeros_250_seed_42/models/batch_size_256_com_round_25_epochs_5_lr_0.1_sample_ratio_0.9_personalization_steps_25_model_smallmlp/client_3.pt (torch, 167055 bytes, 8 tensors)

weight f4 [50, 784]
0	0xb98c2fff	-0.0002673864
1	0x3c9cf2b5	0.0191587
2	0xbcf0cca9	-0.029394465
3	0xbcd75093	-0.026283538
4	0xbc615ed0	-0.013755515
5	0x3c1ce90e	0.009577049
6	0xba397f27	-0.0007076137
7	0x3ce7fa13	0.028317487
8	0xbb4fb637	-0.0031694302
9	0x3c1ad60e	0.009450449
10	0xbc30d67d	-0.0107933255
11	0xbbe609a4	-0.007020192
12	0xbd0bc592	-0.034123965
13	0xbcc1d7e3	-0.023662513
14	0xbc71359a	-0.014722252
15	0x3aad6801	0.0013229848
16	0x3c6753dc	0.014119115
17	0x3caf8cae	0.021429386
18	0xbcc658a1	-0.024212183
19	0xbc7eced8	-0.015552245
20	0x3c5488b0	0.012972042
21	0x3cf2f2a3	0.029656714
22	0xbbf0d853	-0.0073500066
23	0x3cdaef49	0.026725428
24	0xbbbca16e	-0.0057565486
25	0x3b77aa5c	0.003779075
26	0x3d04754f	0.032338437
27	0xbd07b476	-0.033131085
28	0xbcb82f51	-0.0224835
29	0xbc14234a	-0.009041617
30	0xbc6416b3	-0.013921428
31	0x3cfcc82e	0.030857172
32	0xbcbda3a2	-0.023149315
33	0xbc86a8bf	-0.016437886
34	0xbccbff06	-0.024901878
35	0xbd08c843	-0.03339411
36	0xbcaafde1	-0.020873012
37	0x3cfb1e82	0.030654196
38	0x3c81f3ad	0.015863264
39	0x3c8e8dda	0.017401624
40	0x3b108665	0.0022052762
41	0xbc925b0e	-0.017865684
42	0x3bcc4f78	0.0062350594
43	0xbd047b15	-0.032343943
44	0xbcbbd98c	-0.022930883
45	0xbc8b2d59	-0.016989397
46	0x3cb87de4	0.022520967
47	0x3caa8697	0.02081613
48	0xbc82f95c	-0.015988044
49	0xb9a44cf4	-0.00031337852
50	0x3cbef4f9	0.023310171
51	0x3d116cd0	0.035504162
52	0x3c683b9b	0.014174367
53	0x3b9e18e5	0.004824745
54	0x3cc42a47	0.02394594
55	0xbcac4449	-0.021028655
56	0x3bda1364	0.0066551436
57	0xbce2d50e	-0.027689483
58	0xbccac70e	-0.02475312
59	0xbc972c81	-0.018453838
60	0x3c845be0	0.01615709
61	0x3c6e60f6	0.0145494845
62	0xbcad71a7	-0.021172358
63	0x3c34a466	0.011025524
64	0x3c9b323c	0.018944852
65	0xbbc86c4a	-0.0061164247
66	0x3a4cc22a	0.0007810915
67	0x3bef8dc1	0.0073105996
68	0x3ca1f1cb	0.019768616
69	0x3ceb8437	0.028749568
70	0xbd06bfe4	-0.032897845
71	0xbc75388c	-0.014967095
72	0x3c597a13	0.013273734
73	0x3cecc437	0.028902156
74	0x3cfcb1d4	0.030846514
75	0x3ce3d7d0	0.027812868
76	0x3b5c9ff2	0.003366467
77	0xbd05e655	-0.032690365
78	0x3b75f980	0.0037532747
79	0xbcb7dc0a	-0.02244379
80	0xbd0870c0	-0.03331065
81	0x3d01f6ec	0.031729624
82	0x3cde75a5	0.027155707
83	0xbd11ec92	-0.035626
84	0x3bdb0b7b	0.006684718
85	0xbbc52577	-0.006016429
86	0xbbc096c5	-0.005877348
87	0xbc863a68	-0.016385272
88	0x3c60796e	0.013700826
89	0xbcb1cbcb	-0.021703621
90	0x3c444f4b	0.011981796
91	0x3c820991	0.015873702
92	0x3cbb82de	0.02288955
93	0x3c18ed89	0.009333977
94	0xbd237693	-0.039908003
95	0xbcd48d05	-0.02594615
96	0x3c40807b	0.011749382
97	0xbb905c8c	-0.0044055637
98	0xbd1745b0	-0.036931694
99	0xbcd8b8d6	-0.026455324
100	0x3ce34a5c	0.027745418
101	0x3c81182d	0.015758598
102	0xbcd6232a	-0.026139814
103	0xbcbe213b	-0.023209205
104	0xbd47d4df	-0.048786994
105	0xbc143596	-0.009045979
106	0xbcf8f9ee	-0.030392613
107	0xbcefb311	-0.02926019
108	0xbb5c4164	-0.0033608312
109	0x3ba7f04d	0.0051250816
110	0xbc6ffaba	-0.01464718
111	0x3cad9af9	0.02119206
112	0xbcb20a89	-0.02173354
113	0x3d04bc3a	0.03240607
114	0x3cc87ef6	0.024474602
115	0xbcf6ae06	-0.030112278
116	0xbc13b881	-0.009016157
117	0x39b7842c	0.00035002956
118	0x3b3c3540	0.0028718263
119	0x3b8c6942	0.0042850086
120	0x3c1449b4	0.009050775
121	0xbb293c19	-0.0025823175
122	0xbc96b349	-0.018396037
123	0x3cce7144	0.025200494
124	0xbcf4101d	-0.02979284
125	0xbcc82cb2	-0.024435375
126	0xbca49d0a	-0.020094413
127	0xbc82626d	-0.015916074
128	0xbc9f8458	-0.019472286
129	0xbd04f32d	-0.032458473
130	0xbc827c53	-0.015928423
131	0xbca28d9e	-0.019842919
132	0xbd46bc32	-0.04851932
133	0xbc90d786	-0.017680895
134	0x3c7e588a	0.015524039
135	0xbc7100c7	-0.014709658
136	0xbb373ef8	-0.0027961116
137	0xbb8bb0c9	-0.004263018
138	0x3bed224c	0.0072367545
139	0x3cb9b85d	0.02267092
140	0x3d0a918f	0.03383022
141	0x3cb9cc9a	0.02268057
142	0x3d0adc16	0.033901297
143	0xbb2a22e1	-0.002596073
144	0xbd0841e9	-0.03326598
145	0xbc9f194d	-0.019421244
146	0x3cb390f5	0.021919707
147	0xbad07535	-0.0015904071
148	0xbc9a86bf	-0.01886308
149	0xbd10666f	-0.03525394
150	0xbd10fc27	-0.03539672
151	0xbce5826e	-0.028016295
152	0xbc801093	-0.015632903
153	0xbba0f036	-0.004911448
154	0xbb55f27a	-0.0032645748
155	0xbd431073	-0.04762311
156	0xba872785	-0.001031146
157	0xbd3ef913	-0.046624254
158	0xbcb550c9	-0.022133248
159	0xbd15d776	-0.036582433
160	0xbc9894d3	-0.018625652
161	0xbca34907	-0.019932283
162	0xbd07aa64	-0.03312148
163	0xbd21b23e	-0.039476626
164	0xbbd28e4b	-0.006425654
165	0x3b99c207	0.0046923193
166	0xbc7b65e3	-0.015344116
167	0x3c5a0294	0.013306279
168	0xbd03aa6b	-0.032144945
169	0xbb1df635	-0.002410305
170	0x3d00497b	0.031320076
171	0xbc6f5be3	-0.01460931
172	0x3cfdd808	0.0309868
173	0x3c7862c6	0.015160268
174	0xbd04ca11	-0.032419268
175	0x3ca02ea2	0.019553486
176	0xbc251962	-0.0100768525
177	0xbd14fb29	-0.036372337
178	0x3c6d1a53	0.014471608
179	0xbd2238bb	-0.039604884
180	0xbb5c3c29	-0.0033605194
181	0xbcd516d1	-0.026011856
182	0x3c94a5bb	0.018145433
183	0x3a40e51c	0.00073583587
184	0x3b2c36c8	0.002627777
185	0x3ba6e39c	0.005093051
186	0xbabd4f5e	-0.0014443209
187	0x3b7a0572	0.0038150218
188	0xbd04721c	-0.032335386
189	0x3cbe4e81	0.023230793
190	0x3d3cb3a3	0.046069752
191	0x3d164819	0.03668985
192	0xbc779d38	-0.015113167
193	0x3c1d864b	0.0096145375
194	0xbcc0a40b	-0.023515722
195	0xbca28a9e	-0.019841488
196	0xbcaa7a1f	-0.020810185
197	0x3c48f671	0.012265787
198	0xbcb17875	-0.021663884
199	0xb9fb8173	-0.00047970898
200	0x3aa68499	0.0012704312
201	0x3ce64f6e	0.028114047
202	0xbcdedbdf	-0.027204452
203	0xbd001111	-0.031266276
204	0xbd16a024	-0.036773816
205	0x3c8dabee	0.017293897
206	0xbc57f6e1	-0.013181419
207	0x3d2381e6	0.039918803
208	0x3ceeb37f	0.029138325
209	0x3cd67ef8	0.02618359
210	0x3cdd8252	0.02703968
211	0x3c1d9e81	0.00962031
212	0x3cd1757d	0.025568718
213	0x3cdd08e2	0.026981775
214	0x3d1fe7b6	0.039039336
215	0x3d1584d6	0.036503635
216	0xbc70beb1	-0.014693902
217	0xbc4a69d7	-0.012354336
218	0x3d443c76	0.047909223
219	0xbc7e39e3	-0.015516731
220	0x3b3774fc	0.0027993312
221	0x3d1056f8	0.03523919
222	0x3c68a309	0.014199027
223	0x3a94a097	0.0011339363
224	0xbcfbde28	-0.03074558
225	0x3c92ba7f	0.017911194
226	0xbcc772dc	-0.024346761
227	0xbc18b8ab	-0.009321372
228	0xbc44c008	-0.012008674
229	0xba896d7a	-0.0010484897
230	0xbb5f052d	-0.0034030185
231	0x3ce3b727	0.027797295
232	0x3ac887d0	0.0015299264
233	0x3d17670b	0.036963504
234	0x3cafb235	0.02144728
235	0xbbb972e3	-0.0056594475
236	0x3d583a3f	0.052789923
237	0x3ba40da9	0.005006511
238	0x3cc40015	0.02392582
239	0x3d5a4b5a	0.053294517
240	0x3d8930ea	0.06698783
241	0x3d9b238f	0.07575142
242	0x3d1522a9	0.036410008
243	0x3cf46df2	0.029837582
244	0x3d35689b	0.044289213
245	0xbc54b3ec	-0.01298235
246	0x3d686eb8	0.056746215
247	0xbbbe6a59	-0.0058110175
248	0x3c35b683	0.0110908775
249	0xba8da8de	-0.0010807773
250	0xbc8f4699	-0.017489718
251	0x3b9ada20	0.0047257096
252	0x3cf1e664	0.029528804
253	0xbc22b577	-0.00993096
254	0xbca444b8	-0.020052299
255	0xbc2c6b2a	-0.010523597

bias f4 [50]
0	0xbd846911	-0.06465352
1	0x3de79712	0.11308111
2	0x3d8d2605	0.06892017
3	0x3dbb5c23	0.09148433
4	0x3dfc1882	0.12309362
5	0x3e4bb33d	0.19892593
6	0x3dfdb996	0.12388913
7	0x3c8bf9eb	0.017086944
8	0xbce41ca9	-0.027845697
9	0x3d83d417	0.06436937
10	0xbccb2ac3	-0.024800664
11	0x3e2d75fc	0.16939539
12	0x3e07df65	0.13268812
13	0x3d8ac226	0.06775312
14	0x3d26310b	0.040574115
15	0x3caf2e89	0.021384494
16	0x3c194c0d	0.009356511
17	0x3da31d07	0.07964521
18	0x3d90649b	0.07050439
19	0xbc4bc4d6	-0.012437066
20	0xbb97b4eb	-0.0046297214
21	0xbd674d29	-0.05647007
22	0x3dcb36a7	0.099225335
23	0x3e752348	0.2393924
24	0x3d9b372d	0.07578883
25	0x3e1c712e	0.1527755
26	0x3ddfe475	0.109322466
27	0x3e27e6bf	0.16396616
28	0x3dd15a62	0.10222317
29	0xbcfdddc1	-0.03098953
30	0x3e66e6ce	0.22548983
31	0x3e5765a5	0.21034868
32	0x3e5ecc8e	0.21757719
33	0x3d96050a	0.0732518
34	0x3e288977	0.16458689
35	0xbd93bd3c	-0.07213828
36	0x3d917590	0.071025014
37	0x3e07ae8a	0.13250175
38	0x3d5ddfee	0.054168634
39	0xbcc6895c	-0.02423542
40	0x3d329e59	0.043608043
41	0x3e196c64	0.14982754
42	0x3e0ea0bf	0.13928507
43	0x3dbb0422	0.09131648
44	0x3c376a47	0.011194772
45	0x3e71259b	0.23549502
46	0xbcc55b7e	-0.024091478
47	0xbce9a78c	-0.028522275
48	0x3e2093b4	0.15681344
49	0x3d80df66	0.0629261

weight f4 [20, 50]
0	0xbd0238f6	-0.031792603
1	0xbdd2c9c3	-0.10292389
2	0xbbf3f1ba	-0.0074445875
3	0xbc4be694	-0.012445111
4	0xbce8592b	-0.028362831
5	0xbe1ba578	-0.1519984
6	0x3e030c1d	0.1279759
7	0xbe18cb8f	-0.14921401
8	0x3d9e5b61	0.07732273
9	0x3e1514c1	0.14558698
10	0x3c210a8f	0.0098291775
11	0xbbbc9f8f	-0.0057563256
12	0x3d5efb76	0.05443903
13	0x3d7fff0f	0.062499102
14	0x3e39d324	0.1814695
15	0x3cd3dc5c	0.025861911
16	0x3dc6e770	0.09712112
17	0x3d276a31	0.040872756
18	0x3e126609	0.14296736
19	0x3da7f011	0.08200086
20	0xbdf434fd	-0.11924169
21	0x3ddd3552	0.10801186
22	0xbd8ef997	-0.06981199
23	0xbd0c40ba	-0.034241416
24	0x3c498847	0.012300557
25	0xbc578658	-0.013154589
26	0x3d1cb044	0.038254037
27	0x3e199171	0.14996888
28	0xbd9b3193	-0.07577815
29	0xbdbae865	-0.09126357
30	0xbd1923fe	-0.03738784
31	0x3e4989bf	0.19681452
32	0x3da1532a	0.078771904
33	0x3d8b5101	0.0680256
34	0xbce4d700	-0.027934551
35	0xbda79ea0	-0.08184552
36	0x3db7c4f5	0.089731134
37	0xbd1eae82	-0.038740642
38	0x3e1c0651	0.15236785
39	0x3dc4bcd2	0.09606327
40	0x3dddf150	0.10837042
41	0xbd308e23	-0.043104302
42	0x3db7a831	0.08967627
43	0x3deb0c92	0.11477007
44	0x3e0059dd	0.1253428
45	0xbdc353ed	-0.09537492
46	0x3e03af28	0.12859786
47	0xbd9dfbd1	-0.07714046
48	0x3d532746	0.051551126
49	0x3d075819	0.033043
50	0xbdbc6ba8	-0.09200221
51	0x3e15786b	0.14596717
52	0xbd48f8f4	-0.049065545
53	0x3d2ce1e7	0.042207625
54	0xbc01b186	-0.00791586
55	0x3e0c7ada	0.13718739
56	0xbde6e132	-0.11273421
57	0x3e198ae2	0.14994386
58	0x3e474071	0.19458176
59	0x3d040bd3	0.03223784
60	0x3db1d8b3	0.0868391
61	0xbd956c59	-0.07296056
62	0x3dc008dc	0.0937669
63	0x3e01aa44	0.12662607
64	0x388306de	6.247846e-05
65	0x3e224833	0.15847854
66	0xbd1782ec	-0.03699009
67	0x3e3930bf	0.18085001
68	0x3d697736	0.056998454
69	0x3dc8d270	0.09805763
70	0x3daa6c0f	0.08321392
71	0x3bf4fd1a	0.007476461
72	0x3e364077	0.17798029
73	0xbd4569a8	-0.048196465
74	0x3e40e3cd	0.18836899
75	0xbaa3fadd	-0.0012510676
76	0xbd6d23b9	-0.057895396
77	0x3e6022a0	0.21888208
78	0xbdd7f8b2	-0.10545482
79	0xbc7e52df	-0.015522688
80	0xbe14ea8b	-0.14542596
81	0x3ce95791	0.028484138
82	0x3dcb811c	0.09936735
83	0xbde934e7	-0.113870434
84	0x3d1da046	0.038482927
85	0xbde60770	-0.11231887
86	0xbdb801d1	-0.089847215
87	0x3d376c47	0.044780996
88	0x3d14f5de	0.03636729
89	0x3e2aef6d	0.16692896
90	0xbe4bad01	-0.19890215
91	0x3e424ccc	0.18974608
92	0x3dd7af61	0.10531498
93	0x3db335d1	0.08750499
94	0xbd754984	-0.059884563
95	0x3d101640	0.03517747
96	0x3dd5e667	0.104443364
97	0xbd859d66	-0.06524162
98	0xbd67db5d	-0.056605686
99	0xbde37305	-0.111059226
100	0x3d771f76	0.060332738
101	0xbe39835f	-0.1811652
102	0xbe74bbab	-0.23899715
103	0xbbcb3a5f	-0.0062020267
104	0xbd206622	-0.0391599
105	0xbc1f0493	-0.00970568
106	0xbd8e6a69	-0.0695389
107	0xbb8eab6d	-0.0043539316
108	0xbe430f28	-0.1904875
109	0xbbb00e70	-0.005372815
110	0xbca3de1f	-0.020003377
111	0x3e86ab48	0.26302552
112	0xbe580f68	-0.21099627
113	0x3dbe6cba	0.09298082
114	0xbdd191b4	-0.10232869
115	0xbe0b35bf	-0.13594721
116	0x3e090170	0.13379455
117	0xbd7e8115	-0.06213482
118	0xbd697d2d	-0.057004143
119	0x3eb3f4ed	0.351478
120	0xbe5acaec	-0.21366471
121	0x3e348dff	0.17632292
122	0xbe485910	-0.19565225
123	0x3db24047	0.08703666
124	0xbce4de61	-0.02793807
125	0xbe082cef	-0.13298391
126	0x3e2b602d	0.16735907
127	0x3e2683f1	0.16261269
128	0xbda2800c	-0.07934579
129	0x3ded454d	0.11585484
130	0x3e554d02	0.20830157
131	0xbd93dba9	-0.07219631
132	0xbbb03cad	-0.005378327
133	0x3d08717a	0.033311345
134	0xbc9e1c43	-0.019300586
135	0xb82587f4	-3.946568e-05
136	0xbdff01d9	-0.12451524
137	0xbca1a7ce	-0.019733336
138	0xbddee0a0	-0.108826876
139	0xbdc4d31a	-0.09610577
140	0x3dd986ac	0.1062139
141	0x3d0deb8b	0.03464846
142	0x3e682849	0.22671618
143	0xbd7701fb	-0.060304623
144	0xbde05266	-0.10953216
145	0x3e665bf7	0.2249602
146	0xbd87ab72	-0.066244975
147	0x3e05b3db	0.1305689
148	0x3da5bc26	0.08092527
149	0x3e792697	0.24331127
150	0xbdfb6122	-0.12274386
151	0x3e86a645	0.2629873
152	0x3e779bda	0.24180546
153	0xbdd3d8cf	-0.10344087
154	0x3d041f3e	0.032256357
155	0x3e2b6c89	0.16740622
156	0x3e764474	0.2404955
157	0x3d1d7031	0.038437072
158	0xbde5c072	-0.11218347
159	0x3e098a42	0.13431647
160	0xbcf6af84	-0.03011299
161	0x3e7d3284	0.24726301
162	0xbe50bed7	-0.203853
163	0xbde08d54	-0.10964456
164	0xbd905d57	-0.07049053
165	0x3e0e4cb4	0.13896447
166	0x3db8e4b7	0.09027999
167	0x3e037e7c	0.12841219
168	0xbd9794af	-0.07401406
169	0x3ce37bcd	0.027768994
170	0x3cb649ab	0.022251924
171	0xbe08665b	-0.13320296
172	0x3e730f4f	0.23736309
173	0xbc9ba0df	-0.018997608
174	0x3e6c1c03	0.2305756
175	0x3d9da895	0.0769817
176	0xbda014b1	-0.078164466
177	0xbd876e7c	-0.0661287
178	0xbdfa2bdd	-0.122153975
179	0xbd7ea19a	-0.062165834
180	0x3eaeb3ca	0.34121543
181	0x3dac7fa2	0.084227815
182	0x3e92c04f	0.28662345
183	0xbe16d92f	-0.14731286
184	0x3ed4ee45	0.41588035
185	0xbd6ff720	-0.058585286
186	0x3e8f7a77	0.2802312
187	0xbe3d934e	-0.18513224
188	0xbe027c31	-0.12742688
189	0xbddaf63b	-0.10691496
190	0x3ae3a074	0.0017366544
191	0x3ec212cc	0.37904966
192	0x3e856f66	0.26061553
193	0xbd03f016	-0.032211386
194	0xbe573b16	-0.21018633
195	0x3e08677b	0.13320725
196	0xbc484e25	-0.012225662
197	0xbdc4dba0	-0.09612203
198	0x3defa707	0.1170178
199	0xbe2a08c1	-0.16604902
200	0x3e055f08	0.13024533
201	0x3e15564d	0.14583702
202	0x3e1c9864	0.15292507
203	0x3e52b8f7	0.20578371
204	0x3e4e16fa	0.20125952
205	0x3ec93278	0.39296317
206	0x3cb1d0b4	0.021705963
207	0x3e824a03	0.2544709
208	0xbe08682f	-0.13320993
209	0x3e1bbffe	0.15209958
210	0x3dcc21ca	0.09967382
211	0x3d60bb21	0.05486596
212	0x3e87c61a	0.26518327
213	0xbc980a2e	-0.018559542
214	0xbe26c16f	-0.16284727
215	0xbe1c4f45	-0.15264614
216	0x3d572272	0.052523084
217	0x3e4d95bc	0.2007665
218	0xbd8bfddd	-0.0683553
219	0xbe1e18f3	-0.15439205
220	0xbe1704c5	-0.14747913
221	0xbe1ba8cb	-0.15201108
222	0x3e44908b	0.19195764
223	0x3e40a2a3	0.18812041
224	0xbeb9b3ee	-0.36270088
225	0x3e246026	0.16052303
226	0x3dc57bf7	0.09642785
227	0xbde52b63	-0.11189916
228	0x3e64c74a	0.22341648
229	0xbea2b245	-0.31776634
230	0x3ea93d89	0.3305476
231	0xbea2d3db	-0.31802258
232	0x3e4a36c0	0.19747448
233	0xbdc6df7d	-0.09710596
234	0x3c241607	0.010015017
235	0xbe000449	-0.12501635
236	0xbd4c4a10	-0.04987532
237	0x3e8e0179	0.277355
238	0xbe31a4cf	-0.17348026
239	0xbe942706	-0.28936023
240	0x3e687f93	0.22704916
241	0x3e8f4b05	0.27986923
242	0xbe4a6ad2	-0.19767311
243	0xbe35f637	-0.17769705
244	0xbd994483	-0.07483771
245	0x3e68b4be	0.22725198
246	0xbd9510c6	-0.0727859
247	0xbd48a149	-0.04898194
248	0xbd950c0f	-0.072776906
249	0xbd9cd279	-0.07657332
250	0xbe2e48e2	-0.1701999
251	0x3dba921f	0.09109902
252	0x3e18d82e	0.14926216
253	0x3db16ad8	0.08662957
254	0xbe238e00	-0.15972137
255	0xbdaa9988	-0.08330065

bias f4 [20]
0	0xbd16a79f	-0.03678095
1	0xbd0e5653	-0.034750294
2	0x3e484766	0.19558486
3	0x3eb27faf	0.3486304
4	0x3ec6ec14	0.38851988
5	0x3e8b5a3b	0.27217278
6	0x3e8e33ec	0.27773988
7	0xbdd062dc	-0.10175106
8	0x3d3a44fa	0.045475937
9	0xbd863d9e	-0.06554721
10	0xbc2aa03a	-0.010414178
11	0x3e96039e	0.29299635
12	0x3e3ef107	0.18646632
13	0x3e3b4b64	0.18290478
14	0x3e0d001e	0.13769576
15	0x3dca9e4c	0.09893474
16	0x3ea4a1d8	0.32154727
17	0x3d942a28	0.07234603
18	0x3c381175	0.011234631
19	0x3e1aba8d	0.15110226

weight f4 [20, 20]
0	0x3e6bff02	0.23046497
1	0x3e09ee5a	0.1346983
2	0xbb8b6249	-0.00425366
3	0xbea6490d	-0.32477608
4	0x3e5dd5d2	0.21663597
5	0x3f009b51	0.50236994
6	0x3f1effe6	0.6210922
7	0x3e7a071d	0.24416776
8	0x3ec81986	0.39081973
9	0x3eb9bf78	0.36278892
10	0xbe89a049	-0.268801
11	0xbef80759	-0.48443106
12	0x3d3b1037	0.04566976
13	0xbca9f4d5	-0.020746628
14	0x3ef6e5d1	0.4822221
15	0xbeec9bbe	-0.46212572
16	0x3ef2d60c	0.4742893
17	0x3e7ca1f3	0.24671154
18	0x3dc30403	0.095222495
19	0xbed2ca06	-0.41169757
20	0xbe41df73	-0.18932895
21	0x3e3a3607	0.18184672
22	0x3cbbda61	0.02293128
23	0x3ec58772	0.385799
24	0x3f2a5728	0.6653924
25	0xbeab7cd8	-0.33493686
26	0xbe16f77e	-0.14742848
27	0xbe37f28a	-0.17963615
28	0xbd7633ac	-0.060107872
29	0x3e35a1fa	0.1773757
30	0xbe30af95	-0.17254479
31	0xbcf800d9	-0.030273842
32	0x3d94aead	0.07259879
33	0x3eca9818	0.39569163
34	0xbe9a25b2	-0.30106884
35	0x3eb25161	0.34827712
36	0x3efcc834	0.49371493
37	0xbe51261b	-0.20424692
38	0xbe31cfca	-0.17364421
39	0xbd835fd3	-0.064147614
40	0x3d9ea993	0.077471875
41	0x3e6c8d7e	0.2310085
42	0xbde3fd65	-0.111323155
43	0xbc4e23f3	-0.012581813
44	0xbdde1fea	-0.10845931
45	0xbe40b946	-0.18820676
46	0x3d1dc869	0.038521204
47	0xbc621db1	-0.013801024
48	0x3e51b793	0.20480184
49	0x3e6e47f8	0.23269641
50	0xbe3e1dbc	-0.1856603
51	0xbd20f8df	-0.039299842
52	0xbdaa06b7	-0.08302062
53	0xbe34dd6d	-0.17662592
54	0x3cef7518	0.02923064
55	0xbdaf77bb	-0.08567759
56	0x3ead8c94	0.33896315
57	0xbe50b276	-0.20380577
58	0xbdd524c8	-0.10407406
59	0xbd27b35c	-0.040942535
60	0xbd73466a	-0.059393324
61	0x3e395fe4	0.18102986
62	0x3dc177ed	0.09446702
63	0xbe7cca13	-0.2468646
64	0x3e94cbed	0.29061833
65	0x3ecf0926	0.40436667
66	0x3e78f581	0.24312402
67	0xbc2b2de4	-0.010447953
68	0x3f06ab30	0.5260496
69	0x3cb71204	0.022347458
70	0xbc89afc9	-0.016807454
71	0xbe1c8ed7	-0.15288864
72	0xbe8a1998	-0.2697265
73	0x3e80c26b	0.2514833
74	0x3e87eb3a	0.2654665
75	0xbcf3df6b	-0.02976962
76	0xbd9608bb	-0.07325884
77	0x3e6160e2	0.22009614
78	0xbe6c41eb	-0.2307202
79	0x3e5bafb5	0.21453746
80	0x3ea58c79	0.32333735
81	0xbe50f996	-0.2040771
82	0x3e9087b6	0.2822854
83	0x3e855f37	0.26049206
84	0xbe1e996a	-0.1548821
85	0x3e658e38	0.22417533
86	0x3ee1939c	0.4405793
87	0xbe25da3b	-0.1619653
88	0x3e6395fc	0.22225183
89	0xbe45a7fe	-0.19302365
90	0xbe4121f8	-0.18860614
91	0xbd24bee5	-0.040221114
92	0xbe8bbc1e	-0.2729196
93	0xbd1b3e74	-0.037901357
94	0xbe27aa34	-0.16373521
95	0x3e3a75a0	0.18208933
96	0x3d19a516	0.037510954
97	0xbd9a8b7c	-0.07546136
98	0x3e1b35db	0.15157263
99	0x3ecde986	0.40217227
100	0x3dc00b62	0.09377171
101	0xbd8b19cd	-0.067920305
102	0xbe3a6682	-0.18203166
103	0xbe52ec57	-0.20597969
104	0x3bf0ca8d	0.0073483647
105	0xbd9bd263	-0.076084875
106	0x3e2ce6f3	0.16884975
107	0xbce00a0b	-0.027348539
108	0xbe2f6ca1	-0.17131282
109	0xbe0ef5cf	-0.13960956
110	0xbd117631	-0.035513107
111	0xbe41bf1c	-0.18920559
112	0xbe42d770	-0.19027495
113	0xbdc62664	-0.09675291
114	0x3d7fd0ec	0.062455103
115	0xbcf66a72	-0.030080054
116	0xbe34cf91	-0.17657305
117	0x3db24c58	0.08705968
118	0xbe27d6e7	-0.16390572
119	0xbc830b3b	-0.015996566
120	0x3e4e4d8f	0.20146774
121	0xbe04c086	-0.12964067
122	0x3ec46756	0.3836009
123	0x3dd1ef01	0.102506645
124	0x3e455e80	0.1927433
125	0x3ebc2e06	0.36753863
126	0x3e78ee3a	0.24309626
127	0x3de05107	0.10952955
128	0x3dd34340	0.10315561
129	0x3de77cba	0.113030866
130	0xbdb550e4	-0.08853319
131	0x3df83a90	0.12120545
132	0xbe1402b8	-0.14454162
133	0x3e4c2807	0.19937144
134	0x3d41dc94	0.0473295
135	0xbd41856e	-0.04724639
136	0xbe80dcad	-0.25168362
137	0xbd682d43	-0.05668379
138	0xbe04ab25	-0.12955911
139	0x3e953593	0.29142436
140	0x3cd8930b	0.026437303
141	0x3de3644b	0.11103114
142	0x3dadec04	0.08492282
143	0xbe4c995d	-0.19980378
144	0xbe29a986	-0.16568574
145	0x3eac649f	0.33670518
146	0x3e366874	0.17813283
147	0x3e5b7e03	0.21434788
148	0x3b2cfbca	0.0026395195
149	0xbe38aafd	-0.18033977
150	0x3d72c6ae	0.059271507
151	0x3e53137d	0.20612903
152	0x3e3ea761	0.18618537
153	0xbab6fa2f	-0.0013960059
154	0x3e4f64c5	0.20253284
155	0xbb62122d	-0.0034495697
156	0x3d02f395	0.03197058
157	0x3eb22c8e	0.34799618
158	0x3e10b437	0.14131247
159	0xbe27f508	-0.16402066
160	0xbe0130a9	-0.12616219
161	0xbe71ed7b	-0.23625748
162	0x3e9c0522	0.30472666
163	0xbcbb9fb2	-0.022903297
164	0xbe3e4d91	-0.18584277
165	0x3d216d8f	0.039411124
166	0x3ef91acb	0.48653254
167	0x3db0279a	0.086013034
168	0xbbe13901	-0.0068732505
169	0xbe2b36be	-0.16720101
170	0xbd199ff9	-0.037506077
171	0x3e61e729	0.22060837
172	0xbe593756	-0.21212515
173	0x3e82fdf2	0.2558437
174	0x3eaaefc1	0.33386043
175	0x3e832853	0.25616702
176	0xbc694daf	-0.014239713
177	0x3e90e9d6	0.28303403
178	0xbda08813	-0.07838454
179	0x3e5389ad	0.20657988
180	0x3d8e52d0	0.06949389
181	0xbe238fb9	-0.15972795
182	0xbe34bb1f	-0.17649506
183	0x3f023d75	0.50875026
184	0x3e485790	0.19564652
185	0xbed6086b	-0.41803297
186	0x3f0c5d48	0.54829836
187	0x3d881295	0.06644169
188	0xbed5aac3	-0.41731843
189	0x3ea56cde	0.32309622
190	0xbe54afa8	-0.20770133
191	0x3f0438c1	0.516491
192	0x3eb4c6a4	0.353078
193	0xbe21eb8e	-0.15812513
194	0xbe1b18d3	-0.15146188
195	0xbe234ac3	-0.15946488
196	0x3f3fd25e	0.7493037
197	0x3ecb80a2	0.39746577
198	0x3f04316d	0.5163792
199	0x3d69242c	0.05691926
200	0x3e3f7d65	0.18700178
201	0x3e4c1c3e	0.19932649
202	0xbe6309b0	-0.22171664
203	0x3eea4e40	0.45762825
204	0x3e327229	0.17426361
205	0x3f3179d9	0.6932655
206	0xbe7c4909	-0.24637236
207	0xbe491efa	-0.19640723
208	0xbe804d98	-0.250592
209	0xbe26625f	-0.16248463
210	0x3edc9e07	0.43089315
211	0x3f39e4ee	0.72614944
212	0x3cac753d	0.021051997
213	0xbe9491cd	-0.29017487
214	0x3e7300be	0.23730752
215	0xbe805f1f	-0.25072572
216	0xbdad2c58	-0.084557235
217	0x3ef36b20	0.47542667
218	0x3e6ba0e2	0.2301059
219	0x3db90ffc	0.09036252
220	0x3dd8813d	0.10571525
221	0x3df65319	0.12027568
222	0x3e3499e4	0.1763683
223	0xbe6f7e70	-0.23388076
224	0x3e4f1113	0.20221357
225	0xbda8696b	-0.08223232
226	0xbe5ab9c4	-0.21359926
227	0xbe534252	-0.20630768
228	0xbdbc2c8d	-0.09188185
229	0xbe0514ad	-0.12996168
230	0x3da1f0a7	0.07907229
231	0xbe1554d3	-0.14583139
232	0x3ca5dd2e	0.020247068
233	0xbb6be92c	-0.0035997136
234	0xbd85d7c8	-0.06535298
235	0x3df9214d	0.12164555
236	0xbd95983b	-0.07304426
237	0x3d9c2f4a	0.07626207
238	0x3e3a233b	0.18177502
239	0x3dce07c9	0.10060079
240	0xbe37fb44	-0.17966944
241	0x3e088628	0.13332427
242	0x3c98270c	0.018573307
243	0x3ebaf52f	0.36515185
244	0x3ed62ed7	0.4183261
245	0xbd51e61b	-0.051244836
246	0xbe6ce272	-0.23133257
247	0xbde2ff4b	-0.110838495
248	0xbe472766	-0.19448623
249	0x3cbac9f8	0.022801384
250	0x3edf68c2	0.4363461
251	0x3e44f0bc	0.19232458
252	0xbd6dfebb	-0.058104258
253	0xbe8e6c51	-0.27817014
254	0x3dd5b324	0.10434559
255	0x3d89c7df	0.067275755

bias f4 [20]
0	0x3ebbaeed	0.36656895
1	0x3e7ae51f	0.24501465
2	0xbbc1aa37	-0.005910184
3	0x3e9d6631	0.30742028
4	0xbe2a6546	-0.16640195
5	0xbbff796b	-0.0077964566
6	0xbdde0521	-0.10840822
7	0xbd8271b3	-0.06369343
8	0x3d4f32ad	0.050585438
9	0x3e96fd2c	0.2949003
10	0x3e7934ca	0.24336544
11	0xbe2b55ac	-0.167319
12	0xbdfd6b1a	-0.123739436
13	0x3f02ed54	0.51143384
14	0x3b64c083	0.0034904785
15	0xbd801da4	-0.062556535
16	0x3e912624	0.2834941
17	0xbd6e010b	-0.058106463
18	0xbe5b96ad	-0.21444197
19	0x3e34e3fa	0.17665091

weight f4 [10, 20]
0	0x3ecacce2	0.39609438
1	0x3f24944c	0.64288783
2	0x3eb01ed3	0.34398517
3	0xbed9ebd9	-0.4256275
4	0xbebe1a3a	-0.37129384
5	0xbe14f669	-0.14547123
6	0xbec938fb	-0.39301285
7	0xbea5f894	-0.32416213
8	0xbf08d7bb	-0.5345418
9	0x3f0adf6f	0.5424718
10	0xbf4476c4	-0.7674372
11	0x3de72de2	0.11288048
12	0xbeb1cb9a	-0.34725648
13	0xbe6f858d	-0.2339079
14	0xbe1e3680	-0.15450478
15	0x3dabb0e0	0.083833456
16	0x3e41b950	0.18918347
17	0x3de85d04	0.11345866
18	0xbd7147ab	-0.05890624
19	0x3df6862d	0.12037311
20	0xbc839134	-0.01606045
21	0xbec82487	-0.39090368
22	0xbd89be36	-0.06725733
23	0xbd67dfa0	-0.05660975
24	0xbeb26404	-0.3484193
25	0xbd658064	-0.056030646
26	0x3d80338d	0.062598325
27	0x3ea2d3f7	0.3180234
28	0x3d84e72d	0.06489406
29	0xbf40711c	-0.7517259
30	0x3f452df3	0.7702324
31	0xbd8502d4	-0.0649468
32	0x3e268c59	0.16264476
33	0xbe16be11	-0.14720942
34	0xbe51340b	-0.20430009
35	0x3d2e4237	0.042543616
36	0x3eb25f78	0.34838462
37	0xbe015e62	-0.1263366
38	0xbd5324be	-0.051548712
39	0xbe889687	-0.26677343
40	0xbe79375b	-0.24337523
41	0x3d2d4020	0.042297482
42	0x3e092e57	0.13396583
43	0xbdc5b6f6	-0.09654038
44	0xbda1ac19	-0.07894153
45	0xbd208ba6	-0.03919568
46	0xbe326eff	-0.17425154
47	0xbd84de29	-0.06487686
48	0xbe9a432d	-0.30129376
49	0x3ecc74e1	0.39932922
50	0x3f168d72	0.5880958
51	0x3e0311bc	0.12799734
52	0x3ed5845c	0.41702545
53	0x3d426109	0.04745582
54	0xbc610408	-0.013733871
55	0xbd45cf8d	-0.04829364
56	0xbe593522	-0.21211675
57	0x3ec3a377	0.3821065
58	0xbdb486e3	-0.0881479
59	0xbea2aa4f	-0.3177056
60	0x3d407857	0.046989765
61	0xbd8df77e	-0.06931971
62	0x3e30aa68	0.17252505
63	0x3eb3bfaf	0.3510718
64	0xbe489ef3	-0.19591884
65	0x3dcf361b	0.10117742
66	0x3de9dc8b	0.11419018
67	0xbcfdaf9a	-0.030967522
68	0xbe8a51c6	-0.27015513
69	0xbef1d30d	-0.4723133
70	0xbe1cc892	-0.15310887
71	0x3ac636cf	0.0015122535
72	0xbdfad740	-0.12248087
73	0x3f7807f8	0.9688716
74	0x3e8117cc	0.25213468
75	0x3cb09aae	0.021558132
76	0xbe8d16d5	-0.27556482
77	0x3eee54b9	0.46549013
78	0x3db3e422	0.08783747
79	0xbf086d4b	-0.5329177
80	0xbe740d11	-0.2383311
81	0xbf18537c	-0.5950239
82	0x3e2e3f96	0.17016444
83	0xbe691a4c	-0.22763938
84	0x3ee80b1a	0.4532097
85	0x3dd1e5de	0.10248922
86	0x3e56b209	0.20966353
87	0x3e8e058b	0.27738604
88	0x3eb72666	0.35771483
89	0x3e87083c	0.2637347
90	0xbd4ed609	-0.05049709
91	0xbd466d0f	-0.04844385
92	0xbeb7a761	-0.35869887
93	0xbeca1ecb	-0.39476618
94	0x3eab9118	0.33509135
95	0xbe4cf6b9	-0.20015992
96	0x3e81db9b	0.25362858
97	0x3b668339	0.003517343
98	0xbc8045e2	-0.015658323
99	0x3e98706f	0.2977328
100	0xbe856cc6	-0.2605955
101	0x3ed73e31	0.42039636
102	0xbdef14e7	-0.11673909
103	0xbea1a38f	-0.31570098
104	0xbde68eb3	-0.112576865
105	0xbdd88276	-0.105717584
106	0x3df05282	0.11734487
107	0xbdfc26f8	-0.1231212
108	0xbd0682f8	-0.032839745
109	0x3ed87842	0.4227925
110	0xbe5f77a6	-0.21822986
111	0xbdeadfc1	-0.11468459
112	0xbea55dc0	-0.32298088
113	0x3f38f82a	0.7225367
114	0xbce0c84e	-0.027439263
115	0xbe891fb8	-0.26782012
116	0xbf097298	-0.5369048
117	0xbd6909b8	-0.056894034
118	0xbe51503f	-0.20440768
119	0x3c00ff65	0.007873391
120	0xbefe56c6	-0.49675578
121	0xbe83eeba	-0.2576807
122	0x3e2209d5	0.15824063
123	0xbf159767	-0.58434147
124	0xbd8f6ec7	-0.07003551
125	0x3e242563	0.16029887
126	0xbeab2ed4	-0.33434165
127	0x3d71a84b	0.058998387
128	0xbe86ed20	-0.26352787
129	0x3f0e035c	0.55473876
130	0x3e442c6a	0.19157568
131	0x3cc30fa2	0.023811165
132	0x3e1cdd24	0.15318733
133	0xbe8317e4	-0.25604165
134	0xbdc2cacc	-0.09511337
135	0x3dec74f3	0.11545744
136	0x3ef6e52c	0.4822172
137	0xbe23b4d0	-0.15986943
138	0x3dff8f1f	0.1247847
139	0x3ec183fc	0.3779601
140	0x3f64d886	0.8939289
141	0xbed86712	-0.42266136
142	0xbd7b2282	-0.061312206
143	0x3e9f2dea	0.31089717
144	0xbeaf1ef3	-0.342033
145	0x3dc672c8	0.096898615
146	0x3dccebfd	0.10005949
147	0x3e76f43d	0.24116607
148	0x3e229387	0.1587659
149	0xbbb06303	-0.005382897
150	0xbe44c9b9	-0.19217576
151	0xbd5df8e1	-0.054192428
152	0xbe8757e6	-0.2643425
153	0xbee84d6c	-0.45371568
154	0xbdf8385d	-0.121201254
155	0xbeb37148	-0.35047364
156	0x3ebbce95	0.36681047
157	0xbdd8ec52	-0.105919495
158	0x3ce358c3	0.027752286
159	0xbeb54452	-0.35403687
160	0xbf108d52	-0.5646564
161	0x3eea0183	0.45704278
162	0x3e21b542	0.157918
163	0x3dee1ffe	0.11627196
164	0x3e87d1e7	0.2652733
165	0xbe3b5c30	-0.18296885
166	0x3ec2c725	0.3804256
167	0xbe977db1	-0.29588082
168	0x3e8231a1	0.2542849
169	0xbede1874	-0.4337803
170	0xbd933749	-0.07188279
171	0xbe04e69e	-0.12978598
172	0x3e67cffe	0.22637936
173	0x3ecaca01	0.39607242
174	0xbcfc9bc5	-0.030835995
175	0xbe74f15e	-0.239202
176	0xbee8f99e	-0.45502943
177	0xbe6f161e	-0.23348281
178	0xbe689491	-0.22712924
179	0x3e0a0aee	0.13480732
180	0x3ecd644d	0.40115586
181	0xbe9892b8	-0.29799438
182	0xbda78fc2	-0.081817165
183	0x3e8c02f7	0.27346012
184	0x3ef7ed12	0.48423058
185	0x3ca5b4c2	0.020227794
186	0x3e63bd49	0.22240175
187	0x3e2064ec	0.15663499
188	0x3e852ee6	0.26012343
189	0xbf09efc9	-0.5388151
190	0xbf080b8d	-0.53142625
191	0x3e471b84	0.1944409
192	0xbe3904d0	-0.18068242
193	0xbe89ce1a	-0.26915056
194	0x3e9f12ab	0.3106893
195	0x3e7d1ae7	0.24717294
196	0x3d85b98b	0.0652953
197	0xbe619f00	-0.2203331
198	0xbe08ed50	-0.13371778
199	0x3e7aba39	0.24485101

bias f4 [10]
0	0xbc17f65e	-0.009275047
1	0x3e99fd6f	0.30076167
2	0xbe412a3e	-0.1886377
3	0x3e84b329	0.25917938
4	0xbe15d1b1	-0.14630772
5	0x3e425279	0.18976773
6	0xbdcdbbe4	-0.10045603
7	0xbe6d71a6	-0.23187885
8	0x3cb366aa	0.02189954
9	0xbe78c4a1	-0.24293758
