datasets/mnist/partition_noniid-#label_major_classes_num_1_clients_10_dir_alpha_None_augement_data_percent_per_class_0.001_augement_data_with_zeros_0_seed_42_special_data_None/models/batch_size_256_com_round_25_epochs_1_lr_0.1_sample_ratio_0.9_personalization_steps_50_model_nanomlp/client_0.pt (torch, 65887 bytes, 4 tensors)

weight f4 [20, 784]
00000000: ff2f 8cb9 b5f2 9c3c a9cc f0bc 9350 d7bc
00000010: d05e 61bc 0ee9 1c3c 277f 39ba 13fa e73c
00000020: 37b6 4fbb 0ed6 1a3c 7dd6 30bc a409 e6bb
00000030: 03c5 0bbd 4cc7 c1bc 2216 71bc 8672 ad3a
00000040: dc53 673c ae8c af3c a158 c6bc d8ce 7ebc
00000050: b088 543c a3f2 f23c 53d8 f0bb 49ef da3c
00000060: 6ea1 bcbb 5caa 773b 4f75 043d 76b4 07bd
00000070: 512f b8bc 4a23 14bc b316 64bc 2ec8 fc3c
00000080: 8ca3 bdbc 25ae 86bc 1f67 ccbc eb05 09bd
00000090: 73d7 aabc 1352 fb3c 9279 813c a56c 853c
000000a0: f1eb 283a 431e 9cbc 263d bf3b 3c5f 09bd
000000b0: 6ab9 d5bc 53d2 99bc 2d30 b63c b310 a93c
000000c0: 8ea2 85bc 1879 ccba 0c03 ba3c 706d 113d
000000d0: 9b3b 683c e518 9e3b 472a c43c 4944 acbc
000000e0: 6413 da3b 0ed5 e2bc fac6 cabc 3523 97bc
000000f0: 255c 843c 1e4f 6b3c ec51 adbc a019 303c
00000100: d50e 9e3c f9c8 a7bb 9bfe 92ba 394d 8e3b
00000110: 03d5 943c 2c74 f13c ab26 0bbd 1f66 b2bc
00000120: 981f 483b 5e37 9f3c 93dd ab3c 393e c03c
00000130: 9811 243b 99b0 09bd 294a 203b 7f3c b7bc
00000140: 9757 08bd dcf9 013d a575 de3c 92ec 11bd
00000150: 7b0b db3b 7725 c5bb 1595 c0bb e6ec 85bc
00000160: 42b7 603c d615 adbc 15d2 563c 4f2b 933c
00000170: f9eb ce3c 8a37 4f3c e350 1bbd 5a62 d3bc
00000180: ed99 653c 9d14 023a b525 21bd 15f6 1bbd
00000190: 9038 3f3c cda7 3d3a 976f 1dbd c62f e2bc
000001a0: 83a8 38bd cf07 c5bb ecec edbc e129 e6bc
000001b0: e7c0 09bb 9d1b af3b 28c3 6fbc f99a ad3c
000001c0: 890a b2bc 6cbc 043d 4485 c83c f34e f6bc
000001d0: 284f 0fbc 54f9 eb3a ec37 ba3b c3df 223c
000001e0: aa78 903c 2ca9 e63b 165e 0dbc 8426 f83c
000001f0: db83 67bc 1a56 21bb 27ac 473b db01 7ebc
00000200: 6b07 96bc 620c 25bd fde2 a6bc 0d40 0ebb
00000210: 275b f5bc 3593 a5bb 4d45 bc3c b856 f1bb
00000220: da02 47ba a32d 50bb aaa9 e13b d726 b93c
00000230: 8f91 0a3d 9acc b93c 9bfa 0a3d e456 0fbb
00000240: 43e7 ffbc 25e8 66bc 02d7 ed3c 42ad 0c3c
00000250: 63c3 90bb 6128 07bc a168 d5bb 126c 133c
00000260: 861d 333d bf1e 9a3d 655a 893d d417 293b
00000270: 677d 3e3d 4c52 59bc 2c4a 183b 421d d0bb
00000280: fd5c ff39 667c c1bb c689 19bd e436 1abd
00000290: 3290 29bc ad36 b7ba 3252 85bc db0b 5c3c
000002a0: 6baa 03bd e8f0 1dbb 6cc2 003d 2c70 63bc
000002b0: 9ee5 0f3d 528b 9c3c 7b78 a8bc 25c4 2f3d
000002c0: 9582 c03c b0c1 933c af48 933d 3483 de3c
000002d0: eba4 843d 7709 6d3d 0b8f b73d 9c79 8a3d
000002e0: 21ee 853d b640 543d 6818 a33c 3081 653c
000002f0: 73e7 63bc 7d80 c53c 1cbb ce3c 1a19 a33c
00000300: c212 f5bc c523 153a 92b8 cabc 3aef 9ebc
00000310: 2d4f aabc dbc3 4b3c 8a05 acbc 4703 853a
00000320: feaa e83b e9d3 063d d9c1 0dbc 18a8 a33b
00000330: 9052 823c 4e09 833d 7edf 003d 42b3 983d
00000340: 6d34 813d 6703 823d b3f4 8e3d 69c4 893d
00000350: 8c87 923d 980a 5b3d 7529 423d 86de 193d
00000360: 7186 3bbb b051 c1bb 69bc 073d beeb eebc
00000370: 6666 5dbb 9f7b 113d 75d8 5e3c 1f2e 9e3a
00000380: 1bda fcbc faeb 923c 2bbe c8bc 2ed7 cebb
00000390: 75b0 5dbb 1d7b 0b3c ac40 b63c ccef 783d
000003a0: 125b 173d 929c 773d 4fc9 483d 993c 063b
000003b0: acef 2d3d 5a46 913c e533 573d cbae c03d
000003c0: a62c c03d 34c2 dc3d 84e3 613d fc5c 2c3d
000003d0: ba11 403d 8444 76bc 8ae6 133d 242c c8bc
000003e0: 80a9 8e3b 1b91 94bb 6d6d 94bc f92e 9d3b
000003f0: 9328 f23c a598 24bc e949 9fbc 0bb9 05bc
-0.0002673864 0.0191587 -0.029394465 -0.026283538 -0.013755515 0.009577049 -0.0007076137 0.028317487
-0.0031694302 0.009450449 -0.0107933255 -0.007020192 -0.034123432 -0.023654602 -0.0147147495 0.0013232983
0.014119115 0.021429386 -0.024212183 -0.015552245 0.012972042 0.029656714 -0.0073500066 0.026725428
-0.0057565486 0.003779075 0.032338437 -0.033131085 -0.0224835 -0.009041617 -0.013921428 0.030857172
-0.023149274 -0.01644046 -0.024951516 -0.03345291 -0.020854687 0.030678784 0.01580504 0.016287157
0.00064438494 -0.019057399 0.005836147 -0.03353809 -0.026089389 -0.018777048 0.022239769 0.020637846
-0.016312864 -0.0015600054 0.022706531 0.03550476 0.014174367 0.004824745 0.02394594 -0.021028655
0.0066551436 -0.027689483 -0.024753083 -0.018449405 0.01615722 0.014362125 -0.021157227 0.010748297
0.019294182 -0.0051203934 -0.0011214794 0.0043427018 0.018167978 0.02947434 -0.033972424 -0.02177721
0.003053641 0.01943558 0.020979678 0.02346717 0.00250349 -0.033615682 0.0024458265 -0.022367714
-0.033286657 0.031732425 0.027155707 -0.035626 0.006684718 -0.006016429 -0.005877147 -0.016348314
0.013715567 -0.021128576 0.013111611 0.017964987 0.025259005 0.012647519 -0.037918936 -0.025803734
0.01401375 0.0004962178 -0.0393426 -0.03807648 0.0116712 0.0007234782 -0.0384365 -0.02761067
-0.04508258 -0.0060128937 -0.029043637 -0.028096141 -0.002101952 0.005343868 -0.014633931 0.02119206
-0.02173354 0.032406256 0.024477609 -0.030066943 -0.0087469 0.0018003383 0.005682936 0.009941044
0.017635662 0.00703921 -0.008628389 0.030291803 -0.014130558 -0.002461797 0.00304676 -0.015503372
-0.018314084 -0.040295012 -0.020371908 -0.0021705658 -0.029950691 -0.005052949 0.022982264 -0.007365074
-0.00075916725 -0.0031765483 0.0068866806 0.022601528 0.03383022 0.02268057 0.033930402 -0.002187186
-0.031238204 -0.0140934335 0.029033188 0.00858623 -0.004417823 -0.008249373 -0.006512717 0.008997934
0.043729328 0.075253956 0.067066945 0.0025801556 0.04650631 -0.01326425 0.002323757 -0.006351144
0.00048706672 -0.005904722 -0.037484907 -0.037650004 -0.01034932 -0.0013978087 -0.016274545 0.013430561
-0.032144945 -0.002409989 0.031435415 -0.013881724 0.03513109 0.019109402 -0.020565262 0.042911667
0.023499766 0.018036693 0.07191598 0.027162172 0.06476768 0.057870355 0.0896283 0.067614764
0.0653956 0.051819526 0.019909099 0.0140078515 -0.013910162 0.02410912 0.025235705 0.01990943
-0.029916171 0.0005689229 -0.024746213 -0.019401181 -0.020789707 0.012436832 -0.020998735 0.0010148071
0.007100462 0.032916937 -0.008652174 0.0049944036 0.01590851 0.06398259 0.03146314 0.07456066
0.063088275 0.06348305 0.069802664 0.067269154 0.0715476 0.0534769 0.047402818 0.03756573
-0.002861407 -0.0058996305 0.033138666 -0.029165145 -0.0033782958 0.035518285 0.013601412 0.0012068189
-0.03086572 0.017934788 -0.024504742 -0.0063122725 -0.00338271 0.008513239 0.022247635 0.060775563
0.036952086 0.06045205 0.049020108 0.0020482896 0.042464897 0.017733742 0.052539725 0.09408339
0.09383516 0.10779229 0.055148616 0.042080864 0.046891905 -0.015030984 0.03610853 -0.02443511
0.004353702 -0.0045338995 -0.018118585 0.0047968593 0.029560363 -0.010046159 -0.019444423 -0.008161793

bias f4 [20]
00000000: 02f0 103e 8d78 ab3d f958 d83d 1e97 873d
00000010: f28a ad3d 8c6b f53d dc23 203e c880 b23d
00000020: 7eef 9c3d 471f c23d 6660 b13d 0958 093e
00000030: 9e8f 87bc e857 d13d b273 493c b01b c63d
00000040: ada2 af3d 01a2 903d 4f3b ab3d 9bff ea3d
0.14154056 0.083726026 0.10563845 0.0662062 0.08473767 0.119834036 0.1563868 0.08715969
0.07662867 0.09478622 0.08660965 0.13412489 -0.016547974 0.10221845 0.01229565 0.0967325
0.0857595 0.0706215 0.083609216 0.11474534

weight f4 [10, 20]
00000000: b52e 1cbe f90a 363e 7395 8d3e 2fea 3b3e
00000010: 2e01 2cbe cc08 a6be 3f71 0d3e 3afa 91be
00000020: c33b b33e 4f05 9abe 6c7f 9abe 0167 d53e
00000030: f832 a3bd 3e67 adbd 585d ba3e 9c32 08be
00000040: 2df9 4f3e ac80 dfbd fd4c 85bc c715 8e3e
00000050: e7e3 d83e a666 98be 005f ae3d fd8f 0b3e
00000060: 83a7 2fbd 997e 84be 51f5 0a3f 85cd 593e
00000070: 3bb7 9dbe 8383 993e 543e 243e 8f2d cbbe
00000080: 03be 023d 6b61 96be 0fb2 72be a765 94be
00000090: 7615 c8bd 42f3 8fbd 1781 a5bd af53 fa3d
000000a0: b2ff 013d 6b87 8f3e 99d9 e9bd 6212 833e
000000b0: 673d 28be e581 a0be 8cd0 6ebe 7a13 94bd
000000c0: e6cb 28bd 5b66 bd3e 2d7f aa3e 99bd e63d
000000d0: 7728 5f3d 6b64 ff3d 2464 98bd e80b a7be
000000e0: fa5a 593e 3b01 82be f914 81bd cf03 2cbd
000000f0: 800a 003f 85ec 78be ce43 f9bd fa97 ac3e
00000100: 21dd 97be bf3e 223e 6534 66be 2196 bcbd
00000110: 1dd8 70bd 44d6 99bd f36e 3abe c4ac a93e
00000120: 4998 dd3d d162 cebd 29bc 47be 96c9 883c
00000130: 02e4 893e d3c8 7fbe c691 4bbd 3c33 53be
00000140: 92ed e6be a252 5c3e 7a26 08be da34 af3c
00000150: 60c5 3b3e ca73 7d3e f473 7dbe 619f babd
00000160: 92d6 a83e 91e1 783d 1cde dfbd dad5 403e
00000170: 3aac 103d 905e 89be a4e4 40bd 8151 a9bd
00000180: 7620 49bc e5d7 453e 240b b93e 78e4 39bc
00000190: 826f b63c b396 073e 8ecd 74be 0940 903e
000001a0: 002d fa3d 6014 32be 9d5f fbbd be99 593d
000001b0: a030 09bc e820 56be 32da 75be f9bc 3c3e
000001c0: ff5f f23d ec7b a73e cd32 75be b97f 3cbd
000001d0: f56b 22be 12da 8abe d268 bb3e a82f 7e3e
000001e0: 81bc dfbe ce38 a4bd 2325 883e 6551 a33e
000001f0: 7f84 463e 6b8e 2dbd 82ab 39bd bcc0 08be
00000200: f823 8abe ba6e 9c3e 69e8 053e 9221 4dbe
00000210: d8ff b53d 2c0c d83e 32c2 ba3d a737 7dbc
00000220: 4602 1ebd 8a6e 753e 27d3 40bd 3570 8abe
00000230: 802a 753e 5bf2 adbd 3d98 f2bd 20ea 0ebe
00000240: dcfd a23e ce85 c83d c726 55be 5de6 aa3e
00000250: b0d8 3c3e 9e2c 1d3e b80c 41bd 143a 693e
00000260: 3a9d 403d 4559 b1be c9f1 453e 6952 d33c
00000270: afba 1bbd 82a8 a73e 9024 a8be bdae 6dbe
00000280: c9cb 913e 2611 bcbc 338b 283e a0ba ba3d
00000290: 1299 6dbe d0c0 e1bd 1350 d6bd 56f1 3e3e
000002a0: e69e 83bd c6f7 cfbd d469 22be 3215 513a
000002b0: 7807 a2bd 84ba 22bc fffe 563e 14b3 bf3c
000002c0: 0a46 debd b40d dc3d 375a 503e dc73 afbc
000002d0: 4773 b63c 55f7 53be 99e4 9f3e 5a6c b0be
000002e0: fbdf 973e 951d 0fbd bbfd 783e ebaf a8bd
000002f0: 0384 88bd caec 06be 3cea 96be c47e 90bd
00000300: 5875 12be 0c74 12be 5f9a 6dbd 9732 ba3e
00000310: dc01 09be bef9 0c3b e7aa a93d ae59 203d
-0.15252192 0.17777623 0.27653083 0.18351053 -0.16797325 -0.32428586 0.13812731 -0.2851122
0.35006532 -0.30082175 -0.3017534 0.41680148 -0.07968706 -0.084669575 0.3639934 -0.13300556
0.20309897 -0.10913214 -0.016272062 0.2775099 0.42361376 -0.29765815 0.085142136 0.13629146
-0.04288436 -0.25877836 0.54280573 0.21269806 -0.30803856 0.29983148 0.16039401 -0.39683196
0.03191949 -0.293712 -0.23700736 -0.28983805 -0.09769718 -0.070288196 -0.080812626 0.12222993
0.03173799 0.28033003 -0.114184566 0.25599962 -0.16429673 -0.31349102 -0.23321742 -0.07230277
-0.041210078 0.36992154 0.33300152 0.11266632 0.05448195 0.12470325 -0.07440975 -0.3262627
0.21226111 -0.25391564 -0.06302828 -0.04199582 0.5001602 -0.24308975 -0.12171136 0.337097
-0.29660895 0.15844248 -0.22480924 -0.09208322 -0.05879985 -0.07511571 -0.18206386 0.33139622
0.10820062 -0.100774415 -0.19505371 0.016697686 0.2693177 -0.24978952 -0.049699567 -0.20625013
-0.45103127 0.21515897 -0.13295928 0.021387506 0.18337011 0.24751201 -0.24751264 -0.0911243
0.32976204 0.060761992 -0.10931036 0.18831578 0.035320498 -0.26829958 -0.04709305 -0.08267499
-0.012275806 0.19320638 0.36141312 -0.011345975 0.022269968 0.13241081 -0.23906538 0.28173855
0.12215614 -0.17390585 -0.12274096 0.053125136 -0.0083734095 -0.2091099 -0.24009016 0.18431462
0.11834716 0.32711732 -0.2394516 -0.046020243 -0.15861495 -0.271195 0.3660341 0.24822867
-0.43698505 -0.08018647 0.26590833 0.31898037 0.19386481 -0.04237215 -0.04532958 -0.13354772
-0.26980567 0.30553228 0.13076939 -0.20032337 0.08886689 0.42196786 0.09119071 -0.015455163
-0.038576387 0.23967949 -0.04707637 -0.27038732 0.23941994 -0.08493491 -0.118454434 -0.13956499
0.31834304 0.09791146 -0.20815574 0.33378878 0.18442035 0.15349051 -0.04713127 0.22776061
0.047024943 -0.3463842 0.19330515 0.025796132 -0.038019832 0.3274575 -0.32840395 -0.23211189
0.28475788 -0.022957396 0.1645935 0.09117627 -0.23202923 -0.11023104 -0.10464492 0.1864675
-0.06426792 -0.10154681 -0.15860683 0.00079758756 -0.07911581 -0.009932164 0.20995711 0.02340082
-0.10853203 0.10744801 0.20346914 -0.02141755 0.022271765 -0.20699818 0.31229094 -0.34457666
0.2966307 -0.03494032 0.2431554 -0.08236679 -0.06665804 -0.13176265 -0.29475582 -0.070554286
-0.14302576 -0.14302081 -0.058008548 0.36366722 -0.13379616 0.0021511163 0.0828455 0.039148025

bias f4 [10]
00000000: e787 2cbe 23c9 babd a638 1b3e d529 adbc
00000010: ed36 b73d f1f3 06be e51b aabd 58ec 38be
00000020: a1cc 8dbd f9eb eb3d
-0.16848718 -0.09120395 0.15158328 -0.021138111 0.08946023 -0.13178994 -0.08306102 -0.18058908
-0.069237955 0.115196176
