datasets/mnist/partition_noniid-#label_major_classes_num_1_clients_10_dir_alpha_None_augement_data_percent_per_class_0.001_augement_data_with_zeros_0_seed_42_special_data_None/models/batch_size_256_com_round_25_epochs_1_lr_0.1_sample_ratio_0.9_personalization_steps_50_model_nanomlp/client_5.pt (torch, 65887 bytes, 4 tensors)

weight f4 [20, 784]
0	0xb98c2fff	-0.0002673864
1	0x3c9cf2b5	0.0191587
2	0xbcf0cca9	-0.029394465
3	0xbcd75093	-0.026283538
4	0xbc615ed0	-0.013755515
5	0x3c1ce90e	0.009577049
6	0xba397f27	-0.0007076137
7	0x3ce7fa13	0.028317487
8	0xbb4fb637	-0.0031694302
9	0x3c1ad60e	0.009450449
10	0xbc30d67d	-0.0107933255
11	0xbbe609a4	-0.007020192
12	0xbd0bc503	-0.034123432
13	0xbcc1c74c	-0.023654602
14	0xbc711622	-0.0147147495
15	0x3aad7286	0.0013232983
16	0x3c6753dc	0.014119115
17	0x3caf8cae	0.021429386
18	0xbcc658a1	-0.024212183
19	0xbc7eced8	-0.015552245
20	0x3c5488b0	0.012972042
21	0x3cf2f2a3	0.029656714
22	0xbbf0d853	-0.0073500066
23	0x3cdaef49	0.026725428
24	0xbbbca16e	-0.0057565486
25	0x3b77aa5c	0.003779075
26	0x3d04754f	0.032338437
27	0xbd07b476	-0.033131085
28	0xbcb82f51	-0.0224835
29	0xbc14234a	-0.009041617
30	0xbc6416b3	-0.013921428
31	0x3cfcc82e	0.030857172
32	0xbcbda38c	-0.023149274
33	0xbc86ae25	-0.01644046
34	0xbccc671f	-0.024951516
35	0xbd0905eb	-0.03345291
36	0xbcaad773	-0.020854687
37	0x3cfb5213	0.030678784
38	0x3c817992	0.01580504
39	0x3c856c7c	0.016287081
40	0x3a28e1c2	0.0006442332
41	0xbc9c1e64	-0.01905746
42	0x3bbf3d26	0.005836147
43	0xbd095f38	-0.033538073
44	0xbcd5b954	-0.026089348
45	0xbc99d248	-0.018777028
46	0x3cb6302d	0.022239769
47	0x3ca910b3	0.020637846
48	0xbc85a28e	-0.016312864
49	0xbacc7918	-0.0015600054
50	0x3cba030c	0.022706531
51	0x3d116d70	0.03550476
52	0x3c683b9b	0.014174367
53	0x3b9e18e5	0.004824745
54	0x3cc42a47	0.02394594
55	0xbcac4449	-0.021028655
56	0x3bda1364	0.0066551436
57	0xbce2d50e	-0.027689483
58	0xbccac6fa	-0.024753083
59	0xbc972335	-0.018449405
60	0x3c845c25	0.01615722
61	0x3c6b4f1e	0.014362125
62	0xbcad51ec	-0.021157227
63	0x3c301aa9	0.010748544
64	0x3c9e123c	0.019295804
65	0xbba7b548	-0.005118046
66	0xba932f11	-0.0011229237
67	0x3b8e410b	0.00434125
68	0x3c94d4e9	0.01816793
69	0x3cf174b4	0.029474594
70	0xbd0b2643	-0.033972036
71	0xbcb263f6	-0.02177618
72	0x3b48699c	0.0030580526
73	0x3c9f45b5	0.019442419
74	0x3cabeb8e	0.020986345
75	0x3cc0440b	0.023469945
76	0x3b24024b	0.002502578
77	0xbd09af25	-0.033614296
78	0x3b206ca5	0.002447882
79	0xbcb73b8b	-0.02236726
80	0xbd085797	-0.033286657
81	0x3d01f9dc	0.031732425
82	0x3cde75a5	0.027155707
83	0xbd11ec92	-0.035626
84	0x3bdb0b7b	0.006684718
85	0xbbc52577	-0.006016429
86	0xbbc09515	-0.005877147
87	0xbc85eccf	-0.01634827
88	0x3c60ba25	0.013716255
89	0xbcad1540	-0.021128297
90	0x3c56d30d	0.013111842
91	0x3c932da9	0.017966108
92	0x3ccef318	0.0252624
93	0x3c4f4b79	0.012652271
94	0xbd1b49cd	-0.03791218
95	0xbcd33d30	-0.025786012
96	0x3c664b27	0.014056004
97	0x3a1389b2	0.0005628123
98	0xbd20cdf5	-0.039258916
99	0xbd1b98ff	-0.037987705
100	0x3c40c600	0.011765957
101	0x3a552a4c	0.0008131608
102	0xbd1d1232	-0.03834743
103	0xbce18b3e	-0.027532216
104	0xbd386fa5	-0.045028348
105	0xbbc3ff2f	-0.005981348
106	0xbcedc344	-0.029023774
107	0xbce61223	-0.02808482
108	0xbb095e54	-0.0020960765
109	0x3baf23ad	0.005344829
110	0xbc6fc294	-0.014633793
111	0x3cad9af9	0.02119206
112	0xbcb20a89	-0.02173354
113	0x3d04bc6c	0.032406256
114	0x3cc88544	0.024477609
115	0xbcf64eb7	-0.030066831
116	0xbc0f4e76	-0.008746734
117	0x3aebf939	0.0018003351
118	0x3bba4aca	0.005685185
119	0x3c230b98	0.009951495
120	0x3c90b0e2	0.01766247
121	0x3be8b673	0.0071018278
122	0xbc0b5a94	-0.008505482
123	0x3cfa0a44	0.030522473
124	0xbc617113	-0.013759869
125	0xbaf976bd	-0.0019032579
126	0x3b75f484	0.0037529776
127	0xbc7117f8	-0.014715187
128	0xbc8ff076	-0.017570715
129	0xbd228f9d	-0.03968774
130	0xbca2e9b2	-0.019886825
131	0xbaef2983	-0.0018246624
132	0xbcf3b6cf	-0.029750256
133	0xbba23686	-0.0049503474
134	0x3cbc97f6	0.02302168
135	0xbbf0d7bc	-0.0073499363
136	0xba43a2a3	-0.00074628944
137	0xbb4fd641	-0.0031713399
138	0x3be1b8dc	0.006888492
139	0x3cb926d7	0.022601528
140	0x3d0a918f	0.03383022
141	0x3cb9cc9a	0.02268057
142	0x3d0afa9b	0.033930402
143	0xbb0f485b	-0.0021863196
144	0xbcffe7bc	-0.03123843
145	0xbc66cc3b	-0.014086778
146	0x3cedf630	0.029048055
147	0x3c0d199d	0.008612064
148	0xbb8e4291	-0.0043414314
149	0xbc044775	-0.008073677
150	0xbbcad4d0	-0.00618992
151	0x3c1c3efc	0.009536501
152	0x3d367c18	0.04455194
153	0x3d9c8428	0.07642394
154	0x3d8c4bbf	0.06850385
155	0x3b888ada	0.004166943
156	0x3d44e939	0.04807398
157	0xbc427f3d	-0.011871156
158	0x3b5da291	0.003381882
159	0xbbb91445	-0.0056481683
160	0x3a6540ff	0.0008745342
161	0xbbbad7ec	-0.0057020094
162	0xbd192530	-0.03738898
163	0xbd1a02ab	-0.0376002
164	0xbc28c075	-0.010299792
165	0xbab3928e	-0.0013700293
166	0xbc853c69	-0.016264157
167	0x3c5c0e25	0.013431107
168	0xbd03aa6b	-0.032144945
169	0xbb1df0e8	-0.002409989
170	0x3d00c1c6	0.031434797
171	0xbc63702c	-0.013881724
172	0x3d0fe83d	0.03513359
173	0x3c9cb100	0.019127369
174	0xbca83c7e	-0.020536657
175	0x3d30047e	0.042973034
176	0x3cc214ec	0.023691617
177	0x3c96fbdc	0.018430643
178	0x3d94984a	0.07255609
179	0x3ce5f9ed	0.028073275
180	0x3d872ed0	0.06600726
181	0x3d7357d9	0.05940995
182	0x3dbb3444	0.09140828
183	0x3d8e8112	0.06958212
184	0x3d8a326d	0.06747899
185	0x3d5c7487	0.053822067
186	0x3cb0ced2	0.021582995
187	0x3c79d1e1	0.015247793
188	0xbc560100	-0.013061762
189	0x3cc9f2b6	0.024651866
190	0x3cd17d5e	0.025572475
191	0x3ca4b812	0.020107303
192	0xbcf3ecaa	-0.029775936
193	0x3a2f4acf	0.00066868676
194	0xbcca6d67	-0.02471037
195	0xbc9ee6a6	-0.019397091
196	0xbcaa4f2d	-0.020789707
197	0x3c4bc3db	0.012436832
198	0xbcac0665	-0.020999143
199	0x3a8502b1	0.0010147897
200	0x3be8c620	0.0071036965
201	0x3d06eda3	0.03294147
202	0xbc0c9513	-0.008580464
203	0x3ba9c297	0.0051806676
204	0x3c85c403	0.016328817
205	0x3d8486d9	0.06471033
206	0x3d0529e5	0.032510657
207	0x3d9b6918	0.075884044
208	0x3d84825c	0.064701766
209	0x3d85d438	0.06534618
210	0x3d932683	0.0718508
211	0x3d8e3924	0.069444925
212	0x3d974a16	0.07387178
213	0x3d64e883	0.055885803
214	0x3d4b76ad	0.049673725
215	0x3d21aa5b	0.039469104
216	0xbab5ccf6	-0.0013870287
217	0xbb9f21c6	-0.004856321
218	0x3d0aa4d8	0.033848614
219	0xbceb150e	-0.028696563
220	0xbb4a26a3	-0.0030845783
221	0x3d123c59	0.035702083
222	0x3c5fc576	0.013657918
223	0x3a9ea0ec	0.0012102402
224	0xbcfcd97b	-0.030865422
225	0x3c92ebfa	0.017934788
226	0xbcc8bd32	-0.024504278
227	0xbbced4f4	-0.006312007
228	0xbb5d9681	-0.003381163
229	0x3c0c2536	0.008553794
230	0x3cb790df	0.022407947
231	0x3d7a9361	0.061175708
232	0x3d1a646e	0.037693433
233	0x3d7c0833	0.061531257
234	0x3d4e87ba	0.050422408
235	0x3b7323b4	0.0037100138
236	0x3d35c7eb	0.04438011
237	0x3ca1f780	0.019771338
238	0x3d5fc76d	0.054633547
239	0x3dc51059	0.09622259
240	0x3dc4d817	0.09611528
241	0x3de1b31a	0.11020489
242	0x3d6c245c	0.057651863
243	0x3d36103b	0.044449072
244	0x3d4848b7	0.04889747
245	0xbc5dcbf3	-0.013537395
246	0x3d18309f	0.037155744
247	0xbcc2cbf1	-0.023778887
248	0x3b9b06ec	0.0047310498
249	0xbb8da48d	-0.0043225945
250	0xbc93ed02	-0.01805735
251	0x3b9d48a6	0.00479992
252	0x3cf22893	0.029560363
253	0xbc2498a5	-0.010046159
254	0xbc9f49d4	-0.019444384
255	0xbc05bae4	-0.008162234

bias f4 [20]
0	0x3e15012d	0.1455123
1	0x3db44034	0.08801308
2	0x3dba5886	0.09098916
3	0x3d96a4f2	0.073556796
4	0x3dc0fd6d	0.09423337
5	0x3df795c3	0.12089112
6	0x3e1a3073	0.15057544
7	0x3dbf7078	0.093476236
8	0x3d9059ca	0.07048376
9	0x3dbe882d	0.09303317
10	0x3db01223	0.08597209
11	0x3e08ad11	0.1334727
12	0xbc5bdee9	-0.013419845
13	0x3df796a4	0.12089279
14	0xbb785913	-0.003789489
15	0x3dcc8b15	0.09987465
16	0x3d9bb333	0.07602539
17	0x3d836997	0.06416624
18	0x3dcbc2cf	0.09949266
19	0x3df7d80d	0.12101755

weight f4 [10, 20]
0	0xbe442dc9	-0.1915809
1	0x3e02e46c	0.12782449
2	0x3e634a57	0.22196327
3	0x3e090690	0.1338141
4	0xbe409609	-0.18807234
5	0xbeaf992e	-0.34296554
6	0x3dd5721c	0.10422155
7	0xbe959c09	-0.29220608
8	0x3e98fad3	0.29878864
9	0xbea037ca	-0.31292564
10	0xbea04524	-0.3130275
11	0x3ead04df	0.3379278
12	0xbda646a6	-0.08118944
13	0xbe11d4f8	-0.14241397
14	0x3ea2802d	0.31738415
15	0xbe3468c4	-0.1761809
16	0x3e2084ee	0.15675709
17	0xbdfbf38c	-0.12302312
18	0xbd541b8c	-0.051784083
19	0x3e6b0bb0	0.22953677
20	0x3ed736bb	0.42033944
21	0xbe99382c	-0.29925668
22	0x3daaf306	0.08347134
23	0x3e0948fa	0.13406745
24	0xbd33588f	-0.043785628
25	0xbe8517e6	-0.25994796
26	0x3f0a6758	0.5406394
27	0x3e584997	0.21121822
28	0xbe9e3de6	-0.309066
29	0x3e98d1d8	0.29847598
30	0x3e22e304	0.15906912
31	0xbecc3204	-0.3988191
32	0x3d028ee0	0.031874537
33	0xbe97b625	-0.29631153
34	0xbe734ff6	-0.23760971
35	0xbe953acc	-0.2914642
36	0xbdca7893	-0.09886279
37	0xbd90f390	-0.07077706
38	0xbdaa1bd3	-0.08306088
39	0x3df5daa6	0.120045945
40	0x3cdacfa6	0.026710343
41	0x3e8fb2cd	0.28066102
42	0xbde81d98	-0.113337696
43	0x3e822540	0.25419044
44	0xbe29bbc7	-0.16575538
45	0xbea1e394	-0.3161894
46	0xbe704821	-0.23465015
47	0xbd9955d4	-0.074870735
48	0xbd1fea0a	-0.039041556
49	0x3ebc5c20	0.36789036
50	0x3ea99c6f	0.33127162
51	0x3de92523	0.113840364
52	0x3d5e23cf	0.05423337
53	0x3df85c15	0.12126938
54	0xbd914177	-0.070925646
55	0xbea81eaf	-0.3283591
56	0x3e5aa90e	0.21353552
57	0xbe822348	-0.25417542
58	0xbd8a0dd7	-0.06740921
59	0xbd2fb1a9	-0.04289404
60	0x3ef9e888	0.4881022
61	0xbe7d4744	-0.24734217
62	0xbe011aca	-0.12607875
63	0x3ea885c6	0.3291456
64	0xbe99a292	-0.30006844
65	0x3e1c0fda	0.15240422
66	0xbe6accc7	-0.22929679
67	0xbdc37a19	-0.09544773
68	0xbd7f1648	-0.06227711
69	0xbd9cfa41	-0.0766492
70	0xbe3bc315	-0.18336137
71	0x3ea4e7aa	0.32207996
72	0x3ddc9f5f	0.10772585
73	0xbde3d687	-0.11124902
74	0xbe48687f	-0.19571112
75	0x3c02172b	0.007940094
76	0x3e87ef00	0.2654953
77	0xbe806de6	-0.25083846
78	0xbd74a0b1	-0.05972356
79	0xbe59a4c6	-0.21254262
80	0xbee93827	-0.45550653
81	0x3e5b98c7	0.21444999
82	0xbe0830cf	-0.13299869
83	0x3ca617c0	0.020274997
84	0x3e38eb0a	0.1805841
85	0x3e79d839	0.24398889
86	0xbe7f375a	-0.24923459
87	0xbdbf4438	-0.093391836
88	0x3ea8b512	0.32950646
89	0x3d75f86c	0.060051367
90	0xbde0a7cb	-0.10969504
91	0x3e3f5273	0.18683796
92	0x3d10531a	0.0352355
93	0xbe8ae8fd	-0.2713088
94	0xbd388668	-0.045050055
95	0xbdb15fdd	-0.086608626
96	0xbc3a3129	-0.01136426
97	0x3e44f216	0.19232973
98	0x3eb64012	0.35595757
99	0xbc5e7f19	-0.013580107
100	0x3ddd6a20	0.10811257
101	0x3e4857ad	0.19564696
102	0xbe31c7ff	-0.17361449
103	0x3eb5d653	0.3551508
104	0x3e248d2a	0.16069475
105	0xbe0423a6	-0.12904224
106	0xbd8ce4f6	-0.06879608
107	0x3da29d2b	0.07940134
108	0x3d4e570d	0.050375987
109	0xbe3fd1c8	-0.18732369
110	0xbe622b91	-0.22086932
111	0x3e9306e3	0.28716192
112	0x3df826e8	0.12116796
113	0x3ed7c645	0.42143455
114	0xbe4c490e	-0.19949743
115	0x3cf6762e	0.03008565
116	0xbddbdd33	-0.1073555
117	0xbe80b84b	-0.25140604
118	0x3ee3e270	0.44508696
119	0x3ea425b7	0.32060024
120	0xbee14017	-0.4399421
121	0xbda4becd	-0.08044205
122	0x3e88732d	0.26650372
123	0x3ea2ae42	0.31773573
124	0x3e45b3f7	0.19306932
125	0xbd33ef65	-0.043929476
126	0xbd3d6bb4	-0.04624529
127	0xbe0a407e	-0.13501164
128	0xbe89b32a	-0.26894504
129	0x3e9bf4cc	0.30460203
130	0x3e05035f	0.12989567
131	0xbe4cf95d	-0.20017
132	0x3db5c5ec	0.08875641
133	0x3ed701b1	0.41993478
134	0x3dbeeeb0	0.0932287
135	0xbc886b87	-0.016652836
136	0xbd1b7c0c	-0.037960097
137	0x3e75857e	0.23976704
138	0xbd4d233c	-0.05008243
139	0xbe8af81b	-0.27142414
140	0x3e727fc9	0.23681559
141	0xbdaf26a6	-0.085522935
142	0xbdf36024	-0.11883572
143	0xbe0fdc9b	-0.14048998
144	0x3ea25296	0.31703633
145	0x3dc52d18	0.096277416
146	0xbe565c06	-0.20933542
147	0x3eaa36d1	0.33244947
148	0x3e3c64fb	0.18397896
149	0x3e1ccca9	0.15312447
150	0xbd42194c	-0.047387406
151	0x3e67fc8d	0.22654934
152	0x3d407655	0.04698785
153	0xbeb236b7	-0.3480737
154	0x3e467b31	0.19382931
155	0x3cc35955	0.023846308
156	0xbd1b6375	-0.037936646
157	0x3ea77179	0.3270376
158	0xbea97136	-0.33094186
159	0xbe6f2479	-0.23353757
160	0x3e8c99dd	0.27461138
161	0xbcd5befe	-0.026092049
162	0x3e25d4c7	0.1619445
163	0x3db0014c	0.08593997
164	0xbe719612	-0.23592404
165	0xbdecf034	-0.115692526
166	0xbddf496f	-0.10902678
167	0x3e3acddf	0.18242596
168	0xbd87e91b	-0.06636258
169	0xbdd38e30	-0.103298545
170	0xbe23e191	-0.16004016
171	0xbba2720f	-0.0049574445
172	0xbda281c3	-0.07934906
173	0xbc926d04	-0.017874248
174	0x3e57d970	0.2107904
175	0x3c844886	0.016147863
176	0xbde10321	-0.10986925
177	0x3dd97afb	0.1061916
178	0x3e46cc60	0.194139
179	0xbcdcda8c	-0.02695968
180	0x3c8355b5	0.01603208
181	0xbe571dfe	-0.21007535
182	0x3e9e3ed4	0.3090731
183	0xbeb21179	-0.34778956
184	0x3e95e915	0.2927939
185	0xbd1fea92	-0.039042063
186	0x3e7525e2	0.23940232
187	0xbdae214f	-0.08502447
188	0xbd8f1485	-0.06986336
189	0xbe07f3e5	-0.13276632
190	0xbe973f01	-0.29540256
191	0xbd9bde64	-0.07610777
192	0xbe128b6a	-0.14310995
193	0xbe17f94e	-0.14841196
194	0xbd71bb1f	-0.059016343
195	0x3eb710e3	0.3575507
196	0xbe0a8535	-0.13527377
197	0x3a07484f	0.0005160616
198	0x3d9c3c97	0.07628744
199	0x3d0cc049	0.034363065

bias f4 [10]
0	0xbe44d781	-0.19222833
1	0xbdbd5006	-0.09243779
2	0x3e1a1085	0.15045364
3	0xbccd0c14	-0.025030173
4	0x3db425e6	0.08796291
5	0xbdbdc78d	-0.09266577
6	0xbdac0217	-0.08398836
7	0xbe39cbb8	-0.18144119
8	0xbd947bac	-0.07250151
9	0x3de69f91	0.112609036
