datasets/mnist/partition_noniid-#label_major_classes_num_1_clients_10_dir_alpha_None_augement_data_percent_per_class_0.001_augement_data_with_zeros_0_seed_42_special_data_None/models/batch_size_256_com_round_25_epochs_1_lr_0.1_sample_ratio_0.9_personalization_steps_50_model_nanomlp/client_2.pt (torch, 65887 bytes, 4 tensors)

weight f4 [20, 784]
0	0xb98c2fff	-0.0002673864
1	0x3c9cf2b5	0.0191587
2	0xbcf0cca9	-0.029394465
3	0xbcd75093	-0.026283538
4	0xbc615ed0	-0.013755515
5	0x3c1ce90e	0.009577049
6	0xba397f27	-0.0007076137
7	0x3ce7fa13	0.028317487
8	0xbb4fb637	-0.0031694302
9	0x3c1ad60e	0.009450449
10	0xbc30d67d	-0.0107933255
11	0xbbe609a4	-0.007020192
12	0xbd0bc4ee	-0.034123354
13	0xbcc1c3c1	-0.023652913
14	0xbc710f0b	-0.014713059
15	0x3aad74e3	0.0013233687
16	0x3c6753dc	0.014119115
17	0x3caf8cae	0.021429386
18	0xbcc658a1	-0.024212183
19	0xbc7eced8	-0.015552245
20	0x3c5488b0	0.012972042
21	0x3cf2f2a3	0.029656714
22	0xbbf0d853	-0.0073500066
23	0x3cdaef49	0.026725428
24	0xbbbca16e	-0.0057565486
25	0x3b77aa5c	0.003779075
26	0x3d04754f	0.032338437
27	0xbd07b476	-0.033131085
28	0xbcb82f51	-0.0224835
29	0xbc14234a	-0.009041617
30	0xbc6416b3	-0.013921428
31	0x3cfcc82e	0.030857172
32	0xbcbda38c	-0.023149274
33	0xbc86ae25	-0.01644046
34	0xbccc671f	-0.024951516
35	0xbd0905e3	-0.03345288
36	0xbcaad68e	-0.02085426
37	0x3cfb52fa	0.030679215
38	0x3c817ace	0.015805628
39	0x3c8569be	0.016285773
40	0x3a27e6fc	0.0006404964
41	0xbc9c1ec9	-0.019057648
42	0x3bbf7090	0.005842276
43	0xbd095712	-0.033530302
44	0xbcd5a0b7	-0.026077611
45	0xbc99c9be	-0.018772956
46	0x3cb630fa	0.02224015
47	0x3ca910b3	0.020637846
48	0xbc85a28e	-0.016312864
49	0xbacc7918	-0.0015600054
50	0x3cba030c	0.022706531
51	0x3d116d70	0.03550476
52	0x3c683b9b	0.014174367
53	0x3b9e18e5	0.004824745
54	0x3cc42a47	0.02394594
55	0xbcac4449	-0.021028655
56	0x3bda1364	0.0066551436
57	0xbce2d50e	-0.027689483
58	0xbccac6fa	-0.024753083
59	0xbc972335	-0.018449405
60	0x3c845c25	0.01615722
61	0x3c6b4f36	0.014362147
62	0xbcad50a6	-0.02115662
63	0x3c302681	0.010751368
64	0x3c9e1f1d	0.019301945
65	0xbba72fd2	-0.005102136
66	0xba8ff878	-0.0010984084
67	0x3b8f2e62	0.004369543
68	0x3c953584	0.018213995
69	0x3cf1ea24	0.029530592
70	0xbd0ade28	-0.03390327
71	0xbcb1d26e	-0.021706786
72	0x3b4c11ce	0.0031138542
73	0x3c9f8c5c	0.019476108
74	0x3cac0cd0	0.021002203
75	0x3cc04cdc	0.02347415
76	0x3b242c4e	0.0025050822
77	0xbd09b05e	-0.033615462
78	0x3b204a29	0.0024458265
79	0xbcb73b83	-0.022367245
80	0xbd085635	-0.03328534
81	0x3d01faa6	0.031733178
82	0x3cde75a5	0.027155707
83	0xbd11ec92	-0.035626
84	0x3bdb0b7b	0.006684718
85	0xbbc52577	-0.006016429
86	0xbbc0950a	-0.005877142
87	0xbc85ece0	-0.016348302
88	0x3c60b7f2	0.013715731
89	0xbcad0f8a	-0.021125574
90	0x3c56fb4d	0.013121438
91	0x3c936119	0.017990636
92	0x3ccf5388	0.025308385
93	0x3c50ae5b	0.012736882
94	0xbd1ac44d	-0.037784863
95	0xbcd1e243	-0.025620585
96	0x3c69e600	0.014276028
97	0x3a56c925	0.0008193425
98	0xbd1faf63	-0.03898562
99	0xbd1a7d99	-0.037717436
100	0x3c44f050	0.012020186
101	0x3a85438a	0.0010167223
102	0xbd1c8a67	-0.03821793
103	0xbce108c0	-0.027469993
104	0xbd385d1e	-0.04501068
105	0xbbc4100f	-0.0059833596
106	0xbcede419	-0.02903943
107	0xbce63151	-0.028099688
108	0xbb09a37a	-0.002100198
109	0x3baf232d	0.0053447695
110	0xbc6fc328	-0.014633931
111	0x3cad9af9	0.02119206
112	0xbcb20a89	-0.02173354
113	0x3d04bc6c	0.032406256
114	0x3cc8855a	0.02447765
115	0xbcf64ea0	-0.030066788
116	0xbc0f4bc6	-0.008746093
117	0x3aec4333	0.0018025398
118	0x3bbab587	0.0056979093
119	0x3c23418c	0.009964358
120	0x3c90cae0	0.017674863
121	0x3be914d4	0.0071130786
122	0xbc0b601b	-0.0085068
123	0x3cfa34d6	0.030542772
124	0xbc6013df	-0.013676613
125	0xbae97429	-0.0017811108
126	0x3b818e08	0.003953699
127	0xbc6c28ee	-0.014414055
128	0xbc8cc1ef	-0.017182318
129	0xbd20d448	-0.039264947
130	0xbc9fd989	-0.019512909
131	0xbac69cc7	-0.0015152924
132	0xbcf1fd71	-0.029539796
133	0xbb9e3c9c	-0.0048290025
134	0x3cbcfff3	0.023071265
135	0xbbf0db63	-0.0073503717
136	0xba456ba1	-0.00075309916
137	0xbb501688	-0.003175171
138	0x3be1a9aa	0.0068866806
139	0x3cb926d7	0.022601528
140	0x3d0a918f	0.03383022
141	0x3cb9cc9a	0.02268057
142	0x3d0afab9	0.033930514
143	0xbb0f5cc1	-0.0021875354
144	0xbcffee9e	-0.031241711
145	0xbc671c41	-0.014105857
146	0x3ced9fc6	0.02900685
147	0x3c0bd0b2	0.008533644
148	0xbb92eabc	-0.004483549
149	0xbc07b916	-0.008283874
150	0xbbd23c3d	-0.0064158724
151	0x3c196bc1	0.009364069
152	0x3d360d8f	0.044446524
153	0x3d9c7e65	0.07641295
154	0x3d8c8eb4	0.06863156
155	0x3b922da3	0.0044610067
156	0x3d46dc90	0.04855019
157	0xbc3823bd	-0.011238989
158	0x3b8553b9	0.0040688184
159	0xbba47d6e	-0.005019835
160	0x3ab477fa	0.0013768666
161	0xbbb0b4d5	-0.0053926506
162	0xbd1893c1	-0.037250284
163	0xbd19f393	-0.037585806
164	0xbc2955dc	-0.010335412
165	0xbab6f9f1	-0.0013959986
166	0xbc855232	-0.016274545
167	0x3c5c0bdb	0.013430561
168	0xbd03aa6b	-0.032144945
169	0xbb1df0e8	-0.002409989
170	0x3d00c262	0.031435378
171	0xbc6377f1	-0.013883577
172	0x3d0fdd57	0.035123195
173	0x3c9c46c6	0.019076716
174	0xbca93cc6	-0.020658862
175	0x3d2f2647	0.042761113
176	0x3cbf889f	0.023380576
177	0x3c943c6a	0.018095214
178	0x3d940c02	0.07228853
179	0x3ce4eb0d	0.027944112
180	0x3d872863	0.065995
181	0x3d73eb6e	0.059550695
182	0x3dbbc5c5	0.09168581
183	0x3d8f498b	0.06996449
184	0x3d8b16df	0.06791472
185	0x3d5ebb6a	0.05437795
186	0x3cb67138	0.022270784
187	0x3c82909e	0.0159381
188	0xbc4d1db0	-0.012519285
189	0x3cccb5f9	0.024989115
190	0x3cd2745a	0.025690246
191	0x3ca43d13	0.020048654
192	0xbcf4f258	-0.029900715
193	0x3a1550b3	0.0005695924
194	0xbccab8c1	-0.0247463
195	0xbc9eef35	-0.019401172
196	0xbcaa4f2d	-0.020789707
197	0x3c4bc3db	0.012436832
198	0xbcac0768	-0.020999625
199	0x3a8453fb	0.0010095829
200	0x3be8065e	0.007080837
201	0x3d068c70	0.032848775
202	0xbc101830	-0.008794829
203	0x3b9fcadd	0.004876478
204	0x3c82dd13	0.015974557
205	0x3d83f16a	0.064425305
206	0x3d0475b5	0.032338817
207	0x3d9b7f13	0.07592597
208	0x3d84e5e7	0.06489163
209	0x3d8677c4	0.06565812
210	0x3d93d75b	0.0721881
211	0x3d8ebe25	0.06969861
212	0x3d978c2e	0.07399784
213	0x3d658a94	0.05604036
214	0x3d4c98ba	0.04995034
215	0x3d2355c2	0.039876707
216	0xba85479b	-0.0010168435
217	0xbb97d1c4	-0.0046331603
218	0x3d0aaf86	0.0338588
219	0xbcecc5b1	-0.02890286
220	0xbb5a953a	-0.0033353106
221	0x3d11811e	0.035523526
222	0x3c5ed830	0.013601348
223	0x3a9e2edc	0.0012068409
224	0xbcfcd97b	-0.030865422
225	0x3c92ec7a	0.017935026
226	0xbcc8c00e	-0.024505641
227	0xbbcf1e06	-0.0063207177
228	0xbb5ffbcc	-0.0034177182
229	0x3c0a42a4	0.00843874
230	0x3cb5e6cf	0.022204785
231	0x3d798f7b	0.06092785
232	0x3d1956b3	0.0374362
233	0x3d7b60ef	0.06137174
234	0x3d4e7d7b	0.050412636
235	0x3b7d99c2	0.0038696383
236	0x3d36ed4e	0.044659905
237	0x3ca4fd88	0.020140424
238	0x3d60fc06	0.05492785
239	0x3dc519a7	0.096240334
240	0x3dc44104	0.09582713
241	0x3de0f626	0.10984449
242	0x3d6b5cbc	0.057461485
243	0x3d3652eb	0.04451267
244	0x3d49122c	0.049089596
245	0xbc5c0c1f	-0.013430624
246	0x3d17dc02	0.03707505
247	0xbcc4f90b	-0.024044534
248	0x3b911337	0.0044273394
249	0xbb947726	-0.004530805
250	0xbc946d6d	-0.018118585
251	0x3b9d2ef9	0.0047968593
252	0x3cf22893	0.029560363
253	0xbc2498a5	-0.010046159
254	0xbc9f4c5d	-0.019445593
255	0xbc05c836	-0.00816541

bias f4 [20]
0	0x3e155f0b	0.14587037
1	0x3dba2dda	0.09090777
2	0x3dc6cdd5	0.09707228
3	0x3d8e0383	0.069342636
4	0x3dac2406	0.084053084
5	0x3df0e024	0.117615014
6	0x3e16cb2d	0.14725943
7	0x3db53d5d	0.08849595
8	0x3d908058	0.0705573
9	0x3dde5887	0.10856729
10	0x3dcfb2e8	0.101415455
11	0x3e065386	0.13117799
12	0xbc782f1b	-0.01514795
13	0x3ddfca26	0.10927229
14	0x3b6859f0	0.0035453998
15	0x3dbc5c39	0.091972776
16	0x3db5529d	0.08853648
17	0x3d86d125	0.0658286
18	0x3dac8ff6	0.08425896
19	0x3de1d3b6	0.11026709

weight f4 [10, 20]
0	0xbe3d4ec9	-0.18487085
1	0x3e04ec0d	0.12980671
2	0x3e66a218	0.22522771
3	0x3e0da14d	0.13831063
4	0xbe3cf9dd	-0.1845469
5	0xbead92d9	-0.33901098
6	0x3dddefa9	0.10836727
7	0xbe949f5c	-0.29027832
8	0x3e9b0b37	0.30281994
9	0xbea1b20f	-0.3158116
10	0xbea1debd	-0.31615248
11	0x3eb11a4f	0.34590384
12	0xbda618c4	-0.081101924
13	0xbe0b7896	-0.13620219
14	0x3ea36ed4	0.31920493
15	0xbe2cec53	-0.16887026
16	0x3e21ae90	0.15789247
17	0xbdfa3b70	-0.12218368
18	0xbd35562c	-0.044271633
19	0x3e716594	0.23573905
20	0x3ed4e3d2	0.41580063
21	0xbe9a3c8d	-0.30124322
22	0x3da51a89	0.08061702
23	0x3e066016	0.13122591
24	0xbd33d1dc	-0.04390131
25	0xbe859816	-0.26092595
26	0x3f09dbe6	0.53851163
27	0x3e575ce3	0.21031527
28	0xbe9e5c34	-0.3092972
29	0x3e965cf1	0.29367784
30	0x3e1e19e3	0.15439562
31	0xbecd0cf2	-0.4004894
32	0x3d008a55	0.031381924
33	0xbe992259	-0.29909018
34	0xbe7436f8	-0.23849094
35	0xbe95ad96	-0.29233998
36	0xbdd0ec3d	-0.10201309
37	0xbd924c47	-0.07143455
38	0xbdab5908	-0.08366591
39	0x3df4992b	0.11943277
40	0x3dcda0d1	0.10040439
41	0x3eafb6b0	0.34319067
42	0xbd60cb92	-0.05488164
43	0x3ea130b1	0.3148246
44	0xbe13b783	-0.14425473
45	0xbe923fa9	-0.28564194
46	0xbe4811c2	-0.19538024
47	0xbd5a8909	-0.053353343
48	0xbaa588f1	-0.0012629313
49	0x3edc5fb3	0.43041763
50	0x3ec889b7	0.39167568
51	0x3e3998b0	0.18124652
52	0x3d7244b8	0.059147567
53	0x3e4792d0	0.19489598
54	0xbd22c888	-0.039742023
55	0xbe9296c6	-0.28630656
56	0x3e8b6eda	0.2723301
57	0xbe708d15	-0.23491319
58	0xbcc0d16f	-0.023537366
59	0xbb004189	-0.0019570312
60	0x3efb7807	0.4911501
61	0xbe7ca1df	-0.24671124
62	0xbdff0e32	-0.124538794
63	0x3eaa37ab	0.33245596
64	0xbe9837c5	-0.2973005
65	0x3e1f5edd	0.15563531
66	0xbe6895f3	-0.22713451
67	0xbdc20452	-0.0947348
68	0xbd706480	-0.058689594
69	0xbda9a497	-0.08283346
70	0xbe424e8c	-0.18975276
71	0x3ea869bf	0.32893178
72	0x3ddbfd44	0.10741666
73	0xbdd8b929	-0.105821915
74	0xbe475209	-0.19464888
75	0x3c702581	0.014657379
76	0x3e8797e8	0.26483083
77	0xbe805aeb	-0.25069365
78	0xbd576d8d	-0.05259471
79	0xbe544249	-0.20728411
80	0xbee74aa9	-0.4517415
81	0x3e5c8c83	0.21537976
82	0xbe067f62	-0.1313453
83	0x3cb8f8ee	0.022579636
84	0x3e3c03ae	0.18360779
85	0x3e7ca9c0	0.2467413
86	0xbe7c548b	-0.24641626
87	0xbdbc0ece	-0.09182511
88	0x3eaa0139	0.33204058
89	0x3d6a26f0	0.05716604
90	0xbde6d731	-0.11271513
91	0x3e4432bb	0.19159977
92	0x3d101559	0.03517661
93	0xbe890a62	-0.26765734
94	0xbd34beee	-0.044127397
95	0xbda71b9a	-0.081595615
96	0xbc3e3d8c	-0.011611354
97	0x3e45ade5	0.19304617
98	0x3eb8f40e	0.361237
99	0xbc17aa41	-0.0092569
100	0x3cab6f6f	0.02092716
101	0x3e09f806	0.1347352
102	0xbe70a000	-0.23498535
103	0x3e91a0a4	0.28442872
104	0x3dfc95a7	0.123332314
105	0xbe32668b	-0.1742193
106	0xbdf666ae	-0.12031303
107	0x3d55321f	0.052049752
108	0xbb2e7870	-0.002662208
109	0xbe5b31e6	-0.21405753
110	0xbe7aef4d	-0.24505349
111	0x3e445f70	0.19177032
112	0x3df1a6c6	0.11799388
113	0x3ea8c69e	0.32964033
114	0xbe6f2648	-0.23354447
115	0xbd2fc2e6	-0.04291048
116	0xbe201cbc	-0.15635961
117	0xbe8aa495	-0.2707869
118	0x3ebc09aa	0.36726123
119	0x3e818069	0.25293282
120	0xbee3def2	-0.4450603
121	0xbdb40206	-0.087894484
122	0x3e8534bc	0.26016796
123	0x3e9ffc43	0.31247148
124	0x3e44a5c7	0.19203864
125	0xbd3c1cf6	-0.045926057
126	0xbd48dd64	-0.04903926
127	0xbe0b7e74	-0.13622457
128	0xbe8b3b47	-0.27193663
129	0x3e9678f9	0.2938917
130	0x3df45b24	0.11931446
131	0xbe51b25b	-0.20478193
132	0x3db453cc	0.088050455
133	0x3ed39432	0.41324002
134	0x3db848d0	0.08998263
135	0xbc963953	-0.018337881
136	0xbd3971ad	-0.045274425
137	0x3e7323b3	0.23744087
138	0xbd53f1ab	-0.051744144
139	0xbe8be867	-0.27325746
140	0x3e707ce8	0.23485148
141	0xbdb2cd7b	-0.087305985
142	0xbdf68cdf	-0.12038588
143	0xbe107da9	-0.14110436
144	0x3ea230ed	0.31677952
145	0x3dc43ddc	0.09582111
146	0xbe56947f	-0.20955084
147	0x3ea9e32d	0.33181134
148	0x3e3be078	0.18347347
149	0x3e1883bb	0.14894001
150	0xbd51c21c	-0.051210508
151	0x3e674287	0.22583972
152	0x3d3fa560	0.046788573
153	0xbeb29858	-0.34881854
154	0x3e457f65	0.19286878
155	0x3cc32699	0.023822116
156	0xbd24d911	-0.040246073
157	0x3ea6e924	0.32599747
158	0xbea8e5c8	-0.3298781
159	0xbe6e653f	-0.2328081
160	0x3e8f7599	0.28019407
161	0xbcc292b5	-0.023751596
162	0x3e28d7dd	0.16488595
163	0x3db98bfb	0.09059902
164	0xbe6d967f	-0.23201941
165	0xbde46dd9	-0.11153764
166	0xbdd6eaf4	-0.104940325
167	0x3e3cf2fa	0.18452063
168	0xbd7dfffb	-0.0620117
169	0xbddbcd0a	-0.107324675
170	0xbe283026	-0.16424617
171	0x3b4598d1	0.00301509
172	0xbda2be83	-0.079464935
173	0xbc3386dd	-0.010957447
174	0x3e598ddd	0.21245523
175	0x3cc2a824	0.023761816
176	0xbddfe820	-0.10932946
177	0x3ddb0e79	0.1069612
178	0x3e4f7384	0.2025891
179	0xbca4dcc1	-0.020124795
180	0x3cb48a70	0.022038668
181	0xbe534ea4	-0.20635468
182	0x3ea06ca3	0.31332883
183	0xbeb00035	-0.34375158
184	0x3e97fafc	0.29683673
185	0xbd0faa2b	-0.035074394
186	0x3e796b49	0.24357332
187	0xbda972e0	-0.08273864
188	0xbd85e5a8	-0.06537944
189	0xbe0812f9	-0.13288487
190	0xbe977365	-0.29580227
191	0xbd8caecc	-0.06869277
192	0xbe127d38	-0.1430558
193	0xbe11a57c	-0.14223284
194	0xbd6791c6	-0.056535505
195	0x3eba95df	0.36442468
196	0xbe083f3f	-0.13305376
197	0x3b0f6613	0.002188091
198	0x3daa226a	0.08307345
199	0x3d249fff	0.040191647

bias f4 [10]
0	0xbe4219b2	-0.18955114
1	0xbdbf70f1	-0.09347714
2	0x3e381e08	0.17980206
3	0xbcbc01f9	-0.02295016
4	0x3db7aa4a	0.08968027
5	0xbe05cfcf	-0.13067554
6	0xbdb08b90	-0.086203694
7	0xbe3a20c5	-0.18176563
8	0xbd8e8655	-0.069592156
9	0x3dec793b	0.115465604
