datasets/mnist/partition_noniid-#label_major_classes_num_2_clients_10_dir_alpha_None_augement_data_percent_per_class_0.01_seed_42/models/batch_size_256_com_round_20_epochs_5_lr_0.1_sample_ratio_0.9_personalization_steps_25/client_6.pt (torch, 175631 bytes, 8 tensors)

weight f4 [50, 784]
000000 ff 2f 8c b9 b5 f2 9c 3c a9 cc f0 bc 93 50 d7 bc
       -0.0002673864 0.0191587 -0.029394465 -0.026283538
000010 d0 5e 61 bc 0e e9 1c 3c 27 7f 39 ba 13 fa e7 3c
       -0.013755515 0.009577049 -0.0007076137 0.028317487
000020 37 b6 4f bb 0e d6 1a 3c 7d d6 30 bc a4 09 e6 bb
       -0.0031694302 0.009450449 -0.0107933255 -0.007020192
000030 66 82 0b bd 94 a8 c0 bc 54 21 71 bc c6 6e ad 3a
       -0.034059905 -0.023517884 -0.014717419 0.0013231866
000040 dc 53 67 3c ae 8c af 3c a1 58 c6 bc d8 ce 7e bc
       0.014119115 0.021429386 -0.024212183 -0.015552245
000050 b0 88 54 3c a3 f2 f2 3c 53 d8 f0 bb 49 ef da 3c
       0.012972042 0.029656714 -0.0073500066 0.026725428
000060 6e a1 bc bb 5c aa 77 3b 4f 75 04 3d 76 b4 07 bd
       -0.0057565486 0.003779075 0.032338437 -0.033131085
000070 51 2f b8 bc 4a 23 14 bc b3 16 64 bc 2e c8 fc 3c
       -0.0224835 -0.009041617 -0.013921428 0.030857172
000080 83 a3 bd bc c7 ad 86 bc 7e 6d ca bc 33 f2 06 bd
       -0.023149258 -0.016440285 -0.024710413 -0.032945823
000090 db 77 a7 bc 81 27 fc 3c 4f 07 84 3c 0c 83 90 3c
       -0.020442894 0.030780556 0.016116766 0.017640613
0000a0 23 73 59 3b 91 56 92 bc e6 a4 db 3b 1c 54 05 bd
       0.00331802 -0.017863544 0.006703007 -0.032550916
0000b0 88 3d cb bc a0 f8 90 bc c8 d2 b9 3c 49 3f af 3c
       -0.024809614 -0.017696679 0.022683516 0.021392481
0000c0 a0 13 80 bc b3 11 c2 ba 7a f0 ba 3c b6 62 11 3d
       -0.015634358 -0.00148063 0.022819746 0.03549453
0000d0 9b 3b 68 3c e5 18 9e 3b 47 2a c4 3c 49 44 ac bc
       0.014174367 0.004824745 0.02394594 -0.021028655
0000e0 64 13 da 3b 0e d5 e2 bc c4 c6 ca bc a4 01 97 bc
       0.0066551436 -0.027689483 -0.024752982 -0.0184334
0000f0 e0 55 84 3c ce 81 6b 3c 16 d7 aa bc 5f 99 3c 3c
       0.01615423 0.01437421 -0.020854514 0.011511176
000100 2b 3e a9 3c 10 96 62 bb 53 98 61 3b c1 83 3e 3c
       0.020659527 -0.0034574308 0.0034423068 0.011628092
000110 4d a0 e2 3c bd 8b 2b 3d e4 d5 9b bc 3a a1 55 bb
       0.027664328 0.04188131 -0.01902289 -0.003259732
000120 06 bd b8 3c 13 3e 11 3d a8 70 07 3d 36 f1 01 3d
       0.02255107 0.03545959 0.03306642 0.031724177
000130 80 3f 16 3c 0d 5d ef bc a9 d0 6a 3b d7 d0 b4 bc
       0.009170413 -0.029219175 0.0035829938 -0.022072239
000140 49 fe 07 bd 82 0e 02 3d a5 75 de 3c 92 ec 11 bd
       -0.03320149 0.031752117 0.027155707 -0.035626
000150 7b 0b db 3b 77 25 c5 bb 3d 91 c0 bb ed da 84 bc
       0.006684718 -0.006016429 -0.0058766888 -0.016217673
000160 6a 50 61 3c 25 6a ab bc 98 2f 6b 3c 34 57 a2 3c
       0.013752082 -0.020924637 0.014354609 0.019816972
000170 37 ea e7 3c e2 1d cb 3c 89 3c be bc d1 28 7e bc
       0.028309925 0.024794523 -0.023222225 -0.015512661
000180 b6 e9 dc 3c 0d 7f b1 3c 3a f0 6a bc 3a ee ba bb
       0.02696691 0.021667028 -0.014339501 -0.0057046684
000190 91 30 20 3d af 3f 7b 3c 16 0a c7 bc e5 33 98 bc
       0.039108817 0.015335008 -0.024296802 -0.018579433
0001a0 f6 84 21 bd 99 74 a2 ba f9 c9 e0 bc 14 ec de bc
       -0.039433442 -0.0012394368 -0.027440058 -0.02721218
0001b0 e3 49 09 bb 64 16 ac 3b c8 cd 6f bc f9 9a ad 3c
       -0.002094858 0.0052516926 -0.014636464 0.02119206
0001c0 89 0a b2 bc 33 bc 04 3d 9a 81 c8 3c cd f4 f6 bc
       -0.02173354 0.032406043 0.024475861 -0.030146027
0001d0 5a f8 08 bc 33 75 a4 3b 36 4b 3a 3c b9 fe 90 3c
       -0.008359993 0.005018854 0.011370471 0.017699586
0001e0 95 8c d1 3c 7c 8a 80 3c d0 40 2b bc e9 41 cc 3c
       0.02557973 0.015691034 -0.010452464 0.024933772
0001f0 fd 6f 5f bc 48 82 94 3b 5b 76 a0 3c 07 f3 7a bb
       -0.01363754 0.0045321323 0.019587686 -0.0038291828
000200 b3 10 bb bb 2a 79 fe bc 71 5c 60 bc 2b ba cd 3b
       -0.005708778 -0.031063635 -0.013693915 0.0062782965
000210 da 78 93 bc 20 e3 ae bb dd 52 9a 3c 37 f3 35 bc
       -0.018001962 -0.005337134 0.01883834 -0.01110535
000220 a1 11 96 bb 2d 71 6b bb db 05 ed 3b 33 dc b9 3c
       -0.0045797382 -0.0035925612 0.007233364 0.022688007
000230 8f 91 0a 3d 9a cc b9 3c 0f 06 0b 3d 54 99 2f bb
       0.03383022 0.02268057 0.033941325 -0.0026794272
000240 31 bc f2 bc e2 e6 30 bc 7f 0a 0c 3d 7e 3b 46 3c
       -0.029630752 -0.010797234 0.034189697 0.012099145
000250 05 36 8f bb 60 dd 57 bc 3b 74 c9 bc c8 dd ac bc
       -0.0043704533 -0.0131753385 -0.024591556 -0.021101847
000260 57 2e 39 3c 29 3e 25 3d 91 61 19 3d c0 f9 84 bc
       0.011302552 0.040342484 0.037446562 -0.016232371
000270 31 be 1e 3d 88 3c fd b9 5f e1 ab 3c 1a e3 1a 3c
       0.0387556 -0.0004830102 0.020981489 0.009453559
000280 66 f5 45 3c 4d 99 d9 3b 92 ec 0d bd 3b 50 1c bd
       0.012082433 0.0066405893 -0.03464944 -0.03816245
000290 68 22 86 bc 76 84 21 bb 1a 4f 86 bc a4 cb 5c 3c
       -0.016373828 -0.0024645603 -0.01639514 0.013476286
0002a0 6b aa 03 bd 64 f6 1d bb 4b 90 fd 3c 52 df 70 bc
       -0.032144945 -0.002410316 0.030952593 -0.014701681
0002b0 47 18 09 3d f2 f3 8a 3c 33 cc b2 bc b0 3f 1b 3d
       0.03347042 0.016962025 -0.021825885 0.037902534
0002c0 aa 87 00 3c 0d 0c 32 bb 23 46 3d 3d 89 ba 7a bc
       0.007844845 -0.0027167827 0.046209466 -0.0153032625
0002d0 1f c0 17 3b 77 f8 bc bc 28 9c 8d 3c cf 88 45 3c
       0.0023155285 -0.023067696 0.017286375 0.0120565435
0002e0 47 70 0e 3c 7b 56 96 3b dc 22 a0 bb 4a f9 bc 3b
       0.008693761 0.004587946 -0.004886968 0.0057670223
0002f0 77 90 63 bc dc 3b af 3c 78 34 b4 3c 82 6b 52 3c
       -0.013889424 0.021390848 0.021997675 0.012843015
000300 b7 08 2d bd 24 3e 13 bc 3b bc e2 bc ed 1a a3 bc
       -0.04224464 -0.008986983 -0.027677646 -0.0199103
000310 30 7c aa bc 91 b0 47 3c ca f1 ad bc d4 f1 d6 ba
       -0.02081117 0.012188093 -0.021233458 -0.0016398975
000320 94 15 79 3b 1a 7b ee 3c 1d ca 77 bc a0 ec 4c bc
       0.0038007246 0.029111434 -0.015123871 -0.012507588
000330 14 02 a5 bc bd b9 db 3c 4d ad 62 bc 17 50 9f 3c
       -0.020142592 0.026821965 -0.013835263 0.01944737
000340 2f 03 88 bb 8b d0 82 bc af 10 10 bd db ec 13 bd
       -0.00415077 -0.015968582 -0.03517216 -0.036114555
000350 78 bf b0 bc 21 b3 f5 bc fe c2 59 bb bd 1f 5e 3c
       -0.021575674 -0.029992642 -0.0033227797 0.013557372
000360 b1 a5 98 bc 24 38 16 bc b7 e7 c0 3c 52 d2 45 bd
       -0.018633695 -0.009168658 0.02354799 -0.04829628
000370 9e 6d da bc 29 92 8c 3c 1c 7c 26 3c 5f 8b 45 3a
       -0.026663598 0.017159538 0.010161426 0.00075357215
000380 1c ce 00 bd bc 70 93 3c f6 0f ce bc 0e 85 34 bc
       -0.03144656 0.017998092 -0.025154095 -0.011018051
000390 d5 39 b9 bb 5d e0 48 3b af 41 3d 3c ed 7a 30 3d
       -0.005652646 0.003065131 0.011551305 0.04308598
0003a0 8e 4e 92 3a 73 48 ab 3c e7 4d e5 3b f5 13 0b bd
       0.0011162327 0.02090857 0.006997812 -0.03395458
0003b0 61 b0 86 b9 0b c8 22 bd 41 09 f9 bc ce 06 af bc
       -0.00025689884 -0.039741557 -0.03039992 -0.02136555
0003c0 9a 61 9c bc 7a de 97 3c 34 30 63 bc f6 1a db 3b
       -0.019089509 0.018538702 -0.013866473 0.0066865636
0003d0 9f 2d 97 3c 63 6d 07 bd 37 c9 a9 3c fe 5a 4c bd
       0.018454371 -0.033063304 0.02072583 -0.049891464
0003e0 ae 38 cf bc 56 5a c7 bc b0 de bb bc bf 8e 95 3b
       -0.025295582 -0.024335068 -0.022933334 0.004564136
0003f0 1c ed f1 3c 22 a6 2b bc b0 7f ac bc b6 19 72 bc
       0.029532008 -0.010476621 -0.02105698 -0.014776638

bias f4 [50]
000000 81 b4 89 bd 30 5d 7a bd 95 3b 45 3e aa c6 72 3d
       -0.067238815 -0.061124027 0.1926101 0.059271492
000010 83 94 37 3e 29 0d 92 3b cc 87 63 3e b0 d6 56 bd
       0.17927746 0.004457135 0.22219771 -0.052450836
000020 54 c4 ed bc 80 ad 85 3d 62 d6 1d 3b fe ca c7 bc
       -0.02902428 0.06527233 0.002408408 -0.024388786
000030 39 48 48 3d e7 f7 56 3d 8e ed 41 3d 88 88 13 3d
       0.048897002 0.05248251 0.04734569 0.03601888
000040 07 9c 1c 3c 38 d5 21 3d ba cd 26 3e fa 86 e5 3c
       0.009558684 0.039509982 0.16289416 0.028018463
000050 a2 ef e0 3d 19 d2 37 bd ed 95 57 3d f2 f3 80 3d
       0.10983206 -0.0448781 0.052633215 0.06296529
000060 54 be 16 bd 7b bc f4 3d d0 80 ee 3c c8 73 9c 3d
       -0.036802605 0.11950012 0.029114157 0.07639271
000070 d8 32 d8 3d 4a 1e 12 3d 05 2f cd bb 3b 47 eb 3d
       0.10556573 0.035673417 -0.0062617087 0.114881955
000080 9a 7a 82 3d a1 f1 0b 3e a6 03 20 3d 2e 04 81 bd
       0.06371041 0.13666393 0.03906598 -0.06299625
000090 e0 96 a4 bc 05 13 13 3d 6c df e9 3c af d2 f7 3d
       -0.020091474 0.03590681 0.028548919 0.121007316
0000a0 cc bf 9b bc 35 dd f6 3d 46 69 6c 3d db b9 f3 bc
       -0.019012354 0.12053911 0.057717584 -0.029751709
0000b0 52 bc 70 bd 98 48 20 bd c7 1c c0 bc 24 02 48 bd
       -0.058773346 -0.03913173 -0.023451222 -0.048830166
0000c0 0e 30 b0 3d ef d2 b9 3d
       0.08602916 0.090734355

weight f4 [50, 50]
000000 31 74 e6 3c da 79 ba bd a3 58 ca 3c ac 4d b9 ba
       0.028131576 -0.091052726 0.024700468 -0.0014137528
000010 01 62 53 be cc e3 2a be 11 11 02 3e 6e 04 1c be
       -0.20642854 -0.1668846 0.12701823 -0.15236065
000020 6d dd 14 3e c3 f4 8c 3e 40 44 a6 bd 9a 97 a0 3c
       0.14537592 0.27530488 -0.081184864 0.01960354
000030 fd 6c ea 3c 94 10 81 3d 2e a9 15 3e e4 03 9b 3d
       0.028616423 0.0630199 0.14615318 0.075691015
000040 56 fd 8c bc f1 74 93 3d b5 72 47 3e 98 b5 0c 3e
       -0.017210644 0.07200039 0.19477351 0.13741148
000050 a9 47 53 be 13 16 e7 3d 68 24 00 be da 90 43 be
       -0.20632805 0.11283507 -0.12513888 -0.19098225
000060 c7 45 26 3d cc d2 43 3d 98 b7 f1 3d 9b 32 69 3e
       0.04059389 0.047808453 0.11802596 0.2277321
000070 a7 23 af bd 24 8e 47 be b3 71 5f bd 1a 58 55 3e
       -0.08551722 -0.19487816 -0.05455179 0.2083439
000080 bc e4 70 3d 54 ad 7e 3d 6d b6 78 3d f4 39 27 bc
       0.058811888 0.062177017 0.06072085 -0.010206688
000090 30 df 69 3d 26 c4 a1 3c 99 c5 27 3e ca e1 88 3e
       0.057097614 0.019746851 0.16383971 0.26734763
0000a0 eb 4e 0f bd e5 5e e3 bd 96 ff 47 bc c3 aa 76 3e
       -0.03498737 -0.11102084 -0.0122069325 0.24088578
0000b0 0a d0 62 3e 55 99 77 3d a4 44 02 3e 41 c0 85 bd
       0.22149673 0.060448963 0.12721497 -0.0653081
0000c0 52 12 98 bc d9 09 48 bd 45 62 b3 bd 50 71 f0 3d
       -0.018563423 -0.048837516 -0.08758978 0.11740363
0000d0 b7 54 20 be 5d 48 8b bc 29 2e 15 be 16 7d a0 3d
       -0.15657316 -0.017002279 -0.1456839 0.07836358
0000e0 9a 2d d5 bd 0e 6c 09 3e 55 74 03 3e 58 68 d5 3d
       -0.104090884 0.13420126 0.12837346 0.104202926
0000f0 08 70 ed 3c d7 1d 12 bd ad c4 c5 3b be 8f 26 3e
       0.028984085 -0.03567299 0.0060354085 0.16265771
000100 87 b4 f0 3c dd cc 2d 3e 9d 70 a7 bd 90 cb 46 3e
       0.029382957 0.1697268 -0.08175776 0.1941359
000110 93 b4 d9 3d 4d 2b d9 3d 08 35 85 bc 25 cd 54 3d
       0.10630145 0.10603962 -0.016260639 0.051953454
000120 58 36 11 3e dc 04 a5 bd c4 3e cd 3d 28 1c 29 bd
       0.14180887 -0.080575675 0.10021737 -0.041286618
000130 54 46 e8 3c 9c 36 2a 3e c3 ad ae bd 43 1a 1c bd
       0.028353848 0.16622394 -0.08529236 -0.038110983
000140 7a 15 53 bd a2 77 81 bd 1f 17 c8 3d 6f f5 3b bd
       -0.051534154 -0.06321646 0.09770035 -0.04588836
000150 68 ef 76 3c 3b b8 30 bd 3d 78 8c bc 46 94 75 3c
       0.015071727 -0.043144446 -0.017147178 0.014988964
000160 76 74 03 3d e8 fb 10 3e 23 25 47 be e4 3e 04 3d
       0.032093488 0.14158595 -0.1944776 0.03228654
000170 69 91 1e 3e 19 2c 8c 3d d4 c9 d6 bd 46 23 68 3d
       0.15485157 0.068443485 -0.104877144 0.056674264
000180 a7 b2 d4 3d 39 cd 45 bd db 16 ab bd 11 a5 84 bd
       0.10385638 -0.04829142 -0.08353969 -0.064767964
000190 f3 dc 88 3d ed 13 b1 bd d7 95 ee bd 07 96 20 bd
       0.06682768 -0.08646379 -0.116496734 -0.039205577
0001a0 a7 51 d6 3c 70 47 47 3d 56 a7 13 b8 3c 03 5d 3d
       0.026161982 0.048652112 -3.5203375e-05 0.053958163
0001b0 d4 85 cf bd d4 b6 be bc cc b1 2e 3d 45 4a 19 3e
       -0.101329476 -0.023280539 0.04265003 0.14969738
0001c0 c2 4d 0d be 69 b1 e5 3d 6c fc e2 bd e9 b4 ca bd
       -0.13799194 0.11215479 -0.11083302 -0.09897787
0001d0 c3 2d 8e 3d 0c 24 8f bd 77 b0 92 bd 15 54 24 3e
       0.06942322 -0.06989297 -0.07162564 0.160477
0001e0 32 e8 d3 bd 9d 4d 21 3e b9 9d ce bd 8c 0e cb bb
       -0.10347022 0.15752263 -0.10088677 -0.0061968025
0001f0 23 74 98 bb dc a0 b2 bd a7 b4 e9 3d f5 00 0d 3e
       -0.0046525165 -0.08722088 0.1141141 0.13769896
000200 76 b4 20 bd 8a 23 c8 3d b6 98 f1 3d af 91 03 be
       -0.0392346 0.097724035 0.117967054 -0.12848543
000210 71 04 53 3d 35 b5 86 3c a0 88 e3 bc f9 b4 ef bc
       0.051517908 0.016443828 -0.027775109 -0.0292611
000220 af 71 b9 bd 21 28 93 bc 03 c9 fa bd 22 36 9b bd
       -0.090548865 -0.01796347 -0.12245371 -0.075786844
000230 73 b9 af 3c 99 11 22 3d fd 8d f5 3d e0 34 a0 bd
       0.021450734 0.039567564 0.11989973 -0.07822585
000240 80 2b c0 bd fb 3e 0f 3e b1 a0 87 bd fd c8 0b 3e
       -0.09383297 0.13988869 -0.06622446 0.1365089
000250 c5 22 81 3b 72 8b 0c 3e b5 36 f4 bd c9 87 c0 3d
       0.0039409124 0.13725069 -0.11924497 0.09400899
000260 ea 39 4e 3e 48 b0 8c bd b2 91 42 3d 22 fe 91 bd
       0.2013928 -0.068695605 0.047502227 -0.0712855
000270 83 9e 4d 3d a5 bc 4e bd f7 d8 6c bd 4c 9b 69 bc
       0.050199997 -0.050472874 -0.0578241 -0.014258217
000280 69 33 26 3b 89 10 22 3e 42 bd 0b be 1f 3b e5 bc
       0.0025360233 0.1582662 -0.13646415 -0.027982293
000290 d3 7b d8 bd 8a 16 f5 3c 3b c4 ef 3d f9 e0 ee 3c
       -0.105704926 0.029917974 0.1170735 0.02916001
0002a0 bd a1 19 bd fd 46 0f 3c 5f 3e b6 bd 50 ea 15 be
       -0.03750776 0.008744952 -0.08898615 -0.14640164
0002b0 30 05 37 3d 24 57 8c bb 00 cf 3c 3e 50 b9 8d 3d
       0.04468268 -0.004282849 0.18438339 0.06920111
0002c0 78 a8 8f bd 3b 59 8b bb 3c 2e 97 bd e4 9b 90 bd
       -0.07014555 -0.0042525805 -0.073818654 -0.07060984
0002d0 fb 79 98 3c 73 7f 27 3e fe da 9f 3d 78 05 2b be
       0.018612852 0.16357212 0.07805441 -0.16701305
0002e0 82 bf 0d 3e 6a 29 43 be 19 43 00 3e 89 80 d3 bd
       0.13842586 -0.19058767 0.12525596 -0.103272505
0002f0 92 76 13 bd 5e 83 7d bd 89 21 6e bd 5b 4f f7 3d
       -0.03600175 -0.06189286 -0.05813745 0.12075683
000300 90 6e b5 3d 98 ac cb 3d 61 64 db bd 45 14 b0 3d
       0.08858979 0.09945029 -0.10712505 0.08597616
000310 13 fc 43 bc 0b 97 da bd 30 18 96 3c dd 70 db bd
       -0.011961955 -0.106733404 0.01832208 -0.10714886
000320 fb b9 71 3d ab 5d d8 3d 25 3c a0 3c 53 6a b4 3d
       0.059015255 0.10564741 0.01955993 0.08809342
000330 c7 de d7 3c 97 33 14 3e 4c f5 85 3d 9a 1d 3a 3e
       0.026351346 0.14472805 0.06540927 0.18175355
000340 e4 c2 bf bd 57 be 2f 3e 56 53 00 3e c1 67 f3 3c
       -0.09363344 0.17162453 0.1253179 0.02971256
000350 48 42 03 3e 27 54 c2 3b 5b 42 04 be e1 1c 3b be
       0.12818253 0.005930442 -0.12915938 -0.18272735
000360 3a e7 93 bc dc 22 d2 3d 09 ce de 3d 78 83 53 bd
       -0.018054593 0.10260555 0.10879142 -0.05163905
000370 bc 2f 0e be ac 4d 27 be 93 5d 8e 3d af 8d ce 3c
       -0.13885397 -0.16338223 0.069514416 0.025214044
000380 9d d1 1b be b8 0e 6c 3d cb 84 ca 3d cb da 35 be
       -0.1521668 0.057631224 0.098886095 -0.17759244
000390 f1 a8 0e 3e 94 77 2d be a1 d5 29 3e 0d 44 09 be
       0.13931634 -0.16940147 0.16585399 -0.13404866
0003a0 5a 4d 0c 3e c9 dc f5 bd c9 cd 31 bd e2 1c c5 bd
       0.13701382 -0.12005002 -0.043409143 -0.096246496
0003b0 ab 12 1d bd 51 df 2b 3e e4 5a 2b bd 1e cf 4b be
       -0.03834788 0.16784407 -0.041834727 -0.19903228
0003c0 4c ca 4e 3e 17 f6 09 3e 2c b8 9e 3c af 36 48 be
       0.20194358 0.13472782 0.01937493 -0.1955211
0003d0 03 67 74 bd 5d c6 69 3d 57 b9 92 bd 29 1d de bc
       -0.059668552 0.05707394 -0.07164257 -0.027113514
0003e0 46 12 11 bd 90 59 e6 bd c6 11 ba bd 2d d4 20 3d
       -0.035417818 -0.112475514 -0.09085421 0.039264847
0003f0 fa 04 d9 3d bb f1 9a 3d c6 70 2c be 5b 33 c9 bd
       0.10596652 0.07565638 -0.16839895 -0.098242484

bias f4 [50]
000000 40 92 9d 3d 42 97 6c 3d 62 64 0d 3b 1c d6 9c 3d
       0.076939106 0.05776144 0.0021574725 0.076580256
000010 72 90 19 3e b2 b8 3e 3d 1c dd 0f 3e f3 48 e5 3d
       0.14996508 0.046562858 0.1404919 0.111955546
000020 b1 9f cc 3d f8 91 c6 bc 69 b2 98 3d 18 75 93 3e
       0.09991396 -0.024239525 0.07455904 0.28800273
000030 af cf 4c 3e 8a 09 e1 3d df e0 ec bd cf 0f fa bb
       0.200011 0.109881476 -0.11566328 -0.007631279
000040 36 02 03 3e c7 75 e4 3d 0d 93 07 3e e9 21 0c be
       0.12793812 0.11155277 0.13239689 -0.1368481
000050 b2 b3 82 bd f9 25 5e 3c 34 da 0c 3e 31 63 d1 bc
       -0.063819304 0.013558858 0.13755113 -0.025559993
000060 49 c6 9e 3e 53 63 10 3e 2e 7e 25 3d c1 cb 10 3e
       0.31010655 0.14100389 0.040403537 0.14140226
000070 d1 9b 2d 3e c3 51 43 3e eb bd 7a 3e f2 7d 55 3c
       0.1695397 0.19074158 0.2448651 0.013030516
000080 04 8f 65 3e b8 43 0b be 82 b5 af 3d 1e 3c f5 3d
       0.22417837 -0.13600051 0.08579542 0.11974357
000090 af b7 35 b9 9b 11 e1 3a 50 8e 4a bd f8 d0 80 3d
       -0.00017329933 0.0017171385 -0.049452126 0.062898576
0000a0 36 0c 8d 3e 79 3a 21 3e 33 55 68 3e 98 00 a7 3d
       0.2754838 0.15744962 0.22688751 0.0815441
0000b0 19 7a 8d 3e 58 ad 29 3e 01 c5 71 3d f5 37 25 3e
       0.27632216 0.16570032 0.05902577 0.16134627
0000c0 76 85 08 be 6c fb b6 3b
       -0.13332161 0.005584171

weight f4 [20, 50]
000000 f2 5f 07 3e 4e c2 20 be 1b c3 f1 bd 0b cc 26 3e
       0.13220194 -0.15699121 -0.118047915 0.16288774
000010 e3 87 a8 3b d4 41 8f 3e 90 ac 40 3e 49 d0 6c 3d
       0.005143152 0.2797991 0.18815827 0.057815824
000020 65 91 62 3d 2e c8 62 3e f4 a1 b9 be 2a 28 77 3d
       0.05531444 0.22146675 -0.36256373 0.060341038
000030 72 3e 86 3e bb 3f 2f be 96 71 1e be e0 58 04 3e
       0.26219517 -0.17114155 -0.15473017 0.12924528
000040 14 9c 7f 3e 98 74 81 3e 26 38 af 3e 90 71 04 3e
       0.24961883 0.25284266 0.34222525 0.12933946
000050 ce 3e d9 3e 37 c2 ba bc 2b f7 78 3e 9d 4a 6a be
       0.4243073 -0.022797687 0.24313037 -0.22880025
000060 11 0b 81 3e 7d 2a 28 bd d3 ca e8 3c 91 f6 9d be
       0.25203755 -0.041056145 0.028417027 -0.30852178
000070 d5 72 a6 be 59 2d 1b be 24 51 9f bd c6 76 a0 bd
       -0.32509485 -0.15154018 -0.07779148 -0.07835154
000080 b7 15 3e 3f a1 a8 1c bd 22 d5 a7 bc c3 86 21 3e
       0.74251884 -0.038246755 -0.020487372 0.15774064
000090 fd 57 ef bb 3d c6 85 3d 03 07 c6 3d 60 0d 6a be
       -0.00730419 0.065319516 0.09669306 -0.22856665
0000a0 10 4f 50 3e 8b cb 17 be 14 70 2a be 96 80 43 be
       0.2034266 -0.14823739 -0.16644317 -0.1909202
0000b0 3d 03 f9 3d 6e dd 40 be c9 d0 89 be b5 b5 18 3e
       0.12158821 -0.18834469 -0.26917103 0.14913066
0000c0 a4 60 30 bd 46 ca 02 be 70 21 14 be cd b4 df 3c
       -0.043060914 -0.12772474 -0.1446588 0.027307892
0000d0 05 06 56 bd 9f 4f f6 3b 4f 27 26 be 61 1c 11 be
       -0.052251834 0.007516816 -0.16225933 -0.14170982
0000e0 d4 5e 9d 3e 5d f9 bf bd 00 22 2d 3e 03 81 9b bd
       0.3073641 -0.09373734 0.16907501 -0.075929664
0000f0 93 fb c7 3d 23 38 84 3c b9 bd a9 3e 97 0d 8d bd
       0.09764781 0.01614005 0.3315256 -0.06887358
000100 ee 37 8b 3d 2e e1 11 3d 61 a5 63 3e c8 de 2b be
       0.06797777 0.03561514 0.22231056 -0.16784203
000110 a2 9f 4b 3e 31 2c e7 3b 62 e3 a0 bc d0 21 c9 3d
       0.19885114 0.0070548286 -0.019639675 0.09820902
000120 b3 f3 28 3d 40 9d 9d bd db 78 d9 bd a5 38 46 3e
       0.041248035 -0.07696009 -0.106187545 0.19357546
000130 6e 92 1b 3e 97 2f 17 3e 38 43 f0 bc 2f ec 07 bd
       0.15192577 0.14764248 -0.029328927 -0.033184227
000140 7e 4a 03 3e d0 59 3c bd ea 39 08 3f 37 c7 aa 3b
       0.12821385 -0.04598409 0.5321337 0.0052117365
000150 c0 c0 24 be f7 ce 83 3e b3 29 8e 3d 5f ca 00 b9
       -0.16089153 0.2574384 0.06941547 -0.0001228242
000160 36 f6 b2 3d 5f 89 80 bd 19 a0 9a 3e 82 02 86 be
       0.08738367 -0.062762015 0.3020027 -0.26173788
000170 3a 82 6d 3d 06 89 1d 3e 32 1f 46 3d 86 eb 89 3d
       0.05798552 0.15384302 0.048369594 0.06734376
000180 a1 84 40 3e 01 93 62 3e 9d a1 28 bd b8 61 e3 bd
       0.18800594 0.2212639 -0.04116975 -0.11102623
000190 1a 6d d3 3d 63 28 75 3d 6a 89 29 bd 5e c7 f7 bd
       0.10323544 0.05985297 -0.041390814 -0.12098573
0001a0 df e2 44 be be 39 8d 3c 62 f8 5c bd 1e fb 0c 3e
       -0.1922717 0.017239448 -0.053947814 0.13767669
0001b0 08 6c 9b 3e c5 ad 36 3e c4 57 8f 3c 7c 65 1a 3e
       0.3035586 0.17839725 0.017497905 0.15077776
0001c0 67 83 c6 3d 73 fd 1c 3e 31 c6 d2 bc 59 1d 2e be
       0.09693032 0.15331058 -0.02572927 -0.17003383
0001d0 33 23 65 3d eb a1 d0 3e 20 be c0 bc 52 39 88 bd
       0.05594177 0.40748534 -0.023528159 -0.06651558
0001e0 23 f6 8b 3d 9a 66 2b 3c b9 f9 77 be a9 29 c8 3d
       0.06834056 0.010461474 -0.24216355 0.09773571
0001f0 3e 8c 2d be d2 ad ff 3d 45 50 bb bd 3a d8 9b 3e
       -0.1694803 0.124843255 -0.091461696 0.30438405
000200 9e 2e c8 3c 22 a6 17 bd c3 25 a3 bd 17 24 97 3d
       0.024436291 -0.03702367 -0.07966187 0.073799305
000210 4d bf 1f be fc a7 56 bd 39 ff 80 3e c1 1a 50 be
       -0.15600319 -0.052406296 0.2519472 -0.20322706
000220 20 a5 c3 bd bf 30 8c 3d 6e dc 65 3e 66 b2 0c bd
       -0.095529795 0.06845235 0.22447369 -0.03434982
000230 1f 92 7a bd 37 f7 af bb 93 39 c4 bd 0e 28 85 bd
       -0.06117451 -0.0053700465 -0.09581294 -0.065017805
000240 b5 5d 3e bd f7 fe d3 3d 4d 9e 08 be 57 6c 8f bc
       -0.046476085 0.10351365 -0.13341637 -0.017507715
000250 05 de f7 3d b6 1a 2d 3e 4a 87 0b 3c b4 d5 e8 3d
       0.12102894 0.1690472 0.008516142 0.11368886
000260 49 68 b7 bd 69 18 de bd d7 2b ee 39 93 1f bd bd
       -0.08955438 -0.108444996 0.0004542756 -0.09234538
000270 99 91 a0 bd 53 08 9d bd 59 02 8b bd 71 2f 8d 3d
       -0.078402705 -0.07667603 -0.06787557 0.06893814
000280 98 e8 54 3d 6e b5 b1 3d 1d d5 4f bd ca b1 c9 3b
       0.05197963 0.08677183 -0.05074035 0.0061552273
000290 f8 47 9a bd ec eb 60 bd 1c 01 7e 3c f3 7b f6 3a
       -0.07533258 -0.054912493 0.015503194 0.001880525
0002a0 30 c6 37 bd 33 29 97 3d 86 5d c2 3d 84 83 a2 bc
       -0.04486674 0.07380905 0.094904944 -0.019838102
0002b0 22 f9 b2 3c 8d 6a c1 bd ca d8 71 bc 4a 3a 82 bd
       0.021847311 -0.09444151 -0.014761159 -0.06358774
0002c0 b9 e7 d4 bd 83 72 88 bd 8f a8 0a be 8e f0 8d bd
       -0.1039576 -0.066624664 -0.13540863 -0.06930648
0002d0 5a e3 04 bd 3a 93 1b bd 83 d7 bf bd 7d 42 9e 3d
       -0.03244338 -0.037982203 -0.093672775 0.077275254
0002e0 b2 b5 d5 bd 4c 40 a0 3d fc b8 02 bd 6b 39 8c bd
       -0.10435046 0.07824764 -0.031914696 -0.06846889
0002f0 c1 5f 19 3d 14 5e 15 bc 74 2a 08 be bb 6c 9e bd
       0.037444834 -0.009116668 -0.13297445 -0.077355824
000300 5c 73 24 bd 9d aa dc 3d 37 bb ef 3b 2e 35 be 3d
       -0.040149078 0.107747294 0.007316019 0.09287487
000310 c3 3d 88 3d 72 3c f4 bd 90 92 5a bc 4d b1 dd bd
       0.06652405 -0.119255915 -0.013340607 -0.10824833
000320 ef d9 96 3e c0 3e 6e 3d f6 20 e6 bd ce 4a a0 bd
       0.29463145 0.05816531 -0.112367555 -0.07826768
000330 d0 83 2f bc 58 5c 6f 3e 58 50 f4 bd 66 9c 45 be
       -0.010712579 0.2337507 -0.11929387 -0.19297943
000340 55 f4 0e 3e 10 44 29 3e fc e2 98 3e 77 58 95 bd
       0.13960393 0.1652987 0.29860675 -0.07292264
000350 39 c4 46 3e fe 67 07 be 50 51 08 3d 1a d4 f7 3d
       0.1941079 -0.13223264 0.03328067 0.12101002
000360 c5 6e 01 bd eb 4c a7 bd 5a ce 9b bd 0e 19 bb bd
       -0.03159978 -0.08168968 -0.07607718 -0.09135638
000370 72 0f 50 3d 84 b1 35 bd 77 06 a9 3e 3d c3 4c 3e
       0.05079598 -0.044358745 0.33012745 0.19996352
000380 3a 63 06 be e8 3e 7a 3e dc c8 d4 3c 18 cd 4d be
       -0.1312379 0.2443806 0.025974683 -0.20097768
000390 43 51 84 3c 8c 39 21 3e 4f ee a6 3d 56 3d c8 3c
       0.01615203 0.15744609 0.081509225 0.02444331
0003a0 1c b3 c4 3e 19 68 bc 3d ac 6f ba bd 4a 11 26 be
       0.384179 0.091995426 -0.09103331 -0.16217533
0003b0 26 47 35 bc 27 8f 1b bd 41 17 13 bd 0a 98 02 be
       -0.011064326 -0.037978318 -0.03591085 -0.12753311
0003c0 67 56 98 3d e5 79 51 3e 1f 52 d9 3d b5 40 88 3e
       0.07438355 0.20456655 0.106113665 0.26611868
0003d0 ef 30 e6 bd 8d da d1 3d 54 ed 9b 3e af 2f 7e 3e
       -0.11239802 0.102467634 0.30454504 0.24822877
0003e0 26 f6 e7 3d 6e 67 b6 3d b4 f9 a2 3e 1b 43 e9 3d
       0.11326246 0.089064464 0.31831133 0.113897525
0003f0 67 4d 4e 3d 36 cc c1 3d 2d 70 27 3e 20 4f e4 bc
       0.050366785 0.09462778 0.16351385 -0.027869761

bias f4 [20]
000000 00 28 81 3e 84 a5 56 3e 08 29 9a 3b 0b 74 ff bd
       0.2522583 0.20961577 0.0047045983 -0.12473305
000010 67 8f d0 3b 2e 22 c9 3d 4b f1 0a 3d c6 62 cc 3e
       0.006364751 0.098209724 0.03392152 0.39919108
000020 15 60 a1 3d 01 f9 35 3e 07 e7 f1 3d ae 72 4d 3b
       0.07879654 0.17770769 0.11811643 0.0031348872
000030 25 51 d7 bd 0a 4b 82 3e ce ef f8 bd 64 c0 7d 3d
       -0.10513524 0.25447875 -0.12155114 0.061951056
000040 d7 32 99 bd 41 8b 5e 3d ee 68 64 3e 7d 2c b3 3e
       -0.074804 0.05433202 0.22305652 0.3499488

weight f4 [10, 20]
000000 0a 46 80 3d 9f 25 1c bf 65 bb 2e 3f 4a b0 d8 3d
       0.06263359 -0.60994905 0.6825469 0.105804995
000010 e1 87 c3 bd 57 ad c3 be c7 75 57 be ae 25 ce bd
       -0.09547401 -0.38218185 -0.21041022 -0.100657806
000020 66 e8 e3 3e 0f 3b f9 be 67 a5 30 bd a8 63 75 be
       0.44513243 -0.4867787 -0.04312649 -0.23963797
000030 a3 67 b4 bd fa cd 13 3e 43 18 61 be 4d 2c 8a bd
       -0.0880883 0.14434043 -0.21981911 -0.06746731
000040 b2 4a 27 3f 30 f9 97 3e b5 61 10 bf d0 2b 40 bd
       0.6534835 0.29682302 -0.5639909 -0.046916783
000050 02 c6 f6 be 23 32 ba 3e ca e0 be bd 9a 73 97 bd
       -0.48197943 0.36366376 -0.09320219 -0.07395096
000060 7f e1 15 3e 78 5d 42 be 02 5c 80 be 4e 07 bb 3e
       0.14636801 -0.18980968 -0.25070196 0.3652901
000070 77 4c 2b be a1 9f 69 3e ba 15 16 3f 86 c2 83 3e
       -0.16728388 0.228148 0.586269 0.25734347
000080 24 7a 20 be b9 20 74 be 12 c9 86 3d 4d 63 52 bf
       -0.15671593 -0.23840608 0.0658132 -0.8218277
000090 d5 02 b1 be ec 2e 9f 3e a1 a2 db 3d 71 dc 16 3f
       -0.34572473 0.31090486 0.107243784 0.58930117
0000a0 f9 ea c9 3d ad 24 1d 3f 0e de 53 3e 7f c2 be bd
       0.098592706 0.6138409 0.20690176 -0.09314441
0000b0 cc cb ed 3e a9 76 2a 3f 78 93 f0 3d 68 9c 2b 3e
       0.46444547 0.6658731 0.117468774 0.16758883
0000c0 17 08 a0 bd eb d9 4f be a6 1f e3 bc 08 c1 5e be
       -0.07814043 -0.20297973 -0.027725052 -0.21753323
0000d0 87 a2 2e be 86 48 ba bd 60 e1 2d be 67 5c d3 3c
       -0.17054187 -0.09095864 -0.16980505 0.025800897
0000e0 3c ab d9 be a5 3b b3 3e f6 66 11 bf db 98 00 bf
       -0.42513454 0.35006443 -0.5679773 -0.5023324
0000f0 bd 1c 2d 3f 08 19 e9 3d a9 5b 89 be 5e ac 3e 3e
       0.67621976 0.113817275 -0.26827744 0.1862044
000100 33 26 ab 3e cc 65 a6 be d3 a2 e8 bd 9a 85 91 bd
       0.3342758 -0.3249954 -0.11359181 -0.071055606
000110 55 87 24 3f f3 df 60 be 5a 4d cc bd 64 21 32 3f
       0.64269 -0.2196043 -0.09975691 0.695822
000120 04 a0 ad bd da a7 ee be 12 fa cb bd 88 76 87 3e
       -0.08477786 -0.46612436 -0.099598065 0.2645762
000130 69 c4 16 bf 3b ac 0a be fe cb ad 39 a0 cf 6a be
       -0.5889345 -0.13542263 0.00033149117 -0.22930765
000140 77 3e d3 be 4b 96 36 bd 1f ea ab bc 40 09 f4 3d
       -0.41258594 -0.044576924 -0.020985661 0.11915827
000150 06 bd 99 be e1 d4 cf be 90 6e 01 3f 5e ee dd 3e
       -0.30027026 -0.405921 0.5055933 0.43345922
000160 1a 54 00 be 3a 0d 1e 3f 8a ee 07 be 1c 50 9e be
       -0.12532082 0.6173893 -0.13274589 -0.30920494
000170 da f4 64 be ac 52 da 3d 19 b4 b1 3c 37 dc 4f 3f
       -0.22359028 0.106603 0.021692323 0.81195396
000180 b2 2d d5 be 9b ec 52 3e f8 a0 8e be f0 0e 9b be
       -0.41636425 0.2059807 -0.27857184 -0.30284834
000190 8d ed 4d 3f 51 55 7a 3e dc 91 a9 3b a1 06 35 3e
       0.804406 0.24446608 0.0051748585 0.1767831
0001a0 58 f9 cc be 9d f3 f5 be 89 9a 9f be 3a e7 e7 3e
       -0.40033984 -0.48037425 -0.31172588 0.452936
0001b0 69 03 ff 3d d8 b3 4d be 59 21 00 bd cc e9 46 be
       0.12451822 -0.20088136 -0.031281803 -0.19425124
0001c0 8e 61 89 3d a0 c1 65 be 27 3d 0d 3e 6d f4 76 be
       0.0670806 -0.22437143 0.13792859 -0.24116679
0001d0 4d 17 ad 3e d4 90 c0 be a6 93 a6 3e 50 39 8c 3e
       0.3380684 -0.37610495 0.32534522 0.27387476
0001e0 7d 59 b7 be 85 03 8a 3c 0d 6a c6 bd bb 2c 13 be
       -0.35810462 0.016847381 -0.09688196 -0.14372532
0001f0 9e 95 f9 be d6 50 ab 3d fd 4e cb be 24 3e 5e 3f
       -0.4874696 0.083650276 -0.397087 0.8681357
000200 40 9d f5 3c ab 14 fd 3e 3f 5e 8c be 40 be 7b be
       0.02998221 0.4942983 -0.27415654 -0.24584293
000210 a4 f9 a4 3d de 18 d4 be 6a af 07 3e 95 c6 3f bf
       0.08055428 -0.41425222 0.13250509 -0.7491239
000220 b9 e2 2d 3f c9 26 ee bd f5 1c a0 be d1 05 c9 be
       0.67924076 -0.116284914 -0.31272092 -0.3926225
000230 c6 f5 2d bf cb f8 b9 be 0c c0 d0 bd 25 5b c4 bc
       -0.67953146 -0.36322626 -0.1019288 -0.023969242
000240 3a e3 d2 3e 98 64 0c 3c 54 7a 95 3d ab e1 d2 be
       0.41188985 0.008568905 0.07298723 -0.41187796
000250 91 77 ed be c5 0d 8b 3d a6 35 85 3e ba 6b 9d 3e
       -0.46380284 0.06789736 0.26017493 0.3074625
000260 1e 21 b1 3d d8 ee 45 3f dd a1 89 3e 99 08 ed bd
       0.08648895 0.7731757 0.26881304 -0.115739055
000270 27 6b 0c be 06 98 f8 bd 89 39 cb 3e 3c a3 d8 3e
       -0.1371275 -0.12138371 0.39692333 0.42312038
000280 85 0c 60 3d ba ae 39 bc 2e f1 36 be 00 9a f9 bd
       0.05469944 -0.011333162 -0.1786544 -0.12187576
000290 22 2e a9 3e ec f8 fa 3e 04 8b 29 be 19 46 cb be
       0.3304301 0.49018037 -0.16556937 -0.39701918
0002a0 e4 ce bc 3e 22 9e 88 3e 09 53 74 be 47 23 c2 bd
       0.36876595 0.26683146 -0.238598 -0.09479385
0002b0 18 b2 1e 3e bf 33 e9 be 6d 24 76 bc 60 27 41 3d
       0.15497625 -0.45547292 -0.015023333 0.04715669
0002c0 81 1f 0a 3f a7 94 a0 be d4 a9 a8 3e e3 5f ee be
       0.5395432 -0.31363413 0.3294207 -0.4655753
0002d0 a0 42 36 be fe 44 fa 3d 98 47 bd 3e 97 41 f1 bd
       -0.17798853 0.122201905 0.36968684 -0.117800884
0002e0 3e 14 20 3e b3 c2 ca be ef c0 fa 3e f4 f1 21 bf
       0.15632722 -0.3960167 0.48975322 -0.63259816
0002f0 00 d6 62 be 18 7e 41 be 53 e9 51 be 00 bc 96 be
       -0.22151947 -0.18895757 -0.20499162 -0.29440308
000300 d7 2d a0 bd e6 77 07 3d 84 60 be bd 80 98 82 3f
       -0.07821243 0.03307333 -0.09295753 1.0202789
000310 60 97 21 be 33 99 c8 be b1 ca ee 3d 42 ba 36 3e
       -0.15780401 -0.39179382 0.11659754 0.17844489

bias f4 [10]
000000 7a 64 0d be f1 d6 2e 3e 0b 01 c5 3d 6f 12 57 be
       -0.1380786 0.17074181 0.096193396 -0.21003126
000010 c5 86 60 3e 47 f7 28 3e 2f c1 3c 3e ff c2 88 3d
       0.2192641 0.16500579 0.18433069 0.066778176
000020 0d a8 0c bd 7f 82 e0 bd
       -0.034339953 -0.1096239
