datasets/mnist/partition_noniid-#label_major_classes_num_2_clients_10_dir_alpha_None_augement_data_percent_per_class_0.01_seed_42/models/batch_size_256_com_round_20_epochs_5_lr_0.1_sample_ratio_0.9_personalization_steps_25/client_4.pt (torch, 175631 bytes, 8 tensors)

weight f4 [50, 784]
-0.0002673864 0.0191587 -0.029394465 -0.026283538 -0.013755515 0.009577049 -0.0007076137 0.028317487
-0.0031694302 0.009450449 -0.0107933255 -0.007020192 -0.034059785 -0.023517618 -0.014717419 0.0013231866
0.014119115 0.021429386 -0.024212183 -0.015552245 0.012972042 0.029656714 -0.0073500066 0.026725428
-0.0057565486 0.003779075 0.032338437 -0.033131085 -0.0224835 -0.009041617 -0.013921428 0.030857172
-0.023149258 -0.016440295 -0.024710026 -0.032945145 -0.020442897 0.03078055 0.016116796 0.017640825
0.0033185252 -0.017864227 0.0067026895 -0.032550044 -0.024814082 -0.01769756 0.022683773 0.021394873
-0.015632955 -0.0014805893 0.022819705 0.035494465 0.014174367 0.004824745 0.02394594 -0.021028655
0.0066551436 -0.027689483 -0.024752982 -0.018433526 0.016154224 0.014374194 -0.020853924 0.011512407
0.020660555 -0.0034594333 0.003438278 0.011616266 0.027646858 0.04185766 -0.019039484 -0.0032754443
0.022532346 0.035452552 0.033060033 0.03172464 0.009167244 -0.029224053 0.0035823137 -0.022072311
-0.033201512 0.031752117 0.027155707 -0.035626 0.006684718 -0.006016429 -0.0058766888 -0.016218651
0.013750832 -0.020925848 0.014354689 0.019812007 0.028293673 0.02476728 -0.023252442 -0.015560991
0.026894987 0.021582702 -0.014434136 -0.005789156 0.03901597 0.015245318 -0.024360806 -0.01861685
-0.039456002 -0.0012571532 -0.027451472 -0.027213346 -0.0020910644 0.0052518304 -0.014636464 0.02119206
-0.02173354 0.032406043 0.024475861 -0.03014597 -0.00836223 0.0050122105 0.011355557 0.01765381
0.025505101 0.01559153 -0.010564524 0.024775341 -0.013847347 0.0042974576 0.019312564 -0.0041150334
-0.0059972177 -0.031333525 -0.013882418 0.0061355587 -0.018111955 -0.005398476 0.018814059 -0.011116139
-0.0045778956 -0.0035911684 0.007233364 0.022688007 0.03383022 0.02268057 0.033941336 -0.0026799703
-0.02963766 -0.010811857 0.034150805 0.012016779 -0.004503481 -0.013349933 -0.02482429 -0.021399144
0.010932902 0.039966755 0.03699993 -0.016720759 0.03828494 -0.0009061327 0.020621333 0.009171224
0.011872679 0.0065113213 -0.034707647 -0.038182046 -0.016377512 -0.0024642653 -0.016394677 0.013476286
-0.032144945 -0.002410316 0.030952506 -0.014704621 0.03345884 0.01693084 -0.021898124 0.03777203
0.0076502706 -0.0029603073 0.045930233 -0.015656676 0.0019090109 -0.023512423 0.016746769 0.011478536
0.008129324 0.0040840195 -0.0053076786 0.0054201726 -0.014168883 0.021205759 0.021917373 0.01282282
-0.042249203 -0.008985055 -0.027675534 -0.019910015 -0.02081117 0.012188093 -0.021233842 -0.0016428782
0.0037867504 0.029066317 -0.015223874 -0.012675374 -0.020356856 0.026595103 -0.014112302 0.019095475
-0.0045285295 -0.016432745 -0.03568935 -0.03665073 -0.022123063 -0.030481657 -0.0037499233 0.013192747
-0.01892115 -0.009374783 0.023442596 -0.048323914 -0.026661685 0.017162016 0.010160801 0.0007537576
-0.03144656 0.01799803 -0.025154404 -0.011018958 -0.0056668874 0.0030023016 0.011432399 0.042906355
0.0008938683 0.020666583 0.0067125615 -0.034256823 -0.00055066065 -0.04010875 -0.030832618 -0.021842094
-0.019574225 0.01806963 -0.014260395 0.006340601 0.018181168 -0.033250954 0.020596452 -0.049951766
-0.025289785 -0.024328798 -0.022933636 0.004564136 0.029532008 -0.010476621 -0.021057209 -0.01477933
00000000: ff2f 8cb9 b5f2 9c3c a9cc f0bc 9350 d7bc
00000010: d05e 61bc 0ee9 1c3c 277f 39ba 13fa e73c
00000020: 37b6 4fbb 0ed6 1a3c 7dd6 30bc a409 e6bb
00000030: 4682 0bbd 05a8 c0bc 5421 71bc c66e ad3a
00000040: dc53 673c ae8c af3c a158 c6bc d8ce 7ebc
00000050: b088 543c a3f2 f23c 53d8 f0bb 49ef da3c
00000060: 6ea1 bcbb 5caa 773b 4f75 043d 76b4 07bd
00000070: 512f b8bc 4a23 14bc b316 64bc 2ec8 fc3c
00000080: 83a3 bdbc ccad 86bc ae6c cabc 7df1 06bd
00000090: dd77 a7bc 7e27 fc3c 5f07 843c 7e83 903c
000000a0: 9d7b 593b 0058 92bc 3ca2 db3b 3253 05bd
000000b0: e746 cbbc 79fa 90bc 52d3 b93c 4d44 af3c
000000c0: af10 80bc 5510 c2ba 64f0 ba3c a562 113d
000000d0: 9b3b 683c e518 9e3b 472a c43c 4944 acbc
000000e0: 6413 da3b 0ed5 e2bc c4c6 cabc e801 97bc
000000f0: dd55 843c bd81 6b3c d9d5 aabc 899e 3c3c
00000100: 5340 a93c a9b7 62bb bc54 613b 2752 3e3c
00000110: aa7b e23c f072 2b3d b1f8 9bbc d6a8 56bb
00000120: c195 b83c b236 113d f569 073d b2f1 013d
00000130: 3532 163c 4867 efbc 40c5 6a3b fed0 b4bc
00000140: 4ffe 07bd 820e 023d a575 de3c 92ec 11bd
00000150: 7b0b db3b 7725 c5bb 3d91 c0bb fadc 84bc
00000160: 2b4b 613c af6c abbc ee2f 6b3c ca4c a23c
00000170: 22c8 e73c c0e4 ca3c e87b bebc 87f3 7ebc
00000180: e052 dc3c 35ce b03c 287d 6cbc f6b2 bdbb
00000190: 36cf 1f3d 80c7 793c 5090 c7bc 5d82 98bc
000001a0: 9e9c 21bd 10c7 a4ba e9e1 e0bc 86ee debc
000001b0: 3d0a 09bb 8c17 ac3b c8cd 6fbc f99a ad3c
000001c0: 890a b2bc 33bc 043d 9a81 c83c aef4 f6bc
000001d0: bc01 09bc 783d a43b a80c 3a3c b99e 903c
000001e0: 13f0 d03c 9e73 7f3c d316 2dbc a8f5 ca3c
000001f0: fcdf 62bc b0d1 8c3b 6235 9e3c 67d7 86bb
00000200: 4f84 c4bb 9557 00bd 1573 63bc cc0c c93b
00000210: 865f 94bc b3e5 b0bb f11f 9a3c 7720 36bc
00000220: 2c02 96bb cf59 6bbb db05 ed3b 33dc b93c
00000230: 8f91 0a3d 9acc b93c 1206 0b3d 71a2 2fbb
00000240: aeca f2bc 3724 31bc b7e1 0b3d 06e2 443c
00000250: f091 93bb adb9 5abc 4f5c cbbc 424d afbc
00000260: ea1f 333c 2eb4 233d 3d8d 173d f9f9 88bc
00000270: abd0 1c3d 8989 6dba 12ee a83c e742 163c
00000280: a085 423c ec5c d53b 9b29 0ebd c764 1cbd
00000290: 222a 86bc 837f 21bb 214e 86bc a4cb 5c3c
000002a0: 6baa 03bd 64f6 1dbb 1c90 fd3c a7eb 70bc
000002b0: 230c 093d 8cb2 8a3c b263 b3bc d8b6 1a3d
000002c0: 1faf fa3b b701 42bb 5721 3c3d 6e42 80bc
000002d0: c737 fa3a 209d c0bc 8530 893c 7810 3c3c
000002e0: db30 053c 3dd3 853b 09ec adbb b49b b13b
000002f0: 9a24 68bc b3b7 ad3c 108c b33c ce16 523c
00000300: 800d 2dbd 0d36 13bc cdb7 e2bc 541a a3bc
00000310: 307c aabc 91b0 473c 98f2 adbc d855 d7ba
00000320: 212b 783b 7c1c ee3c 8e6d 79bc 5fac 4fbc
00000330: 6cc3 a6bc f9dd d93c 4937 67bc 1d6e 9c3c
00000340: 0f64 94bb f79d 86bc ff2e 12bd 131f 16bd
00000350: 6d3b b5bc abb4 f9bc 46c1 75bb 6426 583c
00000360: 8700 9bbc b198 19bc b00a c03c 4cef 45bd
00000370: 9b69 dabc 5b97 8c3c 7d79 263c d197 453a
00000380: 1cce 00bd 9b70 933c 9c10 cebc dc88 34bc
00000390: 4cb1 b9bb 43c2 443b f54e 3b3c 93be 2f3d
000003a0: 7c52 6a3a f74c a93c 0cf5 db3b e250 0cbd
000003b0: 365a 10ba 1349 24bd b094 fcbc 31ee b2bc
000003c0: 205a a0bc c306 943c 6fa4 69bc d1c4 cf3b
000003d0: acf0 943c 2732 08bd e4b9 a83c 399a 4cbd
000003e0: 862c cfbc 304d c7bc 52df bbbc bf8e 953b
000003f0: 1ced f13c 22a6 2bbc 2b80 acbc 0125 72bc

bias f4 [50]
-0.06833902 -0.061968844 0.19137649 0.059988134 0.17785184 0.0036927364 0.22328122 -0.050379694
-0.032127585 0.06699451 0.0018173519 -0.023830712 0.04878994 0.05107188 0.046818353 0.036020614
0.009589059 0.03998167 0.16587432 0.025015762 0.109572485 -0.045832593 0.054693054 0.06341861
-0.03738595 0.120379105 0.028350547 0.075082764 0.104709744 0.03594249 -0.004833731 0.115446776
0.06482184 0.13658175 0.038854755 -0.06332476 -0.019774871 0.036352724 0.029168904 0.119733624
-0.018621968 0.12085941 0.059738755 -0.031580783 -0.059204064 -0.04076272 -0.02346035 -0.049119443
0.086665146 0.09098972
00000000: 54f5 8bbd 0bd3 7dbd 33f8 433e 1eb6 753d
00000010: cb1e 363e d601 723b d5a3 643e f05a 4ebd
00000020: 3798 03bd 6b34 893d 3634 ee3a a038 c3bc
00000030: f6d7 473d bf30 513d 9ac4 3f3d 5a8a 133d
00000040: 6e1b 1d3c d2c3 233d f5da 293e dbed cc3c
00000050: 8a67 e03d f5ba 3bbd d305 603d 9ee1 813d
00000060: 0322 19bd 5289 f63d 683f e83c fec4 993d
00000070: 1072 d63d 6f38 133d 4664 9ebb 5c6f ec3d
00000080: 50c1 843d 16dc 0b3e 2a26 1f3d 69b0 81bd
00000090: e9fe a1bc 98e6 143d a0f3 ee3c e736 f53d
000000a0: 198d 98bc 2385 f73d a0b0 743d da5a 01bd
000000b0: f67f 72bd cff6 26bd ec2f c0bc 7831 49bd
000000c0: 7f7d b13d d158 ba3d

weight f4 [50, 50]
0.027997162 -0.09111722 0.024426728 -0.0015343998 -0.20617838 -0.16689843 0.12643883 -0.15307587
0.14532197 0.27463064 -0.08154437 0.0196739 0.028581513 0.06274454 0.14610542 0.07588225
-0.01701277 0.07165981 0.19392477 0.13727127 -0.20647104 0.11303928 -0.12604845 -0.19099791
0.04050206 0.04765533 0.11715183 0.22772078 -0.08561374 -0.1949546 -0.055160005 0.2083395
0.058362946 0.061628684 0.060235366 -0.010250072 0.056955744 0.019608319 0.16349378 0.26684442
-0.035255495 -0.11107795 -0.012616955 0.24119054 0.22165646 0.06038753 0.1272146 -0.06546753
-0.018618898 -0.049153235 -0.087766774 0.117220916 -0.15683419 -0.017078063 -0.14606519 0.078062326
-0.10429925 0.13420355 0.12802915 0.10418158 0.028825292 -0.03571246 0.0059222393 0.16263245
0.02934588 0.16950266 -0.08187412 0.19412452 0.106366664 0.10557702 -0.016480962 0.051531583
0.14195101 -0.080636635 0.10009379 -0.041294508 0.02809646 0.16590454 -0.085593544 -0.03819493
-0.05149241 -0.06337868 0.09776575 -0.045974717 0.015084515 -0.043354075 -0.017172411 0.014881048
0.03201897 0.14128 -0.19454046 0.03218864 0.15490332 0.068059854 -0.10517177 0.05638937
0.103856556 -0.04841444 -0.083701864 -0.06482091 0.06690999 -0.08644319 -0.11637636 -0.0391627
0.026138607 0.04866202 0.000117385454 0.054146532 -0.10121543 -0.023097228 0.042801168 0.14971462
-0.1379829 0.11231171 -0.110796854 -0.09896047 0.069407225 -0.0698361 -0.07147706 0.16061392
-0.10345503 0.1575149 -0.10069945 -0.006169661 -0.0046447692 -0.087179676 0.11438839 0.1377612
-0.039186735 0.09777817 0.11809897 -0.12846315 0.051591042 0.016588379 -0.027680181 -0.029281529
-0.090531886 -0.017906096 -0.12232392 -0.075621635 0.02154035 0.039608672 0.11999364 -0.078212366
-0.09384288 0.13999131 -0.06622421 0.13655342 0.0039628 0.13732104 -0.119230144 0.0940456
0.20143838 -0.06870906 0.047643714 -0.07124625 0.050218355 -0.05053138 -0.05778332 -0.014296608
0.002511473 0.15829869 -0.1364563 -0.02803529 -0.10572328 0.030000113 0.11714429 0.02917243
-0.037515234 0.008804954 -0.088969246 -0.14630203 0.04463036 -0.004289293 0.18445665 0.06918883
-0.07014923 -0.0041696983 -0.07377008 -0.0706208 0.018586673 0.16366917 0.07805024 -0.16701785
0.1384193 -0.19054633 0.12525481 -0.103235066 -0.035951827 -0.061841734 -0.058174245 0.12075947
0.08855337 0.09961934 -0.10702474 0.08603586 -0.011962012 -0.10673266 0.018363656 -0.107137896
0.059304655 0.10590859 0.020184072 0.08829958 0.026319303 0.14486778 0.066300824 0.18268955
-0.09325746 0.17248875 0.12561235 0.029769849 0.12822028 0.006443233 -0.12905517 -0.18258141
-0.018046988 0.103015006 0.109951675 -0.051097527 -0.13875516 -0.16324818 0.07066803 0.025255136
-0.15190034 0.057860997 0.100220315 -0.17737408 0.13964763 -0.16933148 0.16653295 -0.13367952
0.13755922 -0.11948029 -0.042856425 -0.09622822 -0.038149808 0.16814098 -0.04106998 -0.19831632
0.20209348 0.13482498 0.019881321 -0.19533823 -0.059554677 0.057555526 -0.07164215 -0.026971247
-0.035258345 -0.112072706 -0.09052838 0.039524563 0.1064099 0.07575649 -0.16764313 -0.09778672
00000000: 4e5a e53c aa9b babd 901a c83c ea1d c9ba
00000010: 6d20 53be 6ce7 2abe 2e79 013e ecbf 1cbe
00000020: 48cf 143e 639c 8c3e bc00 a7bd 292b a13c
00000030: c723 ea3c 3680 803d a99c 153e 2768 9b3d
00000040: 5d5e 8bbc 61c2 923d 3794 463e d790 0c3e
00000050: 256d 53be 2381 e73d d812 01be f594 43be
00000060: 7de5 253d 3c32 433d 4ced ef3d a32f 693e
00000070: 4256 afbd 2ea2 47be 75ef 61bd f356 553e
00000080: fc0d 6f3d 5c6e 7c3d 5cb9 763d ebef 27bc
00000090: 6d4a 693d a0a1 a03c ea6a 273e d59f 883e
000000a0: 1168 10bd d67c e3bd 58b7 4ebc a7fa 763e
000000b0: e9f9 623e ea58 773d 8b44 023e d713 86bd
000000c0: a986 98bc e754 49bd 11bf b3bd 8511 f03d
000000d0: 2499 20be 4be7 8bbc 1d92 15be 24df 9f3d
000000e0: d89a d5bd a86c 093e 131a 033e 275d d53d
000000f0: 0523 ec3c 3a47 12bd 580f c23b 1f89 263e
00000100: c566 f03c 1b92 2d3e 9ead a7bd 94c8 463e
00000110: c4d6 d93d c438 d83d 1503 87bc c812 533d
00000120: 9b5b 113e d224 a5bd f9fd cc3d 6e24 29bd
00000130: 8c2a e63c e1e2 293e ab4b afbd 4972 1cbd
00000140: b5e9 52bd aecc 81bd 6939 c83d fc4f 3cbd
00000150: 0b25 773c 0b94 31bd 28ad 8cbc a4cf 733c
00000160: 5326 033d b4ab 103e 9d35 47be 3cd8 033d
00000170: fa9e 1e3e f762 8b3d 4c64 d7bd 8af8 663d
00000180: bfb2 d43d 384e 46bd e26b abbd d3c0 84bd
00000190: 1b08 893d 2109 b1bd bb56 eebd 1169 20bd
000001a0: a220 d63c d451 473d d62c f638 c1c8 5d3d
000001b0: 094a cfbd 6636 bdbc 4750 2f3d ca4e 193e
000001c0: 644b 0dbe af03 e63d 76e9 e2bd c9ab cabd
000001d0: 6025 8e3d 3b06 8fbd 9162 92bd fa77 243e
000001e0: 3be0 d3bd 964b 213e 833b cebd de2a cabb
000001f0: 2633 98bb 428b b2bd 7644 ea3d 4611 0d3e
00000200: 4582 20bd ec3f c83d dfdd f13d d88b 03be
00000210: 2151 533d 5ae4 873c 8cc1 e2bc d1df efbc
00000220: c868 b9bd ceaf 92bc f784 fabd 84df 9abd
00000230: 6375 b03c b43c 223d 3abf f53d ce2d a0bd
00000240: b230 c0bd e259 0f3e 8fa0 87bd a9d4 0b3e
00000250: 60da 813b e39d 0c3e ef2e f4bd fb9a c03d
00000260: dd45 4e3e 56b7 8cbd 0e26 433d 8ee9 91bd
00000270: c3b1 4d3d fef9 4ebd 34ae 6cbd 523c 6abc
00000280: 8697 243b 0d19 223e 33bb 0bbe 44aa e5bc
00000290: 7285 d8bd ccc2 f53c 58e9 ef3d 05fb ee3c
000002a0: 93a9 19bd a742 103c 8235 b6bd 33d0 15be
000002b0: 53ce 363d 338d 8cbb 34e2 3c3e e0b2 8d3d
000002c0: 66aa 8fbd f7a1 88bb c514 97bd a3a1 90bd
000002d0: 1443 983c e498 273e ced8 9f3d ba06 2bbe
000002e0: cabd 0d3e 941e 43be cc42 003e e86c d3bd
000002f0: 3942 13bd c24d 7dbd 1e48 6ebd be50 f73d
00000300: 785b b53d 3905 cc3d c92f dbbd 9233 b03d
00000310: 51fc 43bc a796 dabd 616f 963c 1d6b dbbd
00000320: 70e9 723d 9ae6 d83d 1159 a53c 69d6 b43d
00000330: 949b d73c 3858 143e bac8 873d f812 3b3e
00000340: c4fd bebd e4a0 303e 86a0 003e e6df f33c
00000350: 2d4c 033e c221 d33b 0a27 04be 9ff6 3abe
00000360: 47d7 93bc 88f9 d23d 582e e13d a44b 51bd
00000370: d515 0ebe 882a 27be 66ba 903d dce3 ce3c
00000380: c38b 1bbe a7ff 6c3d 4f40 cd3d 8da1 35be
00000390: caff 0e3e 3b65 2dbe 9d87 2a3e 49e3 08be
000003a0: 53dc 0c3e 15b2 f4bd 388a 2fbd 4d13 c5bd
000003b0: f942 1cbd 262d 2c3e ff38 28bd 6f13 4bbe
000003c0: 98f1 4e3e 8f0f 0a3e 27de a23c bf06 48be
000003d0: 9bef 73bd 58bf 6b3d 1fb9 92bd cef2 dcbc
000003e0: 0e6b 10bd 6086 e5bd f166 b9bd 82e4 213d
000003f0: 6fed d93d 3826 9b3d a4aa 2bbe 6744 c8bd

bias f4 [50]
0.07630743 0.05749585 0.0023427736 0.076604575 0.15093511 0.047014307 0.14069635 0.11306785
0.098665275 -0.025250055 0.074821405 0.28992552 0.19954914 0.110743396 -0.11598399 -0.007415921
0.12824638 0.11174901 0.1325441 -0.13684869 -0.064638376 0.013264012 0.13660023 -0.026509872
0.31192455 0.1394823 0.039346218 0.14124994 0.17062637 0.19102946 0.24625307 0.012758085
0.22172116 -0.13601075 0.087135926 0.120712325 -1.8185363e-05 0.0017028119 -0.048787996 0.06372208
0.27571535 0.15855794 0.22777393 0.07997242 0.2767624 0.16551605 0.057950735 0.1606912
-0.1345979 0.0052322024
00000000: 1247 9c3d c580 6b3d 3889 193b dce2 9c3d
00000010: bc8e 1a3e 1392 403d b412 103e 1e90 e73d
00000020: 0511 ca3d 34d9 cebc f73b 993d 1e71 943e
00000030: 9c56 4c3e 6fcd e23d 0489 edbd 4101 f3bb
00000040: 0553 033e aadc e43d a4b9 073e 1022 0cbe
00000050: 2061 84bd 4c51 593c eee0 0b3e 3b2b d9bc
00000060: 93b4 9f3e 73d4 0e3e 8029 213d d3a3 103e
00000070: aeb8 2e3e 3a9d 433e c429 7c3e 4907 513c
00000080: df0a 633e 6746 0bbe 5274 b23d 0638 f73d
00000090: c58c 98b7 e330 df3a ecd5 47bd b980 823d
000000a0: 902a 8d3e 035d 223e 923d 693e 95c8 a33d
000000b0: cdb3 8d3e 0a7d 293e c05d 6d3d 3c8c 243e
000000c0: 08d4 09be e572 ab3b

weight f4 [20, 50]
0.13131408 -0.15759955 -0.11819329 0.16280569 0.004647101 0.2789865 0.18775044 0.05758749
0.054824248 0.22141339 -0.36315298 0.059600376 0.26157737 -0.17141162 -0.15486024 0.12923075
0.24918039 0.2528932 0.3420931 0.12933953 0.42438224 -0.02311951 0.24260744 -0.22903217
0.25135517 -0.04184984 0.028175516 -0.3098924 -0.32551125 -0.15166461 -0.07874556 -0.07840132
0.7420718 -0.038245182 -0.021126863 0.15642227 -0.0073331716 0.06531801 0.09615182 -0.22905658
0.20277326 -0.14900304 -0.16686781 -0.19152884 0.12126624 -0.18845783 -0.26981652 0.14895551
-0.043346893 -0.12816246 -0.14707331 0.026022224 -0.052638132 0.0072774743 -0.16297944 -0.14356811
0.30640164 -0.09450751 0.16717261 -0.078003965 0.09621143 0.014974445 0.32969475 -0.06946915
0.067258425 0.035002593 0.22114342 -0.16917805 0.19859311 0.007053888 -0.021361021 0.097447075
0.038909327 -0.078244105 -0.10735645 0.19105746 0.15035415 0.14382865 -0.030052517 -0.033327732
0.12698014 -0.046962164 0.5285606 0.0052070767 -0.16200107 0.2552694 0.069381714 -0.00012959592
0.085988805 -0.06342069 0.30051985 -0.2633879 0.057346668 0.15182714 0.04781019 0.066941924
0.18567498 0.21969262 -0.042642497 -0.11239207 0.10195908 0.059138242 -0.041545186 -0.121141754
-0.19271465 0.016066521 -0.054449618 0.13733189 0.30267745 0.17749785 0.016772049 0.149879
0.095860556 0.15300274 -0.026035134 -0.17034276 0.05533598 0.4070134 -0.023720725 -0.06651662
0.06765589 0.009974964 -0.24324471 0.097130045 -0.17021878 0.1236527 -0.09208382 0.30268183
0.024037026 -0.037202593 -0.08062227 0.07344853 -0.15766832 -0.052409247 0.25115442 -0.2044439
-0.095570594 0.06844898 0.2236412 -0.034757067 -0.061812777 -0.006401375 -0.09626608 -0.065911874
-0.046865813 0.10329058 -0.13435815 -0.018174822 0.12040837 0.16835235 0.008516142 0.11368886
-0.08955438 -0.108444996 0.0004542756 -0.09234538 -0.078402705 -0.07667603 -0.06787557 0.06893814
0.05197963 0.08677183 -0.05074035 0.0061552273 -0.07533258 -0.054912493 0.015503194 0.001880525
-0.04486674 0.07380905 0.094904944 -0.019838102 0.021847311 -0.09444151 -0.014761159 -0.06358774
-0.1039576 -0.066624664 -0.13540863 -0.06930648 -0.03244338 -0.037982203 -0.093672775 0.077275254
-0.10435046 0.07824764 -0.031914696 -0.06846889 0.037444834 -0.009116668 -0.13297445 -0.077355824
-0.040149078 0.107747294 0.007316019 0.09287487 0.06652405 -0.119255915 -0.013340607 -0.10824833
0.2926369 0.05688082 -0.11268448 -0.07848652 -0.011719102 0.23191012 -0.12020187 -0.19376032
0.13812152 0.16418159 0.29749587 -0.07463628 0.19233346 -0.1329669 0.032802064 0.12056886
-0.032764636 -0.082451954 -0.07639866 -0.09135679 0.049840014 -0.04507765 0.3284237 0.19916579
-0.13269539 0.24226621 0.024757138 -0.20466062 0.015404274 0.15717238 0.07966584 0.023826208
0.38193712 0.09199407 -0.09247808 -0.16488633 -0.011124781 -0.037979342 -0.037264436 -0.12848297
0.072995834 0.2028486 0.1052508 0.2646112 -0.11302409 0.10223755 0.30281013 0.24722642
0.11220529 0.08795591 0.31555945 0.1122929 0.049802393 0.09443868 0.16246368 -0.030019166
00000000: 3377 063e c761 21be 530f f2bd 89b6 263e
00000010: b546 983b 52d7 8e3e a741 403e dce0 6b3d
00000020: 648f 603d 31ba 623e 30ef b9be 861f 743d
00000030: 78ed 853e 8786 2fbe af93 1ebe 1155 043e
00000040: 2529 7f3e 387b 813e d426 af3e 9571 043e
00000050: a148 d93e 2065 bdbc 166e 783e 6987 6abe
00000060: a0b1 803e bd6a 2bbd 57d0 e63c 37aa 9ebe
00000070: 69a9 a6be f84d 1bbe 5a45 a1bd df90 a0bd
00000080: 6bf8 3d3f fba6 1cbd 3e12 adbc 292d 203e
00000090: 1a4b f0bb 73c5 853d 3feb c43d cf8d 6abe
000000a0: cba3 4f3e 4194 18be 65df 2abe 2320 44be
000000b0: 6f5a f83d 17fb 40be 6425 8abe cb87 183e
000000c0: 838c 31bd 053d 03be 639a 16be 8f2c d53c
000000d0: 159b 57bd e177 ee3b 15e4 26be 8503 13be
000000e0: ade0 9c3e 278d c1bd 4c2f 2b3e 8bc0 9fbd
000000f0: 800a c53d 6057 753c c0cd a83e d745 8ebd
00000100: c9be 893d e15e 0f3d 6c73 623e 033d 2dbe
00000110: fe5b 4b3e 4d24 e73b 4ffd aebc 5592 c73d
00000120: 635f 1f3d 723e a0bd b3dd dbbd 91a4 433e
00000130: 70f6 193e d147 133e b230 f6bc a982 08bd
00000140: 1507 023e 665b 40bd bf4f 073f 20a0 aa3b
00000150: 9ce3 25be acb2 823e 0018 8e3d 24e4 07b9
00000160: e61a b03d b5e2 81bd bddd 993e c7da 86be
00000170: 57e4 6a3d 9378 1b3e 9ed4 433d d918 893d
00000180: 9521 3e3e 1af7 603e e6a9 2ebd d02d e6bd
00000190: eccf d03d f13a 723d 492b 2abd 2b19 f8bd
000001a0: fd56 45be f09d 833c 9006 5fbd bba0 0c3e
000001b0: 8af8 9a3e ffc1 353e 8965 893c e179 193e
000001c0: 8a52 c43d c0ac 1c3e a247 d5bc 556e 2ebe
000001d0: fba7 623d 0f64 d03e f751 c2bc de39 88bd
000001e0: 2c8f 8a3d 086e 233c 2415 79be 1eec c63d
000001f0: d54d 2ebe a03d fd3d 7196 bcbd 1df9 9a3e
00000200: 4ce9 c43c bf61 18bd 4a1d a5bd 2f6c 963d
00000210: ce73 21be 14ab 56bd 5097 803e be59 51be
00000220: 84ba c3bd fb2e 8c3d 3302 653e 6d5d 0ebd
00000230: 652f 7dbd a0c2 d1bb 2727 c5bd cefc 86bd
00000240: 5ef6 3fbd 038a d33d 2f95 09be 5de3 94bc
00000250: aa98 f63d 8f64 2c3e 4a87 0b3c b4d5 e83d
00000260: 4968 b7bd 6918 debd d72b ee39 931f bdbd
00000270: 9991 a0bd 5308 9dbd 5902 8bbd 712f 8d3d
00000280: 98e8 543d 6eb5 b13d 1dd5 4fbd cab1 c93b
00000290: f847 9abd eceb 60bd 1c01 7e3c f37b f63a
000002a0: 30c6 37bd 3329 973d 865d c23d 8483 a2bc
000002b0: 22f9 b23c 8d6a c1bd cad8 71bc 4a3a 82bd
000002c0: b9e7 d4bd 8372 88bd 8fa8 0abe 8ef0 8dbd
000002d0: 5ae3 04bd 3a93 1bbd 83d7 bfbd 7d42 9e3d
000002e0: b2b5 d5bd 4c40 a03d fcb8 02bd 6b39 8cbd
000002f0: c15f 193d 145e 15bc 742a 08be bb6c 9ebd
00000300: 5c73 24bd 9daa dc3d 37bb ef3b 2e35 be3d
00000310: c33d 883d 723c f4bd 9092 5abc 4db1 ddbd
00000320: 81d4 953e ddfb 683d 1fc7 e6bd 8abd a0bd
00000330: 7a01 40bc d979 6d3e 662c f6bd 1b69 46be
00000340: ba6f 0d3e 381f 283e 6151 983e e8da 98bd
00000350: 10f3 443e 7a28 08be 755b 063d ceec f63d
00000360: 3634 06bd 92dc a8bd e776 9cbd 4519 bbbd
00000370: 0b25 4c3d 58a3 38bd 2727 a83e 1ef2 4b3e
00000380: 4de1 07be a214 783e 7bcf ca3c 8e92 51be
00000390: 3562 7c3c ccf1 203e d827 a33d 2e2f c33c
000003a0: 438d c33e 6367 bc3d 2665 bdbd f6d7 28be
000003b0: b744 36bc 3a90 1bbd 98a2 18bd 0a91 03be
000003c0: d77e 953d 8bb7 4f3e bb8d d73d 1f7b 873e
000003d0: 2d79 e7bd ec61 d13d ee09 9b3e ec28 7d3e
000003e0: e3cb e53d 3a22 b43d 0291 a13e d2f9 e53d
000003f0: 98fd 4b3d 1169 c13d e15c 263e c1ea f5bc

bias f4 [20]
0.25162816 0.20778686 0.0037515732 -0.12473305 0.004716383 0.095795974 0.034258556 0.40026376
0.07940841 0.1798096 0.118170395 0.0037991637 -0.10513524 0.2546933 -0.12144582 0.062737904
-0.07444687 0.053503998 0.22402407 0.35030568
00000000: 68d5 803e 14c6 543e f4dc 753b 0b74 ffbd
00000010: e38b 9a3b ae30 c43d b352 0c3d 5fef cc3e
00000020: e0a0 a23d 0220 383e 5203 f23d 64fb 783b
00000030: 2551 d7bd 2967 823e 96b8 f8bd bb7c 803d
00000040: 9a77 98bd 0227 5b3d 9166 653e 445b b33e

weight f4 [10, 20]
0.06298568 -0.60976917 0.68293804 0.105804995 -0.09518715 -0.3819708 -0.21043372 -0.10050202
0.44535208 -0.48677757 -0.043101083 -0.23953843 -0.0880883 0.14452462 -0.21981911 -0.067337155
0.6539233 0.2971764 -0.5639683 -0.046800315 -0.48141852 0.36516702 -0.09316178 -0.07395096
0.14782594 -0.18821056 -0.25062308 0.36639452 -0.16703898 0.22905315 0.58701164 0.2580944
-0.15671593 -0.23835588 0.06581739 -0.821631 -0.3454607 0.3118507 0.10784651 0.5898596
0.091835655 0.6044267 0.2036406 -0.09314441 0.45411995 0.6556614 0.11478302 0.16041559
-0.081890345 -0.20874043 -0.03028717 -0.22159167 -0.17054187 -0.09339635 -0.1698889 0.018400166
-0.4301923 0.34379238 -0.57229954 -0.50511783 0.6781016 0.115605265 -0.2677806 0.1862044
0.33659858 -0.32326907 -0.113454685 -0.07039646 0.6437829 -0.21931426 -0.099248014 0.6971809
-0.08477786 -0.46581948 -0.09957077 0.26567447 -0.5886661 -0.13398653 0.0009865309 -0.22870997
-0.41035113 -0.03985978 -0.018672198 0.11915827 -0.29634947 -0.40257454 0.51107883 0.44026265
-0.124282174 0.62496144 -0.13191627 -0.30807093 -0.22359028 0.11070446 0.021709677 0.8221784
-0.4121681 0.20720881 -0.27391464 -0.30052507 0.8047103 0.24471901 0.0052834325 0.1767831
-0.40017572 -0.480097 -0.31181943 0.45309895 0.12465844 -0.20098293 -0.03127956 -0.19419879
0.0670806 -0.22445951 0.1379288 -0.24128972 0.33821324 -0.37584943 0.32521096 0.273811
-0.35795695 0.016983893 -0.09698492 -0.14372532 -0.48736197 0.08386138 -0.39720857 0.868263
0.030095944 0.4943316 -0.27417815 -0.24582611 0.08055428 -0.41443157 0.13250509 -0.7493038
0.6791778 -0.11615781 -0.31282005 -0.39267722 -0.6793496 -0.36289096 -0.10179806 -0.023969242
0.41263497 0.009144086 0.07287975 -0.4120205 -0.46370393 0.067692615 0.26040074 0.30777866
0.08648895 0.7732837 0.2688478 -0.115696326 -0.13721691 -0.12100569 0.39703172 0.4233011
0.056559604 -0.009505913 -0.17789851 -0.12187576 0.33287492 0.49268794 -0.1655392 -0.39641845
0.36989895 0.26732475 -0.23818986 -0.094043724 0.15497625 -0.4553243 -0.015020707 0.04811291
0.5409894 -0.3122065 0.33046454 -0.4652269 -0.17875516 0.120875634 0.36881408 -0.117800884
0.1552025 -0.39625898 0.4870532 -0.6348962 -0.22185157 -0.19218552 -0.20515072 -0.29482353
-0.07821243 0.030881207 -0.09296017 1.0153344 -0.15935338 -0.3916733 0.11406336 0.17722364
00000000: a3fe 803d d519 1cbf 07d5 2e3f 4ab0 d83d
00000010: 7bf1 c2bd ad91 c3be f07b 57be 01d4 cdbd
00000020: 3005 e43e e93a f9be c38a 30bd 9049 75be
00000030: a367 b4bd 43fe 133e 4318 61be 10e8 89bd
00000040: 8467 273f 8127 983e 3a60 10bf b0b1 3fbd
00000050: 7d7c f6be 2cf7 ba3e 9acb bebd 9a73 97bd
00000060: af5f 173e 45ba 40be ab51 80be 1098 bb3e
00000070: 440c 2bbe e98c 6a3e 6546 163f f324 843e
00000080: 247a 20be 9013 74be 45cb 863d 6956 52bf
00000090: 3ae0 b0be e5aa 9f3e a2de dc3d 0a01 173f
000000a0: 5514 bc3d b5bb 1a3f 2987 503e 7fc2 bebd
000000b0: 6982 e83e 6dd9 273f 5c13 eb3d fc43 243e
000000c0: 20b6 a7bd 0dc0 55be cd1c f8bc ede8 62be
000000d0: 87a2 2ebe 9646 bfbd 5bf7 2dbe f2bb 963c
000000e0: 2a42 dcbe 8e05 b03e 3982 12bf 674f 01bf
000000f0: 1198 2d3f 74c2 ec3d 8a1a 89be 5eac 3e3e
00000100: a656 ac3e 8683 a5be ee5a e8bd 052c 90bd
00000110: f5ce 243f eb93 60be 8b42 cbbd 737a 323f
00000120: 04a0 adbd e47f eebe c3eb cbbd 7c06 883e
00000130: d2b2 16bf c433 09be 7c4e 813a f232 6abe
00000140: 8b19 d2be 0244 23bd 70f6 98bc 4009 f43d
00000150: 1ebb 97be 401e cebe 10d6 023f 1b6a e13e
00000160: a787 febd 79fd 1f3f 0f15 07be 79bb 9dbe
00000170: daf4 64be 05b9 e23d 7ed8 b13c 497a 523f
00000180: b207 d3be 8c2e 543e 8a3e 8cbe 6cde 99be
00000190: 7f01 4e3f 9f97 7a3e a520 ad3b a106 353e
000001a0: d5e3 ccbe 46cf f5be cca6 9fbe 96fc e73e
000001b0: ed4c ff3d 78ce 4dbe ff1e 00bd 0cdc 46be
000001c0: 8e61 893d b7d8 65be 353d 0d3e a714 77be
000001d0: 492a ad3e 566f c0be 0d82 a63e f530 8c3e
000001e0: 2246 b7be ce21 8b3c 08a0 c6bd bb2c 13be
000001f0: 8287 f9be 84bf ab3d ec5e cbbe 7c46 5e3f
00000200: c58b f63c 0819 fd3e 1461 8cbe d7b9 7bbe
00000210: a4f9 a43d 6030 d4be 6aaf 073e 60d2 3fbf
00000220: 99de 2d3f 25e4 edbd f329 a0be fd0c c9be
00000230: dbe9 2dbf d8cc b9be 807b d0bd 255b c4bc
00000240: e444 d33e 14d1 153c fa41 953d 5af4 d2be
00000250: 9a6a edbe 6da2 8a3d 3f53 853e 2a95 9d3e
00000260: 1e21 b13d ecf5 453f 6ba6 893e 32f2 ecbd
00000270: 9782 0cbe d5d1 f7bd be47 cb3e ecba d83e
00000280: 0bab 673d b0be 1bbc 072b 36be 009a f9bd
00000290: 956e aa3e 9841 fc3e 1c83 29be 5cf7 cabe
000002a0: 6563 bd3e cade 883e 0be8 73be ff99 c0bd
000002b0: 18b2 1e3e 4420 e9be 6919 76bc 0b12 453d
000002c0: 487e 0a3f 88d9 9fbe a632 a93e 3832 eebe
000002d0: 980b 37be a58d f73d 33d5 bc3e 9741 f1bd
000002e0: 67ed 1e3e 75e2 cabe 095f f93e 8f88 22bf
000002f0: 0f2d 63be 48cc 44be 0813 52be 1cf3 96be
00000300: d72d a0bd 96fa fc3c e761 bebd 7af6 813f
00000310: 882d 23be 6789 c8be 0d9a e93d 1d7a 353e

bias f4 [10]
-0.13798636 0.17106889 0.09335729 -0.20951915 0.22141023 0.16502617 0.1843439 0.06685882
-0.03385962 -0.11045992
00000000: 4c4c 0dbe af2c 2f3e 1b32 bf3d 308c 56be
00000010: 5db9 623e 9ffc 283e a6c4 3c3e 47ed 883d
00000020: 63b0 0abd cf38 e2bd
