datasets/mnist/partition_noniid-#label_major_classes_num_3_clients_10_dir_alpha_None_seed_42/models/batch_size_256_com_round_50_epochs_5_lr_0.1_sample_ratio_0.9_personalization_steps_25/client_2.pt (torch, 175631 bytes, 8 tensors)

weight f4 [50, 784]
000000 ff 2f 8c b9 b5 f2 9c 3c a9 cc f0 bc 93 50 d7 bc
       -0.0002673864 0.0191587 -0.029394465 -0.026283538
000010 d0 5e 61 bc 0e e9 1c 3c 27 7f 39 ba 13 fa e7 3c
       -0.013755515 0.009577049 -0.0007076137 0.028317487
000020 37 b6 4f bb 0e d6 1a 3c 7d d6 30 bc a4 09 e6 bb
       -0.0031694302 0.009450449 -0.0107933255 -0.007020192
000030 a3 c8 0b bd 31 e3 c1 bc eb 30 71 bc 92 69 ad 3a
       -0.03412689 -0.023667904 -0.014721136 0.0013230315
000040 dc 53 67 3c ae 8c af 3c a1 58 c6 bc d8 ce 7e bc
       0.014119115 0.021429386 -0.024212183 -0.015552245
000050 b0 88 54 3c a3 f2 f2 3c 53 d8 f0 bb 49 ef da 3c
       0.012972042 0.029656714 -0.0073500066 0.026725428
000060 6e a1 bc bb 5c aa 77 3b 4f 75 04 3d 76 b4 07 bd
       -0.0057565486 0.003779075 0.032338437 -0.033131085
000070 51 2f b8 bc 4a 23 14 bc b3 16 64 bc 2e c8 fc 3c
       -0.0224835 -0.009041617 -0.013921428 0.030857172
000080 08 a3 bd bc 5a af 86 bc 09 c4 cb bc 47 81 08 bd
       -0.023149028 -0.016441036 -0.02487375 -0.033326413
000090 f0 b3 ab bc 76 f2 f9 3c fe 93 80 3c 18 92 86 3c
       -0.020959824 0.030511122 0.015695568 0.016427085
0000a0 61 20 d1 3a dd 3a 95 bc 68 72 d3 3b 9d 84 04 bd
       0.0015955084 -0.018216545 0.0064528473 -0.032353032
0000b0 2f 80 cb bc 54 b7 98 bc 12 0a b7 3c c6 c0 a9 3c
       -0.024841396 -0.018642105 0.02234367 0.020721804
0000c0 29 6f 83 bc 70 31 ac ba 71 98 ba 3c 00 1d 11 3d
       -0.016044216 -0.0013137292 0.022777768 0.035428047
0000d0 9b 3b 68 3c e5 18 9e 3b 47 2a c4 3c 49 44 ac bc
       0.014174367 0.004824745 0.02394594 -0.021028655
0000e0 64 13 da 3b 0e d5 e2 bc 70 c5 ca bc e4 22 97 bc
       0.0066551436 -0.027689483 -0.024752349 -0.018449254
0000f0 59 1b 84 3c 4f 2c 6b 3c 2b 26 ad bc c2 4e 32 3c
       0.016126322 0.014353826 -0.021136364 0.010883035
000100 43 5e ab 3c c7 eb fc b9 9b ea 8e 3b 46 18 15 3c
       0.02091897 -0.00048240853 0.0043614632 0.0091000255
000110 17 0f c2 3c 0e 91 29 3d b2 6c b7 bc 00 04 09 bc
       0.023688836 0.0413981 -0.022390697 -0.00836277
000120 88 01 89 3c 8a de e5 3c e9 df ea 3c fe 2a f9 3c
       0.016724363 0.028060216 0.028671222 0.030416008
000130 5e e3 db 3b 72 4e 02 bd 6b 94 ad 3a be 3b bc bc
       0.006710454 -0.031813093 0.0013243085 -0.022977706
000140 8d ab 07 bd 75 68 02 3d a5 75 de 3c 92 ec 11 bd
       -0.033122588 0.0318379 0.027155707 -0.035626
000150 7b 0b db 3b 77 25 c5 bb 8d 84 c0 bb 2d 54 85 bc
       0.006684718 -0.006016429 -0.0058751763 -0.01627549
000160 2a 61 60 3c 8a 36 ad bc c8 aa 55 3c d3 89 97 3c
       0.013695041 -0.02114417 0.013041206 0.018498337
000170 e2 46 df 3c ad cc 97 3c 0f 16 09 bd a5 fb b9 bc
       0.02725548 0.018530214 -0.033468302 -0.022703001
000180 f6 af 8d 3c 3c 47 55 3c f6 ac b3 bc 01 f8 a3 bc
       0.017295819 0.013017472 -0.02193306 -0.020015718
000190 ed 56 02 3d fb 51 8b 3c f0 8a cb bc 83 16 9a bc
       0.03182118 0.017006865 -0.024846524 -0.018809563
0001a0 6c 4a 2a bd 24 a3 19 bc 48 7f 0d bd 82 4b ef bc
       -0.04157488 -0.009377275 -0.034545213 -0.02921081
0001b0 d8 0e 17 bb 98 da ac 3b 84 27 6e bc f9 9a ad 3c
       -0.002304962 0.005275082 -0.014535788 0.02119206
0001c0 89 0a b2 bc 50 bc 04 3d 92 83 c8 3c 48 f7 f5 bc
       -0.02173354 0.03240615 0.0244768 -0.03002514
0001d0 50 b3 08 bc 94 a8 bc 3b 78 83 2c 3c d9 43 77 3c
       -0.008343533 0.0057574008 0.0105293915 0.01509186
0001e0 e8 e5 ce 3c a0 b3 4d 3c e9 2f 7a bc 8f 5a b1 3c
       0.025256112 0.012555033 -0.015270212 0.021649627
0001f0 88 5f 9a bc 9a 9d 20 bc 15 6c 03 bc dd 3c f3 bc
       -0.018844381 -0.0098032 -0.008021374 -0.029692108
000200 97 a3 df bc 29 74 41 bd aa 35 bd bc 33 46 a0 3a
       -0.027299685 -0.04722992 -0.023096878 0.0012227952
000210 26 eb f2 bc 67 78 50 bc d5 b6 84 3c 80 69 d2 bb
       -0.029653143 -0.012724019 0.016200462 -0.006421268
000220 49 8e c8 ba c8 eb 81 bb 5c b3 fd 3b 44 46 be 3c
       -0.0015301193 -0.003964875 0.0077423286 0.023226865
000230 8f 91 0a 3d 9a cc b9 3c 96 e7 0a 3d 49 f4 2b bb
       0.03383022 0.02268057 0.033912264 -0.0026238135
000240 22 a0 f8 bc 89 65 1a bc 91 5d fe 3c 0c 6f f4 3b
       -0.030349795 -0.009423622 0.031050475 0.007459527
000250 25 f7 49 ba 5f 11 1e bc 3b 85 a7 bc 4f 3e 8a bc
       -0.0007704369 -0.009647696 -0.020449271 -0.016875414
000260 1d a0 5f 3c 87 9e 28 3d 19 d7 e8 3c 94 e6 f7 bc
       0.013649014 0.04116681 0.028422879 -0.030261315
000270 12 70 40 3c d3 e7 1a bd a0 05 e7 bb 27 fd b3 bc
       0.01174547 -0.03781874 -0.007050231 -0.021971298
000280 4e 55 ff bc 16 d8 f9 bc 87 d6 51 bd 4e 8f 28 bd
       -0.031168606 -0.030498546 -0.05122998 -0.04115229
000290 ad b9 44 bc 0e 47 81 ba 15 9c 6f bc 3c e1 68 3c
       -0.012007159 -0.0009863095 -0.014624615 0.014213856
0002a0 6b aa 03 bd 12 f5 1d bb 48 95 00 3d ca d3 6e bc
       -0.032144945 -0.0024102372 0.031392366 -0.014576862
0002b0 36 7c 12 3d c8 b0 7c 3c 62 52 fe bc 62 90 ec 3c
       0.035762988 0.015423007 -0.031045143 0.02887744
0002c0 4c e0 38 b7 21 54 53 bc 07 4e 0f 3d 96 0c db bc
       -1.1019478e-05 -0.012898476 0.034986522 -0.0267394
0002d0 ac 54 12 3c 2d 46 9c 3a b6 c7 15 3d 65 65 b7 3b
       0.00893132 0.001192277 0.036567412 0.005596804
0002e0 4d 40 84 3c 5e e8 62 3c cc 5d 18 3b 8e 93 5a bc
       0.016143942 0.013849346 0.0023249267 -0.013340844
0002f0 b7 bb 47 bd 0e b3 4a bb 54 87 16 3c ae 92 b7 3b
       -0.048763003 -0.0030929479 0.009187538 0.0056022024
000300 21 98 2b bd 39 70 53 bb d5 eb d2 bc 25 0e a1 bc
       -0.04189313 -0.0032262935 -0.02574722 -0.019660065
000310 92 7b aa bc e2 db 47 3c b3 d4 aa bc 65 d4 85 37
       -0.020810876 0.01219842 -0.020853376 1.595374e-05
000320 a7 f7 b8 3b 16 00 c9 3c db 99 e8 bc 8a 19 c3 bc
       0.005644757 0.024536174 -0.028393677 -0.023815889
000330 e8 c4 0d bd b0 27 86 3c d5 b9 92 bc ff 2d fe 3c
       -0.034611613 0.016376346 -0.017910877 0.031027792
000340 38 6d b7 3b 67 8c 42 bb 51 70 ba bc 62 8d 03 bd
       0.0055977367 -0.0029685737 -0.022758635 -0.032117255
000350 47 76 03 bc 78 7a 81 bc 8c bc 64 3b b1 bc 93 3b
       -0.008023805 -0.015805468 0.0034902422 0.0045085778
000360 39 8e 07 bd df 97 1f bd 28 f3 97 3b a9 42 61 bd
       -0.03309462 -0.038963195 0.004637141 -0.054995213
000370 a3 42 c4 bc 9f ef d6 3c bd 7a 3d 3c 2a 08 7c 3a
       -0.023957556 0.026237307 0.011564908 0.00096142536
000380 12 54 fe bc 99 4c 91 3c 8a 0c cf bc 2e 9d 0a bc
       -0.031045947 0.01773672 -0.025274534 -0.008460326
000390 b2 26 0e bc e7 81 98 bb ee ce 30 3b b9 17 26 3d
       -0.008676218 -0.0046541574 0.0026978808 0.040549967
0003a0 55 6d 96 3b e0 d5 08 3d 6a 06 db 3c 4d e8 62 bc
       0.00459067 0.033407092 0.026736457 -0.01384933
0003b0 82 f5 ee 3c a9 f8 93 bc 10 30 5a bc b3 cb 55 3c
       0.029169802 -0.018062906 -0.013317123 0.013049054
0003c0 b5 1e 29 3c b3 2a d0 3c 61 97 54 bc 3a fe 83 bb
       0.0103222625 0.025410986 -0.012975545 -0.004028109
0003d0 af 40 5c 3b 1b 14 75 bd 24 b2 c5 ba 3f 93 66 bd
       0.003360789 -0.059833627 -0.0015082997 -0.05629277
0003e0 9e be b9 bc a2 a0 97 bc 0c 7f a7 bc 4e 69 97 3b
       -0.022673901 -0.018509213 -0.020446323 0.0046207076
0003f0 a0 ec f1 3c f6 cd 28 bc 32 a7 aa bc 46 37 20 bc
       0.029531777 -0.010303011 -0.020831678 -0.009778803

bias f4 [50]
000000 f6 0b 4b bb 49 68 dc bc e7 cd 68 3d f9 3d f9 3b
       -0.003098247 -0.026905196 0.05683699 0.0076062647
000010 f3 15 6d 3d 6f 8a 89 3d 89 d9 6f 3d a7 6b 4d bd
       0.05788226 0.06715857 0.058557067 -0.050151493
000020 76 4f b8 3b 61 80 cc 3d 17 49 f4 3d 0e 08 37 3c
       0.005624707 0.09985424 0.11928003 0.011171354
000030 d7 42 98 3d b2 7f 58 3d 38 99 81 3d f9 58 8f 3d
       0.07434624 0.052856155 0.06328052 0.06999392
000040 c6 6d 38 bc 3b c5 1f 3d a9 63 f1 3d c2 63 f2 3c
       -0.011256641 0.039006453 0.11786587 0.029588584
000050 69 c0 a7 3d fe 41 48 3c ae 19 b6 3d 6d fa a0 3d
       0.08190996 0.012222765 0.08891617 0.07860265
000060 1b 2f 32 bc 67 6a 0e 3d e1 56 8e ba 15 28 1b 3e
       -0.010875489 0.034769442 -0.0010859632 0.15152009
000070 64 85 c6 3d 43 36 ec 3d 00 ed 0f 3d 9c f9 0f 3d
       0.09693411 0.11533787 0.03513813 0.035150155
000080 ab b0 4c 3d 8c a0 22 3e 4d 15 a7 3d be a6 a8 bd
       0.04997317 0.15881556 0.0815836 -0.082349285
000090 37 e9 5a 3b b0 a2 a7 3c dd 60 6c bc bf af 1d 3e
       0.0033403167 0.020463318 -0.014427391 0.15399073
0000a0 9d 47 7b 3c ce 39 2c 3e a2 96 d9 3d 3c 3e b3 bc
       0.015336898 0.16818926 0.10624434 -0.021880262
0000b0 3c 01 8d bd fb b7 ee bc a8 40 c3 bc 15 f1 0b bd
       -0.06885001 -0.029140463 -0.023834541 -0.03416546
0000c0 03 f6 3e 3d d0 15 26 3e
       0.046621334 0.16219258

weight f4 [50, 50]
000000 8d 46 81 3d db 9e b5 bd 2c 7a 8d bd 8b d5 c3 3d
       0.063122846 -0.0886819 -0.06908068 0.095622145
000010 99 e3 79 bd 81 6d 16 be b6 28 99 3d cd f9 bb bd
       -0.06100807 -0.1469021 0.07478468 -0.09178505
000020 e1 c5 15 3e 69 74 5d 3e d2 32 d4 bd 54 6f 1b bd
       0.14626266 0.21626438 -0.10361256 -0.037947968
000030 a4 96 b9 3b c1 bd ea 3d 71 55 28 3e ee 35 b6 3d
       0.0056637097 0.11461974 0.16438843 0.08897005
000040 bb cf 3c 3d ea 99 42 3e 1d 94 16 3e 3c c9 d9 3b
       0.046096545 0.19004026 0.14704938 0.0066463035
000050 03 1e 5d be 03 07 8d 3d 76 d4 1b bd 79 f1 24 be
       -0.2159348 0.06886103 -0.038044415 -0.1610774
000060 51 cc 97 3d 70 8e fd 3d de dd 19 3d 5b 88 be 3e
       0.07412017 0.123806834 0.037565105 0.37213406
000070 60 38 0a be bf 12 a5 be 8d 3b 7d bc b2 90 03 3e
       -0.13498068 -0.32240865 -0.015456093 0.12848166
000080 cf 30 31 3d 80 d8 24 3d 83 8d 1c 3c c1 27 ce bd
       0.043259438 0.040245533 0.009555223 -0.10066176
000090 1e 8b c4 3d 81 5e 46 3d 70 f0 a2 3d 63 51 87 3e
       0.09596847 0.04842997 0.07956016 0.2642928
0000a0 c2 71 aa bc a2 78 3a be c3 dd d7 3b 79 65 19 3e
       -0.020806197 -0.1821008 0.0065877154 0.14980115
0000b0 17 56 8f 3e c9 78 04 3e ab e2 01 3e 5b 8f 9f bd
       0.2799537 0.12936701 0.12684123 -0.07791015
0000c0 5b 1f 43 bc 7f 3d 08 3b 05 0d c0 bc c2 9b 66 3e
       -0.011909331 0.0020788608 -0.023443708 0.22520354
0000d0 15 a1 27 be 69 f0 d5 3d ba 45 a1 bd d8 81 2d 3e
       -0.16370042 0.10446245 -0.078746274 0.16944063
0000e0 24 37 f9 bd 1d 16 35 3e 59 09 2f 3e d6 f2 e6 3d
       -0.1216872 0.17684217 0.1709341 0.11276786
0000f0 05 a4 0c 3e 4d dd d9 bd a6 5e 9f 3b f9 59 8c 3e
       0.13734443 -0.10637913 0.004863578 0.27412394
000100 3d ba 83 bc 90 99 ec 3d 3d dc 59 bd ff 6a 9c 3e
       -0.016080016 0.11552727 -0.05318855 0.30550382
000110 82 5e 13 3e 7c 4a ee 3d 30 6a db 3d 5e 75 2e bd
       0.1439152 0.116353005 0.10713613 -0.0425924
000120 3d 2a 4d 3e c7 fb b4 bd df e6 27 3e 96 a6 68 3c
       0.20035644 -0.08837085 0.16396664 0.014199873
000130 8f 7c 25 3d c3 5e ab 3e f3 d6 41 be b7 51 14 be
       0.04040199 0.33470735 -0.18929653 -0.14484297
000140 85 ec eb bd 13 28 9f bb 1a a2 31 3e ce 3c 73 be
       -0.11519722 -0.004857072 0.17346993 -0.23753664
000150 86 ed 6f 3c 35 c8 14 be 2b 5a 1b 3d 07 bc 0a 3e
       0.014644032 -0.14529498 0.037927788 0.13548289
000160 7f ee 66 bd 84 7c 1d 3e 89 87 4a be d3 5f 26 3e
       -0.05637979 0.1537953 -0.19778265 0.16247492
000170 66 82 3f 3e 22 d1 07 3e 6d 28 6f bd 5c 6e 3c 3e
       0.18702087 0.13263372 -0.058388162 0.18401474
000180 27 f4 d2 3d a9 e6 86 bd 80 0e ba bd b3 60 eb bc
       0.103004746 -0.06586964 -0.09084797 -0.028732633
000190 bf 8b 4c 3d dd 8b ca bd ca 2f 0f be 38 d6 52 bd
       0.04993796 -0.09889958 -0.13983074 -0.051473826
0001a0 42 b7 5d 3b 56 76 f9 3c 0b d9 87 bc 7d 79 c6 3c
       0.0033831154 0.030451935 -0.016582986 0.024227852
0001b0 cd c7 00 be 64 ff 1b bd b6 ab 39 3b 6c aa 13 3e
       -0.12576218 -0.038085356 0.0028331107 0.1442048
0001c0 2e 76 11 be 81 d2 db 3d 7f 0a e3 bd ad 74 e1 bd
       -0.14205238 0.1073351 -0.11085986 -0.11008582
0001d0 5b 1f 76 3d d8 ea 97 bd b1 94 a1 bd ca a7 07 3e
       0.060088497 -0.0741784 -0.07889689 0.132476
0001e0 95 62 f8 bd f7 17 13 3e 51 f6 d8 bd e2 26 ce bc
       -0.12128178 0.1436461 -0.10593856 -0.025165025
0001f0 69 e7 5e bb 79 cf ba bd e1 e4 c3 3d 19 19 fa 3d
       -0.0034012443 -0.091216035 0.095651396 0.12211818
000200 bf 15 46 bd e2 c2 b8 3d 2e 07 cd 3d 5c 80 0e be
       -0.048360582 0.09021546 0.10011135 -0.13916153
000210 4d ca 6a 3d 39 87 f3 3a 23 31 02 bd 1b 6b f3 bc
       0.057321835 0.0018579728 -0.03178514 -0.029714158
000220 e8 46 bd bd f8 b2 f2 bc 3d cd f6 bd 48 23 de bd
       -0.0924204 -0.029626355 -0.12050865 -0.10846573
000230 87 bf 8a bb 5d 57 ab 3c 65 cf f5 3d 86 3c cc bd
       -0.0042342576 0.020915681 0.12002448 -0.099724814
000240 3f cb c6 bd 43 97 ee 3d e9 8d 87 bd 12 e1 05 3e
       -0.09706735 0.11649945 -0.06618864 0.13074139
000250 1a 60 29 bc e7 71 f5 3d cd 94 de bd 11 84 01 3e
       -0.010337854 0.11984616 -0.10868225 0.12648036
000260 95 ac e3 3d 0a e0 90 bd 0b ad 3c bd 3e 3c e1 bc
       0.11116902 -0.07073982 -0.046063464 -0.027494546
000270 02 40 1e 3d 25 93 87 bc ba a6 8d bd 07 47 d6 3b
       0.03863526 -0.016549656 -0.06916566 0.006539229
000280 1b 0f 0b 3c 34 84 26 3e dc e8 09 be 16 c5 16 bd
       0.008487488 0.16261369 -0.13467735 -0.03680905
000290 b5 8a 07 be 75 5f 67 3d a3 9a 80 3d 19 4d 0c 3d
       -0.13236506 0.05648752 0.062794946 0.034253214
0002a0 e6 c7 c8 bd 73 0e fe bc 1d 6e c7 bd 10 00 f7 bd
       -0.098037526 -0.03101275 -0.09737799 -0.12060559
0002b0 6a 1e 02 3d 6b 27 e6 bc f7 13 13 3e 2d 4f 56 3d
       0.031767286 -0.028094968 0.14363085 0.0523216
0002c0 85 58 e1 bd 12 8b 2b bd eb cf 8a bd 27 5f 87 bd
       -0.11003212 -0.041880675 -0.067779385 -0.06609946
0002d0 ca 7a 73 3d bd b6 ee 3d a2 b9 24 3d 98 5d f3 bd
       0.059443273 0.11655948 0.040216096 -0.11883086
0002e0 62 3a ce 3d 55 4a 1c be 01 d5 0e 3e 10 47 e2 bd
       0.100697294 -0.1526273 0.13948442 -0.1104871
0002f0 67 60 ae bd 07 5b 81 bd 22 fd 67 bd 5a 7a f1 3d
       -0.08514481 -0.0631619 -0.05663789 0.11790915
000300 25 d0 b0 3d 49 78 7c 3d 40 5d ee bd 34 2a db 3d
       0.086334504 0.06163815 -0.1163888 0.10701409
000310 bc 34 43 bc a0 d4 c7 bd d9 b1 04 bc 86 68 df bd
       -0.011914428 -0.09757352 -0.008099043 -0.10908608
000320 cc 27 68 3d d1 6b ba 3d 3f 77 db 3d fb de 07 3e
       0.05667858 0.091025956 0.10716104 0.13268654
000330 9d 2e a8 3d d2 45 35 3e 69 f9 8c 3d 32 c2 15 3e
       0.08212016 0.17702416 0.06883509 0.14624861
000340 4d 60 9f bd c8 ab 14 3e a2 ad c6 3d 25 0d 56 3c
       -0.0778204 0.14518654 0.097010866 0.013064657
000350 81 2d 0b 3e e8 14 5c bc d4 4e 54 be 20 a4 5d be
       0.13591577 -0.013432719 -0.20733196 -0.2164464
000360 1f eb f2 bc f3 7c f0 3d 09 b2 b3 3c 0b cd 74 bd
       -0.02965313 0.11742582 0.02193548 -0.059765857
000370 0d 1d 65 bd 11 39 f3 bd ec 18 40 3c be ce 21 3c
       -0.055935908 -0.11876119 0.011724692 0.009875951
000380 ac 4b 0a be b6 e3 1f 3d 1c 6e 12 3e 46 c2 3a be
       -0.13505429 0.03903552 0.14299816 -0.18238172
000390 41 02 6d 3d 4c a6 24 be 83 cb ba 3d a9 4c d8 bd
       0.057863478 -0.16079062 0.09120848 -0.10561497
0003a0 47 8e 16 3e e2 22 18 be 3c d5 29 bd 73 3a 4b bd
       0.14702712 -0.14857057 -0.04146312 -0.04961629
0003b0 f6 aa b5 bc e8 dd 7f 3e e0 70 36 bd 04 0d 41 be
       -0.022176247 0.24986994 -0.04454124 -0.18852621
0003c0 56 17 30 3e 13 17 70 3e 89 49 01 bd 35 4d da bd
       0.17196402 0.23446302 -0.03156427 -0.10659257
0003d0 b8 69 a8 bb c2 ca 4c 3d 73 a0 93 bd e1 0d 2c bd
       -0.005139556 0.049998052 -0.07208338 -0.042005423
0003e0 8d 46 f7 3c 41 56 4f be c6 3c c5 bc 5c c5 8e 3d
       0.030185008 -0.20247747 -0.02407683 0.06971237
0003f0 1e 6d 50 3b 2f db 33 3e 69 6f 2d 3c 19 3a ab bd
       0.003180332 0.1756408 0.010585644 -0.083606906

bias f4 [50]
000000 3a 58 45 3e c7 9f 05 3e 23 cb ee bc 29 73 5f 3d
       0.19271937 0.13049231 -0.029149598 0.054553185
000010 3c 1e 43 3e df 37 b7 3d 14 b1 5b 3e 3d 7b 50 3e
       0.19054502 0.089462034 0.21454269 0.20359512
000020 7d 56 87 3d 44 7c 9b 3b d0 d1 c5 3d c8 f0 b9 3e
       0.06608293 0.004745038 0.09659159 0.36316514
000030 20 d7 89 3e c1 4c bc 3d 31 04 7e bd ab bc dd 3c
       0.2692194 0.09194327 -0.062015716 0.027067503
000040 4d ad 6b 3e 0b 92 9c 3e 81 81 40 3e 92 fa 15 be
       0.23015328 0.30580172 0.18799402 -0.14646366
000050 58 41 0a be 21 54 e6 3d 50 2a 6d 3e 29 17 3b 3c
       -0.13501489 0.11246515 0.23160672 0.011419096
000060 2c 79 d6 3e f7 43 31 3e 92 2e da 3b 47 a2 3d 3e
       0.41889322 0.17311083 0.0066583836 0.18518935
000070 44 01 54 3e a5 8a 7e 3e 70 27 ad 3e c5 93 5c bd
       0.20703608 0.24857576 0.3381915 -0.05385186
000080 14 e3 c6 3e 7b 9e 0d be 87 47 39 3e 76 3f 7a 3e
       0.38845122 -0.13829987 0.18093692 0.24438271
000090 5d f0 b6 3c ec b1 32 3c 20 ba e1 3b 56 b9 0f 3e
       0.022331411 0.010906678 0.006888643 0.14035544
0000a0 4b 81 a5 3e e6 17 56 3e 85 ab a2 3e f7 6a 03 3e
       0.32325205 0.20907554 0.31771484 0.12833773
0000b0 00 23 67 3e 93 35 c4 3e 59 3f fa 3d 18 24 95 3e
       0.22571945 0.38322124 0.12219114 0.291291
0000c0 58 1e db bd 25 82 73 3c
       -0.10699147 0.014862572

weight f4 [20, 50]
000000 b2 e1 33 3e e6 0c 5f be 83 0d bd bd f0 c1 d3 3d
       0.17566565 -0.21782264 -0.09231093 0.10339725
000010 0e bf 93 bc e8 b7 04 3e 2b c3 8c 3e aa 94 5d 3e
       -0.018035438 0.1296078 0.2749265 0.21638742
000020 42 61 be 3d 96 ea 73 3e 84 d5 98 be 70 ab 80 3c
       0.09295894 0.23819956 -0.298504 0.015706748
000030 37 4c 57 3e d8 0f 3c bd ff d5 7d be 2e 18 55 3e
       0.21025167 -0.045913547 -0.24788664 0.20810005
000040 b3 0d 6c 3e 9b 4b 8f 3e fe 60 b5 3e d4 98 05 3e
       0.23052101 0.2798737 0.35425562 0.1304658
000050 7a 6e 4b 3e d4 36 60 bd aa be 89 ba f5 7e dd bd
       0.19866362 -0.05473979 -0.0010509093 -0.10815231
000060 28 95 ac 3e d2 6b 80 bd d8 03 15 bd 25 12 d9 bd
       0.33707547 -0.06270565 -0.03638062 -0.10599164
000070 d5 41 1e be fc ba 62 be fd 7c e4 bd c6 f4 fb 3b
       -0.154548 -0.22141641 -0.11156652 0.0076890914
000080 1e 57 db 3e 9b cd 1a bd 59 11 36 3d d7 9f 2c 3c
       0.42839903 -0.037793737 0.044450138 0.010536156
000090 00 a3 fc bc 15 e4 8b 3d 83 a7 f7 bd 94 d9 03 be
       -0.030839443 0.068306126 -0.12092497 -0.12875968
0000a0 39 8d c7 3e fb a1 07 be 54 98 62 bd fc b9 56 be
       0.38974932 -0.13245384 -0.055321053 -0.20969385
0000b0 5f de 86 3d 32 08 e8 bc a1 8f 85 be 2c 6f 9f 3e
       0.06585383 -0.02832422 -0.26086143 0.31139505
0000c0 83 b2 b1 3d 25 e9 cb bc f0 26 18 be d5 53 95 3e
       0.086766265 -0.024891445 -0.14858603 0.2916552
0000d0 3d c1 d3 bc ad 24 75 bc 77 f1 89 bd 96 8f 69 be
       -0.02584898 -0.0149623575 -0.06735509 -0.2280868
0000e0 b0 29 52 3e 26 81 98 3c 56 43 21 3d eb db 43 bd
       0.20523715 0.01861627 0.039370857 -0.047817152
0000f0 0d 76 37 3d 92 4d fe bd 0a 32 8a 3d 77 88 31 3c
       0.044790316 -0.12417139 0.067478254 0.010835758
000100 cb 29 81 3e 72 18 de bc f6 54 fc 3d 95 44 1d 3d
       0.25227198 -0.027111266 0.123208925 0.038395483
000110 e5 4e 8a 3c d2 b0 a1 3b 88 46 43 be 9e fe 5e 3e
       0.016883323 0.0049344087 -0.19069874 0.21776816
000120 6b 8d 1d bd 13 d5 64 3d b6 3f 96 be ac 08 c2 3d
       -0.038464945 0.055867266 -0.29345483 0.0947431
000130 33 09 8c 3e 15 cf 65 3e 04 b2 79 3d cc ed 4f bd
       0.27350768 0.22442277 0.060960785 -0.05076389
000140 7b aa ed 3b 14 ec 78 3c 64 97 c9 3e d6 b9 a0 3b
       0.007252989 0.015193004 0.39373314 0.004904966
000150 b7 ef 9c be f6 c9 61 3e 9a 1f 5a 3d 45 5c 8e b9
       -0.30651638 0.22049698 0.053252794 -0.00027153097
000160 a6 f8 98 3d 6c 2e a7 bd fc c7 3d 3e 1e ed 2b be
       0.07469301 -0.08163151 0.18533319 -0.16789672
000170 62 20 4a 3d 81 e7 81 3e 3b 51 0b bb 8e 4e 81 3e
       0.04934729 0.25371936 -0.0021258134 0.25255245
000180 bf 7d a1 3e f5 4d 80 3e 7f 56 9e bc 65 d1 96 bd
       0.3154125 0.25059476 -0.019328354 -0.073641576
000190 83 7e 23 3e 3b 22 e3 3d fe 7b 23 bd 45 95 e6 bd
       0.15966229 0.11090513 -0.03991317 -0.1125894
0001a0 a4 16 29 be 10 d9 f4 3c 27 f3 bf bc 3f 77 39 3e
       -0.16512543 0.02988866 -0.023431374 0.18111895
0001b0 43 4d 85 3e 9c df 05 3e e8 ae ce bd 5f 7c 89 3e
       0.2603551 0.13073581 -0.100919545 0.268527
0001c0 de e8 30 3e 5b e1 94 3e 5d 61 83 bd 00 ba c2 bd
       0.17276332 0.29078183 -0.06415055 -0.09508133
0001d0 7a 86 0d 3e a9 e1 f4 3e 26 07 9d 3d 9e b3 85 bd
       0.1382083 0.47828415 0.07667379 -0.065284
0001e0 2d f3 95 bd b0 47 3a 3e 8e f4 49 be d0 e0 1b 3e
       -0.07321773 0.18191409 -0.19722196 0.15222478
0001f0 8a b1 ae bd 65 60 24 3d 8b e9 dd bd 17 06 82 3e
       -0.08529957 0.04013099 -0.108355604 0.2539527
000200 08 1b 84 3d 7e e8 0b bd de b7 ca bd f2 93 d0 bd
       0.06450468 -0.03415727 -0.09898351 -0.10184468
000210 0a c2 c3 bc a7 86 57 bd 89 86 9f 3e bb 09 43 be
       -0.023896236 -0.05261865 0.3115733 -0.1904668
000220 4a 60 d4 bd ff 79 91 3d 6e 4d 5c 3e 1d dc f0 3c
       -0.10369928 0.07103347 0.21513912 0.029401833
000230 d8 4b e4 3b ad 59 04 3d 55 42 9e bc 33 79 24 bd
       0.006967049 0.032312084 -0.019318739 -0.040154647
000240 ed 92 ee 3b b1 3f 92 3e d1 fc 3d be 6b eb 03 3e
       0.0072806985 0.28564218 -0.18553473 0.12882774
000250 7b 5a 2b 3e 88 aa ab 3c 90 fc 07 3c 69 aa e7 3d
       0.16733734 0.02095534 0.008299962 0.113118
000260 67 bc b7 bd 34 18 de bd 53 2e eb b8 13 31 bd bd
       -0.08971482 -0.1084446 -0.00011214302 -0.09237876
000270 3a a1 a0 bd 94 08 9d bd 1e 00 8b bd 70 2f 8d 3d
       -0.078432515 -0.07667652 -0.06787132 0.068938136
000280 20 28 55 3d 6c 6f b1 3d 67 c3 4f bd 28 a9 c9 3b
       0.05204022 0.0866383 -0.05072346 0.006154198
000290 94 e8 9a bd ec eb 60 bd 20 c3 7d 3c f2 7b f6 3a
       -0.07563892 -0.054912493 0.015488416 0.0018805249
0002a0 30 c6 37 bd 2a 29 97 3d 86 5d c2 3d 7a b3 a2 bc
       -0.04486674 0.07380898 0.094904944 -0.019860972
0002b0 04 52 ae 3c fc 53 c1 bd b5 db 71 bc 11 f9 82 bd
       0.021279342 -0.09439847 -0.014761855 -0.06395162
0002c0 6a 1f d6 bd 92 01 8a bd ea a6 0a be f8 f0 8d bd
       -0.104552105 -0.06738581 -0.13540235 -0.06930727
0002d0 52 a4 04 bd 3a 93 1b bd e6 e4 bf bd 7d 42 9e 3d
       -0.03238327 -0.037982203 -0.09369831 0.077275254
0002e0 ee ab d5 bd 64 f4 9d 3d fb ba 02 bd 6b 39 8c bd
       -0.104331836 0.077126294 -0.0319166 -0.06846889
0002f0 0e 5d 19 3d f1 f5 16 bc 62 4b 08 be c9 77 9e bd
       0.03744226 -0.00921391 -0.13310006 -0.07737691
000300 92 3c 24 bd e7 80 db 3d 1d ab f0 3b 3d 42 be 3d
       -0.040096827 0.107179455 0.007344617 0.09289978
000310 17 7e 86 3d f9 49 f4 bd 96 1d 5f bc 65 b4 dd bd
       0.065670185 -0.11928172 -0.013617894 -0.10825423
000320 66 4b 5e 3e c6 4b 02 3e d8 eb e0 bd 06 5d 39 bb
       0.2170845 0.12724218 -0.109824836 -0.0028284206
000330 c0 70 24 3d ca d5 84 3e d6 81 28 be 57 83 46 be
       0.04014659 0.25944358 -0.16455778 -0.1938604
000340 0d 38 32 3e 30 81 ea 3d df 77 b0 3e 42 09 d6 bd
       0.17404194 0.11450422 0.34466454 -0.104509845
000350 c5 41 73 3e 0a f0 a4 bd 86 6f c4 3d 79 08 10 3e
       0.23755558 -0.08053596 0.09591584 0.14065732
000360 9a 38 0f be 84 04 c0 bd 3a 8e f7 bd 60 a5 b7 bd
       -0.13986436 -0.09375861 -0.120876744 -0.0896709
000370 7d 63 96 3c 04 9e 98 bd cb 68 b6 3e 09 64 2d 3e
       0.018357987 -0.07452014 0.35626826 0.16932692
000380 29 21 2d be db 02 89 3e 07 3c 03 3d 8d 44 25 be
       -0.16907181 0.2675999 0.03203967 -0.16139431
000390 31 07 d1 bc c5 34 2d 3e 98 3e b4 3d cc cf 3a 3d
       -0.025516124 0.16914661 0.08801001 0.045608327
0003a0 93 51 94 3e bd 0b bc 3d cf 12 c4 bd 61 2e 32 be
       0.28968486 0.091819264 -0.095739 -0.17400505
0003b0 54 52 11 bc 44 a0 19 bd 61 c3 0e 3c 14 d9 80 bd
       -0.008869726 -0.037506357 0.008713574 -0.06291404
0003c0 93 ec df bc 16 1a 3c 3e c2 6f 97 3d 57 66 8d 3e
       -0.027334487 0.18369326 0.07394363 0.27617142
0003d0 26 2c e6 bd 1b 5c d8 3c 36 a3 85 3e 62 76 1c 3e
       -0.112388894 0.026411107 0.26101083 0.15279534
0003e0 de 0b 40 3d 20 00 06 3d ff 0a 83 3e bb 95 c2 3e
       0.046886317 0.032714963 0.25594327 0.3800486
0003f0 e0 f5 61 3d c6 76 36 3e f0 ab 5a 3e 32 5a 43 bd
       0.055166125 0.17818746 0.21354651 -0.04769344

bias f4 [20]
000000 a8 43 30 3f c4 07 dd 3e 69 dc 87 3e 6b 37 00 be
       0.68853235 0.43169987 0.26535347 -0.1252114
000010 df f1 e3 3c e7 5e db 3e 3d b1 03 3e ee ec 09 3f
       0.027825294 0.42845842 0.1286058 0.5387715
000020 8e d2 02 3f ef 62 da 3e bd ec 5b 3e 29 73 70 3d
       0.5110253 0.42653605 0.21477027 0.058703575
000030 91 f1 dd bd 3a bf b7 3e 70 6b 24 bd c1 45 51 3d
       -0.10837091 0.35888082 -0.040141523 0.051091913
000040 10 63 01 3e ee dc c7 bc ff 7c 6f 3e be 81 fc 3e
       0.12635446 -0.02439734 0.23387526 0.49317735

weight f4 [10, 20]
000000 4e 1e bf bb 78 8d 08 bf 9c 78 d0 3e 0c af d8 3d
       -0.00583247 -0.53340864 0.40717018 0.105802625
000010 1a be 45 3d b9 b7 c7 be 4d a7 aa 3d f8 89 8a bb
       0.048276998 -0.39007357 0.08332691 -0.004227873
000020 47 23 73 3e a6 90 26 bf 5d 28 7d be 03 b7 11 bf
       0.23743926 -0.65064466 -0.24722429 -0.5691988
000030 d9 23 b3 bd 44 fa 10 3f 13 d6 97 be e5 d3 99 3e
       -0.08747072 0.56631875 -0.29655513 0.30044475
000040 c9 4d 15 3f ce 1e 0f 3e 88 a4 29 be 1c 39 97 be
       0.58321816 0.13976595 -0.1656667 -0.29535758
000050 9d ce 48 bf a6 68 8d 3e 92 1d 1a be 3d 77 97 bd
       -0.78440267 0.27618903 -0.15050343 -0.0739579
000060 1a 0f b3 3e 1e d5 0c be 61 4b 82 be 36 a0 49 be
       0.3497246 -0.13753173 -0.25448135 -0.19690022
000070 a4 65 84 be 87 22 3c 3e 38 ab 26 3f 04 9a 00 3f
       -0.25858796 0.18372546 0.6510501 0.5023501
000080 39 02 20 be ab d6 28 be 61 c2 10 3e 5a 29 2e bf
       -0.15625848 -0.1648814 0.1413665 -0.6803185
000090 48 de 22 be b5 93 47 3e d8 27 80 3e 0b f9 23 3f
       -0.15905106 0.1948994 0.25030398 0.64051884
0000a0 cd e1 ac be ce a9 48 3f 5b 61 ff 3b 9d 49 be bd
       -0.33766022 0.783841 0.007793588 -0.09291384
0000b0 70 90 bd 3e 55 c6 6f 3f 49 2c 77 3e 1a 81 00 be
       0.3702426 0.93662006 0.24137987 -0.12549248
0000c0 e2 e8 d5 bb 06 f1 20 3e ef 19 93 bd 59 98 9b be
       -0.006528006 0.15716943 -0.07182681 -0.3038967
0000d0 06 19 2e be f9 2b 20 bc 39 bd 61 be 16 78 cc 3d
       -0.17001733 -0.009776109 -0.22044839 0.09983842
0000e0 7e 49 c2 be 6d 83 05 3e 7a d0 ec bd cf 35 1d bf
       -0.37946695 0.13038416 -0.11563201 -0.6141023
0000f0 5a a3 56 3e a4 97 d0 3d 8c b0 05 bd b3 b0 3e 3e
       0.20960751 0.10185173 -0.03263907 0.18622093
000100 fd c8 3e 3f 33 8d a5 bc d3 0d c8 bd 44 6d d8 be
       0.74525434 -0.02020893 -0.09768262 -0.42270863
000110 0e 83 f0 3e fb b7 12 bf c4 a6 f6 bd c2 2d 1f 3f
       0.46974987 -0.5731198 -0.12043527 0.62179196
000120 73 ff ac bd 93 95 b4 be 2c 81 0b be 9a dd 0e 3f
       -0.084471606 -0.35270366 -0.13623494 0.5580689
000130 5a 48 ff be 58 5c 22 be a1 d4 8c 3d ea c6 91 be
       -0.49859887 -0.15855539 0.06876493 -0.28472072
000140 94 a4 7d be b9 5b 99 be 1c 49 d2 be af fd f3 3d
       -0.24769813 -0.2995279 -0.41071403 0.11913621
000150 74 03 de bd c7 01 05 bf df 01 d5 3d 2a 16 4e 3f
       -0.108405024 -0.51955837 0.104007475 0.8050257
000160 3d 23 45 be 16 36 61 3f 48 f1 9b bd 00 1d 25 3e
       -0.19251724 0.87973154 -0.0761438 0.16124344
000170 12 a1 64 be 22 80 f5 be e2 8c 0e 3d 3a f9 a5 3e
       -0.22327068 -0.4794932 0.034802325 0.32416707
000180 8d f2 a8 be 3d 57 0f 3e 98 0b c6 be d1 39 4e be
       -0.32997552 0.13998123 -0.3868072 -0.20139243
000190 17 2e b1 3e 3d 67 b1 3e 96 57 1c 3f 12 f3 34 3e
       0.34605476 0.34649077 0.61071146 0.17670849
0001a0 fd 63 13 bf ab 4a 01 bf ef f1 c6 be 83 ac b7 3e
       -0.57574445 -0.5050456 -0.38856456 0.35873803
0001b0 c8 2d 0c 3f 9a f6 4d be 9d bf 44 3e d7 a3 27 be
       0.54757357 -0.20113602 0.1921372 -0.16371094
0001c0 b2 81 8a 3d 81 32 e8 3d a5 24 4e 3e de 40 b6 be
       0.06763019 0.11337758 0.20131166 -0.35596365
0001d0 0a 2e d7 bc 1f 59 04 be d1 8c 8a be fd eb 17 3f
       -0.02626707 -0.12924622 -0.2706056 0.59344465
0001e0 80 0e 3a 3f 8d 93 47 3e 25 a1 a6 be 1d 30 13 be
       0.72678375 0.1948988 -0.3254482 -0.14373823
0001f0 e0 75 71 be 78 fa d0 3d a0 68 01 bf 6f 95 5c 3f
       -0.23580122 0.10204023 -0.5055027 0.8616552
000200 39 1e b1 3e cc 14 86 be 1a 86 e9 be ed 8b 94 be
       0.3459337 -0.26187742 -0.45610124 -0.29013005
000210 52 32 9d 3d ca 1a fa be 56 7d 8e 3d 60 53 0a bf
       0.076756135 -0.48848563 0.069575 -0.5403347
000220 ba 5b 31 3f b5 72 13 be 78 cb 9c bd c1 f0 ef be
       0.6928059 -0.14399226 -0.07655996 -0.46863368
000230 c6 05 b2 be df b1 7b be b5 85 df be dd 0c c5 bc
       -0.3477003 -0.24579571 -0.43656698 -0.024053985
000240 11 02 16 3e 4c 8c ae be 59 58 c1 3e 0c d2 19 be
       0.14649226 -0.34091413 0.37762716 -0.15021533
000250 54 b0 1e bf ca a1 9a 3e 27 37 c4 3d 03 b9 ee bd
       -0.61987805 0.3020156 0.09580832 -0.11656382
000260 83 f0 b1 3d 8a da 38 3f 6a 0b 4a 3e 86 b5 7c 3e
       0.08688452 0.72208464 0.19730917 0.2467862
000270 9d b4 17 be 82 90 d5 bd 8d cb 17 3f f4 01 e5 bd
       -0.14814992 -0.10427953 0.5929497 -0.11182013
000280 fd a0 bf be cc 17 4d be 13 fa 24 3e f1 9f f9 bd
       -0.37427512 -0.20028609 0.1611102 -0.121887095
000290 4a ed a0 3d 5c db ea bb 47 67 4c be 5a e1 b7 bd
       0.07857759 -0.007167263 -0.19961272 -0.08978529
0002a0 de a6 ed 3e 39 ef 37 3f 68 ba 9d bd d4 82 3e 3e
       0.46416372 0.718494 -0.0770157 0.18604594
0002b0 13 2f 1f 3e 1e 23 59 be f9 91 aa 3c 79 cf e5 be
       0.15545301 -0.21204802 0.020821558 -0.44884852
0002c0 64 57 0b 3f 50 49 0a be d8 db b1 bd a1 06 be bd
       0.5443022 -0.13504529 -0.0868451 -0.09278608
0002d0 d5 8f cd 3e e3 21 b0 3c 94 68 2c 3f 2f 52 f1 bd
       0.40148798 0.021500533 0.67347074 -0.117832534
0002e0 8f 51 84 be 9f 76 49 bd 5d a0 c0 3e d8 48 b9 be
       -0.25843474 -0.04918539 0.37622347 -0.36188388
0002f0 5d 59 dd be f8 48 37 be 96 fa c4 bd 97 d6 b9 be
       -0.4323224 -0.17898929 -0.09618108 -0.36296532
000300 a8 de 9f bd 3c db 06 bf f8 31 90 3c ee ac 2b 3f
       -0.0780614 -0.52678275 0.017601952 0.67060745
000310 fa ea 0e be 45 28 66 be 15 bd 83 be e2 50 b8 3e
       -0.13956824 -0.22476299 -0.25730196 0.3599921

bias f4 [10]
000000 f5 44 2a be 34 89 2b bb 3c 7c 28 3e 1a b5 c3 be
       -0.16627868 -0.0026174309 0.16453642 -0.38224107
000010 98 24 28 bc 0b 51 b2 3e 9a 4b 5e 3e 88 81 dc 3b
       -0.010262631 0.34827456 0.21708527 0.0067293085
000020 3f bf 08 3e 13 d2 cf 3d
       0.13354205 0.1014749
