datasets/mnist/partition_noniid-#label_major_classes_num_3_clients_10_dir_alpha_None_seed_42/models/batch_size_256_com_round_50_epochs_5_lr_0.1_sample_ratio_0.9_personalization_steps_25/client_5.pt (torch, 175631 bytes, 8 tensors)

weight f4 [50, 784]
00000000: ff2f 8cb9 b5f2 9c3c a9cc f0bc 9350 d7bc
00000010: d05e 61bc 0ee9 1c3c 277f 39ba 13fa e73c
00000020: 37b6 4fbb 0ed6 1a3c 7dd6 30bc a409 e6bb
00000030: 7cc8 0bbd 85e2 c1bc eb30 71bc 9269 ad3a
00000040: dc53 673c ae8c af3c a158 c6bc d8ce 7ebc
00000050: b088 543c a3f2 f23c 53d8 f0bb 49ef da3c
00000060: 6ea1 bcbb 5caa 773b 4f75 043d 76b4 07bd
00000070: 512f b8bc 4a23 14bc b316 64bc 2ec8 fc3c
00000080: 08a3 bdbc 5aaf 86bc 09c4 cbbc 4581 08bd
00000090: 12b3 abbc 22f3 f93c 8195 803c 7896 863c
000000a0: 6629 d13a ef39 95bc 0178 d33b f383 04bd
000000b0: cc7e cbbc 7eb8 98bc e909 b73c e2c0 a93c
000000c0: 246f 83bc 7031 acba 7198 ba3c 001d 113d
000000d0: 9b3b 683c e518 9e3b 472a c43c 4944 acbc
000000e0: 6413 da3b 0ed5 e2bc 70c5 cabc e422 97bc
000000f0: 591b 843c 492c 6b3c 3a26 adbc 5d4f 323c
00000100: c960 ab3c abe0 fbb9 da1d 8f3b 7d3a 153c
00000110: 8624 c23c 249e 293d 7266 b7bc 11de 08bc
00000120: d00f 893c 2fdb e53c 60e3 ea3c 2c28 f93c
00000130: 59e3 db3b 5c4e 02bd ba89 ad3a 6c3c bcbc
00000140: f7ac 07bd 9267 023d a575 de3c 92ec 11bd
00000150: 7b0b db3b 7725 c5bb 8d84 c0bb 2d54 85bc
00000160: 2461 603c 4136 adbc 9aac 553c 078c 973c
00000170: 4145 df3c bcca 973c 101c 09bd 0205 babc
00000180: cbbc 8d3c 82b1 553c 4767 b3bc 15b2 a3bc
00000190: c374 023d 8275 8b3c 6091 cbbc 7c31 9abc
000001a0: 7853 2abd a6a4 19bc af7f 0dbd 884c efbc
000001b0: 7d26 17bb 88d3 ac3b 8427 6ebc f99a ad3c
000001c0: 890a b2bc 50bc 043d 9283 c83c 48f7 f5bc
000001d0: 13b4 08bc 079e bc3b fc80 2c3c 9650 773c
000001e0: 8ef2 ce3c 18c9 4d3c 8441 7abc 4756 b13c
000001f0: 0b36 9abc f594 1fbc a61a 02bc fab0 f2bc
00000200: c343 dfbc 3a62 41bd 6848 bdbc 561c 9e3a
00000210: baff f2bc 4c87 50bc 4aad 843c 057b d2bb
00000220: c4ea c8ba f5f4 81bb 5cb3 fd3b 4446 be3c
00000230: 8f91 0a3d 9acc b93c 96e7 0a3d daf5 2bbb
00000240: 88a1 f8bc 1476 1abc ca47 fe3c ac30 f43b
00000250: 0851 49ba f0f1 1dbc 232f a7bc 44cd 89bc
00000260: 9299 603c 57d7 283d c896 e93c eddc f6bc
00000270: c746 423c b1a9 1abd ad74 e6bb 5903 b4bc
00000280: 3468 ffbc 81e1 f9bc a6e0 51bd 8e94 28bd
00000290: dac3 44bc cd6a 81ba 1b9c 6fbc 3ce1 683c
000002a0: 6baa 03bd 12f5 1dbb 4d96 003d 32d4 6ebc
000002b0: 867c 123d 8193 7c3c 6f62 febc 6198 ec3c
000002c0: 9291 2137 3f93 52bc 8ca7 0f3d 5cf2 d9bc
000002d0: 31e0 143c bb56 b83a c105 173d 5737 c33b
000002e0: aa10 873c b3d6 663c c223 213b 46cb 59bc
000002f0: 50b1 47bd 65b1 4abb b070 163c ba52 b73b
00000300: df9b 2bbd 048f 53bb 6bec d2bc 250e a1bc
00000310: 927b aabc e2db 473c bbcb aabc 149f 8737
00000320: 6401 b93b 9d0d c93c 3973 e8bc 2ad6 c2bc
00000330: 949c 0dbd 87d3 863c 2378 91bc 4523 003d
00000340: d843 c33b 5bda 26bb 2162 b6bc 974b 01bd
00000350: e729 f5bb c060 7cbc 1f8e 743b 18e6 973b
00000360: e74d 07bd 2787 1fbd 75c6 973b 014a 61bd
00000370: 3f58 c4bc 12e3 d63c b477 3d3c 0107 7c3a
00000380: 1254 febc a84c 913c 3806 cfbc 189e 0abc
00000390: 1705 0ebc 2ece 97bb 140a 333b 3d49 263d
000003a0: 35da 983b c275 093d ac1c dd3c 4ddf 5cbc
000003b0: 9983 f23c a308 90bc a761 52bc a240 5e3c
000003c0: e47a 323c 2208 d43c 109b 4fbc 3501 7cbb
000003d0: c0bc 623b a9eb 74bd 100a c5ba 5098 66bd
000003e0: 13d5 b9bc e9b9 97bc 5f80 a7bc 3369 973b
000003f0: a0ec f13c f6cd 28bc f7a3 aabc 943d 20bc
-0.0002673864 0.0191587 -0.029394465 -0.026283538 -0.013755515 0.009577049 -0.0007076137 0.028317487
-0.0031694302 0.009450449 -0.0107933255 -0.007020192 -0.034126744 -0.023667583 -0.014721136 0.0013230315
0.014119115 0.021429386 -0.024212183 -0.015552245 0.012972042 0.029656714 -0.0073500066 0.026725428
-0.0057565486 0.003779075 0.032338437 -0.033131085 -0.0224835 -0.009041617 -0.013921428 0.030857172
-0.023149028 -0.016441036 -0.02487375 -0.033326406 -0.02095941 0.030511443 0.015696289 0.016429171
0.0015957772 -0.018216101 0.0064535146 -0.0323524 -0.024840735 -0.01864266 0.022343593 0.020721857
-0.016044207 -0.0013137292 0.022777768 0.035428047 0.014174367 0.004824745 0.02394594 -0.021028655
0.0066551436 -0.027689483 -0.024752349 -0.018449254 0.016126322 0.01435382 -0.021136392 0.0108831795
0.020920174 -0.0004804184 0.0043675723 0.009108183 0.023699056 0.04141058 -0.022387717 -0.008353726
0.016731173 0.028058616 0.028672874 0.030414663 0.0067104516 -0.03181301 0.0013239898 -0.02297803
-0.033123937 0.031837054 0.027155707 -0.035626 0.006684718 -0.006016429 -0.0058751763 -0.01627549
0.013695035 -0.021144034 0.01304164 0.018499387 0.027254703 0.018529288 -0.033474028 -0.022707466
0.017301938 0.013042809 -0.021899832 -0.019982377 0.031849634 0.017023806 -0.024849594 -0.018822424
-0.04158351 -0.009377634 -0.034545597 -0.029211298 -0.0023063712 0.00527424 -0.014535788 0.02119206
-0.02173354 0.03240615 0.0244768 -0.03002514 -0.008343714 0.005756143 0.010528799 0.015094897
0.025262143 0.0125601515 -0.015274409 0.021647586 -0.018824598 -0.009740104 -0.007940924 -0.029625405
-0.027253991 -0.047212817 -0.023105815 0.0012062888 -0.029662956 -0.01272757 0.016195912 -0.0064233565
-0.0015328755 -0.0039659687 0.0077423286 0.023226865 0.03383022 0.02268057 0.033912264 -0.0026239068
-0.030350462 -0.009427566 0.031040091 0.007452091 -0.0007679616 -0.009640202 -0.020408219 -0.016821511
0.013708489 0.04122099 0.02851428 -0.030134642 0.011857695 -0.037759487 -0.007032952 -0.021974253
-0.031177618 -0.030503036 -0.051239632 -0.041157298 -0.012009585 -0.0009873748 -0.014624621 0.014213856
-0.032144945 -0.0024102372 0.031393338 -0.0145769585 0.035763286 0.015416027 -0.031052796 0.028881254
9.630241e-06 -0.012852489 0.035071895 -0.026604824 0.0090866545 0.0014063934 0.03687072 0.0059575248
0.016487438 0.014089274 0.0024587964 -0.013293093 -0.048753083 -0.003092849 0.00918214 0.0055945786
-0.041896697 -0.003228129 -0.025747498 -0.019660065 -0.020810876 0.01219842 -0.0208491 1.616733e-05
0.0056459177 0.024542624 -0.028375255 -0.023783762 -0.034573153 0.016458286 -0.017757481 0.031283636
0.0059590153 -0.002545974 -0.022263588 -0.03156623 -0.007481802 -0.015403926 0.0037316156 0.0046355836
-0.033033278 -0.03894725 0.004631812 -0.055002216 -0.02396786 0.026231322 0.011564184 0.0009614081
-0.031045947 0.017736748 -0.02527152 -0.008460544 -0.008668206 -0.004632733 0.002731924 0.04059719
0.004664684 0.03355957 0.02699121 -0.013480973 0.029603766 -0.017582243 -0.012840665 0.013565214
0.010893557 0.025882784 -0.012671247 -0.0038452868 0.0034597367 -0.059795056 -0.0015032906 -0.0562976
-0.02268461 -0.018521266 -0.020446954 0.004620695 0.029531777 -0.010303011 -0.020830138 -0.009780306

bias f4 [50]
00000000: 9dd3 13bb 070b d9bc 8fe3 663d cd93 013c
00000010: e364 693d 8dde 893d d4fb 733d 5c46 4abd
00000020: 0033 b83b 7e72 d33d eb00 f53d 762a 163c
00000030: 22bf 983d e38c 5b3d fc41 7f3d 47f7 893d
00000040: 7369 3fbc 1650 283d 08e5 ef3d 0750 ea3c
00000050: 8e51 a73d a2cc 453c ffa7 b33d e6d9 a03d
00000060: 8e4c 58bc a65f 0f3d 18ed 4dbb 4fc9 1a3e
00000070: bd82 c63d 7dea eb3d 7e58 143d 7b9b 103d
00000080: 6e07 443d b668 223e 7d46 a93d 2de8 a9bd
00000090: 2298 683b f803 a93c 862f 7bbc be24 1f3e
000000a0: 5b3b 863c 98a0 2d3e fe5d e03d 00b2 c0bc
000000b0: 01f0 92bd ce5c e3bc df4a c3bc 2ce5 0bbd
000000c0: 613e 2c3d d24c 273e
-0.0022556551 -0.026494516 0.05636936 0.007908774 0.05698098 0.06731901 0.059566334 -0.049383506
0.005621314 0.10324572 0.11963066 0.009165397 0.07458331 0.053601157 0.062318787 0.067366175
-0.011682856 0.041092 0.11713606 0.028602613 0.08169852 0.012072714 0.08772277 0.07854061
-0.013201846 0.035003327 -0.0031421836 0.15115856 0.09692905 0.115193345 0.036217205 0.035304528
0.047858648 0.15860257 0.08265398 -0.08296237 0.003549107 0.020631775 -0.015331155 0.1554136
0.016385725 0.16955793 0.109554276 -0.023522377 -0.07174683 -0.027754214 -0.023839412 -0.034154102
0.042051677 0.16337898

weight f4 [50, 50]
00000000: e264 813d 436f b5bd 4234 8fbd fe29 c33d
00000010: 7e3b 7cbd c249 16be 32d5 973d e884 bcbd
00000020: a389 153e e8ed 5c3e 66da d3bd 7094 1fbd
00000030: 35de b53b 89cb ea3d d6da 273e c4cf b43d
00000040: 76a6 3c3d 5225 423e 12dc 143e 0512 da3b
00000050: b22d 5ebe f906 8d3d 21a6 23bd 0dee 24be
00000060: e054 963d e16e fd3d 37f9 123d f929 be3e
00000070: cfcd 0abe aa0f a5be 25b3 7dbc 40b3 013e
00000080: 8513 2c3d c663 243d ae21 0d3c b139 d0bd
00000090: 1d52 c43d 4cf8 443d b3be a13d d027 873e
000000a0: 7e9d acbc 4d70 3bbe 5758 c03b ab96 183e
000000b0: b478 8e3e 9721 043e a1e2 013e 7691 9fbd
000000c0: b874 69bc 65b0 e63a b8dd bdbc b401 673e
000000d0: 0c09 28be 889f d63d 4220 a0bd 5bc5 2d3e
000000e0: fe71 f8bd 176d 353e 9829 2f3e 1a1a e73d
000000f0: 173b 0d3e f63c dabd 1296 a73b 5c75 8c3e
00000100: c542 84bc 67b5 ec3d 9660 59bd 0ba3 9c3e
00000110: 794e 133e 4f3c f03d c774 da3d 7612 2ebd
00000120: a7e6 4c3e 4edd b4bd 37d8 273e bd52 693c
00000130: a3b6 263d 3f9b ab3e c333 42be 8a40 14be
00000140: e4ca ebbd ae53 b6bb d230 313e 48ac 72be
00000150: ae6a 6a3c 8383 15be cef6 1b3d 4312 0b3e
00000160: 3e40 67bd f187 1d3e 4620 4abe 788c 263e
00000170: 698d 3f3e 32c7 073e 02b6 70bd adfe 3c3e
00000180: 23f4 d23d c5e7 86bd 8349 bcbd d1d7 e7bc
00000190: d66b 4c3d cb96 cabd 8933 0fbe 10dd 52bd
000001a0: 5970 5b3b 9b44 f93c 3720 88bc e35c c63c
000001b0: 99c9 00be 470b 1cbd f831 373b 82a4 133e
000001c0: 4479 11be 96cb db3d e609 e3bd 2777 e1bd
000001d0: 161c 763d 7aee 97bd 9fa5 a1bd 989a 073e
000001e0: 2468 f8bd 1317 133e 020a d9bd 0b2c cebc
000001f0: caf1 5fbb a7cf babd 20cf c33d 8af9 f93d
00000200: d514 46bd 7cbf b83d 2004 cd3d 7b82 0ebe
00000210: 1eb9 6a3d f2ce f03a 343a 02bd 1c6d f3bc
00000220: 6e48 bdbd a8ca f2bc c9d0 f6bd 9225 debd
00000230: a4b3 8bbb 8b16 ab3c 3cc5 f53d 2e46 ccbd
00000240: 09d5 c6bd 8282 ee3d e98d 87bd 11e1 053e
00000250: c092 29bc ba69 f53d 6c87 debd fc8e 013e
00000260: 33ac e33d 43ee 90bd 13e1 3cbd bc0d e1bc
00000270: 8759 1e3d 7dab 87bc 719e 8dbd 4223 d73b
00000280: 6127 0b3c 6c7c 263e 41e4 09be 0aa1 16bd
00000290: 7d88 07be cc65 673d 0da1 803d c95b 0c3d
000002a0: 95d2 c8bd 96ff fdbc 1766 c7bd a6fe f6bd
000002b0: e73f 023d cc20 e6bc 0e1f 133e 9b50 563d
000002c0: a85e e1bd fa47 2bbd 98d7 8abd d75c 87bd
000002d0: 0886 733d eb88 ee3d 3fdc 243d 164e f3bd
000002e0: 494e ce3d 7151 1cbe 05d5 0e3e c351 e2bd
000002f0: 1d76 aebd 8d51 81bd c8f0 67bd 2f63 f13d
00000300: d9de b03d 456e 7c3d a655 eebd 185a db3d
00000310: bd34 43bc efd4 c7bd cbf2 05bc 795d dfbd
00000320: 5021 693d ff8e ba3d c9ed dc3d f4e7 073e
00000330: 881c a93d db58 353e 52fe 8e3d f52d 163e
00000340: b765 9ebd 33dc 153e 9dd2 c63d 5067 673c
00000350: af63 0b3e 1427 5abc c121 54be e0a5 5cbe
00000360: 4d26 f2bc 6f6c f23d c3f9 c53c 3594 73bd
00000370: 744c 64bd aa30 f3bd d4ad 773c d6c3 213c
00000380: 135c 09be d526 203d 1c8e 153e fcef 38be
00000390: bd3b 6d3d 35a7 24be c127 bb3d cf3f d8bd
000003a0: 13cc 183e f10b 18be f7c4 24bd f054 4abd
000003b0: af6e b4bc 262b 803e 086d 34bd 93da 40be
000003c0: 7cd4 303e b01c 713e eef1 f5bc da8a d9bd
000003d0: a25d 7ebb 12b4 4e3d 51a0 93bd b40e 2cbd
000003e0: e172 043d ba87 4ebe 368f c4bc f3c5 8e3d
000003f0: 27c2 3f3b 2daa 333e 9c0a 2c3c 0b33 abbd
0.0631807 -0.08859112 -0.06992389 0.09529494 -0.061580174 -0.14676574 0.07413711 -0.09205037
0.14603285 0.21575129 -0.103443906 -0.03895992 0.005550171 0.114646025 0.16392073 0.08828691
0.046057187 0.18959549 0.14537075 0.00665498 -0.21697119 0.068860956 -0.039953355 -0.16106434
0.07340407 0.12374664 0.0358822 0.37141398 -0.13555072 -0.32238513 -0.015484606 0.12666035
0.042010803 0.040134214 0.008613987 -0.10167254 0.09585974 0.048088357 0.07897701 0.26397562
-0.021071192 -0.18304558 0.005869906 0.14901225 0.27826464 0.12903439 0.12684108 -0.07791416
-0.014249019 0.0017600177 -0.023177013 0.22559243 -0.16409701 0.10479647 -0.07818653 0.16969816
-0.12131117 0.17717396 0.1710571 0.11284275 0.13792072 -0.106561586 0.0051143253 0.27433288
-0.01614512 0.11558037 -0.053070627 0.30593142 0.14385404 0.11730253 0.10666805 -0.042498074
0.20009862 -0.08831273 0.16391073 0.014240918 0.04070152 0.3351688 -0.18965058 -0.14477745
-0.11513308 -0.0055641746 0.1730378 -0.23698533 0.014307661 -0.14600949 0.03807717 0.13581185
-0.05645775 0.15383889 -0.19738874 0.16264522 0.18706287 0.1325958 -0.058767326 0.18456526
0.10300472 -0.06587175 -0.09193709 -0.028301151 0.049907528 -0.09892043 -0.13984503 -0.051480353
0.0033483712 0.030428221 -0.016616924 0.024214214 -0.12576903 -0.038096692 0.0027953368 0.14418224
-0.14206415 0.1073219 -0.11085872 -0.11009055 0.06008538 -0.07418533 -0.07892918 0.13242567
-0.12129238 0.14364271 -0.10597612 -0.025167486 -0.0034171217 -0.09121638 0.0956099 0.12205799
-0.04835971 0.09020898 0.100105524 -0.13916962 0.057305448 0.0018372221 -0.031793788 -0.029715113
-0.092423305 -0.02963765 -0.12051541 -0.1084701 -0.004263358 0.020884773 0.1200051 -0.09974323
-0.09708602 0.11645986 -0.06618864 0.13074137 -0.010349929 0.11983056 -0.108656734 0.126522
0.11116829 -0.07076695 -0.046113085 -0.02747237 0.0386596 -0.016561264 -0.06914986 0.0065654824
0.008493275 0.162584 -0.13465978 -0.036774673 -0.1323566 0.056493565 0.06280718 0.03426722
-0.0980579 -0.031005662 -0.09736269 -0.12060289 0.031799223 -0.02809181 0.14367315 0.052322965
-0.11004382 -0.04181669 -0.067794025 -0.06609505 0.059453994 0.11647209 0.040249106 -0.11880128
0.100735255 -0.15265442 0.13948448 -0.11050751 -0.08518622 -0.06314383 -0.05662611 0.11786496
0.08636255 0.0616286 -0.1163743 0.107105434 -0.011914429 -0.09757411 -0.008175562 -0.109065
0.056916535 0.091093056 0.107875414 0.13272077 0.08257395 0.17709677 0.069821015 0.14665969
-0.07734244 0.1463478 0.0970814 0.014123753 0.13612245 -0.013314981 -0.20716001 -0.21547651
-0.029559279 0.11837088 0.024166947 -0.059467513 -0.055736974 -0.11874516 0.015117127 0.009873351
-0.1341403 0.039099533 0.14604992 -0.18060297 0.0579183 -0.1607941 0.09138442 -0.105590455
0.14921598 -0.14848305 -0.040226903 -0.04939741 -0.022025434 0.2503292 -0.044049293 -0.1883338
0.17268556 0.235461 -0.030022588 -0.10622187 -0.0038813134 0.050464697 -0.07208312 -0.04200621
0.03233612 -0.20168963 -0.02399407 0.069713496 0.002926001 0.17545386 0.010500576 -0.08359345

bias f4 [50]
00000000: c3bf 433e 38e5 053e fb34 efbc 8180 5f3d
00000010: 9f07 453e e174 b73d b23b 5b3e 503f 503e
00000020: f00e 873d 1475 383b 7cca cb3d 21fc b93e
00000030: 06e6 883e 3b18 bc3d 1818 7cbd ac02 dc3c
00000040: ab09 6a3e 4083 9b3e d7a9 3c3e 89fb 15be
00000050: c8ce 0abe 1f53 e63d 07cd 6e3e 8d91 163c
00000060: c7a4 d63e 4d73 313e b549 e53b 9284 3c3e
00000070: f4ca 563e 094b 813e 60c3 ae3e b2aa 5cbd
00000080: 562f c63e ba9d 0dbe 71a5 353e ee8a 7b3e
00000090: 37d7 bb3c ed7e 323c 7bce e43b 9f2e 0f3e
000000a0: e171 a53e a472 583e 8601 a33e 64e8 033e
000000b0: 5166 673e 0a6e c43e 493a fc3d 3a5c 953e
000000c0: 4d51 dfbd ba24 7c3c
0.1911612 0.13075721 -0.029200068 0.05456591 0.19241188 0.0895784 0.2140949 0.20336652
0.06594646 0.0028145956 0.0995073 0.36325172 0.26737994 0.09184309 -0.061546415 0.026856743
0.2285525 0.30373573 0.18424164 -0.14646734 -0.13555443 0.11246323 0.23320399 0.009189975
0.4192259 0.1732914 0.006997312 0.18409947 0.20975858 0.2525256 0.34133434 -0.053873725
0.3870799 -0.13829699 0.17738892 0.24564716 0.02292977 0.010894519 0.006982622 0.13982628
0.32313445 0.21137482 0.318371 0.12881619 0.22597624 0.38365203 0.123158045 0.29171926
-0.10904179 0.015389616

weight f4 [20, 50]
00000000: b861 2e3e 3100 65be f365 bdbd 9525 d33d
00000010: 4b2c a2bc 25b6 fd3d 0141 8c3e 691d 5b3e
00000020: 4c01 ba3d 0a92 723e 696c 99be ecdb 103c
00000030: b40a 513e c095 41bd b826 7ebe 5e54 543e
00000040: 7431 683e 2d4a 8e3e 2c80 b33e 7b97 053e
00000050: 3ec1 4a3e ab6e 64bd b5c6 84bb 9315 e4bd
00000060: 8d8c ab3e 2a6e 82bd 9284 15bd a9d3 dfbd
00000070: c4ed 1fbe 5d11 66be a5c9 f4bd 5a13 f73b
00000080: 4a2e da3e 9ace 1abd 558b 0e3d 0a03 fc3b
00000090: b0fc 01bd 81e0 8b3d 9f24 fcbd d027 0abe
000000a0: 3e23 c73e 3d3e 0bbe 3378 70bd 2520 57be
000000b0: be6f 7f3d f6c2 fcbc c8d7 85be b14c 9f3e
000000c0: af9f ab3d 67e3 d0bc 14ad 17be 117c 953e
000000d0: 82a2 d3bc 4740 74bc 14ac 89bd ef32 69be
000000e0: 0390 523e 4241 9b3c cca6 213d 43f0 40bd
000000f0: c1dc 383d 8186 febd b802 8a3d 8ec6 353c
00000100: 0673 813e c54e dbbc 2449 fc3d 122a 223d
00000110: d1a9 8a3c 26c5 a13b 4f1e 43be 59b0 5f3e
00000120: 524d 1bbd a603 663d 5114 96be 66d6 c23d
00000130: 1b28 8c3e 3d35 663e f821 7a3d 86a2 4fbd
00000140: 0142 e03b bf12 7a3c d960 ca3e d9b6 a03b
00000150: 422f 9dbe 5fcd 613e 0df9 593d 820d 8cb9
00000160: 24e5 993d f3fb a7bd 2011 3e3e 8d7e 2bbe
00000170: adea 4b3d bf45 823e bf5f 1fbb 25ae 813e
00000180: 7fc9 a13e d8a7 803e 93a7 9fbc 0bca 96bd
00000190: d832 1c3e 62ec d23d e22f 24bd 0261 e7bd
000001a0: 81d3 2abe 5985 b53c bf96 bfbc b777 373e
000001b0: c7f2 833e 05b6 043e 3150 d1bd 79aa 843e
000001c0: e4bb 273e ce38 943e d548 83bd 58d9 c3bd
000001d0: 1351 083e 3320 f43e 9fde 933d dfb3 85bd
000001e0: 2400 96bd b29c 393e 2691 4dbe b26e 173e
000001f0: 8e8b b0bd 4afa 1f3d b5da ddbd df83 803e
00000200: 77b8 7f3d 4689 1dbd 2660 e2bd 89a0 d0bd
00000210: 8332 cfbc 9e87 57bd e83e 983e 922d 46be
00000220: eca7 d6bd cd79 913d 14d2 593e af26 a83c
00000230: 4b09 e73b 078b e33c 52fc c2bc 654b 24bd
00000240: 1c54 123b 9fc8 903e 38fa 3dbe b1cf 043e
00000250: 5311 273e 8843 a53c 90fc 073c 69aa e73d
00000260: 67bc b7bd 3418 debd 612e ebb8 1331 bdbd
00000270: 3aa1 a0bd 9408 9dbd 1e00 8bbd 702f 8d3d
00000280: 2028 553d 6c6f b13d 67c3 4fbd 28a9 c93b
00000290: 94e8 9abd eceb 60bd 20c3 7d3c f27b f63a
000002a0: 30c6 37bd 2a29 973d 865d c23d 7ab3 a2bc
000002b0: 0452 ae3c fc53 c1bd b5db 71bc 11f9 82bd
000002c0: 6a1f d6bd 9201 8abd eaa6 0abe f8f0 8dbd
000002d0: 52a4 04bd 3a93 1bbd e6e4 bfbd 7d42 9e3d
000002e0: eeab d5bd 64f4 9d3d fbba 02bd 6b39 8cbd
000002f0: 0e5d 193d f1f5 16bc 624b 08be c977 9ebd
00000300: 923c 24bd e780 db3d 1dab f03b 3d42 be3d
00000310: 177e 863d f949 f4bd 961d 5fbc 65b4 ddbd
00000320: 118b 603e 4a15 053e 76c9 e0bd 0adb 31bb
00000330: a90e 273d 870d 863e 1bb7 28be 4315 46be
00000340: 350f 333e 8333 ea3d 5da1 b03e 8d2e d0bd
00000350: 842e 763e 274c a4bd 7857 c43d 1fdc 0f3e
00000360: 4fc4 0dbe ff03 c1bd ce28 f5bd 7ca5 b7bd
00000370: 2be4 953c c2a0 98bd cb02 b73e 91e3 2e3e
00000380: 391b 2dbe f217 893e 8682 033d ac30 24be
00000390: 8162 ccbc a4a3 2e3e 1c4e bc3d a001 3b3d
000003a0: a70b 943e bf0b bc3d 8f80 babd 1906 31be
000003b0: 8546 0bbc d7a1 19bd 454b 193c 6670 75bd
000003c0: e5af dfbc c17b 3d3e 9d49 993d f056 8d3e
000003d0: fec5 e2bd dcf1 db3c 24ad 853e 2e7a 1b3e
000003e0: 1be1 453d 50f9 063d 1a51 823e 660b c23e
000003f0: 7e01 623d 5c6c 363e 2455 5a3e fca8 49bd
0.17029464 -0.22363354 -0.09247961 0.103099026 -0.019796511 0.12388257 0.27393344 0.21397938
0.090822786 0.23688522 -0.29965523 0.008841496 0.20414239 -0.047261953 -0.24819458 0.20735309
0.22675115 0.27790967 0.35058725 0.13046066 0.19800279 -0.055769604 -0.004052008 -0.111369275
0.3350567 -0.063686684 -0.036503382 -0.10929043 -0.15618044 -0.22467561 -0.11952523 0.0075401487
0.4261344 -0.037794687 0.034800846 0.007690792 -0.031735122 0.0682993 -0.123116724 -0.1349175
0.38894075 -0.13597961 -0.05870838 -0.21008356 0.062362425 -0.030854683 -0.2614119 0.31113198
0.083800666 -0.025499059 -0.14812118 0.29196218 -0.025834326 -0.014907903 -0.067222744 -0.22773336
0.20562749 0.018952016 0.03946571 -0.04710413 0.045132402 -0.12427998 0.067388 0.011094702
0.25283068 -0.026770959 0.12318638 0.039590903 0.016926678 0.004936832 -0.1905453 0.21844615
-0.037915535 0.056155823 -0.29312375 0.095135495 0.27374348 0.22481246 0.06106755 -0.050692104
0.006843806 0.0152632585 0.39527014 0.0049046096 -0.30700117 0.22050999 0.05321603 -0.00026712945
0.07514408 -0.082023524 0.1856122 -0.16747494 0.04978435 0.25443837 -0.0024318544 0.25328174
0.31599042 0.25128055 -0.019489085 -0.073627554 0.1525377 0.10298993 -0.040084727 -0.112978
-0.16682245 0.022158312 -0.023387311 0.17916761 0.25771162 0.1296006 -0.102203734 0.2591131
0.16380268 0.2894959 -0.06410376 -0.095629394 0.13312177 0.47680816 0.07220196 -0.06528448
-0.073242456 0.18126181 -0.20074901 0.1478832 -0.08620368 0.039057054 -0.10832731 0.2510061
0.06243178 -0.038460992 -0.11053495 -0.1018687 -0.02529264 -0.05261957 0.29735494 -0.19353321
-0.10481247 0.0710331 0.21271545 0.020526258 0.0070506684 0.027776254 -0.023801956 -0.040110964
0.0022327965 0.28278062 -0.18552482 0.12969853 0.16315202 0.020173803 0.008299962 0.113118
-0.08971482 -0.1084446 -0.00011214312 -0.09237876 -0.078432515 -0.07667652 -0.06787132 0.068938136
0.05204022 0.0866383 -0.05072346 0.006154198 -0.07563892 -0.054912493 0.015488416 0.0018805249
-0.04486674 0.07380898 0.094904944 -0.019860972 0.021279342 -0.09439847 -0.014761855 -0.06395162
-0.104552105 -0.06738581 -0.13540235 -0.06930727 -0.03238327 -0.037982203 -0.09369831 0.077275254
-0.104331836 0.077126294 -0.0319166 -0.06846889 0.03744226 -0.00921391 -0.13310006 -0.07737691
-0.040096827 0.107179455 0.007344617 0.09289978 0.065670185 -0.11928172 -0.013617894 -0.10825423
0.2192805 0.12996402 -0.109759256 -0.0027138614 0.040785465 0.26182196 -0.16476099 -0.19344048
0.1748627 0.11435606 0.3449811 -0.10165129 0.24041182 -0.080223374 0.09586996 0.14048813
-0.13844417 -0.0942459 -0.119706735 -0.089671105 0.018297276 -0.07452537 0.35744318 0.17078997
-0.16904916 0.2677608 0.0321069 -0.16034192 -0.024949314 0.17054611 0.09194586 0.045655847
0.2891514 0.09181928 -0.09106552 -0.17287482 -0.0085007 -0.037507858 0.009356325 -0.059921645
-0.027305553 0.1850424 0.07484744 0.2760539 -0.1107292 0.026848726 0.26108658 0.15183327
0.04831038 0.032952607 0.254525 0.3789932 0.055177204 0.17814773 0.21321541 -0.04923342

bias f4 [20]
00000000: 5e51 2f3f b842 dd3e f2b1 853e 6b37 00be
00000010: 3685 ed3c 8fdb da3e 872c 033e c364 0a3f
00000020: 9c10 033f 13ff db3e 9822 5d3e 018b 753d
00000030: 91f1 ddbd 9a23 ba3e d2d2 21bd 7818 483d
00000040: d49e 003e 0735 c7bc 2cd8 713e 5a92 fb3e
0.6848353 0.43214965 0.26112324 -0.1252114 0.028994184 0.42745635 0.12809955 0.5406
0.5119722 0.42968044 0.21595228 0.059947018 -0.10837091 0.36355287 -0.039507695 0.04885146
0.12560588 -0.024317278 0.2361762 0.49135095

weight f4 [10, 20]
00000000: a504 bebb b093 08bf 1a73 d03e 0caf d83d
00000010: 3f58 453d 80b3 c7be d0cd aa3d 2c88 85bb
00000020: 6716 733e ee84 26bf 3943 7dbe bfbc 11bf
00000030: d923 b3bd 29ed 103f 7adb 97be dbe1 993e
00000040: db50 153f c41e 0f3e b3c1 29be c249 97be
00000050: 60d5 48bf e519 8d3e 183a 1abe 3d77 97bd
00000060: cac9 b23e ba62 0dbe 3666 82be 8ec1 49be
00000070: 8c7e 84be f6bb 3b3e 558d 263f 1875 003f
00000080: 3902 20be 6201 29be 8ca8 103e 1a3a 2ebf
00000090: ade6 22be 526c 473e fe09 803e 5ede 233f
000000a0: 8648 acbe 8c3e 493f 4b9e 1d3c 9d49 bebd
000000b0: bdc1 be3e c484 703f 2a72 793e c0af febd
000000c0: 353e 9bbb 16e6 233e 5171 90bd 3a76 9abe
000000d0: 0619 2ebe 65d2 0abc 0f4d 61be a9ee d23d
000000e0: 3cc2 c1be 5ad0 053e c9f3 eabd 51e8 1cbf
000000f0: 78fa 553e fb3e ce3d 5dc6 06bd b3b0 3e3e
00000100: 388b 3e3f fba7 adbc 5f13 c7bd c68c d8be
00000110: 22b0 ef3e 6b9c 12bf 57b6 f7bd 04ee 1e3f
00000120: 73ff acbd 78ea b4be d9a2 0bbe d304 0f3f
00000130: 9ea7 ffbe db6d 22be 6051 8c3d 92f9 91be
00000140: b2dc 7abe 3745 99be 2606 d0be affd f33d
00000150: 3321 dcbd 06d3 04bf 3648 e13d 39b8 4e3f
00000160: 868b 44be d906 633f fb85 99bd 0c07 283e
00000170: 12a1 64be d0ea f4be a33f 143d 81c1 aa3e
00000180: fd95 a8be c34c 0f3e 92b7 c5be 2d02 4bbe
00000190: eb4e b43e 7dcb b23e a4a2 1d3f 12f3 343e
000001a0: 4dde 12bf f4bf 00bf c41d c6be eaf7 b83e
000001b0: adc7 0d3f 3f99 4abe efb4 463e 9b85 22be
000001c0: b281 8a3d 3825 eb3d 3bda 4f3e fe3b b4be
000001d0: dcfe b2bc 4050 04be cd2f 8abe 7e09 193f
000001e0: 3b60 393f af05 463e 5878 a7be 1d30 13be
000001f0: 9ada 71be 9eac cd3d 989b 01bf 87dd 5b3f
00000200: 54cd af3e 2b2f 87be 17c8 e9be c722 95be
00000210: 5232 9d3d e36e fabe 3ccf 8d3d 63a4 0abf
00000220: 359b 303f 7182 13be f0f2 9cbd 1f6c f0be
00000230: b4f4 afbe 106f 7bbe 9a31 dabe dd0c c5bc
00000240: 5adf 1b3e 7ad9 adbe 1c3e c93e a4b0 18be
00000250: 7e95 1ebf 7db4 a03e b468 cc3d 5bc8 e1bd
00000260: 83f0 b13d 5d38 3b3f 9b49 4d3e ed46 8a3e
00000270: fa0d 17be a38e d5bd 0258 193f 0433 d5bd
00000280: dfe5 bfbe bf86 4dbe 3b4e 243e f19f f9bd
00000290: fa64 a03d 4e3b f8bb de79 4cbe 4eff b7bd
000002a0: f539 ed3e c5d9 373f f82f 9ebd 6ef1 3d3e
000002b0: 132f 1f3e 3949 59be 651a a93c 36e8 e5be
000002c0: ea31 0b3f d64a 0abe 49ef b1bd 5be9 bebd
000002d0: b55f c83e 7ac3 a23c 178c 273f 2f52 f1bd
000002e0: 62d3 88be 0722 58bd b4f3 b33e 336a bbbe
000002f0: 4849 dfbe e3af 4ebe e478 d2bd ae84 c0be
00000300: a8de 9fbd a5c1 09bf cb1f 403c 60c1 213f
00000310: 898c 11be 562a 66be 45a2 87be 1f18 b13e
-0.0057988935 -0.53350353 0.40712816 0.105802625 0.04817986 -0.39004135 0.08340037 -0.004075071
0.23739015 -0.65046585 -0.24732675 -0.5692863 -0.08747072 0.5661188 -0.29659635 0.30055127
0.583265 0.1397658 -0.16577797 -0.2954846 -0.78450584 0.27558818 -0.15061224 -0.0739579
0.34919578 -0.13807192 -0.25468606 -0.19702742 -0.25877798 0.1833342 0.65059406 0.5017867
-0.15625848 -0.16504434 0.14126796 -0.68057406 -0.15908308 0.19474915 0.25007623 0.6401118
-0.3364908 0.78611064 0.0096202595 -0.09291384 0.37257186 0.93952584 0.24359956 -0.124358654
-0.0047376403 0.1600574 -0.070528634 -0.30168325 -0.17001733 -0.0084730135 -0.22002052 0.10299427
-0.37843502 0.13067761 -0.114722796 -0.61291987 0.20896327 0.10070606 -0.032904018 0.18622093
0.7443118 -0.021198263 -0.097204916 -0.42294902 0.46814066 -0.57269925 -0.120953254 0.62081933
-0.084471606 -0.35335135 -0.1363634 0.55866736 -0.4993257 -0.15862219 0.068514585 -0.2851072
-0.24498251 -0.2993562 -0.4062969 0.11913621 -0.1074852 -0.51884496 0.11000101 0.8074985
-0.19193849 0.88682324 -0.07496258 0.16408938 -0.22327068 -0.47835398 0.0361935 0.33350757
-0.32926932 0.13994126 -0.38616616 -0.19825049 0.3521646 0.34920874 0.61576295 0.17670849
-0.57370454 -0.502929 -0.38694584 0.36126643 0.55382806 -0.19785021 0.19404958 -0.15871279
0.06763019 0.11481708 0.20298092 -0.3520202 -0.021850042 -0.12921238 -0.26989594 0.5978011
0.7241246 0.19338106 -0.32709002 -0.14373823 -0.23618546 0.1004269 -0.5062804 0.858849
0.3433634 -0.26403174 -0.4566047 -0.29128096 0.076756135 -0.48912725 0.069242924 -0.54157084
0.6898683 -0.14405228 -0.07663524 -0.4695749 -0.3436638 -0.24554086 -0.42615968 -0.024053985
0.1522192 -0.33954984 0.39305198 -0.14911133 -0.61946857 0.31387702 0.09980908 -0.11024543
0.08688452 0.7313288 0.2004761 0.27007237 -0.14751425 -0.104275964 0.59899914 -0.10410121
-0.37480065 -0.20070933 0.16045468 -0.121887095 0.0783176 -0.007575429 -0.19968364 -0.089842424
0.4633328 0.71816665 -0.07723993 0.1854913 0.15545301 -0.21219338 0.020642469 -0.44903725
0.5437304 -0.1350511 -0.08688218 -0.09321853 0.3913552 0.019868601 0.65448135 -0.117832534
-0.26723772 -0.052766826 0.35146868 -0.3660446 -0.43610597 -0.20184283 -0.10276964 -0.37601227
-0.0780614 -0.53811103 0.01172633 0.6318569 -0.14213766 -0.22477087 -0.2649099 0.34588715

bias f4 [10]
00000000: bd48 2abe 1594 36bb 7373 293e aed2 c3be
00000010: 3ab6 12bc 1911 b33e ce82 5d3e 8dd1 1e3c
00000020: 1c97 083e 8fdb c43d
-0.1662931 -0.002785926 0.16547947 -0.38246673 -0.008954579 0.34973982 0.2163193 0.0096935155
0.13338894 0.0961219
